…
I0608 17:34:24.810928 10488 net.cpp:294] The NetState phase (0) differed from the phase (1) specified by a rule in layer probt
I0608 17:34:24.813611 10488 net.cpp:51] Initializing net from parameters: 
name: "ResNet-152"
state {
  phase: TRAIN
  level: 0
  stage: ""
}
layer {
  name: "data"
  type: "Data"
  top: "data"
  top: "label"
  include {
    phase: TRAIN
  }
  transform_param {
    mirror: true
    crop_size: 224
    mean_file: "/home/sun/resnet152/mean.binaryproto"
  }
  data_param {
    source: "/home/sun/resnet152/train_lmdb"
    batch_size: 1
    backend: LMDB
  }
}
layer {
  name: "conv1"
  type: "Convolution"
  bottom: "data"
  top: "conv1"
  convolution_param {
    num_output: 64
    bias_term: false
    pad: 3
    kernel_size: 7
    stride: 2
    weight_filler {
      type: "msra"
    }
  }
}
layer {
  name: "bn_conv1"
  type: "BatchNorm"
  bottom: "conv1"
  top: "conv1"
  batch_norm_param {
    use_global_stats: false
  }
}
layer {
  name: "scale_conv1"
  type: "Scale"
  bottom: "conv1"
  top: "conv1"
  scale_param {
    bias_term: true
  }
}
layer {
  name: "conv1_relu"
  type: "ReLU"
  bottom: "conv1"
  top: "conv1"
}
layer {
  name: "pool1"
  type: "Pooling"
  bottom: "conv1"
  top: "pool1"
  pooling_param {
    pool: MAX
    kernel_size: 3
    stride: 2
  }
}
layer {
  name: "res2a_branch1"
  type: "Convolution"
  bottom: "pool1"
  top: "res2a_branch1"
  convolution_param {
    num_output: 256
    bias_term: false
    pad: 0
    kernel_size: 1
    stride: 1
    weight_filler {
      type: "msra"
    }
  }
}
layer {
  name: "bn2a_branch1"
  type: "BatchNorm"
  bottom: "res2a_branch1"
  top: "res2a_branch1"
  batch_norm_param {
    use_global_stats: false
  }
}
layer {
  name: "scale2a_branch1"
  type: "Scale"
  bottom: "res2a_branch1"
  top: "res2a_branch1"
  scale_param {
    bias_term: true
  }
}
layer {
  name: "res2a_branch2a"
  type: "Convolution"
  bottom: "pool1"
  top: "res2a_branch2a"
  convolution_param {
    num_output: 64
    bias_term: false
    pad: 0
    kernel_size: 1
    stride: 1
    weight_filler {
      type: "msra"
    }
  }
}
layer {
  name: "bn2a_branch2a"
  type: "BatchNorm"
  bottom: "res2a_branch2a"
  top: "res2a_branch2a"
  batch_norm_param {
    use_global_stats: false
  }
}
layer {
  name: "scale2a_branch2a"
  type: "Scale"
  bottom: "res2a_branch2a"
  top: "res2a_branch2a"
  scale_param {
    bias_term: true
  }
}
layer {
  name: "res2a_branch2a_relu"
  type: "ReLU"
  bottom: "res2a_branch2a"
  top: "res2a_branch2a"
}
layer {
  name: "res2a_branch2b"
  type: "Convolution"
  bottom: "res2a_branch2a"
  top: "res2a_branch2b"
  convolution_param {
    num_output: 64
    bias_term: false
    pad: 1
    kernel_size: 3
    stride: 1
    weight_filler {
      type: "msra"
    }
  }
}
layer {
  name: "bn2a_branch2b"
  type: "BatchNorm"
  bottom: "res2a_branch2b"
  top: "res2a_branch2b"
  batch_norm_param {
    use_global_stats: false
  }
}
layer {
  name: "scale2a_branch2b"
  type: "Scale"
  bottom: "res2a_branch2b"
  top: "res2a_branch2b"
  scale_param {
    bias_term: true
  }
}
layer {
  name: "res2a_branch2b_relu"
  type: "ReLU"
  bottom: "res2a_branch2b"
  top: "res2a_branch2b"
}
layer {
  name: "res2a_branch2c"
  type: "Convolution"
  bottom: "res2a_branch2b"
  top: "res2a_branch2c"
  convolution_param {
    num_output: 256
    bias_term: false
    pad: 0
    kernel_size: 1
    stride: 1
    weight_filler {
      type: "msra"
    }
  }
}
layer {
  name: "bn2a_branch2c"
  type: "BatchNorm"
  bottom: "res2a_branch2c"
  top: "res2a_branch2c"
  batch_norm_param {
    use_global_stats: false
  }
}
layer {
  name: "scale2a_branch2c"
  type: "Scale"
  bottom: "res2a_branch2c"
  top: "res2a_branch2c"
  scale_param {
    bias_term: true
  }
}
layer {
  name: "res2a"
  type: "Eltwise"
  bottom: "res2a_branch1"
  bottom: "res2a_branch2c"
  top: "res2a"
  eltwise_param {
    operation: SUM
  }
}
layer {
  name: "res2a_relu"
  type: "ReLU"
  bottom: "res2a"
  top: "res2a"
}
layer {
  name: "res2b_branch2a"
  type: "Convolution"
  bottom: "res2a"
  top: "res2b_branch2a"
  convolution_param {
    num_output: 64
    bias_term: false
    pad: 0
    kernel_size: 1
    stride: 1
    weight_filler {
      type: "msra"
    }
  }
}
layer {
  name: "bn2b_branch2a"
  type: "BatchNorm"
  bottom: "res2b_branch2a"
  top: "res2b_branch2a"
  batch_norm_param {
    use_global_stats: false
  }
}
layer {
  name: "scale2b_branch2a"
  type: "Scale"
  bottom: "res2b_branch2a"
  top: "res2b_branch2a"
  scale_param {
    bias_term: true
  }
}
layer {
  name: "res2b_branch2a_relu"
  type: "ReLU"
  bottom: "res2b_branch2a"
  top: "res2b_branch2a"
}
layer {
  name: "res2b_branch2b"
  type: "Convolution"
  bottom: "res2b_branch2a"
  top: "res2b_branch2b"
  convolution_param {
    num_output: 64
    bias_term: false
    pad: 1
    kernel_size: 3
    stride: 1
    weight_filler {
      type: "msra"
    }
  }
}
layer {
  name: "bn2b_branch2b"
  type: "BatchNorm"
  bottom: "res2b_branch2b"
  top: "res2b_branch2b"
  batch_norm_param {
    use_global_stats: false
  }
}
layer {
  name: "scale2b_branch2b"
  type: "Scale"
  bottom: "res2b_branch2b"
  top: "res2b_branch2b"
  scale_param {
    bias_term: true
  }
}
layer {
  name: "res2b_branch2b_relu"
  type: "ReLU"
  bottom: "res2b_branch2b"
  top: "res2b_branch2b"
}
layer {
  name: "res2b_branch2c"
  type: "Convolution"
  bottom: "res2b_branch2b"
  top: "res2b_branch2c"
  convolution_param {
    num_output: 256
    bias_term: false
    pad: 0
    kernel_size: 1
    stride: 1
    weight_filler {
      type: "msra"
    }
  }
}
layer {
  name: "bn2b_branch2c"
  type: "BatchNorm"
  bottom: "res2b_branch2c"
  top: "res2b_branch2c"
  batch_norm_param {
    use_global_stats: false
  }
}
layer {
  name: "scale2b_branch2c"
  type: "Scale"
  bottom: "res2b_branch2c"
  top: "res2b_branch2c"
  scale_param {
    bias_term: true
  }
}
layer {
  name: "res2b"
  type: "Eltwise"
  bottom: "res2a"
  bottom: "res2b_branch2c"
  top: "res2b"
  eltwise_param {
    operation: SUM
  }
}
layer {
  name: "res2b_relu"
  type: "ReLU"
  bottom: "res2b"
  top: "res2b"
}
layer {
  name: "res2c_branch2a"
  type: "Convolution"
  bottom: "res2b"
  top: "res2c_branch2a"
  convolution_param {
    num_output: 64
    bias_term: false
    pad: 0
    kernel_size: 1
    stride: 1
    weight_filler {
      type: "msra"
    }
  }
}
layer {
  name: "bn2c_branch2a"
  type: "BatchNorm"
  bottom: "res2c_branch2a"
  top: "res2c_branch2a"
  batch_norm_param {
    use_global_stats: false
  }
}
layer {
  name: "scale2c_branch2a"
  type: "Scale"
  bottom: "res2c_branch2a"
  top: "res2c_branch2a"
  scale_param {
    bias_term: true
  }
}
layer {
  name: "res2c_branch2a_relu"
  type: "ReLU"
  bottom: "res2c_branch2a"
  top: "res2c_branch2a"
}
layer {
  name: "res2c_branch2b"
  type: "Convolution"
  bottom: "res2c_branch2a"
  top: "res2c_branch2b"
  convolution_param {
    num_output: 64
    bias_term: false
    pad: 1
    kernel_size: 3
    stride: 1
    weight_filler {
      type: "msra"
    }
  }
}
layer {
  name: "bn2c_branch2b"
  type: "BatchNorm"
  bottom: "res2c_branch2b"
  top: "res2c_branch2b"
  batch_norm_param {
    use_global_stats: false
  }
}
layer {
  name: "scale2c_branch2b"
  type: "Scale"
  bottom: "res2c_branch2b"
  top: "res2c_branch2b"
  scale_param {
    bias_term: true
  }
}
layer {
  name: "res2c_branch2b_relu"
  type: "ReLU"
  bottom: "res2c_branch2b"
  top: "res2c_branch2b"
}
layer {
  name: "res2c_branch2c"
  type: "Convolution"
  bottom: "res2c_branch2b"
  top: "res2c_branch2c"
  convolution_param {
    num_output: 256
    bias_term: false
    pad: 0
    kernel_size: 1
    stride: 1
    weight_filler {
      type: "msra"
    }
  }
}
layer {
  name: "bn2c_branch2c"
  type: "BatchNorm"
  bottom: "res2c_branch2c"
  top: "res2c_branch2c"
  batch_norm_param {
    use_global_stats: false
  }
}
layer {
  name: "scale2c_branch2c"
  type: "Scale"
  bottom: "res2c_branch2c"
  top: "res2c_branch2c"
  scale_param {
    bias_term: true
  }
}
layer {
  name: "res2c"
  type: "Eltwise"
  bottom: "res2b"
  bottom: "res2c_branch2c"
  top: "res2c"
  eltwise_param {
    operation: SUM
  }
}
layer {
  name: "res2c_relu"
  type: "ReLU"
  bottom: "res2c"
  top: "res2c"
}
layer {
  name: "res3a_branch1"
  type: "Convolution"
  bottom: "res2c"
  top: "res3a_branch1"
  convolution_param {
    num_output: 512
    bias_term: false
    pad: 0
    kernel_size: 1
    stride: 2
    weight_filler {
      type: "msra"
    }
  }
}
layer {
  name: "bn3a_branch1"
  type: "BatchNorm"
  bottom: "res3a_branch1"
  top: "res3a_branch1"
  batch_norm_param {
    use_global_stats: false
  }
}
layer {
  name: "scale3a_branch1"
  type: "Scale"
  bottom: "res3a_branch1"
  top: "res3a_branch1"
  scale_param {
    bias_term: true
  }
}
layer {
  name: "res3a_branch2a"
  type: "Convolution"
  bottom: "res2c"
  top: "res3a_branch2a"
  convolution_param {
    num_output: 128
    bias_term: false
    pad: 0
    kernel_size: 1
    stride: 2
    weight_filler {
      type: "msra"
    }
  }
}
layer {
  name: "bn3a_branch2a"
  type: "BatchNorm"
  bottom: "res3a_branch2a"
  top: "res3a_branch2a"
  batch_norm_param {
    use_global_stats: false
  }
}
layer {
  name: "scale3a_branch2a"
  type: "Scale"
  bottom: "res3a_branch2a"
  top: "res3a_branch2a"
  scale_param {
    bias_term: true
  }
}
layer {
  name: "res3a_branch2a_relu"
  type: "ReLU"
  bottom: "res3a_branch2a"
  top: "res3a_branch2a"
}
layer {
  name: "res3a_branch2b"
  type: "Convolution"
  bottom: "res3a_branch2a"
  top: "res3a_branch2b"
  convolution_param {
    num_output: 128
    bias_term: false
    pad: 1
    kernel_size: 3
    stride: 1
    weight_filler {
      type: "msra"
    }
  }
}
layer {
  name: "bn3a_branch2b"
  type: "BatchNorm"
  bottom: "res3a_branch2b"
  top: "res3a_branch2b"
  batch_norm_param {
    use_global_stats: false
  }
}
layer {
  name: "scale3a_branch2b"
  type: "Scale"
  bottom: "res3a_branch2b"
  top: "res3a_branch2b"
  scale_param {
    bias_term: true
  }
}
layer {
  name: "res3a_branch2b_relu"
  type: "ReLU"
  bottom: "res3a_branch2b"
  top: "res3a_branch2b"
}
layer {
  name: "res3a_branch2c"
  type: "Convolution"
  bottom: "res3a_branch2b"
  top: "res3a_branch2c"
  convolution_param {
    num_output: 512
    bias_term: false
    pad: 0
    kernel_size: 1
    stride: 1
    weight_filler {
      type: "msra"
    }
  }
}
layer {
  name: "bn3a_branch2c"
  type: "BatchNorm"
  bottom: "res3a_branch2c"
  top: "res3a_branch2c"
  batch_norm_param {
    use_global_stats: false
  }
}
layer {
  name: "scale3a_branch2c"
  type: "Scale"
  bottom: "res3a_branch2c"
  top: "res3a_branch2c"
  scale_param {
    bias_term: true
  }
}
layer {
  name: "res3a"
  type: "Eltwise"
  bottom: "res3a_branch1"
  bottom: "res3a_branch2c"
  top: "res3a"
  eltwise_param {
    operation: SUM
  }
}
layer {
  name: "res3a_relu"
  type: "ReLU"
  bottom: "res3a"
  top: "res3a"
}
layer {
  name: "res3b1_branch2a"
  type: "Convolution"
  bottom: "res3a"
  top: "res3b1_branch2a"
  convolution_param {
    num_output: 128
    bias_term: false
    pad: 0
    kernel_size: 1
    stride: 1
    weight_filler {
      type: "msra"
    }
  }
}
layer {
  name: "bn3b1_branch2a"
  type: "BatchNorm"
  bottom: "res3b1_branch2a"
  top: "res3b1_branch2a"
  batch_norm_param {
    use_global_stats: false
  }
}
layer {
  name: "scale3b1_branch2a"
  type: "Scale"
  bottom: "res3b1_branch2a"
  top: "res3b1_branch2a"
  scale_param {
    bias_term: true
  }
}
layer {
  name: "res3b1_branch2a_relu"
  type: "ReLU"
  bottom: "res3b1_branch2a"
  top: "res3b1_branch2a"
}
layer {
  name: "res3b1_branch2b"
  type: "Convolution"
  bottom: "res3b1_branch2a"
  top: "res3b1_branch2b"
  convolution_param {
    num_output: 128
    bias_term: false
    pad: 1
    kernel_size: 3
    stride: 1
    weight_filler {
      type: "msra"
    }
  }
}
layer {
  name: "bn3b1_branch2b"
  type: "BatchNorm"
  bottom: "res3b1_branch2b"
  top: "res3b1_branch2b"
  batch_norm_param {
    use_global_stats: false
  }
}
layer {
  name: "scale3b1_branch2b"
  type: "Scale"
  bottom: "res3b1_branch2b"
  top: "res3b1_branch2b"
  scale_param {
    bias_term: true
  }
}
layer {
  name: "res3b1_branch2b_relu"
  type: "ReLU"
  bottom: "res3b1_branch2b"
  top: "res3b1_branch2b"
}
layer {
  name: "res3b1_branch2c"
  type: "Convolution"
  bottom: "res3b1_branch2b"
  top: "res3b1_branch2c"
  convolution_param {
    num_output: 512
    bias_term: false
    pad: 0
    kernel_size: 1
    stride: 1
    weight_filler {
      type: "msra"
    }
  }
}
layer {
  name: "bn3b1_branch2c"
  type: "BatchNorm"
  bottom: "res3b1_branch2c"
  top: "res3b1_branch2c"
  batch_norm_param {
    use_global_stats: false
  }
}
layer {
  name: "scale3b1_branch2c"
  type: "Scale"
  bottom: "res3b1_branch2c"
  top: "res3b1_branch2c"
  scale_param {
    bias_term: true
  }
}
layer {
  name: "res3b1"
  type: "Eltwise"
  bottom: "res3a"
  bottom: "res3b1_branch2c"
  top: "res3b1"
  eltwise_param {
    operation: SUM
  }
}
layer {
  name: "res3b1_relu"
  type: "ReLU"
  bottom: "res3b1"
  top: "res3b1"
}
layer {
  name: "res3b2_branch2a"
  type: "Convolution"
  bottom: "res3b1"
  top: "res3b2_branch2a"
  convolution_param {
    num_output: 128
    bias_term: false
    pad: 0
    kernel_size: 1
    stride: 1
    weight_filler {
      type: "msra"
    }
  }
}
layer {
  name: "bn3b2_branch2a"
  type: "BatchNorm"
  bottom: "res3b2_branch2a"
  top: "res3b2_branch2a"
  batch_norm_param {
    use_global_stats: false
  }
}
layer {
  name: "scale3b2_branch2a"
  type: "Scale"
  bottom: "res3b2_branch2a"
  top: "res3b2_branch2a"
  scale_param {
    bias_term: true
  }
}
layer {
  name: "res3b2_branch2a_relu"
  type: "ReLU"
  bottom: "res3b2_branch2a"
  top: "res3b2_branch2a"
}
layer {
  name: "res3b2_branch2b"
  type: "Convolution"
  bottom: "res3b2_branch2a"
  top: "res3b2_branch2b"
  convolution_param {
    num_output: 128
    bias_term: false
    pad: 1
    kernel_size: 3
    stride: 1
    weight_filler {
      type: "msra"
    }
  }
}
layer {
  name: "bn3b2_branch2b"
  type: "BatchNorm"
  bottom: "res3b2_branch2b"
  top: "res3b2_branch2b"
  batch_norm_param {
    use_global_stats: false
  }
}
layer {
  name: "scale3b2_branch2b"
  type: "Scale"
  bottom: "res3b2_branch2b"
  top: "res3b2_branch2b"
  scale_param {
    bias_term: true
  }
}
layer {
  name: "res3b2_branch2b_relu"
  type: "ReLU"
  bottom: "res3b2_branch2b"
  top: "res3b2_branch2b"
}
layer {
  name: "res3b2_branch2c"
  type: "Convolution"
  bottom: "res3b2_branch2b"
  top: "res3b2_branch2c"
  convolution_param {
    num_output: 512
    bias_term: false
    pad: 0
    kernel_size: 1
    stride: 1
    weight_filler {
      type: "msra"
    }
  }
}
layer {
  name: "bn3b2_branch2c"
  type: "BatchNorm"
  bottom: "res3b2_branch2c"
  top: "res3b2_branch2c"
  batch_norm_param {
    use_global_stats: false
  }
}
layer {
  name: "scale3b2_branch2c"
  type: "Scale"
  bottom: "res3b2_branch2c"
  top: "res3b2_branch2c"
  scale_param {
    bias_term: true
  }
}
layer {
  name: "res3b2"
  type: "Eltwise"
  bottom: "res3b1"
  bottom: "res3b2_branch2c"
  top: "res3b2"
  eltwise_param {
    operation: SUM
  }
}
layer {
  name: "res3b2_relu"
  type: "ReLU"
  bottom: "res3b2"
  top: "res3b2"
}
layer {
  name: "res3b3_branch2a"
  type: "Convolution"
  bottom: "res3b2"
  top: "res3b3_branch2a"
  convolution_param {
    num_output: 128
    bias_term: false
    pad: 0
    kernel_size: 1
    stride: 1
    weight_filler {
      type: "msra"
    }
  }
}
layer {
  name: "bn3b3_branch2a"
  type: "BatchNorm"
  bottom: "res3b3_branch2a"
  top: "res3b3_branch2a"
  batch_norm_param {
    use_global_stats: false
  }
}
layer {
  name: "scale3b3_branch2a"
  type: "Scale"
  bottom: "res3b3_branch2a"
  top: "res3b3_branch2a"
  scale_param {
    bias_term: true
  }
}
layer {
  name: "res3b3_branch2a_relu"
  type: "ReLU"
  bottom: "res3b3_branch2a"
  top: "res3b3_branch2a"
}
layer {
  name: "res3b3_branch2b"
  type: "Convolution"
  bottom: "res3b3_branch2a"
  top: "res3b3_branch2b"
  convolution_param {
    num_output: 128
    bias_term: false
    pad: 1
    kernel_size: 3
    stride: 1
    weight_filler {
      type: "msra"
    }
  }
}
layer {
  name: "bn3b3_branch2b"
  type: "BatchNorm"
  bottom: "res3b3_branch2b"
  top: "res3b3_branch2b"
  batch_norm_param {
    use_global_stats: false
  }
}
layer {
  name: "scale3b3_branch2b"
  type: "Scale"
  bottom: "res3b3_branch2b"
  top: "res3b3_branch2b"
  scale_param {
    bias_term: true
  }
}
layer {
  name: "res3b3_branch2b_relu"
  type: "ReLU"
  bottom: "res3b3_branch2b"
  top: "res3b3_branch2b"
}
layer {
  name: "res3b3_branch2c"
  type: "Convolution"
  bottom: "res3b3_branch2b"
  top: "res3b3_branch2c"
  convolution_param {
    num_output: 512
    bias_term: false
    pad: 0
    kernel_size: 1
    stride: 1
    weight_filler {
      type: "msra"
    }
  }
}
layer {
  name: "bn3b3_branch2c"
  type: "BatchNorm"
  bottom: "res3b3_branch2c"
  top: "res3b3_branch2c"
  batch_norm_param {
    use_global_stats: false
  }
}
layer {
  name: "scale3b3_branch2c"
  type: "Scale"
  bottom: "res3b3_branch2c"
  top: "res3b3_branch2c"
  scale_param {
    bias_term: true
  }
}
layer {
  name: "res3b3"
  type: "Eltwise"
  bottom: "res3b2"
  bottom: "res3b3_branch2c"
  top: "res3b3"
  eltwise_param {
    operation: SUM
  }
}
layer {
  name: "res3b3_relu"
  type: "ReLU"
  bottom: "res3b3"
  top: "res3b3"
}
layer {
  name: "res3b4_branch2a"
  type: "Convolution"
  bottom: "res3b3"
  top: "res3b4_branch2a"
  convolution_param {
    num_output: 128
    bias_term: false
    pad: 0
    kernel_size: 1
    stride: 1
    weight_filler {
      type: "msra"
    }
  }
}
layer {
  name: "bn3b4_branch2a"
  type: "BatchNorm"
  bottom: "res3b4_branch2a"
  top: "res3b4_branch2a"
  batch_norm_param {
    use_global_stats: false
  }
}
layer {
  name: "scale3b4_branch2a"
  type: "Scale"
  bottom: "res3b4_branch2a"
  top: "res3b4_branch2a"
  scale_param {
    bias_term: true
  }
}
layer {
  name: "res3b4_branch2a_relu"
  type: "ReLU"
  bottom: "res3b4_branch2a"
  top: "res3b4_branch2a"
}
layer {
  name: "res3b4_branch2b"
  type: "Convolution"
  bottom: "res3b4_branch2a"
  top: "res3b4_branch2b"
  convolution_param {
    num_output: 128
    bias_term: false
    pad: 1
    kernel_size: 3
    stride: 1
    weight_filler {
      type: "msra"
    }
  }
}
layer {
  name: "bn3b4_branch2b"
  type: "BatchNorm"
  bottom: "res3b4_branch2b"
  top: "res3b4_branch2b"
  batch_norm_param {
    use_global_stats: false
  }
}
layer {
  name: "scale3b4_branch2b"
  type: "Scale"
  bottom: "res3b4_branch2b"
  top: "res3b4_branch2b"
  scale_param {
    bias_term: true
  }
}
layer {
  name: "res3b4_branch2b_relu"
  type: "ReLU"
  bottom: "res3b4_branch2b"
  top: "res3b4_branch2b"
}
layer {
  name: "res3b4_branch2c"
  type: "Convolution"
  bottom: "res3b4_branch2b"
  top: "res3b4_branch2c"
  convolution_param {
    num_output: 512
    bias_term: false
    pad: 0
    kernel_size: 1
    stride: 1
    weight_filler {
      type: "msra"
    }
  }
}
layer {
  name: "bn3b4_branch2c"
  type: "BatchNorm"
  bottom: "res3b4_branch2c"
  top: "res3b4_branch2c"
  batch_norm_param {
    use_global_stats: false
  }
}
layer {
  name: "scale3b4_branch2c"
  type: "Scale"
  bottom: "res3b4_branch2c"
  top: "res3b4_branch2c"
  scale_param {
    bias_term: true
  }
}
layer {
  name: "res3b4"
  type: "Eltwise"
  bottom: "res3b3"
  bottom: "res3b4_branch2c"
  top: "res3b4"
  eltwise_param {
    operation: SUM
  }
}
layer {
  name: "res3b4_relu"
  type: "ReLU"
  bottom: "res3b4"
  top: "res3b4"
}
layer {
  name: "res3b5_branch2a"
  type: "Convolution"
  bottom: "res3b4"
  top: "res3b5_branch2a"
  convolution_param {
    num_output: 128
    bias_term: false
    pad: 0
    kernel_size: 1
    stride: 1
    weight_filler {
      type: "msra"
    }
  }
}
layer {
  name: "bn3b5_branch2a"
  type: "BatchNorm"
  bottom: "res3b5_branch2a"
  top: "res3b5_branch2a"
  batch_norm_param {
    use_global_stats: false
  }
}
layer {
  name: "scale3b5_branch2a"
  type: "Scale"
  bottom: "res3b5_branch2a"
  top: "res3b5_branch2a"
  scale_param {
    bias_term: true
  }
}
layer {
  name: "res3b5_branch2a_relu"
  type: "ReLU"
  bottom: "res3b5_branch2a"
  top: "res3b5_branch2a"
}
layer {
  name: "res3b5_branch2b"
  type: "Convolution"
  bottom: "res3b5_branch2a"
  top: "res3b5_branch2b"
  convolution_param {
    num_output: 128
    bias_term: false
    pad: 1
    kernel_size: 3
    stride: 1
    weight_filler {
      type: "msra"
    }
  }
}
layer {
  name: "bn3b5_branch2b"
  type: "BatchNorm"
  bottom: "res3b5_branch2b"
  top: "res3b5_branch2b"
  batch_norm_param {
    use_global_stats: false
  }
}
layer {
  name: "scale3b5_branch2b"
  type: "Scale"
  bottom: "res3b5_branch2b"
  top: "res3b5_branch2b"
  scale_param {
    bias_term: true
  }
}
layer {
  name: "res3b5_branch2b_relu"
  type: "ReLU"
  bottom: "res3b5_branch2b"
  top: "res3b5_branch2b"
}
layer {
  name: "res3b5_branch2c"
  type: "Convolution"
  bottom: "res3b5_branch2b"
  top: "res3b5_branch2c"
  convolution_param {
    num_output: 512
    bias_term: false
    pad: 0
    kernel_size: 1
    stride: 1
    weight_filler {
      type: "msra"
    }
  }
}
layer {
  name: "bn3b5_branch2c"
  type: "BatchNorm"
  bottom: "res3b5_branch2c"
  top: "res3b5_branch2c"
  batch_norm_param {
    use_global_stats: false
  }
}
layer {
  name: "scale3b5_branch2c"
  type: "Scale"
  bottom: "res3b5_branch2c"
  top: "res3b5_branch2c"
  scale_param {
    bias_term: true
  }
}
layer {
  name: "res3b5"
  type: "Eltwise"
  bottom: "res3b4"
  bottom: "res3b5_branch2c"
  top: "res3b5"
  eltwise_param {
    operation: SUM
  }
}
layer {
  name: "res3b5_relu"
  type: "ReLU"
  bottom: "res3b5"
  top: "res3b5"
}
layer {
  name: "res3b6_branch2a"
  type: "Convolution"
  bottom: "res3b5"
  top: "res3b6_branch2a"
  convolution_param {
    num_output: 128
    bias_term: false
    pad: 0
    kernel_size: 1
    stride: 1
    weight_filler {
      type: "msra"
    }
  }
}
layer {
  name: "bn3b6_branch2a"
  type: "BatchNorm"
  bottom: "res3b6_branch2a"
  top: "res3b6_branch2a"
  batch_norm_param {
    use_global_stats: false
  }
}
layer {
  name: "scale3b6_branch2a"
  type: "Scale"
  bottom: "res3b6_branch2a"
  top: "res3b6_branch2a"
  scale_param {
    bias_term: true
  }
}
layer {
  name: "res3b6_branch2a_relu"
  type: "ReLU"
  bottom: "res3b6_branch2a"
  top: "res3b6_branch2a"
}
layer {
  name: "res3b6_branch2b"
  type: "Convolution"
  bottom: "res3b6_branch2a"
  top: "res3b6_branch2b"
  convolution_param {
    num_output: 128
    bias_term: false
    pad: 1
    kernel_size: 3
    stride: 1
    weight_filler {
      type: "msra"
    }
  }
}
layer {
  name: "bn3b6_branch2b"
  type: "BatchNorm"
  bottom: "res3b6_branch2b"
  top: "res3b6_branch2b"
  batch_norm_param {
    use_global_stats: false
  }
}
layer {
  name: "scale3b6_branch2b"
  type: "Scale"
  bottom: "res3b6_branch2b"
  top: "res3b6_branch2b"
  scale_param {
    bias_term: true
  }
}
layer {
  name: "res3b6_branch2b_relu"
  type: "ReLU"
  bottom: "res3b6_branch2b"
  top: "res3b6_branch2b"
}
layer {
  name: "res3b6_branch2c"
  type: "Convolution"
  bottom: "res3b6_branch2b"
  top: "res3b6_branch2c"
  convolution_param {
    num_output: 512
    bias_term: false
    pad: 0
    kernel_size: 1
    stride: 1
    weight_filler {
      type: "msra"
    }
  }
}
layer {
  name: "bn3b6_branch2c"
  type: "BatchNorm"
  bottom: "res3b6_branch2c"
  top: "res3b6_branch2c"
  batch_norm_param {
    use_global_stats: false
  }
}
layer {
  name: "scale3b6_branch2c"
  type: "Scale"
  bottom: "res3b6_branch2c"
  top: "res3b6_branch2c"
  scale_param {
    bias_term: true
  }
}
layer {
  name: "res3b6"
  type: "Eltwise"
  bottom: "res3b5"
  bottom: "res3b6_branch2c"
  top: "res3b6"
  eltwise_param {
    operation: SUM
  }
}
layer {
  name: "res3b6_relu"
  type: "ReLU"
  bottom: "res3b6"
  top: "res3b6"
}
layer {
  name: "res3b7_branch2a"
  type: "Convolution"
  bottom: "res3b6"
  top: "res3b7_branch2a"
  convolution_param {
    num_output: 128
    bias_term: false
    pad: 0
    kernel_size: 1
    stride: 1
    weight_filler {
      type: "msra"
    }
  }
}
layer {
  name: "bn3b7_branch2a"
  type: "BatchNorm"
  bottom: "res3b7_branch2a"
  top: "res3b7_branch2a"
  batch_norm_param {
    use_global_stats: false
  }
}
layer {
  name: "scale3b7_branch2a"
  type: "Scale"
  bottom: "res3b7_branch2a"
  top: "res3b7_branch2a"
  scale_param {
    bias_term: true
  }
}
layer {
  name: "res3b7_branch2a_relu"
  type: "ReLU"
  bottom: "res3b7_branch2a"
  top: "res3b7_branch2a"
}
layer {
  name: "res3b7_branch2b"
  type: "Convolution"
  bottom: "res3b7_branch2a"
  top: "res3b7_branch2b"
  convolution_param {
    num_output: 128
    bias_term: false
    pad: 1
    kernel_size: 3
    stride: 1
    weight_filler {
      type: "msra"
    }
  }
}
layer {
  name: "bn3b7_branch2b"
  type: "BatchNorm"
  bottom: "res3b7_branch2b"
  top: "res3b7_branch2b"
  batch_norm_param {
    use_global_stats: false
  }
}
layer {
  name: "scale3b7_branch2b"
  type: "Scale"
  bottom: "res3b7_branch2b"
  top: "res3b7_branch2b"
  scale_param {
    bias_term: true
  }
}
layer {
  name: "res3b7_branch2b_relu"
  type: "ReLU"
  bottom: "res3b7_branch2b"
  top: "res3b7_branch2b"
}
layer {
  name: "res3b7_branch2c"
  type: "Convolution"
  bottom: "res3b7_branch2b"
  top: "res3b7_branch2c"
  convolution_param {
    num_output: 512
    bias_term: false
    pad: 0
    kernel_size: 1
    stride: 1
    weight_filler {
      type: "msra"
    }
  }
}
layer {
  name: "bn3b7_branch2c"
  type: "BatchNorm"
  bottom: "res3b7_branch2c"
  top: "res3b7_branch2c"
  batch_norm_param {
    use_global_stats: false
  }
}
layer {
  name: "scale3b7_branch2c"
  type: "Scale"
  bottom: "res3b7_branch2c"
  top: "res3b7_branch2c"
  scale_param {
    bias_term: true
  }
}
layer {
  name: "res3b7"
  type: "Eltwise"
  bottom: "res3b6"
  bottom: "res3b7_branch2c"
  top: "res3b7"
  eltwise_param {
    operation: SUM
  }
}
layer {
  name: "res3b7_relu"
  type: "ReLU"
  bottom: "res3b7"
  top: "res3b7"
}
layer {
  name: "res4a_branch1"
  type: "Convolution"
  bottom: "res3b7"
  top: "res4a_branch1"
  convolution_param {
    num_output: 1024
    bias_term: false
    pad: 0
    kernel_size: 1
    stride: 2
    weight_filler {
      type: "msra"
    }
  }
}
layer {
  name: "bn4a_branch1"
  type: "BatchNorm"
  bottom: "res4a_branch1"
  top: "res4a_branch1"
  batch_norm_param {
    use_global_stats: false
  }
}
layer {
  name: "scale4a_branch1"
  type: "Scale"
  bottom: "res4a_branch1"
  top: "res4a_branch1"
  scale_param {
    bias_term: true
  }
}
layer {
  name: "res4a_branch2a"
  type: "Convolution"
  bottom: "res3b7"
  top: "res4a_branch2a"
  convolution_param {
    num_output: 256
    bias_term: false
    pad: 0
    kernel_size: 1
    stride: 2
    weight_filler {
      type: "msra"
    }
  }
}
layer {
  name: "bn4a_branch2a"
  type: "BatchNorm"
  bottom: "res4a_branch2a"
  top: "res4a_branch2a"
  batch_norm_param {
    use_global_stats: false
  }
}
layer {
  name: "scale4a_branch2a"
  type: "Scale"
  bottom: "res4a_branch2a"
  top: "res4a_branch2a"
  scale_param {
    bias_term: true
  }
}
layer {
  name: "res4a_branch2a_relu"
  type: "ReLU"
  bottom: "res4a_branch2a"
  top: "res4a_branch2a"
}
layer {
  name: "res4a_branch2b"
  type: "Convolution"
  bottom: "res4a_branch2a"
  top: "res4a_branch2b"
  convolution_param {
    num_output: 256
    bias_term: false
    pad: 1
    kernel_size: 3
    stride: 1
    weight_filler {
      type: "msra"
    }
  }
}
layer {
  name: "bn4a_branch2b"
  type: "BatchNorm"
  bottom: "res4a_branch2b"
  top: "res4a_branch2b"
  batch_norm_param {
    use_global_stats: false
  }
}
layer {
  name: "scale4a_branch2b"
  type: "Scale"
  bottom: "res4a_branch2b"
  top: "res4a_branch2b"
  scale_param {
    bias_term: true
  }
}
layer {
  name: "res4a_branch2b_relu"
  type: "ReLU"
  bottom: "res4a_branch2b"
  top: "res4a_branch2b"
}
layer {
  name: "res4a_branch2c"
  type: "Convolution"
  bottom: "res4a_branch2b"
  top: "res4a_branch2c"
  convolution_param {
    num_output: 1024
    bias_term: false
    pad: 0
    kernel_size: 1
    stride: 1
    weight_filler {
      type: "msra"
    }
  }
}
layer {
  name: "bn4a_branch2c"
  type: "BatchNorm"
  bottom: "res4a_branch2c"
  top: "res4a_branch2c"
  batch_norm_param {
    use_global_stats: false
  }
}
layer {
  name: "scale4a_branch2c"
  type: "Scale"
  bottom: "res4a_branch2c"
  top: "res4a_branch2c"
  scale_param {
    bias_term: true
  }
}
layer {
  name: "res4a"
  type: "Eltwise"
  bottom: "res4a_branch1"
  bottom: "res4a_branch2c"
  top: "res4a"
  eltwise_param {
    operation: SUM
  }
}
layer {
  name: "res4a_relu"
  type: "ReLU"
  bottom: "res4a"
  top: "res4a"
}
layer {
  name: "res4b1_branch2a"
  type: "Convolution"
  bottom: "res4a"
  top: "res4b1_branch2a"
  convolution_param {
    num_output: 256
    bias_term: false
    pad: 0
    kernel_size: 1
    stride: 1
    weight_filler {
      type: "msra"
    }
  }
}
layer {
  name: "bn4b1_branch2a"
  type: "BatchNorm"
  bottom: "res4b1_branch2a"
  top: "res4b1_branch2a"
  batch_norm_param {
    use_global_stats: false
  }
}
layer {
  name: "scale4b1_branch2a"
  type: "Scale"
  bottom: "res4b1_branch2a"
  top: "res4b1_branch2a"
  scale_param {
    bias_term: true
  }
}
layer {
  name: "res4b1_branch2a_relu"
  type: "ReLU"
  bottom: "res4b1_branch2a"
  top: "res4b1_branch2a"
}
layer {
  name: "res4b1_branch2b"
  type: "Convolution"
  bottom: "res4b1_branch2a"
  top: "res4b1_branch2b"
  convolution_param {
    num_output: 256
    bias_term: false
    pad: 1
    kernel_size: 3
    stride: 1
    weight_filler {
      type: "msra"
    }
  }
}
layer {
  name: "bn4b1_branch2b"
  type: "BatchNorm"
  bottom: "res4b1_branch2b"
  top: "res4b1_branch2b"
  batch_norm_param {
    use_global_stats: false
  }
}
layer {
  name: "scale4b1_branch2b"
  type: "Scale"
  bottom: "res4b1_branch2b"
  top: "res4b1_branch2b"
  scale_param {
    bias_term: true
  }
}
layer {
  name: "res4b1_branch2b_relu"
  type: "ReLU"
  bottom: "res4b1_branch2b"
  top: "res4b1_branch2b"
}
layer {
  name: "re
I0608 17:34:24.844614 10488 layer_factory.hpp:77] Creating layer data
I0608 17:34:24.942476 10488 db_lmdb.cpp:35] Opened lmdb /home/sun/resnet152/train_lmdb
I0608 17:34:25.004287 10488 net.cpp:84] Creating Layer data
I0608 17:34:25.004364 10488 net.cpp:380] data -> data
I0608 17:34:25.004393 10488 net.cpp:380] data -> label
I0608 17:34:25.017520 10488 data_transformer.cpp:25] Loading mean file from: /home/sun/resnet152/mean.binaryproto
I0608 17:34:25.067363 10488 data_layer.cpp:45] output data size: 1,3,224,224
I0608 17:34:25.106720 10488 net.cpp:122] Setting up data
I0608 17:34:25.106798 10488 net.cpp:129] Top shape: 1 3 224 224 (150528)
I0608 17:34:25.106814 10488 net.cpp:129] Top shape: 1 (1)
I0608 17:34:25.106819 10488 net.cpp:137] Memory required for data: 602116
I0608 17:34:25.106832 10488 layer_factory.hpp:77] Creating layer label_data_1_split
I0608 17:34:25.106849 10488 net.cpp:84] Creating Layer label_data_1_split
I0608 17:34:25.106858 10488 net.cpp:406] label_data_1_split <- label
I0608 17:34:25.106873 10488 net.cpp:380] label_data_1_split -> label_data_1_split_0
I0608 17:34:25.106887 10488 net.cpp:380] label_data_1_split -> label_data_1_split_1
I0608 17:34:25.119223 10488 net.cpp:122] Setting up label_data_1_split
I0608 17:34:25.119418 10488 net.cpp:129] Top shape: 1 (1)
I0608 17:34:25.119439 10488 net.cpp:129] Top shape: 1 (1)
I0608 17:34:25.119446 10488 net.cpp:137] Memory required for data: 602124
I0608 17:34:25.119455 10488 layer_factory.hpp:77] Creating layer conv1
I0608 17:34:25.119499 10488 net.cpp:84] Creating Layer conv1
I0608 17:34:25.119549 10488 net.cpp:406] conv1 <- data
I0608 17:34:25.119566 10488 net.cpp:380] conv1 -> conv1
I0608 17:34:25.119999 10488 net.cpp:122] Setting up conv1
I0608 17:34:25.120059 10488 net.cpp:129] Top shape: 1 64 112 112 (802816)
I0608 17:34:25.120067 10488 net.cpp:137] Memory required for data: 3813388
I0608 17:34:25.120095 10488 layer_factory.hpp:77] Creating layer bn_conv1
I0608 17:34:25.120180 10488 net.cpp:84] Creating Layer bn_conv1
I0608 17:34:25.120193 10488 net.cpp:406] bn_conv1 <- conv1
I0608 17:34:25.120203 10488 net.cpp:367] bn_conv1 -> conv1 (in-place)
I0608 17:34:25.127985 10488 net.cpp:122] Setting up bn_conv1
I0608 17:34:25.128022 10488 net.cpp:129] Top shape: 1 64 112 112 (802816)
I0608 17:34:25.128029 10488 net.cpp:137] Memory required for data: 7024652
I0608 17:34:25.128048 10488 layer_factory.hpp:77] Creating layer scale_conv1
I0608 17:34:25.128314 10488 net.cpp:84] Creating Layer scale_conv1
I0608 17:34:25.128340 10488 net.cpp:406] scale_conv1 <- conv1
I0608 17:34:25.128356 10488 net.cpp:367] scale_conv1 -> conv1 (in-place)
I0608 17:34:25.128391 10488 layer_factory.hpp:77] Creating layer scale_conv1
I0608 17:34:25.128566 10488 net.cpp:122] Setting up scale_conv1
I0608 17:34:25.128588 10488 net.cpp:129] Top shape: 1 64 112 112 (802816)
I0608 17:34:25.128594 10488 net.cpp:137] Memory required for data: 10235916
I0608 17:34:25.128608 10488 layer_factory.hpp:77] Creating layer conv1_relu
I0608 17:34:25.144215 10488 net.cpp:84] Creating Layer conv1_relu
I0608 17:34:25.144315 10488 net.cpp:406] conv1_relu <- conv1
I0608 17:34:25.144335 10488 net.cpp:367] conv1_relu -> conv1 (in-place)
I0608 17:34:25.144364 10488 net.cpp:122] Setting up conv1_relu
I0608 17:34:25.144376 10488 net.cpp:129] Top shape: 1 64 112 112 (802816)
I0608 17:34:25.144382 10488 net.cpp:137] Memory required for data: 13447180
I0608 17:34:25.144390 10488 layer_factory.hpp:77] Creating layer pool1
I0608 17:34:25.144404 10488 net.cpp:84] Creating Layer pool1
I0608 17:34:25.144412 10488 net.cpp:406] pool1 <- conv1
I0608 17:34:25.144421 10488 net.cpp:380] pool1 -> pool1
I0608 17:34:25.144464 10488 net.cpp:122] Setting up pool1
I0608 17:34:25.144507 10488 net.cpp:129] Top shape: 1 64 56 56 (200704)
I0608 17:34:25.144515 10488 net.cpp:137] Memory required for data: 14249996
I0608 17:34:25.144524 10488 layer_factory.hpp:77] Creating layer pool1_pool1_0_split
I0608 17:34:25.144536 10488 net.cpp:84] Creating Layer pool1_pool1_0_split
I0608 17:34:25.144541 10488 net.cpp:406] pool1_pool1_0_split <- pool1
I0608 17:34:25.144552 10488 net.cpp:380] pool1_pool1_0_split -> pool1_pool1_0_split_0
I0608 17:34:25.144562 10488 net.cpp:380] pool1_pool1_0_split -> pool1_pool1_0_split_1
I0608 17:34:25.144574 10488 net.cpp:122] Setting up pool1_pool1_0_split
I0608 17:34:25.144582 10488 net.cpp:129] Top shape: 1 64 56 56 (200704)
I0608 17:34:25.144589 10488 net.cpp:129] Top shape: 1 64 56 56 (200704)
I0608 17:34:25.144595 10488 net.cpp:137] Memory required for data: 15855628
I0608 17:34:25.144603 10488 layer_factory.hpp:77] Creating layer res2a_branch1
I0608 17:34:25.144621 10488 net.cpp:84] Creating Layer res2a_branch1
I0608 17:34:25.144662 10488 net.cpp:406] res2a_branch1 <- pool1_pool1_0_split_0
I0608 17:34:25.144709 10488 net.cpp:380] res2a_branch1 -> res2a_branch1
I0608 17:34:25.145531 10488 net.cpp:122] Setting up res2a_branch1
I0608 17:34:25.145597 10488 net.cpp:129] Top shape: 1 256 56 56 (802816)
I0608 17:34:25.145606 10488 net.cpp:137] Memory required for data: 19066892
I0608 17:34:25.145617 10488 layer_factory.hpp:77] Creating layer bn2a_branch1
I0608 17:34:25.145678 10488 net.cpp:84] Creating Layer bn2a_branch1
I0608 17:34:25.145723 10488 net.cpp:406] bn2a_branch1 <- res2a_branch1
I0608 17:34:25.145742 10488 net.cpp:367] bn2a_branch1 -> res2a_branch1 (in-place)
I0608 17:34:25.145822 10488 net.cpp:122] Setting up bn2a_branch1
I0608 17:34:25.145866 10488 net.cpp:129] Top shape: 1 256 56 56 (802816)
I0608 17:34:25.145875 10488 net.cpp:137] Memory required for data: 22278156
I0608 17:34:25.145920 10488 layer_factory.hpp:77] Creating layer scale2a_branch1
I0608 17:34:25.145967 10488 net.cpp:84] Creating Layer scale2a_branch1
I0608 17:34:25.145997 10488 net.cpp:406] scale2a_branch1 <- res2a_branch1
I0608 17:34:25.146005 10488 net.cpp:367] scale2a_branch1 -> res2a_branch1 (in-place)
I0608 17:34:25.146056 10488 layer_factory.hpp:77] Creating layer scale2a_branch1
I0608 17:34:25.146117 10488 net.cpp:122] Setting up scale2a_branch1
I0608 17:34:25.146183 10488 net.cpp:129] Top shape: 1 256 56 56 (802816)
I0608 17:34:25.146215 10488 net.cpp:137] Memory required for data: 25489420
I0608 17:34:25.146255 10488 layer_factory.hpp:77] Creating layer res2a_branch2a
I0608 17:34:25.146301 10488 net.cpp:84] Creating Layer res2a_branch2a
I0608 17:34:25.146332 10488 net.cpp:406] res2a_branch2a <- pool1_pool1_0_split_1
I0608 17:34:25.146343 10488 net.cpp:380] res2a_branch2a -> res2a_branch2a
I0608 17:34:25.146503 10488 net.cpp:122] Setting up res2a_branch2a
I0608 17:34:25.146535 10488 net.cpp:129] Top shape: 1 64 56 56 (200704)
I0608 17:34:25.146540 10488 net.cpp:137] Memory required for data: 26292236
I0608 17:34:25.146545 10488 layer_factory.hpp:77] Creating layer bn2a_branch2a
I0608 17:34:25.146575 10488 net.cpp:84] Creating Layer bn2a_branch2a
I0608 17:34:25.146581 10488 net.cpp:406] bn2a_branch2a <- res2a_branch2a
I0608 17:34:25.146611 10488 net.cpp:367] bn2a_branch2a -> res2a_branch2a (in-place)
I0608 17:34:25.146631 10488 net.cpp:122] Setting up bn2a_branch2a
I0608 17:34:25.146658 10488 net.cpp:129] Top shape: 1 64 56 56 (200704)
I0608 17:34:25.146663 10488 net.cpp:137] Memory required for data: 27095052
I0608 17:34:25.146672 10488 layer_factory.hpp:77] Creating layer scale2a_branch2a
I0608 17:34:25.146679 10488 net.cpp:84] Creating Layer scale2a_branch2a
I0608 17:34:25.146684 10488 net.cpp:406] scale2a_branch2a <- res2a_branch2a
I0608 17:34:25.146700 10488 net.cpp:367] scale2a_branch2a -> res2a_branch2a (in-place)
I0608 17:34:25.146746 10488 layer_factory.hpp:77] Creating layer scale2a_branch2a
I0608 17:34:25.146832 10488 net.cpp:122] Setting up scale2a_branch2a
I0608 17:34:25.146873 10488 net.cpp:129] Top shape: 1 64 56 56 (200704)
I0608 17:34:25.146883 10488 net.cpp:137] Memory required for data: 27897868
I0608 17:34:25.146927 10488 layer_factory.hpp:77] Creating layer res2a_branch2a_relu
I0608 17:34:25.146939 10488 net.cpp:84] Creating Layer res2a_branch2a_relu
I0608 17:34:25.146945 10488 net.cpp:406] res2a_branch2a_relu <- res2a_branch2a
I0608 17:34:25.146952 10488 net.cpp:367] res2a_branch2a_relu -> res2a_branch2a (in-place)
I0608 17:34:25.146961 10488 net.cpp:122] Setting up res2a_branch2a_relu
I0608 17:34:25.146967 10488 net.cpp:129] Top shape: 1 64 56 56 (200704)
I0608 17:34:25.146972 10488 net.cpp:137] Memory required for data: 28700684
I0608 17:34:25.147009 10488 layer_factory.hpp:77] Creating layer res2a_branch2b
I0608 17:34:25.147027 10488 net.cpp:84] Creating Layer res2a_branch2b
I0608 17:34:25.147064 10488 net.cpp:406] res2a_branch2b <- res2a_branch2a
I0608 17:34:25.147074 10488 net.cpp:380] res2a_branch2b -> res2a_branch2b
I0608 17:34:25.148241 10488 net.cpp:122] Setting up res2a_branch2b
I0608 17:34:25.148319 10488 net.cpp:129] Top shape: 1 64 56 56 (200704)
I0608 17:34:25.148325 10488 net.cpp:137] Memory required for data: 29503500
I0608 17:34:25.148332 10488 layer_factory.hpp:77] Creating layer bn2a_branch2b
I0608 17:34:25.148346 10488 net.cpp:84] Creating Layer bn2a_branch2b
I0608 17:34:25.148350 10488 net.cpp:406] bn2a_branch2b <- res2a_branch2b
I0608 17:34:25.148360 10488 net.cpp:367] bn2a_branch2b -> res2a_branch2b (in-place)
I0608 17:34:25.148388 10488 net.cpp:122] Setting up bn2a_branch2b
I0608 17:34:25.148429 10488 net.cpp:129] Top shape: 1 64 56 56 (200704)
I0608 17:34:25.148486 10488 net.cpp:137] Memory required for data: 30306316
I0608 17:34:25.148527 10488 layer_factory.hpp:77] Creating layer scale2a_branch2b
I0608 17:34:25.148567 10488 net.cpp:84] Creating Layer scale2a_branch2b
I0608 17:34:25.148602 10488 net.cpp:406] scale2a_branch2b <- res2a_branch2b
I0608 17:34:25.148618 10488 net.cpp:367] scale2a_branch2b -> res2a_branch2b (in-place)
I0608 17:34:25.148663 10488 layer_factory.hpp:77] Creating layer scale2a_branch2b
I0608 17:34:25.148725 10488 net.cpp:122] Setting up scale2a_branch2b
I0608 17:34:25.148761 10488 net.cpp:129] Top shape: 1 64 56 56 (200704)
I0608 17:34:25.148768 10488 net.cpp:137] Memory required for data: 31109132
I0608 17:34:25.148823 10488 layer_factory.hpp:77] Creating layer res2a_branch2b_relu
I0608 17:34:25.148862 10488 net.cpp:84] Creating Layer res2a_branch2b_relu
I0608 17:34:25.148900 10488 net.cpp:406] res2a_branch2b_relu <- res2a_branch2b
I0608 17:34:25.148912 10488 net.cpp:367] res2a_branch2b_relu -> res2a_branch2b (in-place)
I0608 17:34:25.148954 10488 net.cpp:122] Setting up res2a_branch2b_relu
I0608 17:34:25.148967 10488 net.cpp:129] Top shape: 1 64 56 56 (200704)
I0608 17:34:25.148974 10488 net.cpp:137] Memory required for data: 31911948
I0608 17:34:25.148980 10488 layer_factory.hpp:77] Creating layer res2a_branch2c
I0608 17:34:25.148991 10488 net.cpp:84] Creating Layer res2a_branch2c
I0608 17:34:25.148996 10488 net.cpp:406] res2a_branch2c <- res2a_branch2b
I0608 17:34:25.149041 10488 net.cpp:380] res2a_branch2c -> res2a_branch2c
I0608 17:34:25.174718 10488 net.cpp:122] Setting up res2a_branch2c
I0608 17:34:25.175133 10488 net.cpp:129] Top shape: 1 256 56 56 (802816)
I0608 17:34:25.175182 10488 net.cpp:137] Memory required for data: 35123212
I0608 17:34:25.175201 10488 layer_factory.hpp:77] Creating layer bn2a_branch2c
I0608 17:34:25.175285 10488 net.cpp:84] Creating Layer bn2a_branch2c
I0608 17:34:25.175770 10488 net.cpp:406] bn2a_branch2c <- res2a_branch2c
I0608 17:34:25.176159 10488 net.cpp:367] bn2a_branch2c -> res2a_branch2c (in-place)
I0608 17:34:25.176368 10488 net.cpp:122] Setting up bn2a_branch2c
I0608 17:34:25.176425 10488 net.cpp:129] Top shape: 1 256 56 56 (802816)
I0608 17:34:25.176434 10488 net.cpp:137] Memory required for data: 38334476
I0608 17:34:25.176481 10488 layer_factory.hpp:77] Creating layer scale2a_branch2c
I0608 17:34:25.176527 10488 net.cpp:84] Creating Layer scale2a_branch2c
I0608 17:34:25.176563 10488 net.cpp:406] scale2a_branch2c <- res2a_branch2c
I0608 17:34:25.176635 10488 net.cpp:367] scale2a_branch2c -> res2a_branch2c (in-place)
I0608 17:34:25.176705 10488 layer_factory.hpp:77] Creating layer scale2a_branch2c
I0608 17:34:25.176775 10488 net.cpp:122] Setting up scale2a_branch2c
I0608 17:34:25.176816 10488 net.cpp:129] Top shape: 1 256 56 56 (802816)
I0608 17:34:25.176823 10488 net.cpp:137] Memory required for data: 41545740
I0608 17:34:25.176834 10488 layer_factory.hpp:77] Creating layer res2a
I0608 17:34:25.176848 10488 net.cpp:84] Creating Layer res2a
I0608 17:34:25.176873 10488 net.cpp:406] res2a <- res2a_branch1
I0608 17:34:25.176910 10488 net.cpp:406] res2a <- res2a_branch2c
I0608 17:34:25.176966 10488 net.cpp:380] res2a -> res2a
I0608 17:34:25.177011 10488 net.cpp:122] Setting up res2a
I0608 17:34:25.177049 10488 net.cpp:129] Top shape: 1 256 56 56 (802816)
I0608 17:34:25.177085 10488 net.cpp:137] Memory required for data: 44757004
I0608 17:34:25.177095 10488 layer_factory.hpp:77] Creating layer res2a_relu
I0608 17:34:25.177134 10488 net.cpp:84] Creating Layer res2a_relu
I0608 17:34:25.177141 10488 net.cpp:406] res2a_relu <- res2a
I0608 17:34:25.177181 10488 net.cpp:367] res2a_relu -> res2a (in-place)
I0608 17:34:25.177196 10488 net.cpp:122] Setting up res2a_relu
I0608 17:34:25.177203 10488 net.cpp:129] Top shape: 1 256 56 56 (802816)
I0608 17:34:25.177208 10488 net.cpp:137] Memory required for data: 47968268
I0608 17:34:25.177213 10488 layer_factory.hpp:77] Creating layer res2a_res2a_relu_0_split
I0608 17:34:25.177220 10488 net.cpp:84] Creating Layer res2a_res2a_relu_0_split
I0608 17:34:25.177227 10488 net.cpp:406] res2a_res2a_relu_0_split <- res2a
I0608 17:34:25.177266 10488 net.cpp:380] res2a_res2a_relu_0_split -> res2a_res2a_relu_0_split_0
I0608 17:34:25.177279 10488 net.cpp:380] res2a_res2a_relu_0_split -> res2a_res2a_relu_0_split_1
I0608 17:34:25.177321 10488 net.cpp:122] Setting up res2a_res2a_relu_0_split
I0608 17:34:25.177332 10488 net.cpp:129] Top shape: 1 256 56 56 (802816)
I0608 17:34:25.177341 10488 net.cpp:129] Top shape: 1 256 56 56 (802816)
I0608 17:34:25.177346 10488 net.cpp:137] Memory required for data: 54390796
I0608 17:34:25.177352 10488 layer_factory.hpp:77] Creating layer res2b_branch2a
I0608 17:34:25.177368 10488 net.cpp:84] Creating Layer res2b_branch2a
I0608 17:34:25.177405 10488 net.cpp:406] res2b_branch2a <- res2a_res2a_relu_0_split_0
I0608 17:34:25.177485 10488 net.cpp:380] res2b_branch2a -> res2b_branch2a
I0608 17:34:25.178236 10488 net.cpp:122] Setting up res2b_branch2a
I0608 17:34:25.178325 10488 net.cpp:129] Top shape: 1 64 56 56 (200704)
I0608 17:34:25.178335 10488 net.cpp:137] Memory required for data: 55193612
I0608 17:34:25.178345 10488 layer_factory.hpp:77] Creating layer bn2b_branch2a
I0608 17:34:25.178366 10488 net.cpp:84] Creating Layer bn2b_branch2a
I0608 17:34:25.178403 10488 net.cpp:406] bn2b_branch2a <- res2b_branch2a
I0608 17:34:25.178416 10488 net.cpp:367] bn2b_branch2a -> res2b_branch2a (in-place)
I0608 17:34:25.178477 10488 net.cpp:122] Setting up bn2b_branch2a
I0608 17:34:25.178515 10488 net.cpp:129] Top shape: 1 64 56 56 (200704)
I0608 17:34:25.178522 10488 net.cpp:137] Memory required for data: 55996428
I0608 17:34:25.178575 10488 layer_factory.hpp:77] Creating layer scale2b_branch2a
I0608 17:34:25.178588 10488 net.cpp:84] Creating Layer scale2b_branch2a
I0608 17:34:25.178594 10488 net.cpp:406] scale2b_branch2a <- res2b_branch2a
I0608 17:34:25.178601 10488 net.cpp:367] scale2b_branch2a -> res2b_branch2a (in-place)
I0608 17:34:25.178647 10488 layer_factory.hpp:77] Creating layer scale2b_branch2a
I0608 17:34:25.178694 10488 net.cpp:122] Setting up scale2b_branch2a
I0608 17:34:25.178702 10488 net.cpp:129] Top shape: 1 64 56 56 (200704)
I0608 17:34:25.178741 10488 net.cpp:137] Memory required for data: 56799244
I0608 17:34:25.178755 10488 layer_factory.hpp:77] Creating layer res2b_branch2a_relu
I0608 17:34:25.178797 10488 net.cpp:84] Creating Layer res2b_branch2a_relu
I0608 17:34:25.178834 10488 net.cpp:406] res2b_branch2a_relu <- res2b_branch2a
I0608 17:34:25.178853 10488 net.cpp:367] res2b_branch2a_relu -> res2b_branch2a (in-place)
I0608 17:34:25.178892 10488 net.cpp:122] Setting up res2b_branch2a_relu
I0608 17:34:25.178902 10488 net.cpp:129] Top shape: 1 64 56 56 (200704)
I0608 17:34:25.178906 10488 net.cpp:137] Memory required for data: 57602060
I0608 17:34:25.178912 10488 layer_factory.hpp:77] Creating layer res2b_branch2b
I0608 17:34:25.178930 10488 net.cpp:84] Creating Layer res2b_branch2b
I0608 17:34:25.179003 10488 net.cpp:406] res2b_branch2b <- res2b_branch2a
I0608 17:34:25.179055 10488 net.cpp:380] res2b_branch2b -> res2b_branch2b
I0608 17:34:25.180555 10488 net.cpp:122] Setting up res2b_branch2b
I0608 17:34:25.180670 10488 net.cpp:129] Top shape: 1 64 56 56 (200704)
I0608 17:34:25.180678 10488 net.cpp:137] Memory required for data: 58404876
I0608 17:34:25.180686 10488 layer_factory.hpp:77] Creating layer bn2b_branch2b
I0608 17:34:25.180697 10488 net.cpp:84] Creating Layer bn2b_branch2b
I0608 17:34:25.180702 10488 net.cpp:406] bn2b_branch2b <- res2b_branch2b
I0608 17:34:25.180713 10488 net.cpp:367] bn2b_branch2b -> res2b_branch2b (in-place)
I0608 17:34:25.180780 10488 net.cpp:122] Setting up bn2b_branch2b
I0608 17:34:25.180790 10488 net.cpp:129] Top shape: 1 64 56 56 (200704)
I0608 17:34:25.180795 10488 net.cpp:137] Memory required for data: 59207692
I0608 17:34:25.180806 10488 layer_factory.hpp:77] Creating layer scale2b_branch2b
I0608 17:34:25.180845 10488 net.cpp:84] Creating Layer scale2b_branch2b
I0608 17:34:25.180853 10488 net.cpp:406] scale2b_branch2b <- res2b_branch2b
I0608 17:34:25.180862 10488 net.cpp:367] scale2b_branch2b -> res2b_branch2b (in-place)
I0608 17:34:25.180877 10488 layer_factory.hpp:77] Creating layer scale2b_branch2b
I0608 17:34:25.180904 10488 net.cpp:122] Setting up scale2b_branch2b
I0608 17:34:25.180940 10488 net.cpp:129] Top shape: 1 64 56 56 (200704)
I0608 17:34:25.180948 10488 net.cpp:137] Memory required for data: 60010508
I0608 17:34:25.180955 10488 layer_factory.hpp:77] Creating layer res2b_branch2b_relu
I0608 17:34:25.180975 10488 net.cpp:84] Creating Layer res2b_branch2b_relu
I0608 17:34:25.180981 10488 net.cpp:406] res2b_branch2b_relu <- res2b_branch2b
I0608 17:34:25.181042 10488 net.cpp:367] res2b_branch2b_relu -> res2b_branch2b (in-place)
I0608 17:34:25.181082 10488 net.cpp:122] Setting up res2b_branch2b_relu
I0608 17:34:25.181090 10488 net.cpp:129] Top shape: 1 64 56 56 (200704)
I0608 17:34:25.181119 10488 net.cpp:137] Memory required for data: 60813324
I0608 17:34:25.181125 10488 layer_factory.hpp:77] Creating layer res2b_branch2c
I0608 17:34:25.181193 10488 net.cpp:84] Creating Layer res2b_branch2c
I0608 17:34:25.181228 10488 net.cpp:406] res2b_branch2c <- res2b_branch2b
I0608 17:34:25.181239 10488 net.cpp:380] res2b_branch2c -> res2b_branch2c
I0608 17:34:25.181886 10488 net.cpp:122] Setting up res2b_branch2c
I0608 17:34:25.181936 10488 net.cpp:129] Top shape: 1 256 56 56 (802816)
I0608 17:34:25.181944 10488 net.cpp:137] Memory required for data: 64024588
I0608 17:34:25.181980 10488 layer_factory.hpp:77] Creating layer bn2b_branch2c
I0608 17:34:25.181993 10488 net.cpp:84] Creating Layer bn2b_branch2c
I0608 17:34:25.182024 10488 net.cpp:406] bn2b_branch2c <- res2b_branch2c
I0608 17:34:25.182037 10488 net.cpp:367] bn2b_branch2c -> res2b_branch2c (in-place)
I0608 17:34:25.182101 10488 net.cpp:122] Setting up bn2b_branch2c
I0608 17:34:25.182137 10488 net.cpp:129] Top shape: 1 256 56 56 (802816)
I0608 17:34:25.182144 10488 net.cpp:137] Memory required for data: 67235852
I0608 17:34:25.182185 10488 layer_factory.hpp:77] Creating layer scale2b_branch2c
I0608 17:34:25.182224 10488 net.cpp:84] Creating Layer scale2b_branch2c
I0608 17:34:25.182260 10488 net.cpp:406] scale2b_branch2c <- res2b_branch2c
I0608 17:34:25.182271 10488 net.cpp:367] scale2b_branch2c -> res2b_branch2c (in-place)
I0608 17:34:25.182317 10488 layer_factory.hpp:77] Creating layer scale2b_branch2c
I0608 17:34:25.182379 10488 net.cpp:122] Setting up scale2b_branch2c
I0608 17:34:25.182415 10488 net.cpp:129] Top shape: 1 256 56 56 (802816)
I0608 17:34:25.182423 10488 net.cpp:137] Memory required for data: 70447116
I0608 17:34:25.182459 10488 layer_factory.hpp:77] Creating layer res2b
I0608 17:34:25.182498 10488 net.cpp:84] Creating Layer res2b
I0608 17:34:25.182533 10488 net.cpp:406] res2b <- res2a_res2a_relu_0_split_1
I0608 17:34:25.182544 10488 net.cpp:406] res2b <- res2b_branch2c
I0608 17:34:25.182579 10488 net.cpp:380] res2b -> res2b
I0608 17:34:25.182621 10488 net.cpp:122] Setting up res2b
I0608 17:34:25.182658 10488 net.cpp:129] Top shape: 1 256 56 56 (802816)
I0608 17:34:25.182667 10488 net.cpp:137] Memory required for data: 73658380
I0608 17:34:25.182698 10488 layer_factory.hpp:77] Creating layer res2b_relu
I0608 17:34:25.182710 10488 net.cpp:84] Creating Layer res2b_relu
I0608 17:34:25.182741 10488 net.cpp:406] res2b_relu <- res2b
I0608 17:34:25.182756 10488 net.cpp:367] res2b_relu -> res2b (in-place)
I0608 17:34:25.182792 10488 net.cpp:122] Setting up res2b_relu
I0608 17:34:25.182814 10488 net.cpp:129] Top shape: 1 256 56 56 (802816)
I0608 17:34:25.182848 10488 net.cpp:137] Memory required for data: 76869644
I0608 17:34:25.182857 10488 layer_factory.hpp:77] Creating layer res2b_res2b_relu_0_split
I0608 17:34:25.182893 10488 net.cpp:84] Creating Layer res2b_res2b_relu_0_split
I0608 17:34:25.182929 10488 net.cpp:406] res2b_res2b_relu_0_split <- res2b
I0608 17:34:25.182943 10488 net.cpp:380] res2b_res2b_relu_0_split -> res2b_res2b_relu_0_split_0
I0608 17:34:25.182981 10488 net.cpp:380] res2b_res2b_relu_0_split -> res2b_res2b_relu_0_split_1
I0608 17:34:25.183022 10488 net.cpp:122] Setting up res2b_res2b_relu_0_split
I0608 17:34:25.183059 10488 net.cpp:129] Top shape: 1 256 56 56 (802816)
I0608 17:34:25.183069 10488 net.cpp:129] Top shape: 1 256 56 56 (802816)
I0608 17:34:25.183099 10488 net.cpp:137] Memory required for data: 83292172
I0608 17:34:25.183109 10488 layer_factory.hpp:77] Creating layer res2c_branch2a
I0608 17:34:25.183151 10488 net.cpp:84] Creating Layer res2c_branch2a
I0608 17:34:25.183184 10488 net.cpp:406] res2c_branch2a <- res2b_res2b_relu_0_split_0
I0608 17:34:25.183197 10488 net.cpp:380] res2c_branch2a -> res2c_branch2a
I0608 17:34:25.183740 10488 net.cpp:122] Setting up res2c_branch2a
I0608 17:34:25.183779 10488 net.cpp:129] Top shape: 1 64 56 56 (200704)
I0608 17:34:25.183786 10488 net.cpp:137] Memory required for data: 84094988
I0608 17:34:25.183825 10488 layer_factory.hpp:77] Creating layer bn2c_branch2a
I0608 17:34:25.183868 10488 net.cpp:84] Creating Layer bn2c_branch2a
I0608 17:34:25.183920 10488 net.cpp:406] bn2c_branch2a <- res2c_branch2a
I0608 17:34:25.183933 10488 net.cpp:367] bn2c_branch2a -> res2c_branch2a (in-place)
I0608 17:34:25.183990 10488 net.cpp:122] Setting up bn2c_branch2a
I0608 17:34:25.184027 10488 net.cpp:129] Top shape: 1 64 56 56 (200704)
I0608 17:34:25.184062 10488 net.cpp:137] Memory required for data: 84897804
I0608 17:34:25.184077 10488 layer_factory.hpp:77] Creating layer scale2c_branch2a
I0608 17:34:25.184110 10488 net.cpp:84] Creating Layer scale2c_branch2a
I0608 17:34:25.184167 10488 net.cpp:406] scale2c_branch2a <- res2c_branch2a
I0608 17:34:25.184204 10488 net.cpp:367] scale2c_branch2a -> res2c_branch2a (in-place)
I0608 17:34:25.184260 10488 layer_factory.hpp:77] Creating layer scale2c_branch2a
I0608 17:34:25.184315 10488 net.cpp:122] Setting up scale2c_branch2a
I0608 17:34:25.184346 10488 net.cpp:129] Top shape: 1 64 56 56 (200704)
I0608 17:34:25.184352 10488 net.cpp:137] Memory required for data: 85700620
I0608 17:34:25.184358 10488 layer_factory.hpp:77] Creating layer res2c_branch2a_relu
I0608 17:34:25.184388 10488 net.cpp:84] Creating Layer res2c_branch2a_relu
I0608 17:34:25.184394 10488 net.cpp:406] res2c_branch2a_relu <- res2c_branch2a
I0608 17:34:25.184422 10488 net.cpp:367] res2c_branch2a_relu -> res2c_branch2a (in-place)
I0608 17:34:25.184429 10488 net.cpp:122] Setting up res2c_branch2a_relu
I0608 17:34:25.184456 10488 net.cpp:129] Top shape: 1 64 56 56 (200704)
I0608 17:34:25.184460 10488 net.cpp:137] Memory required for data: 86503436
I0608 17:34:25.184464 10488 layer_factory.hpp:77] Creating layer res2c_branch2b
I0608 17:34:25.184494 10488 net.cpp:84] Creating Layer res2c_branch2b
I0608 17:34:25.184499 10488 net.cpp:406] res2c_branch2b <- res2c_branch2a
I0608 17:34:25.184530 10488 net.cpp:380] res2c_branch2b -> res2c_branch2b
I0608 17:34:25.185642 10488 net.cpp:122] Setting up res2c_branch2b
I0608 17:34:25.185679 10488 net.cpp:129] Top shape: 1 64 56 56 (200704)
I0608 17:34:25.185685 10488 net.cpp:137] Memory required for data: 87306252
I0608 17:34:25.185690 10488 layer_factory.hpp:77] Creating layer bn2c_branch2b
I0608 17:34:25.185746 10488 net.cpp:84] Creating Layer bn2c_branch2b
I0608 17:34:25.185778 10488 net.cpp:406] bn2c_branch2b <- res2c_branch2b
I0608 17:34:25.185791 10488 net.cpp:367] bn2c_branch2b -> res2c_branch2b (in-place)
I0608 17:34:25.185847 10488 net.cpp:122] Setting up bn2c_branch2b
I0608 17:34:25.185856 10488 net.cpp:129] Top shape: 1 64 56 56 (200704)
I0608 17:34:25.185859 10488 net.cpp:137] Memory required for data: 88109068
I0608 17:34:25.185869 10488 layer_factory.hpp:77] Creating layer scale2c_branch2b
I0608 17:34:25.185880 10488 net.cpp:84] Creating Layer scale2c_branch2b
I0608 17:34:25.185886 10488 net.cpp:406] scale2c_branch2b <- res2c_branch2b
I0608 17:34:25.185920 10488 net.cpp:367] scale2c_branch2b -> res2c_branch2b (in-place)
I0608 17:34:25.185932 10488 layer_factory.hpp:77] Creating layer scale2c_branch2b
I0608 17:34:25.185983 10488 net.cpp:122] Setting up scale2c_branch2b
I0608 17:34:25.186014 10488 net.cpp:129] Top shape: 1 64 56 56 (200704)
I0608 17:34:25.186019 10488 net.cpp:137] Memory required for data: 88911884
I0608 17:34:25.186048 10488 layer_factory.hpp:77] Creating layer res2c_branch2b_relu
I0608 17:34:25.186055 10488 net.cpp:84] Creating Layer res2c_branch2b_relu
I0608 17:34:25.186080 10488 net.cpp:406] res2c_branch2b_relu <- res2c_branch2b
I0608 17:34:25.186090 10488 net.cpp:367] res2c_branch2b_relu -> res2c_branch2b (in-place)
I0608 17:34:25.186120 10488 net.cpp:122] Setting up res2c_branch2b_relu
I0608 17:34:25.186125 10488 net.cpp:129] Top shape: 1 64 56 56 (200704)
I0608 17:34:25.186151 10488 net.cpp:137] Memory required for data: 89714700
I0608 17:34:25.186156 10488 layer_factory.hpp:77] Creating layer res2c_branch2c
I0608 17:34:25.186167 10488 net.cpp:84] Creating Layer res2c_branch2c
I0608 17:34:25.186192 10488 net.cpp:406] res2c_branch2c <- res2c_branch2b
I0608 17:34:25.186199 10488 net.cpp:380] res2c_branch2c -> res2c_branch2c
I0608 17:34:25.186743 10488 net.cpp:122] Setting up res2c_branch2c
I0608 17:34:25.186776 10488 net.cpp:129] Top shape: 1 256 56 56 (802816)
I0608 17:34:25.186782 10488 net.cpp:137] Memory required for data: 92925964
I0608 17:34:25.186787 10488 layer_factory.hpp:77] Creating layer bn2c_branch2c
I0608 17:34:25.186830 10488 net.cpp:84] Creating Layer bn2c_branch2c
I0608 17:34:25.186862 10488 net.cpp:406] bn2c_branch2c <- res2c_branch2c
I0608 17:34:25.186870 10488 net.cpp:367] bn2c_branch2c -> res2c_branch2c (in-place)
I0608 17:34:25.186895 10488 net.cpp:122] Setting up bn2c_branch2c
I0608 17:34:25.186924 10488 net.cpp:129] Top shape: 1 256 56 56 (802816)
I0608 17:34:25.186929 10488 net.cpp:137] Memory required for data: 96137228
I0608 17:34:25.186936 10488 layer_factory.hpp:77] Creating layer scale2c_branch2c
I0608 17:34:25.186969 10488 net.cpp:84] Creating Layer scale2c_branch2c
I0608 17:34:25.186997 10488 net.cpp:406] scale2c_branch2c <- res2c_branch2c
I0608 17:34:25.187005 10488 net.cpp:367] scale2c_branch2c -> res2c_branch2c (in-place)
I0608 17:34:25.187016 10488 layer_factory.hpp:77] Creating layer scale2c_branch2c
I0608 17:34:25.187067 10488 net.cpp:122] Setting up scale2c_branch2c
I0608 17:34:25.187096 10488 net.cpp:129] Top shape: 1 256 56 56 (802816)
I0608 17:34:25.187101 10488 net.cpp:137] Memory required for data: 99348492
I0608 17:34:25.187119 10488 layer_factory.hpp:77] Creating layer res2c
I0608 17:34:25.187152 10488 net.cpp:84] Creating Layer res2c
I0608 17:34:25.187180 10488 net.cpp:406] res2c <- res2b_res2b_relu_0_split_1
I0608 17:34:25.187187 10488 net.cpp:406] res2c <- res2c_branch2c
I0608 17:34:25.187218 10488 net.cpp:380] res2c -> res2c
I0608 17:34:25.187261 10488 net.cpp:122] Setting up res2c
I0608 17:34:25.187294 10488 net.cpp:129] Top shape: 1 256 56 56 (802816)
I0608 17:34:25.187299 10488 net.cpp:137] Memory required for data: 102559756
I0608 17:34:25.187301 10488 layer_factory.hpp:77] Creating layer res2c_relu
I0608 17:34:25.187328 10488 net.cpp:84] Creating Layer res2c_relu
I0608 17:34:25.187335 10488 net.cpp:406] res2c_relu <- res2c
I0608 17:34:25.187361 10488 net.cpp:367] res2c_relu -> res2c (in-place)
I0608 17:34:25.187369 10488 net.cpp:122] Setting up res2c_relu
I0608 17:34:25.187397 10488 net.cpp:129] Top shape: 1 256 56 56 (802816)
I0608 17:34:25.187402 10488 net.cpp:137] Memory required for data: 105771020
I0608 17:34:25.187404 10488 layer_factory.hpp:77] Creating layer res2c_res2c_relu_0_split
I0608 17:34:25.187431 10488 net.cpp:84] Creating Layer res2c_res2c_relu_0_split
I0608 17:34:25.187436 10488 net.cpp:406] res2c_res2c_relu_0_split <- res2c
I0608 17:34:25.187444 10488 net.cpp:380] res2c_res2c_relu_0_split -> res2c_res2c_relu_0_split_0
I0608 17:34:25.187472 10488 net.cpp:380] res2c_res2c_relu_0_split -> res2c_res2c_relu_0_split_1
I0608 17:34:25.187481 10488 net.cpp:122] Setting up res2c_res2c_relu_0_split
I0608 17:34:25.187511 10488 net.cpp:129] Top shape: 1 256 56 56 (802816)
I0608 17:34:25.187517 10488 net.cpp:129] Top shape: 1 256 56 56 (802816)
I0608 17:34:25.187541 10488 net.cpp:137] Memory required for data: 112193548
I0608 17:34:25.187547 10488 layer_factory.hpp:77] Creating layer res3a_branch1
I0608 17:34:25.187554 10488 net.cpp:84] Creating Layer res3a_branch1
I0608 17:34:25.187580 10488 net.cpp:406] res3a_branch1 <- res2c_res2c_relu_0_split_0
I0608 17:34:25.187592 10488 net.cpp:380] res3a_branch1 -> res3a_branch1
I0608 17:34:25.215785 10488 net.cpp:122] Setting up res3a_branch1
I0608 17:34:25.215888 10488 net.cpp:129] Top shape: 1 512 28 28 (401408)
I0608 17:34:25.215895 10488 net.cpp:137] Memory required for data: 113799180
I0608 17:34:25.215906 10488 layer_factory.hpp:77] Creating layer bn3a_branch1
I0608 17:34:25.215921 10488 net.cpp:84] Creating Layer bn3a_branch1
I0608 17:34:25.215929 10488 net.cpp:406] bn3a_branch1 <- res3a_branch1
I0608 17:34:25.215942 10488 net.cpp:367] bn3a_branch1 -> res3a_branch1 (in-place)
I0608 17:34:25.216007 10488 net.cpp:122] Setting up bn3a_branch1
I0608 17:34:25.216018 10488 net.cpp:129] Top shape: 1 512 28 28 (401408)
I0608 17:34:25.216023 10488 net.cpp:137] Memory required for data: 115404812
I0608 17:34:25.216094 10488 layer_factory.hpp:77] Creating layer scale3a_branch1
I0608 17:34:25.216110 10488 net.cpp:84] Creating Layer scale3a_branch1
I0608 17:34:25.216116 10488 net.cpp:406] scale3a_branch1 <- res3a_branch1
I0608 17:34:25.216123 10488 net.cpp:367] scale3a_branch1 -> res3a_branch1 (in-place)
I0608 17:34:25.216143 10488 layer_factory.hpp:77] Creating layer scale3a_branch1
I0608 17:34:25.216238 10488 net.cpp:122] Setting up scale3a_branch1
I0608 17:34:25.216301 10488 net.cpp:129] Top shape: 1 512 28 28 (401408)
I0608 17:34:25.216310 10488 net.cpp:137] Memory required for data: 117010444
I0608 17:34:25.216318 10488 layer_factory.hpp:77] Creating layer res3a_branch2a
I0608 17:34:25.216334 10488 net.cpp:84] Creating Layer res3a_branch2a
I0608 17:34:25.216370 10488 net.cpp:406] res3a_branch2a <- res2c_res2c_relu_0_split_1
I0608 17:34:25.216382 10488 net.cpp:380] res3a_branch2a -> res3a_branch2a
I0608 17:34:25.217659 10488 net.cpp:122] Setting up res3a_branch2a
I0608 17:34:25.217720 10488 net.cpp:129] Top shape: 1 128 28 28 (100352)
I0608 17:34:25.217730 10488 net.cpp:137] Memory required for data: 117411852
I0608 17:34:25.217737 10488 layer_factory.hpp:77] Creating layer bn3a_branch2a
I0608 17:34:25.217752 10488 net.cpp:84] Creating Layer bn3a_branch2a
I0608 17:34:25.217759 10488 net.cpp:406] bn3a_branch2a <- res3a_branch2a
I0608 17:34:25.217769 10488 net.cpp:367] bn3a_branch2a -> res3a_branch2a (in-place)
I0608 17:34:25.217829 10488 net.cpp:122] Setting up bn3a_branch2a
I0608 17:34:25.217839 10488 net.cpp:129] Top shape: 1 128 28 28 (100352)
I0608 17:34:25.217845 10488 net.cpp:137] Memory required for data: 117813260
I0608 17:34:25.217859 10488 layer_factory.hpp:77] Creating layer scale3a_branch2a
I0608 17:34:25.217867 10488 net.cpp:84] Creating Layer scale3a_branch2a
I0608 17:34:25.217903 10488 net.cpp:406] scale3a_branch2a <- res3a_branch2a
I0608 17:34:25.217914 10488 net.cpp:367] scale3a_branch2a -> res3a_branch2a (in-place)
I0608 17:34:25.217931 10488 layer_factory.hpp:77] Creating layer scale3a_branch2a
I0608 17:34:25.217954 10488 net.cpp:122] Setting up scale3a_branch2a
I0608 17:34:25.217995 10488 net.cpp:129] Top shape: 1 128 28 28 (100352)
I0608 17:34:25.218003 10488 net.cpp:137] Memory required for data: 118214668
I0608 17:34:25.218013 10488 layer_factory.hpp:77] Creating layer res3a_branch2a_relu
I0608 17:34:25.218020 10488 net.cpp:84] Creating Layer res3a_branch2a_relu
I0608 17:34:25.218026 10488 net.cpp:406] res3a_branch2a_relu <- res3a_branch2a
I0608 17:34:25.218032 10488 net.cpp:367] res3a_branch2a_relu -> res3a_branch2a (in-place)
I0608 17:34:25.218041 10488 net.cpp:122] Setting up res3a_branch2a_relu
I0608 17:34:25.218077 10488 net.cpp:129] Top shape: 1 128 28 28 (100352)
I0608 17:34:25.218086 10488 net.cpp:137] Memory required for data: 118616076
I0608 17:34:25.218091 10488 layer_factory.hpp:77] Creating layer res3a_branch2b
I0608 17:34:25.218104 10488 net.cpp:84] Creating Layer res3a_branch2b
I0608 17:34:25.218139 10488 net.cpp:406] res3a_branch2b <- res3a_branch2a
I0608 17:34:25.218152 10488 net.cpp:380] res3a_branch2b -> res3a_branch2b
I0608 17:34:25.222846 10488 net.cpp:122] Setting up res3a_branch2b
I0608 17:34:25.222916 10488 net.cpp:129] Top shape: 1 128 28 28 (100352)
I0608 17:34:25.222928 10488 net.cpp:137] Memory required for data: 119017484
I0608 17:34:25.222941 10488 layer_factory.hpp:77] Creating layer bn3a_branch2b
I0608 17:34:25.222970 10488 net.cpp:84] Creating Layer bn3a_branch2b
I0608 17:34:25.223006 10488 net.cpp:406] bn3a_branch2b <- res3a_branch2b
I0608 17:34:25.223024 10488 net.cpp:367] bn3a_branch2b -> res3a_branch2b (in-place)
I0608 17:34:25.223084 10488 net.cpp:122] Setting up bn3a_branch2b
I0608 17:34:25.223125 10488 net.cpp:129] Top shape: 1 128 28 28 (100352)
I0608 17:34:25.223160 10488 net.cpp:137] Memory required for data: 119418892
I0608 17:34:25.223176 10488 layer_factory.hpp:77] Creating layer scale3a_branch2b
I0608 17:34:25.223191 10488 net.cpp:84] Creating Layer scale3a_branch2b
I0608 17:34:25.223196 10488 net.cpp:406] scale3a_branch2b <- res3a_branch2b
I0608 17:34:25.223260 10488 net.cpp:367] scale3a_branch2b -> res3a_branch2b (in-place)
I0608 17:34:25.223318 10488 layer_factory.hpp:77] Creating layer scale3a_branch2b
I0608 17:34:25.223398 10488 net.cpp:122] Setting up scale3a_branch2b
I0608 17:34:25.223434 10488 net.cpp:129] Top shape: 1 128 28 28 (100352)
I0608 17:34:25.223443 10488 net.cpp:137] Memory required for data: 119820300
I0608 17:34:25.223480 10488 layer_factory.hpp:77] Creating layer res3a_branch2b_relu
I0608 17:34:25.223520 10488 net.cpp:84] Creating Layer res3a_branch2b_relu
I0608 17:34:25.223554 10488 net.cpp:406] res3a_branch2b_relu <- res3a_branch2b
I0608 17:34:25.223567 10488 net.cpp:367] res3a_branch2b_relu -> res3a_branch2b (in-place)
I0608 17:34:25.223604 10488 net.cpp:122] Setting up res3a_branch2b_relu
I0608 17:34:25.223641 10488 net.cpp:129] Top shape: 1 128 28 28 (100352)
I0608 17:34:25.223650 10488 net.cpp:137] Memory required for data: 120221708
I0608 17:34:25.223726 10488 layer_factory.hpp:77] Creating layer res3a_branch2c
I0608 17:34:25.223781 10488 net.cpp:84] Creating Layer res3a_branch2c
I0608 17:34:25.223791 10488 net.cpp:406] res3a_branch2c <- res3a_branch2b
I0608 17:34:25.223807 10488 net.cpp:380] res3a_branch2c -> res3a_branch2c
I0608 17:34:25.226560 10488 net.cpp:122] Setting up res3a_branch2c
I0608 17:34:25.226691 10488 net.cpp:129] Top shape: 1 512 28 28 (401408)
I0608 17:34:25.226703 10488 net.cpp:137] Memory required for data: 121827340
I0608 17:34:25.226716 10488 layer_factory.hpp:77] Creating layer bn3a_branch2c
I0608 17:34:25.226732 10488 net.cpp:84] Creating Layer bn3a_branch2c
I0608 17:34:25.226744 10488 net.cpp:406] bn3a_branch2c <- res3a_branch2c
I0608 17:34:25.226809 10488 net.cpp:367] bn3a_branch2c -> res3a_branch2c (in-place)
I0608 17:34:25.226904 10488 net.cpp:122] Setting up bn3a_branch2c
I0608 17:34:25.226963 10488 net.cpp:129] Top shape: 1 512 28 28 (401408)
I0608 17:34:25.226974 10488 net.cpp:137] Memory required for data: 123432972
I0608 17:34:25.227020 10488 layer_factory.hpp:77] Creating layer scale3a_branch2c
I0608 17:34:25.227066 10488 net.cpp:84] Creating Layer scale3a_branch2c
I0608 17:34:25.227105 10488 net.cpp:406] scale3a_branch2c <- res3a_branch2c
I0608 17:34:25.227123 10488 net.cpp:367] scale3a_branch2c -> res3a_branch2c (in-place)
I0608 17:34:25.227183 10488 layer_factory.hpp:77] Creating layer scale3a_branch2c
I0608 17:34:25.227214 10488 net.cpp:122] Setting up scale3a_branch2c
I0608 17:34:25.227222 10488 net.cpp:129] Top shape: 1 512 28 28 (401408)
I0608 17:34:25.227227 10488 net.cpp:137] Memory required for data: 125038604
I0608 17:34:25.227270 10488 layer_factory.hpp:77] Creating layer res3a
I0608 17:34:25.227288 10488 net.cpp:84] Creating Layer res3a
I0608 17:34:25.227325 10488 net.cpp:406] res3a <- res3a_branch1
I0608 17:34:25.227336 10488 net.cpp:406] res3a <- res3a_branch2c
I0608 17:34:25.227345 10488 net.cpp:380] res3a -> res3a
I0608 17:34:25.227391 10488 net.cpp:122] Setting up res3a
I0608 17:34:25.227433 10488 net.cpp:129] Top shape: 1 512 28 28 (401408)
I0608 17:34:25.227519 10488 net.cpp:137] Memory required for data: 126644236
I0608 17:34:25.227550 10488 layer_factory.hpp:77] Creating layer res3a_relu
I0608 17:34:25.227761 10488 net.cpp:84] Creating Layer res3a_relu
I0608 17:34:25.227869 10488 net.cpp:406] res3a_relu <- res3a
I0608 17:34:25.227902 10488 net.cpp:367] res3a_relu -> res3a (in-place)
I0608 17:34:25.227928 10488 net.cpp:122] Setting up res3a_relu
I0608 17:34:25.227943 10488 net.cpp:129] Top shape: 1 512 28 28 (401408)
I0608 17:34:25.227948 10488 net.cpp:137] Memory required for data: 128249868
I0608 17:34:25.227953 10488 layer_factory.hpp:77] Creating layer res3a_res3a_relu_0_split
I0608 17:34:25.227962 10488 net.cpp:84] Creating Layer res3a_res3a_relu_0_split
I0608 17:34:25.227967 10488 net.cpp:406] res3a_res3a_relu_0_split <- res3a
I0608 17:34:25.227973 10488 net.cpp:380] res3a_res3a_relu_0_split -> res3a_res3a_relu_0_split_0
I0608 17:34:25.227988 10488 net.cpp:380] res3a_res3a_relu_0_split -> res3a_res3a_relu_0_split_1
I0608 17:34:25.228030 10488 net.cpp:122] Setting up res3a_res3a_relu_0_split
I0608 17:34:25.228039 10488 net.cpp:129] Top shape: 1 512 28 28 (401408)
I0608 17:34:25.228045 10488 net.cpp:129] Top shape: 1 512 28 28 (401408)
I0608 17:34:25.228050 10488 net.cpp:137] Memory required for data: 131461132
I0608 17:34:25.228055 10488 layer_factory.hpp:77] Creating layer res3b1_branch2a
I0608 17:34:25.228071 10488 net.cpp:84] Creating Layer res3b1_branch2a
I0608 17:34:25.228078 10488 net.cpp:406] res3b1_branch2a <- res3a_res3a_relu_0_split_0
I0608 17:34:25.228086 10488 net.cpp:380] res3b1_branch2a -> res3b1_branch2a
I0608 17:34:25.240828 10488 net.cpp:122] Setting up res3b1_branch2a
I0608 17:34:25.240957 10488 net.cpp:129] Top shape: 1 128 28 28 (100352)
I0608 17:34:25.240991 10488 net.cpp:137] Memory required for data: 131862540
I0608 17:34:25.241003 10488 layer_factory.hpp:77] Creating layer bn3b1_branch2a
I0608 17:34:25.241016 10488 net.cpp:84] Creating Layer bn3b1_branch2a
I0608 17:34:25.241046 10488 net.cpp:406] bn3b1_branch2a <- res3b1_branch2a
I0608 17:34:25.241055 10488 net.cpp:367] bn3b1_branch2a -> res3b1_branch2a (in-place)
I0608 17:34:25.241099 10488 net.cpp:122] Setting up bn3b1_branch2a
I0608 17:34:25.241130 10488 net.cpp:129] Top shape: 1 128 28 28 (100352)
I0608 17:34:25.241135 10488 net.cpp:137] Memory required for data: 132263948
I0608 17:34:25.241143 10488 layer_factory.hpp:77] Creating layer scale3b1_branch2a
I0608 17:34:25.241173 10488 net.cpp:84] Creating Layer scale3b1_branch2a
I0608 17:34:25.241179 10488 net.cpp:406] scale3b1_branch2a <- res3b1_branch2a
I0608 17:34:25.241209 10488 net.cpp:367] scale3b1_branch2a -> res3b1_branch2a (in-place)
I0608 17:34:25.241277 10488 layer_factory.hpp:77] Creating layer scale3b1_branch2a
I0608 17:34:25.241340 10488 net.cpp:122] Setting up scale3b1_branch2a
I0608 17:34:25.241382 10488 net.cpp:129] Top shape: 1 128 28 28 (100352)
I0608 17:34:25.241391 10488 net.cpp:137] Memory required for data: 132665356
I0608 17:34:25.241430 10488 layer_factory.hpp:77] Creating layer res3b1_branch2a_relu
I0608 17:34:25.241472 10488 net.cpp:84] Creating Layer res3b1_branch2a_relu
I0608 17:34:25.241511 10488 net.cpp:406] res3b1_branch2a_relu <- res3b1_branch2a
I0608 17:34:25.241525 10488 net.cpp:367] res3b1_branch2a_relu -> res3b1_branch2a (in-place)
I0608 17:34:25.241535 10488 net.cpp:122] Setting up res3b1_branch2a_relu
I0608 17:34:25.241544 10488 net.cpp:129] Top shape: 1 128 28 28 (100352)
I0608 17:34:25.241549 10488 net.cpp:137] Memory required for data: 133066764
I0608 17:34:25.241554 10488 layer_factory.hpp:77] Creating layer res3b1_branch2b
I0608 17:34:25.241567 10488 net.cpp:84] Creating Layer res3b1_branch2b
I0608 17:34:25.241631 10488 net.cpp:406] res3b1_branch2b <- res3b1_branch2a
I0608 17:34:25.241672 10488 net.cpp:380] res3b1_branch2b -> res3b1_branch2b
I0608 17:34:25.246709 10488 net.cpp:122] Setting up res3b1_branch2b
I0608 17:34:25.246780 10488 net.cpp:129] Top shape: 1 128 28 28 (100352)
I0608 17:34:25.246789 10488 net.cpp:137] Memory required for data: 133468172
I0608 17:34:25.246799 10488 layer_factory.hpp:77] Creating layer bn3b1_branch2b
I0608 17:34:25.246815 10488 net.cpp:84] Creating Layer bn3b1_branch2b
I0608 17:34:25.246852 10488 net.cpp:406] bn3b1_branch2b <- res3b1_branch2b
I0608 17:34:25.246865 10488 net.cpp:367] bn3b1_branch2b -> res3b1_branch2b (in-place)
I0608 17:34:25.246891 10488 net.cpp:122] Setting up bn3b1_branch2b
I0608 17:34:25.246897 10488 net.cpp:129] Top shape: 1 128 28 28 (100352)
I0608 17:34:25.246955 10488 net.cpp:137] Memory required for data: 133869580
I0608 17:34:25.246994 10488 layer_factory.hpp:77] Creating layer scale3b1_branch2b
I0608 17:34:25.247057 10488 net.cpp:84] Creating Layer scale3b1_branch2b
I0608 17:34:25.247068 10488 net.cpp:406] scale3b1_branch2b <- res3b1_branch2b
I0608 17:34:25.247076 10488 net.cpp:367] scale3b1_branch2b -> res3b1_branch2b (in-place)
I0608 17:34:25.247095 10488 layer_factory.hpp:77] Creating layer scale3b1_branch2b
I0608 17:34:25.247166 10488 net.cpp:122] Setting up scale3b1_branch2b
I0608 17:34:25.247201 10488 net.cpp:129] Top shape: 1 128 28 28 (100352)
I0608 17:34:25.247254 10488 net.cpp:137] Memory required for data: 134270988
I0608 17:34:25.247264 10488 layer_factory.hpp:77] Creating layer res3b1_branch2b_relu
I0608 17:34:25.247298 10488 net.cpp:84] Creating Layer res3b1_branch2b_relu
I0608 17:34:25.247326 10488 net.cpp:406] res3b1_branch2b_relu <- res3b1_branch2b
I0608 17:34:25.247334 10488 net.cpp:367] res3b1_branch2b_relu -> res3b1_branch2b (in-place)
I0608 17:34:25.247364 10488 net.cpp:122] Setting up res3b1_branch2b_relu
I0608 17:34:25.247424 10488 net.cpp:129] Top shape: 1 128 28 28 (100352)
I0608 17:34:25.247455 10488 net.cpp:137] Memory required for data: 134672396
I0608 17:34:25.247462 10488 layer_factory.hpp:77] Creating layer res3b1_branch2c
I0608 17:34:25.247496 10488 net.cpp:84] Creating Layer res3b1_branch2c
I0608 17:34:25.247525 10488 net.cpp:406] res3b1_branch2c <- res3b1_branch2b
I0608 17:34:25.247534 10488 net.cpp:380] res3b1_branch2c -> res3b1_branch2c
I0608 17:34:25.270617 10488 net.cpp:122] Setting up res3b1_branch2c
I0608 17:34:25.270715 10488 net.cpp:129] Top shape: 1 512 28 28 (401408)
I0608 17:34:25.270727 10488 net.cpp:137] Memory required for data: 136278028
I0608 17:34:25.270738 10488 layer_factory.hpp:77] Creating layer bn3b1_branch2c
I0608 17:34:25.270751 10488 net.cpp:84] Creating Layer bn3b1_branch2c
I0608 17:34:25.270759 10488 net.cpp:406] bn3b1_branch2c <- res3b1_branch2c
I0608 17:34:25.270768 10488 net.cpp:367] bn3b1_branch2c -> res3b1_branch2c (in-place)
I0608 17:34:25.270823 10488 net.cpp:122] Setting up bn3b1_branch2c
I0608 17:34:25.270864 10488 net.cpp:129] Top shape: 1 512 28 28 (401408)
I0608 17:34:25.270871 10488 net.cpp:137] Memory required for data: 137883660
I0608 17:34:25.270885 10488 layer_factory.hpp:77] Creating layer scale3b1_branch2c
I0608 17:34:25.270895 10488 net.cpp:84] Creating Layer scale3b1_branch2c
I0608 17:34:25.270906 10488 net.cpp:406] scale3b1_branch2c <- res3b1_branch2c
I0608 17:34:25.270947 10488 net.cpp:367] scale3b1_branch2c -> res3b1_branch2c (in-place)
I0608 17:34:25.270972 10488 layer_factory.hpp:77] Creating layer scale3b1_branch2c
I0608 17:34:25.271090 10488 net.cpp:122] Setting up scale3b1_branch2c
I0608 17:34:25.271103 10488 net.cpp:129] Top shape: 1 512 28 28 (401408)
I0608 17:34:25.271116 10488 net.cpp:137] Memory required for data: 139489292
I0608 17:34:25.271183 10488 layer_factory.hpp:77] Creating layer res3b1
I0608 17:34:25.271287 10488 net.cpp:84] Creating Layer res3b1
I0608 17:34:25.271343 10488 net.cpp:406] res3b1 <- res3a_res3a_relu_0_split_1
I0608 17:34:25.271363 10488 net.cpp:406] res3b1 <- res3b1_branch2c
I0608 17:34:25.271389 10488 net.cpp:380] res3b1 -> res3b1
I0608 17:34:25.271438 10488 net.cpp:122] Setting up res3b1
I0608 17:34:25.271477 10488 net.cpp:129] Top shape: 1 512 28 28 (401408)
I0608 17:34:25.271487 10488 net.cpp:137] Memory required for data: 141094924
I0608 17:34:25.271519 10488 layer_factory.hpp:77] Creating layer res3b1_relu
I0608 17:34:25.271538 10488 net.cpp:84] Creating Layer res3b1_relu
I0608 17:34:25.271548 10488 net.cpp:406] res3b1_relu <- res3b1
I0608 17:34:25.271555 10488 net.cpp:367] res3b1_relu -> res3b1 (in-place)
I0608 17:34:25.271565 10488 net.cpp:122] Setting up res3b1_relu
I0608 17:34:25.271605 10488 net.cpp:129] Top shape: 1 512 28 28 (401408)
I0608 17:34:25.271613 10488 net.cpp:137] Memory required for data: 142700556
I0608 17:34:25.271620 10488 layer_factory.hpp:77] Creating layer res3b1_res3b1_relu_0_split
I0608 17:34:25.271636 10488 net.cpp:84] Creating Layer res3b1_res3b1_relu_0_split
I0608 17:34:25.271642 10488 net.cpp:406] res3b1_res3b1_relu_0_split <- res3b1
I0608 17:34:25.271651 10488 net.cpp:380] res3b1_res3b1_relu_0_split -> res3b1_res3b1_relu_0_split_0
I0608 17:34:25.271694 10488 net.cpp:380] res3b1_res3b1_relu_0_split -> res3b1_res3b1_relu_0_split_1
I0608 17:34:25.271711 10488 net.cpp:122] Setting up res3b1_res3b1_relu_0_split
I0608 17:34:25.271721 10488 net.cpp:129] Top shape: 1 512 28 28 (401408)
I0608 17:34:25.271728 10488 net.cpp:129] Top shape: 1 512 28 28 (401408)
I0608 17:34:25.271731 10488 net.cpp:137] Memory required for data: 145911820
I0608 17:34:25.271805 10488 layer_factory.hpp:77] Creating layer res3b2_branch2a
I0608 17:34:25.271827 10488 net.cpp:84] Creating Layer res3b2_branch2a
I0608 17:34:25.271836 10488 net.cpp:406] res3b2_branch2a <- res3b1_res3b1_relu_0_split_0
I0608 17:34:25.271847 10488 net.cpp:380] res3b2_branch2a -> res3b2_branch2a
I0608 17:34:25.274044 10488 net.cpp:122] Setting up res3b2_branch2a
I0608 17:34:25.274147 10488 net.cpp:129] Top shape: 1 128 28 28 (100352)
I0608 17:34:25.274158 10488 net.cpp:137] Memory required for data: 146313228
I0608 17:34:25.274170 10488 layer_factory.hpp:77] Creating layer bn3b2_branch2a
I0608 17:34:25.274195 10488 net.cpp:84] Creating Layer bn3b2_branch2a
I0608 17:34:25.274235 10488 net.cpp:406] bn3b2_branch2a <- res3b2_branch2a
I0608 17:34:25.274250 10488 net.cpp:367] bn3b2_branch2a -> res3b2_branch2a (in-place)
I0608 17:34:25.274284 10488 net.cpp:122] Setting up bn3b2_branch2a
I0608 17:34:25.274328 10488 net.cpp:129] Top shape: 1 128 28 28 (100352)
I0608 17:34:25.274336 10488 net.cpp:137] Memory required for data: 146714636
I0608 17:34:25.274348 10488 layer_factory.hpp:77] Creating layer scale3b2_branch2a
I0608 17:34:25.274391 10488 net.cpp:84] Creating Layer scale3b2_branch2a
I0608 17:34:25.274451 10488 net.cpp:406] scale3b2_branch2a <- res3b2_branch2a
I0608 17:34:25.274493 10488 net.cpp:367] scale3b2_branch2a -> res3b2_branch2a (in-place)
I0608 17:34:25.274518 10488 layer_factory.hpp:77] Creating layer scale3b2_branch2a
I0608 17:34:25.288002 10488 net.cpp:122] Setting up scale3b2_branch2a
I0608 17:34:25.288089 10488 net.cpp:129] Top shape: 1 128 28 28 (100352)
I0608 17:34:25.288103 10488 net.cpp:137] Memory required for data: 147116044
I0608 17:34:25.288151 10488 layer_factory.hpp:77] Creating layer res3b2_branch2a_relu
I0608 17:34:25.288200 10488 net.cpp:84] Creating Layer res3b2_branch2a_relu
I0608 17:34:25.288235 10488 net.cpp:406] res3b2_branch2a_relu <- res3b2_branch2a
I0608 17:34:25.288246 10488 net.cpp:367] res3b2_branch2a_relu -> res3b2_branch2a (in-place)
I0608 17:34:25.288262 10488 net.cpp:122] Setting up res3b2_branch2a_relu
I0608 17:34:25.288339 10488 net.cpp:129] Top shape: 1 128 28 28 (100352)
I0608 17:34:25.288378 10488 net.cpp:137] Memory required for data: 147517452
I0608 17:34:25.288414 10488 layer_factory.hpp:77] Creating layer res3b2_branch2b
I0608 17:34:25.288439 10488 net.cpp:84] Creating Layer res3b2_branch2b
I0608 17:34:25.288483 10488 net.cpp:406] res3b2_branch2b <- res3b2_branch2a
I0608 17:34:25.288499 10488 net.cpp:380] res3b2_branch2b -> res3b2_branch2b
I0608 17:34:25.294203 10488 net.cpp:122] Setting up res3b2_branch2b
I0608 17:34:25.294296 10488 net.cpp:129] Top shape: 1 128 28 28 (100352)
I0608 17:34:25.294307 10488 net.cpp:137] Memory required for data: 147918860
I0608 17:34:25.294353 10488 layer_factory.hpp:77] Creating layer bn3b2_branch2b
I0608 17:34:25.294370 10488 net.cpp:84] Creating Layer bn3b2_branch2b
I0608 17:34:25.294389 10488 net.cpp:406] bn3b2_branch2b <- res3b2_branch2b
I0608 17:34:25.294467 10488 net.cpp:367] bn3b2_branch2b -> res3b2_branch2b (in-place)
I0608 17:34:25.294541 10488 net.cpp:122] Setting up bn3b2_branch2b
I0608 17:34:25.294585 10488 net.cpp:129] Top shape: 1 128 28 28 (100352)
I0608 17:34:25.294620 10488 net.cpp:137] Memory required for data: 148320268
I0608 17:34:25.294661 10488 layer_factory.hpp:77] Creating layer scale3b2_branch2b
I0608 17:34:25.294703 10488 net.cpp:84] Creating Layer scale3b2_branch2b
I0608 17:34:25.294731 10488 net.cpp:406] scale3b2_branch2b <- res3b2_branch2b
I0608 17:34:25.294770 10488 net.cpp:367] scale3b2_branch2b -> res3b2_branch2b (in-place)
I0608 17:34:25.294821 10488 layer_factory.hpp:77] Creating layer scale3b2_branch2b
I0608 17:34:25.294863 10488 net.cpp:122] Setting up scale3b2_branch2b
I0608 17:34:25.294898 10488 net.cpp:129] Top shape: 1 128 28 28 (100352)
I0608 17:34:25.294906 10488 net.cpp:137] Memory required for data: 148721676
I0608 17:34:25.294919 10488 layer_factory.hpp:77] Creating layer res3b2_branch2b_relu
I0608 17:34:25.294929 10488 net.cpp:84] Creating Layer res3b2_branch2b_relu
I0608 17:34:25.294986 10488 net.cpp:406] res3b2_branch2b_relu <- res3b2_branch2b
I0608 17:34:25.294998 10488 net.cpp:367] res3b2_branch2b_relu -> res3b2_branch2b (in-place)
I0608 17:34:25.295011 10488 net.cpp:122] Setting up res3b2_branch2b_relu
I0608 17:34:25.295018 10488 net.cpp:129] Top shape: 1 128 28 28 (100352)
I0608 17:34:25.295024 10488 net.cpp:137] Memory required for data: 149123084
I0608 17:34:25.295055 10488 layer_factory.hpp:77] Creating layer res3b2_branch2c
I0608 17:34:25.295075 10488 net.cpp:84] Creating Layer res3b2_branch2c
I0608 17:34:25.295084 10488 net.cpp:406] res3b2_branch2c <- res3b2_branch2b
I0608 17:34:25.295094 10488 net.cpp:380] res3b2_branch2c -> res3b2_branch2c
I0608 17:34:25.297453 10488 net.cpp:122] Setting up res3b2_branch2c
I0608 17:34:25.297513 10488 net.cpp:129] Top shape: 1 512 28 28 (401408)
I0608 17:34:25.297523 10488 net.cpp:137] Memory required for data: 150728716
I0608 17:34:25.297535 10488 layer_factory.hpp:77] Creating layer bn3b2_branch2c
I0608 17:34:25.297570 10488 net.cpp:84] Creating Layer bn3b2_branch2c
I0608 17:34:25.297613 10488 net.cpp:406] bn3b2_branch2c <- res3b2_branch2c
I0608 17:34:25.297626 10488 net.cpp:367] bn3b2_branch2c -> res3b2_branch2c (in-place)
I0608 17:34:25.297685 10488 net.cpp:122] Setting up bn3b2_branch2c
I0608 17:34:25.297726 10488 net.cpp:129] Top shape: 1 512 28 28 (401408)
I0608 17:34:25.297734 10488 net.cpp:137] Memory required for data: 152334348
I0608 17:34:25.297755 10488 layer_factory.hpp:77] Creating layer scale3b2_branch2c
I0608 17:34:25.297793 10488 net.cpp:84] Creating Layer scale3b2_branch2c
I0608 17:34:25.297803 10488 net.cpp:406] scale3b2_branch2c <- res3b2_branch2c
I0608 17:34:25.297811 10488 net.cpp:367] scale3b2_branch2c -> res3b2_branch2c (in-place)
I0608 17:34:25.297830 10488 layer_factory.hpp:77] Creating layer scale3b2_branch2c
I0608 17:34:25.297894 10488 net.cpp:122] Setting up scale3b2_branch2c
I0608 17:34:25.297933 10488 net.cpp:129] Top shape: 1 512 28 28 (401408)
I0608 17:34:25.297940 10488 net.cpp:137] Memory required for data: 153939980
I0608 17:34:25.297950 10488 layer_factory.hpp:77] Creating layer res3b2
I0608 17:34:25.297958 10488 net.cpp:84] Creating Layer res3b2
I0608 17:34:25.297966 10488 net.cpp:406] res3b2 <- res3b1_res3b1_relu_0_split_1
I0608 17:34:25.297972 10488 net.cpp:406] res3b2 <- res3b2_branch2c
I0608 17:34:25.297981 10488 net.cpp:380] res3b2 -> res3b2
I0608 17:34:25.298022 10488 net.cpp:122] Setting up res3b2
I0608 17:34:25.298032 10488 net.cpp:129] Top shape: 1 512 28 28 (401408)
I0608 17:34:25.298038 10488 net.cpp:137] Memory required for data: 155545612
I0608 17:34:25.298043 10488 layer_factory.hpp:77] Creating layer res3b2_relu
I0608 17:34:25.298050 10488 net.cpp:84] Creating Layer res3b2_relu
I0608 17:34:25.298056 10488 net.cpp:406] res3b2_relu <- res3b2
I0608 17:34:25.298065 10488 net.cpp:367] res3b2_relu -> res3b2 (in-place)
I0608 17:34:25.298105 10488 net.cpp:122] Setting up res3b2_relu
I0608 17:34:25.298144 10488 net.cpp:129] Top shape: 1 512 28 28 (401408)
I0608 17:34:25.298180 10488 net.cpp:137] Memory required for data: 157151244
I0608 17:34:25.298188 10488 layer_factory.hpp:77] Creating layer res3b2_res3b2_relu_0_split
I0608 17:34:25.298197 10488 net.cpp:84] Creating Layer res3b2_res3b2_relu_0_split
I0608 17:34:25.298202 10488 net.cpp:406] res3b2_res3b2_relu_0_split <- res3b2
I0608 17:34:25.298208 10488 net.cpp:380] res3b2_res3b2_relu_0_split -> res3b2_res3b2_relu_0_split_0
I0608 17:34:25.298218 10488 net.cpp:380] res3b2_res3b2_relu_0_split -> res3b2_res3b2_relu_0_split_1
I0608 17:34:25.298228 10488 net.cpp:122] Setting up res3b2_res3b2_relu_0_split
I0608 17:34:25.298238 10488 net.cpp:129] Top shape: 1 512 28 28 (401408)
I0608 17:34:25.298274 10488 net.cpp:129] Top shape: 1 512 28 28 (401408)
I0608 17:34:25.298281 10488 net.cpp:137] Memory required for data: 160362508
I0608 17:34:25.298286 10488 layer_factory.hpp:77] Creating layer res3b3_branch2a
I0608 17:34:25.298298 10488 net.cpp:84] Creating Layer res3b3_branch2a
I0608 17:34:25.298305 10488 net.cpp:406] res3b3_branch2a <- res3b2_res3b2_relu_0_split_0
I0608 17:34:25.298373 10488 net.cpp:380] res3b3_branch2a -> res3b3_branch2a
I0608 17:34:25.300382 10488 net.cpp:122] Setting up res3b3_branch2a
I0608 17:34:25.300487 10488 net.cpp:129] Top shape: 1 128 28 28 (100352)
I0608 17:34:25.300493 10488 net.cpp:137] Memory required for data: 160763916
I0608 17:34:25.300500 10488 layer_factory.hpp:77] Creating layer bn3b3_branch2a
I0608 17:34:25.300513 10488 net.cpp:84] Creating Layer bn3b3_branch2a
I0608 17:34:25.300518 10488 net.cpp:406] bn3b3_branch2a <- res3b3_branch2a
I0608 17:34:25.300525 10488 net.cpp:367] bn3b3_branch2a -> res3b3_branch2a (in-place)
I0608 17:34:25.300552 10488 net.cpp:122] Setting up bn3b3_branch2a
I0608 17:34:25.300595 10488 net.cpp:129] Top shape: 1 128 28 28 (100352)
I0608 17:34:25.300602 10488 net.cpp:137] Memory required for data: 161165324
I0608 17:34:25.300693 10488 layer_factory.hpp:77] Creating layer scale3b3_branch2a
I0608 17:34:25.300730 10488 net.cpp:84] Creating Layer scale3b3_branch2a
I0608 17:34:25.300750 10488 net.cpp:406] scale3b3_branch2a <- res3b3_branch2a
I0608 17:34:25.300784 10488 net.cpp:367] scale3b3_branch2a -> res3b3_branch2a (in-place)
I0608 17:34:25.300801 10488 layer_factory.hpp:77] Creating layer scale3b3_branch2a
I0608 17:34:25.300848 10488 net.cpp:122] Setting up scale3b3_branch2a
I0608 17:34:25.300879 10488 net.cpp:129] Top shape: 1 128 28 28 (100352)
I0608 17:34:25.300884 10488 net.cpp:137] Memory required for data: 161566732
I0608 17:34:25.300889 10488 layer_factory.hpp:77] Creating layer res3b3_branch2a_relu
I0608 17:34:25.300920 10488 net.cpp:84] Creating Layer res3b3_branch2a_relu
I0608 17:34:25.300926 10488 net.cpp:406] res3b3_branch2a_relu <- res3b3_branch2a
I0608 17:34:25.300953 10488 net.cpp:367] res3b3_branch2a_relu -> res3b3_branch2a (in-place)
I0608 17:34:25.300962 10488 net.cpp:122] Setting up res3b3_branch2a_relu
I0608 17:34:25.300989 10488 net.cpp:129] Top shape: 1 128 28 28 (100352)
I0608 17:34:25.300994 10488 net.cpp:137] Memory required for data: 161968140
I0608 17:34:25.300997 10488 layer_factory.hpp:77] Creating layer res3b3_branch2b
I0608 17:34:25.301028 10488 net.cpp:84] Creating Layer res3b3_branch2b
I0608 17:34:25.301033 10488 net.cpp:406] res3b3_branch2b <- res3b3_branch2a
I0608 17:34:25.301064 10488 net.cpp:380] res3b3_branch2b -> res3b3_branch2b
I0608 17:34:25.305424 10488 net.cpp:122] Setting up res3b3_branch2b
I0608 17:34:25.305485 10488 net.cpp:129] Top shape: 1 128 28 28 (100352)
I0608 17:34:25.305490 10488 net.cpp:137] Memory required for data: 162369548
I0608 17:34:25.305498 10488 layer_factory.hpp:77] Creating layer bn3b3_branch2b
I0608 17:34:25.305531 10488 net.cpp:84] Creating Layer bn3b3_branch2b
I0608 17:34:25.305588 10488 net.cpp:406] bn3b3_branch2b <- res3b3_branch2b
I0608 17:34:25.305629 10488 net.cpp:367] bn3b3_branch2b -> res3b3_branch2b (in-place)
I0608 17:34:25.305675 10488 net.cpp:122] Setting up bn3b3_branch2b
I0608 17:34:25.305706 10488 net.cpp:129] Top shape: 1 128 28 28 (100352)
I0608 17:34:25.305711 10488 net.cpp:137] Memory required for data: 162770956
I0608 17:34:25.305807 10488 layer_factory.hpp:77] Creating layer scale3b3_branch2b
I0608 17:34:25.305846 10488 net.cpp:84] Creating Layer scale3b3_branch2b
I0608 17:34:25.305874 10488 net.cpp:406] scale3b3_branch2b <- res3b3_branch2b
I0608 17:34:25.305903 10488 net.cpp:367] scale3b3_branch2b -> res3b3_branch2b (in-place)
I0608 17:34:25.305944 10488 layer_factory.hpp:77] Creating layer scale3b3_branch2b
I0608 17:34:25.305994 10488 net.cpp:122] Setting up scale3b3_branch2b
I0608 17:34:25.306025 10488 net.cpp:129] Top shape: 1 128 28 28 (100352)
I0608 17:34:25.306030 10488 net.cpp:137] Memory required for data: 163172364
I0608 17:34:25.306035 10488 layer_factory.hpp:77] Creating layer res3b3_branch2b_relu
I0608 17:34:25.306063 10488 net.cpp:84] Creating Layer res3b3_branch2b_relu
I0608 17:34:25.306069 10488 net.cpp:406] res3b3_branch2b_relu <- res3b3_branch2b
I0608 17:34:25.306103 10488 net.cpp:367] res3b3_branch2b_relu -> res3b3_branch2b (in-place)
I0608 17:34:25.306134 10488 net.cpp:122] Setting up res3b3_branch2b_relu
I0608 17:34:25.306190 10488 net.cpp:129] Top shape: 1 128 28 28 (100352)
I0608 17:34:25.306195 10488 net.cpp:137] Memory required for data: 163573772
I0608 17:34:25.306246 10488 layer_factory.hpp:77] Creating layer res3b3_branch2c
I0608 17:34:25.306284 10488 net.cpp:84] Creating Layer res3b3_branch2c
I0608 17:34:25.306313 10488 net.cpp:406] res3b3_branch2c <- res3b3_branch2b
I0608 17:34:25.306324 10488 net.cpp:380] res3b3_branch2c -> res3b3_branch2c
I0608 17:34:25.308413 10488 net.cpp:122] Setting up res3b3_branch2c
I0608 17:34:25.308537 10488 net.cpp:129] Top shape: 1 512 28 28 (401408)
I0608 17:34:25.308548 10488 net.cpp:137] Memory required for data: 165179404
I0608 17:34:25.308559 10488 layer_factory.hpp:77] Creating layer bn3b3_branch2c
I0608 17:34:25.308603 10488 net.cpp:84] Creating Layer bn3b3_branch2c
I0608 17:34:25.308640 10488 net.cpp:406] bn3b3_branch2c <- res3b3_branch2c
I0608 17:34:25.308662 10488 net.cpp:367] bn3b3_branch2c -> res3b3_branch2c (in-place)
I0608 17:34:25.308722 10488 net.cpp:122] Setting up bn3b3_branch2c
I0608 17:34:25.308759 10488 net.cpp:129] Top shape: 1 512 28 28 (401408)
I0608 17:34:25.308794 10488 net.cpp:137] Memory required for data: 166785036
I0608 17:34:25.308833 10488 layer_factory.hpp:77] Creating layer scale3b3_branch2c
I0608 17:34:25.308894 10488 net.cpp:84] Creating Layer scale3b3_branch2c
I0608 17:34:25.308929 10488 net.cpp:406] scale3b3_branch2c <- res3b3_branch2c
I0608 17:34:25.308965 10488 net.cpp:367] scale3b3_branch2c -> res3b3_branch2c (in-place)
I0608 17:34:25.309057 10488 layer_factory.hpp:77] Creating layer scale3b3_branch2c
I0608 17:34:25.309115 10488 net.cpp:122] Setting up scale3b3_branch2c
I0608 17:34:25.309154 10488 net.cpp:129] Top shape: 1 512 28 28 (401408)
I0608 17:34:25.309186 10488 net.cpp:137] Memory required for data: 168390668
I0608 17:34:25.309224 10488 layer_factory.hpp:77] Creating layer res3b3
I0608 17:34:25.309262 10488 net.cpp:84] Creating Layer res3b3
I0608 17:34:25.309296 10488 net.cpp:406] res3b3 <- res3b2_res3b2_relu_0_split_1
I0608 17:34:25.309332 10488 net.cpp:406] res3b3 <- res3b3_branch2c
I0608 17:34:25.309372 10488 net.cpp:380] res3b3 -> res3b3
I0608 17:34:25.309414 10488 net.cpp:122] Setting up res3b3
I0608 17:34:25.309450 10488 net.cpp:129] Top shape: 1 512 28 28 (401408)
I0608 17:34:25.309484 10488 net.cpp:137] Memory required for data: 169996300
I0608 17:34:25.309517 10488 layer_factory.hpp:77] Creating layer res3b3_relu
I0608 17:34:25.309554 10488 net.cpp:84] Creating Layer res3b3_relu
I0608 17:34:25.309588 10488 net.cpp:406] res3b3_relu <- res3b3
I0608 17:34:25.309625 10488 net.cpp:367] res3b3_relu -> res3b3 (in-place)
I0608 17:34:25.309664 10488 net.cpp:122] Setting up res3b3_relu
I0608 17:34:25.309700 10488 net.cpp:129] Top shape: 1 512 28 28 (401408)
I0608 17:34:25.309732 10488 net.cpp:137] Memory required for data: 171601932
I0608 17:34:25.309767 10488 layer_factory.hpp:77] Creating layer res3b3_res3b3_relu_0_split
I0608 17:34:25.309803 10488 net.cpp:84] Creating Layer res3b3_res3b3_relu_0_split
I0608 17:34:25.309840 10488 net.cpp:406] res3b3_res3b3_relu_0_split <- res3b3
I0608 17:34:25.309878 10488 net.cpp:380] res3b3_res3b3_relu_0_split -> res3b3_res3b3_relu_0_split_0
I0608 17:34:25.309919 10488 net.cpp:380] res3b3_res3b3_relu_0_split -> res3b3_res3b3_relu_0_split_1
I0608 17:34:25.309964 10488 net.cpp:122] Setting up res3b3_res3b3_relu_0_split
I0608 17:34:25.310003 10488 net.cpp:129] Top shape: 1 512 28 28 (401408)
I0608 17:34:25.310063 10488 net.cpp:129] Top shape: 1 512 28 28 (401408)
I0608 17:34:25.310106 10488 net.cpp:137] Memory required for data: 174813196
I0608 17:34:25.310115 10488 layer_factory.hpp:77] Creating layer res3b4_branch2a
I0608 17:34:25.310164 10488 net.cpp:84] Creating Layer res3b4_branch2a
I0608 17:34:25.310205 10488 net.cpp:406] res3b4_branch2a <- res3b3_res3b3_relu_0_split_0
I0608 17:34:25.310256 10488 net.cpp:380] res3b4_branch2a -> res3b4_branch2a
I0608 17:34:25.330035 10488 net.cpp:122] Setting up res3b4_branch2a
I0608 17:34:25.330133 10488 net.cpp:129] Top shape: 1 128 28 28 (100352)
I0608 17:34:25.330211 10488 net.cpp:137] Memory required for data: 175214604
I0608 17:34:25.330229 10488 layer_factory.hpp:77] Creating layer bn3b4_branch2a
I0608 17:34:25.330250 10488 net.cpp:84] Creating Layer bn3b4_branch2a
I0608 17:34:25.330288 10488 net.cpp:406] bn3b4_branch2a <- res3b4_branch2a
I0608 17:34:25.330303 10488 net.cpp:367] bn3b4_branch2a -> res3b4_branch2a (in-place)
I0608 17:34:25.330369 10488 net.cpp:122] Setting up bn3b4_branch2a
I0608 17:34:25.330381 10488 net.cpp:129] Top shape: 1 128 28 28 (100352)
I0608 17:34:25.330387 10488 net.cpp:137] Memory required for data: 175616012
I0608 17:34:25.330397 10488 layer_factory.hpp:77] Creating layer scale3b4_branch2a
I0608 17:34:25.330407 10488 net.cpp:84] Creating Layer scale3b4_branch2a
I0608 17:34:25.330410 10488 net.cpp:406] scale3b4_branch2a <- res3b4_branch2a
I0608 17:34:25.330417 10488 net.cpp:367] scale3b4_branch2a -> res3b4_branch2a (in-place)
I0608 17:34:25.330430 10488 layer_factory.hpp:77] Creating layer scale3b4_branch2a
I0608 17:34:25.330457 10488 net.cpp:122] Setting up scale3b4_branch2a
I0608 17:34:25.330464 10488 net.cpp:129] Top shape: 1 128 28 28 (100352)
I0608 17:34:25.330469 10488 net.cpp:137] Memory required for data: 176017420
I0608 17:34:25.330477 10488 layer_factory.hpp:77] Creating layer res3b4_branch2a_relu
I0608 17:34:25.330521 10488 net.cpp:84] Creating Layer res3b4_branch2a_relu
I0608 17:34:25.330590 10488 net.cpp:406] res3b4_branch2a_relu <- res3b4_branch2a
I0608 17:34:25.330634 10488 net.cpp:367] res3b4_branch2a_relu -> res3b4_branch2a (in-place)
I0608 17:34:25.330670 10488 net.cpp:122] Setting up res3b4_branch2a_relu
I0608 17:34:25.330680 10488 net.cpp:129] Top shape: 1 128 28 28 (100352)
I0608 17:34:25.330706 10488 net.cpp:137] Memory required for data: 176418828
I0608 17:34:25.330713 10488 layer_factory.hpp:77] Creating layer res3b4_branch2b
I0608 17:34:25.330724 10488 net.cpp:84] Creating Layer res3b4_branch2b
I0608 17:34:25.330751 10488 net.cpp:406] res3b4_branch2b <- res3b4_branch2a
I0608 17:34:25.330760 10488 net.cpp:380] res3b4_branch2b -> res3b4_branch2b
I0608 17:34:25.348198 10488 net.cpp:122] Setting up res3b4_branch2b
I0608 17:34:25.348316 10488 net.cpp:129] Top shape: 1 128 28 28 (100352)
I0608 17:34:25.348330 10488 net.cpp:137] Memory required for data: 176820236
I0608 17:34:25.348384 10488 layer_factory.hpp:77] Creating layer bn3b4_branch2b
I0608 17:34:25.348471 10488 net.cpp:84] Creating Layer bn3b4_branch2b
I0608 17:34:25.348526 10488 net.cpp:406] bn3b4_branch2b <- res3b4_branch2b
I0608 17:34:25.348541 10488 net.cpp:367] bn3b4_branch2b -> res3b4_branch2b (in-place)
I0608 17:34:25.348603 10488 net.cpp:122] Setting up bn3b4_branch2b
I0608 17:34:25.348645 10488 net.cpp:129] Top shape: 1 128 28 28 (100352)
I0608 17:34:25.348654 10488 net.cpp:137] Memory required for data: 177221644
I0608 17:34:25.348666 10488 layer_factory.hpp:77] Creating layer scale3b4_branch2b
I0608 17:34:25.348683 10488 net.cpp:84] Creating Layer scale3b4_branch2b
I0608 17:34:25.348690 10488 net.cpp:406] scale3b4_branch2b <- res3b4_branch2b
I0608 17:34:25.348698 10488 net.cpp:367] scale3b4_branch2b -> res3b4_branch2b (in-place)
I0608 17:34:25.348716 10488 layer_factory.hpp:77] Creating layer scale3b4_branch2b
I0608 17:34:25.348791 10488 net.cpp:122] Setting up scale3b4_branch2b
I0608 17:34:25.348845 10488 net.cpp:129] Top shape: 1 128 28 28 (100352)
I0608 17:34:25.348855 10488 net.cpp:137] Memory required for data: 177623052
I0608 17:34:25.348865 10488 layer_factory.hpp:77] Creating layer res3b4_branch2b_relu
I0608 17:34:25.348875 10488 net.cpp:84] Creating Layer res3b4_branch2b_relu
I0608 17:34:25.348881 10488 net.cpp:406] res3b4_branch2b_relu <- res3b4_branch2b
I0608 17:34:25.348913 10488 net.cpp:367] res3b4_branch2b_relu -> res3b4_branch2b (in-place)
I0608 17:34:25.348956 10488 net.cpp:122] Setting up res3b4_branch2b_relu
I0608 17:34:25.348968 10488 net.cpp:129] Top shape: 1 128 28 28 (100352)
I0608 17:34:25.349001 10488 net.cpp:137] Memory required for data: 178024460
I0608 17:34:25.349010 10488 layer_factory.hpp:77] Creating layer res3b4_branch2c
I0608 17:34:25.349076 10488 net.cpp:84] Creating Layer res3b4_branch2c
I0608 17:34:25.349123 10488 net.cpp:406] res3b4_branch2c <- res3b4_branch2b
I0608 17:34:25.349165 10488 net.cpp:380] res3b4_branch2c -> res3b4_branch2c
I0608 17:34:25.351320 10488 net.cpp:122] Setting up res3b4_branch2c
I0608 17:34:25.351413 10488 net.cpp:129] Top shape: 1 512 28 28 (401408)
I0608 17:34:25.351425 10488 net.cpp:137] Memory required for data: 179630092
I0608 17:34:25.351435 10488 layer_factory.hpp:77] Creating layer bn3b4_branch2c
I0608 17:34:25.351447 10488 net.cpp:84] Creating Layer bn3b4_branch2c
I0608 17:34:25.351502 10488 net.cpp:406] bn3b4_branch2c <- res3b4_branch2c
I0608 17:34:25.351517 10488 net.cpp:367] bn3b4_branch2c -> res3b4_branch2c (in-place)
I0608 17:34:25.351601 10488 net.cpp:122] Setting up bn3b4_branch2c
I0608 17:34:25.351642 10488 net.cpp:129] Top shape: 1 512 28 28 (401408)
I0608 17:34:25.351650 10488 net.cpp:137] Memory required for data: 181235724
I0608 17:34:25.351665 10488 layer_factory.hpp:77] Creating layer scale3b4_branch2c
I0608 17:34:25.351680 10488 net.cpp:84] Creating Layer scale3b4_branch2c
I0608 17:34:25.351688 10488 net.cpp:406] scale3b4_branch2c <- res3b4_branch2c
I0608 17:34:25.351703 10488 net.cpp:367] scale3b4_branch2c -> res3b4_branch2c (in-place)
I0608 17:34:25.351728 10488 layer_factory.hpp:77] Creating layer scale3b4_branch2c
I0608 17:34:25.351824 10488 net.cpp:122] Setting up scale3b4_branch2c
I0608 17:34:25.351889 10488 net.cpp:129] Top shape: 1 512 28 28 (401408)
I0608 17:34:25.351927 10488 net.cpp:137] Memory required for data: 182841356
I0608 17:34:25.351969 10488 layer_factory.hpp:77] Creating layer res3b4
I0608 17:34:25.352145 10488 net.cpp:84] Creating Layer res3b4
I0608 17:34:25.352694 10488 net.cpp:406] res3b4 <- res3b3_res3b3_relu_0_split_1
I0608 17:34:25.352715 10488 net.cpp:406] res3b4 <- res3b4_branch2c
I0608 17:34:25.352730 10488 net.cpp:380] res3b4 -> res3b4
I0608 17:34:25.352775 10488 net.cpp:122] Setting up res3b4
I0608 17:34:25.352915 10488 net.cpp:129] Top shape: 1 512 28 28 (401408)
I0608 17:34:25.353206 10488 net.cpp:137] Memory required for data: 184446988
I0608 17:34:25.353291 10488 layer_factory.hpp:77] Creating layer res3b4_relu
I0608 17:34:25.353317 10488 net.cpp:84] Creating Layer res3b4_relu
I0608 17:34:25.353327 10488 net.cpp:406] res3b4_relu <- res3b4
I0608 17:34:25.353375 10488 net.cpp:367] res3b4_relu -> res3b4 (in-place)
I0608 17:34:25.353463 10488 net.cpp:122] Setting up res3b4_relu
I0608 17:34:25.353476 10488 net.cpp:129] Top shape: 1 512 28 28 (401408)
I0608 17:34:25.353482 10488 net.cpp:137] Memory required for data: 186052620
I0608 17:34:25.353518 10488 layer_factory.hpp:77] Creating layer res3b4_res3b4_relu_0_split
I0608 17:34:25.353560 10488 net.cpp:84] Creating Layer res3b4_res3b4_relu_0_split
I0608 17:34:25.353596 10488 net.cpp:406] res3b4_res3b4_relu_0_split <- res3b4
I0608 17:34:25.353615 10488 net.cpp:380] res3b4_res3b4_relu_0_split -> res3b4_res3b4_relu_0_split_0
I0608 17:34:25.353626 10488 net.cpp:380] res3b4_res3b4_relu_0_split -> res3b4_res3b4_relu_0_split_1
I0608 17:34:25.353638 10488 net.cpp:122] Setting up res3b4_res3b4_relu_0_split
I0608 17:34:25.353646 10488 net.cpp:129] Top shape: 1 512 28 28 (401408)
I0608 17:34:25.353652 10488 net.cpp:129] Top shape: 1 512 28 28 (401408)
I0608 17:34:25.353657 10488 net.cpp:137] Memory required for data: 189263884
I0608 17:34:25.353662 10488 layer_factory.hpp:77] Creating layer res3b5_branch2a
I0608 17:34:25.353677 10488 net.cpp:84] Creating Layer res3b5_branch2a
I0608 17:34:25.353684 10488 net.cpp:406] res3b5_branch2a <- res3b4_res3b4_relu_0_split_0
I0608 17:34:25.353691 10488 net.cpp:380] res3b5_branch2a -> res3b5_branch2a
I0608 17:34:25.356536 10488 net.cpp:122] Setting up res3b5_branch2a
I0608 17:34:25.356616 10488 net.cpp:129] Top shape: 1 128 28 28 (100352)
I0608 17:34:25.356655 10488 net.cpp:137] Memory required for data: 189665292
I0608 17:34:25.356669 10488 layer_factory.hpp:77] Creating layer bn3b5_branch2a
I0608 17:34:25.356688 10488 net.cpp:84] Creating Layer bn3b5_branch2a
I0608 17:34:25.356727 10488 net.cpp:406] bn3b5_branch2a <- res3b5_branch2a
I0608 17:34:25.356772 10488 net.cpp:367] bn3b5_branch2a -> res3b5_branch2a (in-place)
I0608 17:34:25.356801 10488 net.cpp:122] Setting up bn3b5_branch2a
I0608 17:34:25.356809 10488 net.cpp:129] Top shape: 1 128 28 28 (100352)
I0608 17:34:25.356814 10488 net.cpp:137] Memory required for data: 190066700
I0608 17:34:25.356830 10488 layer_factory.hpp:77] Creating layer scale3b5_branch2a
I0608 17:34:25.356895 10488 net.cpp:84] Creating Layer scale3b5_branch2a
I0608 17:34:25.356904 10488 net.cpp:406] scale3b5_branch2a <- res3b5_branch2a
I0608 17:34:25.356912 10488 net.cpp:367] scale3b5_branch2a -> res3b5_branch2a (in-place)
I0608 17:34:25.356928 10488 layer_factory.hpp:77] Creating layer scale3b5_branch2a
I0608 17:34:25.357015 10488 net.cpp:122] Setting up scale3b5_branch2a
I0608 17:34:25.357055 10488 net.cpp:129] Top shape: 1 128 28 28 (100352)
I0608 17:34:25.357064 10488 net.cpp:137] Memory required for data: 190468108
I0608 17:34:25.357074 10488 layer_factory.hpp:77] Creating layer res3b5_branch2a_relu
I0608 17:34:25.357082 10488 net.cpp:84] Creating Layer res3b5_branch2a_relu
I0608 17:34:25.357087 10488 net.cpp:406] res3b5_branch2a_relu <- res3b5_branch2a
I0608 17:34:25.357095 10488 net.cpp:367] res3b5_branch2a_relu -> res3b5_branch2a (in-place)
I0608 17:34:25.357102 10488 net.cpp:122] Setting up res3b5_branch2a_relu
I0608 17:34:25.357141 10488 net.cpp:129] Top shape: 1 128 28 28 (100352)
I0608 17:34:25.357175 10488 net.cpp:137] Memory required for data: 190869516
I0608 17:34:25.357210 10488 layer_factory.hpp:77] Creating layer res3b5_branch2b
I0608 17:34:25.357265 10488 net.cpp:84] Creating Layer res3b5_branch2b
I0608 17:34:25.357306 10488 net.cpp:406] res3b5_branch2b <- res3b5_branch2a
I0608 17:34:25.357321 10488 net.cpp:380] res3b5_branch2b -> res3b5_branch2b
I0608 17:34:25.362836 10488 net.cpp:122] Setting up res3b5_branch2b
I0608 17:34:25.362921 10488 net.cpp:129] Top shape: 1 128 28 28 (100352)
I0608 17:34:25.362931 10488 net.cpp:137] Memory required for data: 191270924
I0608 17:34:25.362942 10488 layer_factory.hpp:77] Creating layer bn3b5_branch2b
I0608 17:34:25.362963 10488 net.cpp:84] Creating Layer bn3b5_branch2b
I0608 17:34:25.363003 10488 net.cpp:406] bn3b5_branch2b <- res3b5_branch2b
I0608 17:34:25.363015 10488 net.cpp:367] bn3b5_branch2b -> res3b5_branch2b (in-place)
I0608 17:34:25.363077 10488 net.cpp:122] Setting up bn3b5_branch2b
I0608 17:34:25.363117 10488 net.cpp:129] Top shape: 1 128 28 28 (100352)
I0608 17:34:25.363126 10488 net.cpp:137] Memory required for data: 191672332
I0608 17:34:25.363165 10488 layer_factory.hpp:77] Creating layer scale3b5_branch2b
I0608 17:34:25.363209 10488 net.cpp:84] Creating Layer scale3b5_branch2b
I0608 17:34:25.363245 10488 net.cpp:406] scale3b5_branch2b <- res3b5_branch2b
I0608 17:34:25.363257 10488 net.cpp:367] scale3b5_branch2b -> res3b5_branch2b (in-place)
I0608 17:34:25.363303 10488 layer_factory.hpp:77] Creating layer scale3b5_branch2b
I0608 17:34:25.363358 10488 net.cpp:122] Setting up scale3b5_branch2b
I0608 17:34:25.363395 10488 net.cpp:129] Top shape: 1 128 28 28 (100352)
I0608 17:34:25.363404 10488 net.cpp:137] Memory required for data: 192073740
I0608 17:34:25.363503 10488 layer_factory.hpp:77] Creating layer res3b5_branch2b_relu
I0608 17:34:25.363550 10488 net.cpp:84] Creating Layer res3b5_branch2b_relu
I0608 17:34:25.363584 10488 net.cpp:406] res3b5_branch2b_relu <- res3b5_branch2b
I0608 17:34:25.363592 10488 net.cpp:367] res3b5_branch2b_relu -> res3b5_branch2b (in-place)
I0608 17:34:25.363632 10488 net.cpp:122] Setting up res3b5_branch2b_relu
I0608 17:34:25.363668 10488 net.cpp:129] Top shape: 1 128 28 28 (100352)
I0608 17:34:25.363674 10488 net.cpp:137] Memory required for data: 192475148
I0608 17:34:25.363678 10488 layer_factory.hpp:77] Creating layer res3b5_branch2c
I0608 17:34:25.363714 10488 net.cpp:84] Creating Layer res3b5_branch2c
I0608 17:34:25.363745 10488 net.cpp:406] res3b5_branch2c <- res3b5_branch2b
I0608 17:34:25.363755 10488 net.cpp:380] res3b5_branch2c -> res3b5_branch2c
I0608 17:34:25.385754 10488 net.cpp:122] Setting up res3b5_branch2c
I0608 17:34:25.385848 10488 net.cpp:129] Top shape: 1 512 28 28 (401408)
I0608 17:34:25.385861 10488 net.cpp:137] Memory required for data: 194080780
I0608 17:34:25.385874 10488 layer_factory.hpp:77] Creating layer bn3b5_branch2c
I0608 17:34:25.385895 10488 net.cpp:84] Creating Layer bn3b5_branch2c
I0608 17:34:25.385905 10488 net.cpp:406] bn3b5_branch2c <- res3b5_branch2c
I0608 17:34:25.385915 10488 net.cpp:367] bn3b5_branch2c -> res3b5_branch2c (in-place)
I0608 17:34:25.385946 10488 net.cpp:122] Setting up bn3b5_branch2c
I0608 17:34:25.385956 10488 net.cpp:129] Top shape: 1 512 28 28 (401408)
I0608 17:34:25.385960 10488 net.cpp:137] Memory required for data: 195686412
I0608 17:34:25.385972 10488 layer_factory.hpp:77] Creating layer scale3b5_branch2c
I0608 17:34:25.385982 10488 net.cpp:84] Creating Layer scale3b5_branch2c
I0608 17:34:25.385987 10488 net.cpp:406] scale3b5_branch2c <- res3b5_branch2c
I0608 17:34:25.385995 10488 net.cpp:367] scale3b5_branch2c -> res3b5_branch2c (in-place)
I0608 17:34:25.386013 10488 layer_factory.hpp:77] Creating layer scale3b5_branch2c
I0608 17:34:25.386068 10488 net.cpp:122] Setting up scale3b5_branch2c
I0608 17:34:25.386081 10488 net.cpp:129] Top shape: 1 512 28 28 (401408)
I0608 17:34:25.386085 10488 net.cpp:137] Memory required for data: 197292044
I0608 17:34:25.386152 10488 layer_factory.hpp:77] Creating layer res3b5
I0608 17:34:25.386168 10488 net.cpp:84] Creating Layer res3b5
I0608 17:34:25.386209 10488 net.cpp:406] res3b5 <- res3b4_res3b4_relu_0_split_1
I0608 17:34:25.386219 10488 net.cpp:406] res3b5 <- res3b5_branch2c
I0608 17:34:25.386248 10488 net.cpp:380] res3b5 -> res3b5
I0608 17:34:25.386271 10488 net.cpp:122] Setting up res3b5
I0608 17:34:25.386307 10488 net.cpp:129] Top shape: 1 512 28 28 (401408)
I0608 17:34:25.386314 10488 net.cpp:137] Memory required for data: 198897676
I0608 17:34:25.386346 10488 layer_factory.hpp:77] Creating layer res3b5_relu
I0608 17:34:25.386358 10488 net.cpp:84] Creating Layer res3b5_relu
I0608 17:34:25.386368 10488 net.cpp:406] res3b5_relu <- res3b5
I0608 17:34:25.386375 10488 net.cpp:367] res3b5_relu -> res3b5 (in-place)
I0608 17:34:25.386384 10488 net.cpp:122] Setting up res3b5_relu
I0608 17:34:25.386420 10488 net.cpp:129] Top shape: 1 512 28 28 (401408)
I0608 17:34:25.386428 10488 net.cpp:137] Memory required for data: 200503308
I0608 17:34:25.386433 10488 layer_factory.hpp:77] Creating layer res3b5_res3b5_relu_0_split
I0608 17:34:25.386442 10488 net.cpp:84] Creating Layer res3b5_res3b5_relu_0_split
I0608 17:34:25.386477 10488 net.cpp:406] res3b5_res3b5_relu_0_split <- res3b5
I0608 17:34:25.386493 10488 net.cpp:380] res3b5_res3b5_relu_0_split -> res3b5_res3b5_relu_0_split_0
I0608 17:34:25.386536 10488 net.cpp:380] res3b5_res3b5_relu_0_split -> res3b5_res3b5_relu_0_split_1
I0608 17:34:25.386584 10488 net.cpp:122] Setting up res3b5_res3b5_relu_0_split
I0608 17:34:25.386622 10488 net.cpp:129] Top shape: 1 512 28 28 (401408)
I0608 17:34:25.386662 10488 net.cpp:129] Top shape: 1 512 28 28 (401408)
I0608 17:34:25.386699 10488 net.cpp:137] Memory required for data: 203714572
I0608 17:34:25.386734 10488 layer_factory.hpp:77] Creating layer res3b6_branch2a
I0608 17:34:25.386754 10488 net.cpp:84] Creating Layer res3b6_branch2a
I0608 17:34:25.386762 10488 net.cpp:406] res3b6_branch2a <- res3b5_res3b5_relu_0_split_0
I0608 17:34:25.386806 10488 net.cpp:380] res3b6_branch2a -> res3b6_branch2a
I0608 17:34:25.388882 10488 net.cpp:122] Setting up res3b6_branch2a
I0608 17:34:25.388974 10488 net.cpp:129] Top shape: 1 128 28 28 (100352)
I0608 17:34:25.388983 10488 net.cpp:137] Memory required for data: 204115980
I0608 17:34:25.388990 10488 layer_factory.hpp:77] Creating layer bn3b6_branch2a
I0608 17:34:25.389008 10488 net.cpp:84] Creating Layer bn3b6_branch2a
I0608 17:34:25.389016 10488 net.cpp:406] bn3b6_branch2a <- res3b6_branch2a
I0608 17:34:25.389025 10488 net.cpp:367] bn3b6_branch2a -> res3b6_branch2a (in-place)
I0608 17:34:25.389081 10488 net.cpp:122] Setting up bn3b6_branch2a
I0608 17:34:25.389150 10488 net.cpp:129] Top shape: 1 128 28 28 (100352)
I0608 17:34:25.389158 10488 net.cpp:137] Memory required for data: 204517388
I0608 17:34:25.389169 10488 layer_factory.hpp:77] Creating layer scale3b6_branch2a
I0608 17:34:25.389202 10488 net.cpp:84] Creating Layer scale3b6_branch2a
I0608 17:34:25.389209 10488 net.cpp:406] scale3b6_branch2a <- res3b6_branch2a
I0608 17:34:25.389237 10488 net.cpp:367] scale3b6_branch2a -> res3b6_branch2a (in-place)
I0608 17:34:25.389252 10488 layer_factory.hpp:77] Creating layer scale3b6_branch2a
I0608 17:34:25.389302 10488 net.cpp:122] Setting up scale3b6_branch2a
I0608 17:34:25.389333 10488 net.cpp:129] Top shape: 1 128 28 28 (100352)
I0608 17:34:25.389338 10488 net.cpp:137] Memory required for data: 204918796
I0608 17:34:25.389348 10488 layer_factory.hpp:77] Creating layer res3b6_branch2a_relu
I0608 17:34:25.389381 10488 net.cpp:84] Creating Layer res3b6_branch2a_relu
I0608 17:34:25.389437 10488 net.cpp:406] res3b6_branch2a_relu <- res3b6_branch2a
I0608 17:34:25.389474 10488 net.cpp:367] res3b6_branch2a_relu -> res3b6_branch2a (in-place)
I0608 17:34:25.389515 10488 net.cpp:122] Setting up res3b6_branch2a_relu
I0608 17:34:25.389552 10488 net.cpp:129] Top shape: 1 128 28 28 (100352)
I0608 17:34:25.389586 10488 net.cpp:137] Memory required for data: 205320204
I0608 17:34:25.389596 10488 layer_factory.hpp:77] Creating layer res3b6_branch2b
I0608 17:34:25.389639 10488 net.cpp:84] Creating Layer res3b6_branch2b
I0608 17:34:25.389674 10488 net.cpp:406] res3b6_branch2b <- res3b6_branch2a
I0608 17:34:25.389688 10488 net.cpp:380] res3b6_branch2b -> res3b6_branch2b
I0608 17:34:25.398761 10488 net.cpp:122] Setting up res3b6_branch2b
I0608 17:34:25.398830 10488 net.cpp:129] Top shape: 1 128 28 28 (100352)
I0608 17:34:25.398838 10488 net.cpp:137] Memory required for data: 205721612
I0608 17:34:25.398846 10488 layer_factory.hpp:77] Creating layer bn3b6_branch2b
I0608 17:34:25.398885 10488 net.cpp:84] Creating Layer bn3b6_branch2b
I0608 17:34:25.398917 10488 net.cpp:406] bn3b6_branch2b <- res3b6_branch2b
I0608 17:34:25.398928 10488 net.cpp:367] bn3b6_branch2b -> res3b6_branch2b (in-place)
I0608 17:34:25.398974 10488 net.cpp:122] Setting up bn3b6_branch2b
I0608 17:34:25.399005 10488 net.cpp:129] Top shape: 1 128 28 28 (100352)
I0608 17:34:25.399010 10488 net.cpp:137] Memory required for data: 206123020
I0608 17:34:25.399021 10488 layer_factory.hpp:77] Creating layer scale3b6_branch2b
I0608 17:34:25.399051 10488 net.cpp:84] Creating Layer scale3b6_branch2b
I0608 17:34:25.399057 10488 net.cpp:406] scale3b6_branch2b <- res3b6_branch2b
I0608 17:34:25.399085 10488 net.cpp:367] scale3b6_branch2b -> res3b6_branch2b (in-place)
I0608 17:34:25.399102 10488 layer_factory.hpp:77] Creating layer scale3b6_branch2b
I0608 17:34:25.399145 10488 net.cpp:122] Setting up scale3b6_branch2b
I0608 17:34:25.399216 10488 net.cpp:129] Top shape: 1 128 28 28 (100352)
I0608 17:34:25.399245 10488 net.cpp:137] Memory required for data: 206524428
I0608 17:34:25.399258 10488 layer_factory.hpp:77] Creating layer res3b6_branch2b_relu
I0608 17:34:25.399268 10488 net.cpp:84] Creating Layer res3b6_branch2b_relu
I0608 17:34:25.399276 10488 net.cpp:406] res3b6_branch2b_relu <- res3b6_branch2b
I0608 17:34:25.399282 10488 net.cpp:367] res3b6_branch2b_relu -> res3b6_branch2b (in-place)
I0608 17:34:25.399292 10488 net.cpp:122] Setting up res3b6_branch2b_relu
I0608 17:34:25.399299 10488 net.cpp:129] Top shape: 1 128 28 28 (100352)
I0608 17:34:25.399305 10488 net.cpp:137] Memory required for data: 206925836
I0608 17:34:25.399309 10488 layer_factory.hpp:77] Creating layer res3b6_branch2c
I0608 17:34:25.399327 10488 net.cpp:84] Creating Layer res3b6_branch2c
I0608 17:34:25.399333 10488 net.cpp:406] res3b6_branch2c <- res3b6_branch2b
I0608 17:34:25.399339 10488 net.cpp:380] res3b6_branch2c -> res3b6_branch2c
I0608 17:34:25.401278 10488 net.cpp:122] Setting up res3b6_branch2c
I0608 17:34:25.401342 10488 net.cpp:129] Top shape: 1 512 28 28 (401408)
I0608 17:34:25.401351 10488 net.cpp:137] Memory required for data: 208531468
I0608 17:34:25.401434 10488 layer_factory.hpp:77] Creating layer bn3b6_branch2c
I0608 17:34:25.401479 10488 net.cpp:84] Creating Layer bn3b6_branch2c
I0608 17:34:25.401517 10488 net.cpp:406] bn3b6_branch2c <- res3b6_branch2c
I0608 17:34:25.401559 10488 net.cpp:367] bn3b6_branch2c -> res3b6_branch2c (in-place)
I0608 17:34:25.401618 10488 net.cpp:122] Setting up bn3b6_branch2c
I0608 17:34:25.401652 10488 net.cpp:129] Top shape: 1 512 28 28 (401408)
I0608 17:34:25.401661 10488 net.cpp:137] Memory required for data: 210137100
I0608 17:34:25.401700 10488 layer_factory.hpp:77] Creating layer scale3b6_branch2c
I0608 17:34:25.401743 10488 net.cpp:84] Creating Layer scale3b6_branch2c
I0608 17:34:25.401778 10488 net.cpp:406] scale3b6_branch2c <- res3b6_branch2c
I0608 17:34:25.401790 10488 net.cpp:367] scale3b6_branch2c -> res3b6_branch2c (in-place)
I0608 17:34:25.401839 10488 layer_factory.hpp:77] Creating layer scale3b6_branch2c
I0608 17:34:25.401901 10488 net.cpp:122] Setting up scale3b6_branch2c
I0608 17:34:25.401935 10488 net.cpp:129] Top shape: 1 512 28 28 (401408)
I0608 17:34:25.401943 10488 net.cpp:137] Memory required for data: 211742732
I0608 17:34:25.401980 10488 layer_factory.hpp:77] Creating layer res3b6
I0608 17:34:25.402019 10488 net.cpp:84] Creating Layer res3b6
I0608 17:34:25.402055 10488 net.cpp:406] res3b6 <- res3b5_res3b5_relu_0_split_1
I0608 17:34:25.402066 10488 net.cpp:406] res3b6 <- res3b6_branch2c
I0608 17:34:25.402101 10488 net.cpp:380] res3b6 -> res3b6
I0608 17:34:25.402145 10488 net.cpp:122] Setting up res3b6
I0608 17:34:25.402181 10488 net.cpp:129] Top shape: 1 512 28 28 (401408)
I0608 17:34:25.402190 10488 net.cpp:137] Memory required for data: 213348364
I0608 17:34:25.402221 10488 layer_factory.hpp:77] Creating layer res3b6_relu
I0608 17:34:25.402235 10488 net.cpp:84] Creating Layer res3b6_relu
I0608 17:34:25.402266 10488 net.cpp:406] res3b6_relu <- res3b6
I0608 17:34:25.402278 10488 net.cpp:367] res3b6_relu -> res3b6 (in-place)
I0608 17:34:25.402314 10488 net.cpp:122] Setting up res3b6_relu
I0608 17:34:25.402350 10488 net.cpp:129] Top shape: 1 512 28 28 (401408)
I0608 17:34:25.402395 10488 net.cpp:137] Memory required for data: 214953996
I0608 17:34:25.402432 10488 layer_factory.hpp:77] Creating layer res3b6_res3b6_relu_0_split
I0608 17:34:25.402470 10488 net.cpp:84] Creating Layer res3b6_res3b6_relu_0_split
I0608 17:34:25.402505 10488 net.cpp:406] res3b6_res3b6_relu_0_split <- res3b6
I0608 17:34:25.402519 10488 net.cpp:380] res3b6_res3b6_relu_0_split -> res3b6_res3b6_relu_0_split_0
I0608 17:34:25.402530 10488 net.cpp:380] res3b6_res3b6_relu_0_split -> res3b6_res3b6_relu_0_split_1
I0608 17:34:25.402540 10488 net.cpp:122] Setting up res3b6_res3b6_relu_0_split
I0608 17:34:25.402547 10488 net.cpp:129] Top shape: 1 512 28 28 (401408)
I0608 17:34:25.402554 10488 net.cpp:129] Top shape: 1 512 28 28 (401408)
I0608 17:34:25.402559 10488 net.cpp:137] Memory required for data: 218165260
I0608 17:34:25.402593 10488 layer_factory.hpp:77] Creating layer res3b7_branch2a
I0608 17:34:25.402611 10488 net.cpp:84] Creating Layer res3b7_branch2a
I0608 17:34:25.402617 10488 net.cpp:406] res3b7_branch2a <- res3b6_res3b6_relu_0_split_0
I0608 17:34:25.402626 10488 net.cpp:380] res3b7_branch2a -> res3b7_branch2a
I0608 17:34:25.405120 10488 net.cpp:122] Setting up res3b7_branch2a
I0608 17:34:25.405179 10488 net.cpp:129] Top shape: 1 128 28 28 (100352)
I0608 17:34:25.405186 10488 net.cpp:137] Memory required for data: 218566668
I0608 17:34:25.405196 10488 layer_factory.hpp:77] Creating layer bn3b7_branch2a
I0608 17:34:25.405208 10488 net.cpp:84] Creating Layer bn3b7_branch2a
I0608 17:34:25.405215 10488 net.cpp:406] bn3b7_branch2a <- res3b7_branch2a
I0608 17:34:25.405227 10488 net.cpp:367] bn3b7_branch2a -> res3b7_branch2a (in-place)
I0608 17:34:25.405284 10488 net.cpp:122] Setting up bn3b7_branch2a
I0608 17:34:25.405294 10488 net.cpp:129] Top shape: 1 128 28 28 (100352)
I0608 17:34:25.405299 10488 net.cpp:137] Memory required for data: 218968076
I0608 17:34:25.405313 10488 layer_factory.hpp:77] Creating layer scale3b7_branch2a
I0608 17:34:25.405390 10488 net.cpp:84] Creating Layer scale3b7_branch2a
I0608 17:34:25.405400 10488 net.cpp:406] scale3b7_branch2a <- res3b7_branch2a
I0608 17:34:25.405412 10488 net.cpp:367] scale3b7_branch2a -> res3b7_branch2a (in-place)
I0608 17:34:25.405429 10488 layer_factory.hpp:77] Creating layer scale3b7_branch2a
I0608 17:34:25.405490 10488 net.cpp:122] Setting up scale3b7_branch2a
I0608 17:34:25.405500 10488 net.cpp:129] Top shape: 1 128 28 28 (100352)
I0608 17:34:25.405505 10488 net.cpp:137] Memory required for data: 219369484
I0608 17:34:25.405514 10488 layer_factory.hpp:77] Creating layer res3b7_branch2a_relu
I0608 17:34:25.405553 10488 net.cpp:84] Creating Layer res3b7_branch2a_relu
I0608 17:34:25.405562 10488 net.cpp:406] res3b7_branch2a_relu <- res3b7_branch2a
I0608 17:34:25.405572 10488 net.cpp:367] res3b7_branch2a_relu -> res3b7_branch2a (in-place)
I0608 17:34:25.405581 10488 net.cpp:122] Setting up res3b7_branch2a_relu
I0608 17:34:25.405587 10488 net.cpp:129] Top shape: 1 128 28 28 (100352)
I0608 17:34:25.405592 10488 net.cpp:137] Memory required for data: 219770892
I0608 17:34:25.405597 10488 layer_factory.hpp:77] Creating layer res3b7_branch2b
I0608 17:34:25.405607 10488 net.cpp:84] Creating Layer res3b7_branch2b
I0608 17:34:25.405643 10488 net.cpp:406] res3b7_branch2b <- res3b7_branch2a
I0608 17:34:25.405658 10488 net.cpp:380] res3b7_branch2b -> res3b7_branch2b
I0608 17:34:25.411257 10488 net.cpp:122] Setting up res3b7_branch2b
I0608 17:34:25.411360 10488 net.cpp:129] Top shape: 1 128 28 28 (100352)
I0608 17:34:25.411372 10488 net.cpp:137] Memory required for data: 220172300
I0608 17:34:25.411384 10488 layer_factory.hpp:77] Creating layer bn3b7_branch2b
I0608 17:34:25.411460 10488 net.cpp:84] Creating Layer bn3b7_branch2b
I0608 17:34:25.411510 10488 net.cpp:406] bn3b7_branch2b <- res3b7_branch2b
I0608 17:34:25.411523 10488 net.cpp:367] bn3b7_branch2b -> res3b7_branch2b (in-place)
I0608 17:34:25.411552 10488 net.cpp:122] Setting up bn3b7_branch2b
I0608 17:34:25.411597 10488 net.cpp:129] Top shape: 1 128 28 28 (100352)
I0608 17:34:25.411603 10488 net.cpp:137] Memory required for data: 220573708
I0608 17:34:25.411615 10488 layer_factory.hpp:77] Creating layer scale3b7_branch2b
I0608 17:34:25.411656 10488 net.cpp:84] Creating Layer scale3b7_branch2b
I0608 17:34:25.411669 10488 net.cpp:406] scale3b7_branch2b <- res3b7_branch2b
I0608 17:34:25.411677 10488 net.cpp:367] scale3b7_branch2b -> res3b7_branch2b (in-place)
I0608 17:34:25.411695 10488 layer_factory.hpp:77] Creating layer scale3b7_branch2b
I0608 17:34:25.411782 10488 net.cpp:122] Setting up scale3b7_branch2b
I0608 17:34:25.411793 10488 net.cpp:129] Top shape: 1 128 28 28 (100352)
I0608 17:34:25.411830 10488 net.cpp:137] Memory required for data: 220975116
I0608 17:34:25.411844 10488 layer_factory.hpp:77] Creating layer res3b7_branch2b_relu
I0608 17:34:25.411881 10488 net.cpp:84] Creating Layer res3b7_branch2b_relu
I0608 17:34:25.411919 10488 net.cpp:406] res3b7_branch2b_relu <- res3b7_branch2b
I0608 17:34:25.411933 10488 net.cpp:367] res3b7_branch2b_relu -> res3b7_branch2b (in-place)
I0608 17:34:25.411943 10488 net.cpp:122] Setting up res3b7_branch2b_relu
I0608 17:34:25.411979 10488 net.cpp:129] Top shape: 1 128 28 28 (100352)
I0608 17:34:25.412016 10488 net.cpp:137] Memory required for data: 221376524
I0608 17:34:25.412025 10488 layer_factory.hpp:77] Creating layer res3b7_branch2c
I0608 17:34:25.412066 10488 net.cpp:84] Creating Layer res3b7_branch2c
I0608 17:34:25.412104 10488 net.cpp:406] res3b7_branch2c <- res3b7_branch2b
I0608 17:34:25.412119 10488 net.cpp:380] res3b7_branch2c -> res3b7_branch2c
I0608 17:34:25.415132 10488 net.cpp:122] Setting up res3b7_branch2c
I0608 17:34:25.415223 10488 net.cpp:129] Top shape: 1 512 28 28 (401408)
I0608 17:34:25.415237 10488 net.cpp:137] Memory required for data: 222982156
I0608 17:34:25.415249 10488 layer_factory.hpp:77] Creating layer bn3b7_branch2c
I0608 17:34:25.415304 10488 net.cpp:84] Creating Layer bn3b7_branch2c
I0608 17:34:25.415346 10488 net.cpp:406] bn3b7_branch2c <- res3b7_branch2c
I0608 17:34:25.415413 10488 net.cpp:367] bn3b7_branch2c -> res3b7_branch2c (in-place)
I0608 17:34:25.415496 10488 net.cpp:122] Setting up bn3b7_branch2c
I0608 17:34:25.415556 10488 net.cpp:129] Top shape: 1 512 28 28 (401408)
I0608 17:34:25.415565 10488 net.cpp:137] Memory required for data: 224587788
I0608 17:34:25.415578 10488 layer_factory.hpp:77] Creating layer scale3b7_branch2c
I0608 17:34:25.415633 10488 net.cpp:84] Creating Layer scale3b7_branch2c
I0608 17:34:25.415647 10488 net.cpp:406] scale3b7_branch2c <- res3b7_branch2c
I0608 17:34:25.415714 10488 net.cpp:367] scale3b7_branch2c -> res3b7_branch2c (in-place)
I0608 17:34:25.415858 10488 layer_factory.hpp:77] Creating layer scale3b7_branch2c
I0608 17:34:25.415918 10488 net.cpp:122] Setting up scale3b7_branch2c
I0608 17:34:25.415952 10488 net.cpp:129] Top shape: 1 512 28 28 (401408)
I0608 17:34:25.415957 10488 net.cpp:137] Memory required for data: 226193420
I0608 17:34:25.415964 10488 layer_factory.hpp:77] Creating layer res3b7
I0608 17:34:25.415997 10488 net.cpp:84] Creating Layer res3b7
I0608 17:34:25.416026 10488 net.cpp:406] res3b7 <- res3b6_res3b6_relu_0_split_1
I0608 17:34:25.416034 10488 net.cpp:406] res3b7 <- res3b7_branch2c
I0608 17:34:25.416064 10488 net.cpp:380] res3b7 -> res3b7
I0608 17:34:25.416074 10488 net.cpp:122] Setting up res3b7
I0608 17:34:25.416102 10488 net.cpp:129] Top shape: 1 512 28 28 (401408)
I0608 17:34:25.416107 10488 net.cpp:137] Memory required for data: 227799052
I0608 17:34:25.416110 10488 layer_factory.hpp:77] Creating layer res3b7_relu
I0608 17:34:25.416138 10488 net.cpp:84] Creating Layer res3b7_relu
I0608 17:34:25.416144 10488 net.cpp:406] res3b7_relu <- res3b7
I0608 17:34:25.416172 10488 net.cpp:367] res3b7_relu -> res3b7 (in-place)
I0608 17:34:25.416180 10488 net.cpp:122] Setting up res3b7_relu
I0608 17:34:25.416208 10488 net.cpp:129] Top shape: 1 512 28 28 (401408)
I0608 17:34:25.416213 10488 net.cpp:137] Memory required for data: 229404684
I0608 17:34:25.416215 10488 layer_factory.hpp:77] Creating layer res3b7_res3b7_relu_0_split
I0608 17:34:25.416220 10488 net.cpp:84] Creating Layer res3b7_res3b7_relu_0_split
I0608 17:34:25.416224 10488 net.cpp:406] res3b7_res3b7_relu_0_split <- res3b7
I0608 17:34:25.416229 10488 net.cpp:380] res3b7_res3b7_relu_0_split -> res3b7_res3b7_relu_0_split_0
I0608 17:34:25.416235 10488 net.cpp:380] res3b7_res3b7_relu_0_split -> res3b7_res3b7_relu_0_split_1
I0608 17:34:25.416242 10488 net.cpp:122] Setting up res3b7_res3b7_relu_0_split
I0608 17:34:25.416246 10488 net.cpp:129] Top shape: 1 512 28 28 (401408)
I0608 17:34:25.416250 10488 net.cpp:129] Top shape: 1 512 28 28 (401408)
I0608 17:34:25.416254 10488 net.cpp:137] Memory required for data: 232615948
I0608 17:34:25.416257 10488 layer_factory.hpp:77] Creating layer res4a_branch1
I0608 17:34:25.416273 10488 net.cpp:84] Creating Layer res4a_branch1
I0608 17:34:25.416345 10488 net.cpp:406] res4a_branch1 <- res3b7_res3b7_relu_0_split_0
I0608 17:34:25.416357 10488 net.cpp:380] res4a_branch1 -> res4a_branch1
I0608 17:34:25.458562 10488 net.cpp:122] Setting up res4a_branch1
I0608 17:34:25.458637 10488 net.cpp:129] Top shape: 1 1024 14 14 (200704)
I0608 17:34:25.458645 10488 net.cpp:137] Memory required for data: 233418764
I0608 17:34:25.458657 10488 layer_factory.hpp:77] Creating layer bn4a_branch1
I0608 17:34:25.458670 10488 net.cpp:84] Creating Layer bn4a_branch1
I0608 17:34:25.458710 10488 net.cpp:406] bn4a_branch1 <- res4a_branch1
I0608 17:34:25.458750 10488 net.cpp:367] bn4a_branch1 -> res4a_branch1 (in-place)
I0608 17:34:25.458817 10488 net.cpp:122] Setting up bn4a_branch1
I0608 17:34:25.458855 10488 net.cpp:129] Top shape: 1 1024 14 14 (200704)
I0608 17:34:25.458863 10488 net.cpp:137] Memory required for data: 234221580
I0608 17:34:25.458890 10488 layer_factory.hpp:77] Creating layer scale4a_branch1
I0608 17:34:25.458932 10488 net.cpp:84] Creating Layer scale4a_branch1
I0608 17:34:25.458968 10488 net.cpp:406] scale4a_branch1 <- res4a_branch1
I0608 17:34:25.458979 10488 net.cpp:367] scale4a_branch1 -> res4a_branch1 (in-place)
I0608 17:34:25.459012 10488 layer_factory.hpp:77] Creating layer scale4a_branch1
I0608 17:34:25.459094 10488 net.cpp:122] Setting up scale4a_branch1
I0608 17:34:25.459105 10488 net.cpp:129] Top shape: 1 1024 14 14 (200704)
I0608 17:34:25.459110 10488 net.cpp:137] Memory required for data: 235024396
I0608 17:34:25.459118 10488 layer_factory.hpp:77] Creating layer res4a_branch2a
I0608 17:34:25.459153 10488 net.cpp:84] Creating Layer res4a_branch2a
I0608 17:34:25.459189 10488 net.cpp:406] res4a_branch2a <- res3b7_res3b7_relu_0_split_1
I0608 17:34:25.459203 10488 net.cpp:380] res4a_branch2a -> res4a_branch2a
I0608 17:34:25.463629 10488 net.cpp:122] Setting up res4a_branch2a
I0608 17:34:25.463722 10488 net.cpp:129] Top shape: 1 256 14 14 (50176)
I0608 17:34:25.463732 10488 net.cpp:137] Memory required for data: 235225100
I0608 17:34:25.463743 10488 layer_factory.hpp:77] Creating layer bn4a_branch2a
I0608 17:34:25.463786 10488 net.cpp:84] Creating Layer bn4a_branch2a
I0608 17:34:25.463798 10488 net.cpp:406] bn4a_branch2a <- res4a_branch2a
I0608 17:34:25.463843 10488 net.cpp:367] bn4a_branch2a -> res4a_branch2a (in-place)
I0608 17:34:25.463876 10488 net.cpp:122] Setting up bn4a_branch2a
I0608 17:34:25.463886 10488 net.cpp:129] Top shape: 1 256 14 14 (50176)
I0608 17:34:25.463919 10488 net.cpp:137] Memory required for data: 235425804
I0608 17:34:25.463938 10488 layer_factory.hpp:77] Creating layer scale4a_branch2a
I0608 17:34:25.463951 10488 net.cpp:84] Creating Layer scale4a_branch2a
I0608 17:34:25.463958 10488 net.cpp:406] scale4a_branch2a <- res4a_branch2a
I0608 17:34:25.463976 10488 net.cpp:367] scale4a_branch2a -> res4a_branch2a (in-place)
I0608 17:34:25.464025 10488 layer_factory.hpp:77] Creating layer scale4a_branch2a
I0608 17:34:25.464051 10488 net.cpp:122] Setting up scale4a_branch2a
I0608 17:34:25.464087 10488 net.cpp:129] Top shape: 1 256 14 14 (50176)
I0608 17:34:25.464095 10488 net.cpp:137] Memory required for data: 235626508
I0608 17:34:25.464107 10488 layer_factory.hpp:77] Creating layer res4a_branch2a_relu
I0608 17:34:25.464116 10488 net.cpp:84] Creating Layer res4a_branch2a_relu
I0608 17:34:25.464123 10488 net.cpp:406] res4a_branch2a_relu <- res4a_branch2a
I0608 17:34:25.464164 10488 net.cpp:367] res4a_branch2a_relu -> res4a_branch2a (in-place)
I0608 17:34:25.464179 10488 net.cpp:122] Setting up res4a_branch2a_relu
I0608 17:34:25.464186 10488 net.cpp:129] Top shape: 1 256 14 14 (50176)
I0608 17:34:25.464193 10488 net.cpp:137] Memory required for data: 235827212
I0608 17:34:25.464247 10488 layer_factory.hpp:77] Creating layer res4a_branch2b
I0608 17:34:25.464267 10488 net.cpp:84] Creating Layer res4a_branch2b
I0608 17:34:25.464273 10488 net.cpp:406] res4a_branch2b <- res4a_branch2a
I0608 17:34:25.464285 10488 net.cpp:380] res4a_branch2b -> res4a_branch2b
I0608 17:34:25.499496 10488 net.cpp:122] Setting up res4a_branch2b
I0608 17:34:25.499567 10488 net.cpp:129] Top shape: 1 256 14 14 (50176)
I0608 17:34:25.499575 10488 net.cpp:137] Memory required for data: 236027916
I0608 17:34:25.499583 10488 layer_factory.hpp:77] Creating layer bn4a_branch2b
I0608 17:34:25.499605 10488 net.cpp:84] Creating Layer bn4a_branch2b
I0608 17:34:25.499614 10488 net.cpp:406] bn4a_branch2b <- res4a_branch2b
I0608 17:34:25.499631 10488 net.cpp:367] bn4a_branch2b -> res4a_branch2b (in-place)
I0608 17:34:25.499689 10488 net.cpp:122] Setting up bn4a_branch2b
I0608 17:34:25.499701 10488 net.cpp:129] Top shape: 1 256 14 14 (50176)
I0608 17:34:25.499706 10488 net.cpp:137] Memory required for data: 236228620
I0608 17:34:25.499722 10488 layer_factory.hpp:77] Creating layer scale4a_branch2b
I0608 17:34:25.499768 10488 net.cpp:84] Creating Layer scale4a_branch2b
I0608 17:34:25.499778 10488 net.cpp:406] scale4a_branch2b <- res4a_branch2b
I0608 17:34:25.499783 10488 net.cpp:367] scale4a_branch2b -> res4a_branch2b (in-place)
I0608 17:34:25.499799 10488 layer_factory.hpp:77] Creating layer scale4a_branch2b
I0608 17:34:25.499851 10488 net.cpp:122] Setting up scale4a_branch2b
I0608 17:34:25.499863 10488 net.cpp:129] Top shape: 1 256 14 14 (50176)
I0608 17:34:25.499869 10488 net.cpp:137] Memory required for data: 236429324
I0608 17:34:25.499936 10488 layer_factory.hpp:77] Creating layer res4a_branch2b_relu
I0608 17:34:25.499949 10488 net.cpp:84] Creating Layer res4a_branch2b_relu
I0608 17:34:25.499954 10488 net.cpp:406] res4a_branch2b_relu <- res4a_branch2b
I0608 17:34:25.499963 10488 net.cpp:367] res4a_branch2b_relu -> res4a_branch2b (in-place)
I0608 17:34:25.499974 10488 net.cpp:122] Setting up res4a_branch2b_relu
I0608 17:34:25.500010 10488 net.cpp:129] Top shape: 1 256 14 14 (50176)
I0608 17:34:25.500044 10488 net.cpp:137] Memory required for data: 236630028
I0608 17:34:25.500077 10488 layer_factory.hpp:77] Creating layer res4a_branch2c
I0608 17:34:25.500095 10488 net.cpp:84] Creating Layer res4a_branch2c
I0608 17:34:25.500129 10488 net.cpp:406] res4a_branch2c <- res4a_branch2b
I0608 17:34:25.500147 10488 net.cpp:380] res4a_branch2c -> res4a_branch2c
I0608 17:34:25.511018 10488 net.cpp:122] Setting up res4a_branch2c
I0608 17:34:25.511099 10488 net.cpp:129] Top shape: 1 1024 14 14 (200704)
I0608 17:34:25.511111 10488 net.cpp:137] Memory required for data: 237432844
I0608 17:34:25.511123 10488 layer_factory.hpp:77] Creating layer bn4a_branch2c
I0608 17:34:25.511139 10488 net.cpp:84] Creating Layer bn4a_branch2c
I0608 17:34:25.511148 10488 net.cpp:406] bn4a_branch2c <- res4a_branch2c
I0608 17:34:25.511162 10488 net.cpp:367] bn4a_branch2c -> res4a_branch2c (in-place)
I0608 17:34:25.511198 10488 net.cpp:122] Setting up bn4a_branch2c
I0608 17:34:25.511242 10488 net.cpp:129] Top shape: 1 1024 14 14 (200704)
I0608 17:34:25.511251 10488 net.cpp:137] Memory required for data: 238235660
I0608 17:34:25.511265 10488 layer_factory.hpp:77] Creating layer scale4a_branch2c
I0608 17:34:25.511281 10488 net.cpp:84] Creating Layer scale4a_branch2c
I0608 17:34:25.511318 10488 net.cpp:406] scale4a_branch2c <- res4a_branch2c
I0608 17:34:25.511329 10488 net.cpp:367] scale4a_branch2c -> res4a_branch2c (in-place)
I0608 17:34:25.511356 10488 layer_factory.hpp:77] Creating layer scale4a_branch2c
I0608 17:34:25.511415 10488 net.cpp:122] Setting up scale4a_branch2c
I0608 17:34:25.511459 10488 net.cpp:129] Top shape: 1 1024 14 14 (200704)
I0608 17:34:25.511466 10488 net.cpp:137] Memory required for data: 239038476
I0608 17:34:25.511477 10488 layer_factory.hpp:77] Creating layer res4a
I0608 17:34:25.511489 10488 net.cpp:84] Creating Layer res4a
I0608 17:34:25.511526 10488 net.cpp:406] res4a <- res4a_branch1
I0608 17:34:25.511536 10488 net.cpp:406] res4a <- res4a_branch2c
I0608 17:34:25.511546 10488 net.cpp:380] res4a -> res4a
I0608 17:34:25.511588 10488 net.cpp:122] Setting up res4a
I0608 17:34:25.511633 10488 net.cpp:129] Top shape: 1 1024 14 14 (200704)
I0608 17:34:25.511642 10488 net.cpp:137] Memory required for data: 239841292
I0608 17:34:25.511649 10488 layer_factory.hpp:77] Creating layer res4a_relu
I0608 17:34:25.511658 10488 net.cpp:84] Creating Layer res4a_relu
I0608 17:34:25.511664 10488 net.cpp:406] res4a_relu <- res4a
I0608 17:34:25.511672 10488 net.cpp:367] res4a_relu -> res4a (in-place)
I0608 17:34:25.511680 10488 net.cpp:122] Setting up res4a_relu
I0608 17:34:25.511687 10488 net.cpp:129] Top shape: 1 1024 14 14 (200704)
I0608 17:34:25.511692 10488 net.cpp:137] Memory required for data: 240644108
I0608 17:34:25.511695 10488 layer_factory.hpp:77] Creating layer res4a_res4a_relu_0_split
I0608 17:34:25.511703 10488 net.cpp:84] Creating Layer res4a_res4a_relu_0_split
I0608 17:34:25.511708 10488 net.cpp:406] res4a_res4a_relu_0_split <- res4a
I0608 17:34:25.511716 10488 net.cpp:380] res4a_res4a_relu_0_split -> res4a_res4a_relu_0_split_0
I0608 17:34:25.511723 10488 net.cpp:380] res4a_res4a_relu_0_split -> res4a_res4a_relu_0_split_1
I0608 17:34:25.511730 10488 net.cpp:122] Setting up res4a_res4a_relu_0_split
I0608 17:34:25.511734 10488 net.cpp:129] Top shape: 1 1024 14 14 (200704)
I0608 17:34:25.511739 10488 net.cpp:129] Top shape: 1 1024 14 14 (200704)
I0608 17:34:25.511740 10488 net.cpp:137] Memory required for data: 242249740
I0608 17:34:25.511744 10488 layer_factory.hpp:77] Creating layer res4b1_branch2a
I0608 17:34:25.511754 10488 net.cpp:84] Creating Layer res4b1_branch2a
I0608 17:34:25.511775 10488 net.cpp:406] res4b1_branch2a <- res4a_res4a_relu_0_split_0
I0608 17:34:25.511780 10488 net.cpp:380] res4b1_branch2a -> res4b1_branch2a
I0608 17:34:25.534612 10488 net.cpp:122] Setting up res4b1_branch2a
I0608 17:34:25.534705 10488 net.cpp:129] Top shape: 1 256 14 14 (50176)
I0608 17:34:25.534718 10488 net.cpp:137] Memory required for data: 242450444
I0608 17:34:25.534730 10488 layer_factory.hpp:77] Creating layer bn4b1_branch2a
I0608 17:34:25.534744 10488 net.cpp:84] Creating Layer bn4b1_branch2a
I0608 17:34:25.534754 10488 net.cpp:406] bn4b1_branch2a <- res4b1_branch2a
I0608 17:34:25.534767 10488 net.cpp:367] bn4b1_branch2a -> res4b1_branch2a (in-place)
I0608 17:34:25.534799 10488 net.cpp:122] Setting up bn4b1_branch2a
I0608 17:34:25.534842 10488 net.cpp:129] Top shape: 1 256 14 14 (50176)
I0608 17:34:25.534852 10488 net.cpp:137] Memory required for data: 242651148
I0608 17:34:25.534895 10488 layer_factory.hpp:77] Creating layer scale4b1_branch2a
I0608 17:34:25.534936 10488 net.cpp:84] Creating Layer scale4b1_branch2a
I0608 17:34:25.534988 10488 net.cpp:406] scale4b1_branch2a <- res4b1_branch2a
I0608 17:34:25.535024 10488 net.cpp:367] scale4b1_branch2a -> res4b1_branch2a (in-place)
I0608 17:34:25.535078 10488 layer_factory.hpp:77] Creating layer scale4b1_branch2a
I0608 17:34:25.535143 10488 net.cpp:122] Setting up scale4b1_branch2a
I0608 17:34:25.535184 10488 net.cpp:129] Top shape: 1 256 14 14 (50176)
I0608 17:34:25.535219 10488 net.cpp:137] Memory required for data: 242851852
I0608 17:34:25.535234 10488 layer_factory.hpp:77] Creating layer res4b1_branch2a_relu
I0608 17:34:25.535274 10488 net.cpp:84] Creating Layer res4b1_branch2a_relu
I0608 17:34:25.535310 10488 net.cpp:406] res4b1_branch2a_relu <- res4b1_branch2a
I0608 17:34:25.535323 10488 net.cpp:367] res4b1_branch2a_relu -> res4b1_branch2a (in-place)
I0608 17:34:25.535344 10488 net.cpp:122] Setting up res4b1_branch2a_relu
I0608 17:34:25.535380 10488 net.cpp:129] Top shape: 1 256 14 14 (50176)
I0608 17:34:25.535416 10488 net.cpp:137] Memory required for data: 243052556
I0608 17:34:25.535425 10488 layer_factory.hpp:77] Creating layer res4b1_branch2b
I0608 17:34:25.535456 10488 net.cpp:84] Creating Layer res4b1_branch2b
I0608 17:34:25.535491 10488 net.cpp:406] res4b1_branch2b <- res4b1_branch2a
I0608 17:34:25.535504 10488 net.cpp:380] res4b1_branch2b -> res4b1_branch2b
I0608 17:34:25.601289 10488 net.cpp:122] Setting up res4b1_branch2b
I0608 17:34:25.601358 10488 net.cpp:129] Top shape: 1 256 14 14 (50176)
I0608 17:34:25.601366 10488 net.cpp:137] Memory required for data: 243253260
I0608 17:34:25.601373 10488 layer_factory.hpp:77] Creating layer bn4b1_branch2b
I0608 17:34:25.601387 10488 net.cpp:84] Creating Layer bn4b1_branch2b
I0608 17:34:25.601447 10488 net.cpp:406] bn4b1_branch2b <- res4b1_branch2b
I0608 17:34:25.601464 10488 net.cpp:367] bn4b1_branch2b -> res4b1_branch2b (in-place)
I0608 17:34:25.601490 10488 net.cpp:122] Setting up bn4b1_branch2b
I0608 17:34:25.601529 10488 net.cpp:129] Top shape: 1 256 14 14 (50176)
I0608 17:34:25.601538 10488 net.cpp:137] Memory required for data: 243453964
I0608 17:34:25.601547 10488 layer_factory.hpp:77] Creating layer scale4b1_branch2b
I0608 17:34:25.601577 10488 net.cpp:84] Creating Layer scale4b1_branch2b
I0608 17:34:25.601584 10488 net.cpp:406] scale4b1_branch2b <- res4b1_branch2b
I0608 17:34:25.601591 10488 net.cpp:367] scale4b1_branch2b -> res4b1_branch2b (in-place)
I0608 17:34:25.601611 10488 layer_factory.hpp:77] Creating layer scale4b1_branch2b
I0608 17:34:25.601647 10488 net.cpp:122] Setting up scale4b1_branch2b
I0608 17:34:25.601688 10488 net.cpp:129] Top shape: 1 256 14 14 (50176)
I0608 17:34:25.601696 10488 net.cpp:137] Memory required for data: 243654668
I0608 17:34:25.601707 10488 layer_factory.hpp:77] Creating layer res4b1_branch2b_relu
I0608 17:34:25.601714 10488 net.cpp:84] Creating Layer res4b1_branch2b_relu
I0608 17:34:25.601719 10488 net.cpp:406] res4b1_branch2b_relu <- res4b1_branch2b
I0608 17:34:25.601729 10488 net.cpp:367] res4b1_branch2b_relu -> res4b1_branch2b (in-place)
I0608 17:34:25.601796 10488 net.cpp:122] Setting up res4b1_branch2b_relu
I0608 17:34:25.601809 10488 net.cpp:129] Top shape: 1 256 14 14 (50176)
I0608 17:34:25.601814 10488 net.cpp:137] Memory required for data: 243855372
I0608 17:34:25.601816 10488 layer_factory.hpp:77] Creating layer res4b1_branch2c
I0608 17:34:25.601826 10488 net.cpp:84] Creating Layer res4b1_branch2c
I0608 17:34:25.601833 10488 net.cpp:406] res4b1_branch2c <- res4b1_branch2b
I0608 17:34:25.601841 10488 net.cpp:380] res4b1_branch2c -> res4b1_branch2c
I0608 17:34:25.623692 10488 net.cpp:122] Setting up res4b1_branch2c
I0608 17:34:25.623778 10488 net.cpp:129] Top shape: 1 1024 14 14 (200704)
I0608 17:34:25.623788 10488 net.cpp:137] Memory required for data: 244658188
I0608 17:34:25.623800 10488 layer_factory.hpp:77] Creating layer bn4b1_branch2c
I0608 17:34:25.623817 10488 net.cpp:84] Creating Layer bn4b1_branch2c
I0608 17:34:25.623867 10488 net.cpp:406] bn4b1_branch2c <- res4b1_branch2c
I0608 17:34:25.623894 10488 net.cpp:367] bn4b1_branch2c -> res4b1_branch2c (in-place)
I0608 17:34:25.623931 10488 net.cpp:122] Setting up bn4b1_branch2c
I0608 17:34:25.623942 10488 net.cpp:129] Top shape: 1 1024 14 14 (200704)
I0608 17:34:25.623950 10488 net.cpp:137] Memory required for data: 245461004
I0608 17:34:25.623976 10488 layer_factory.hpp:77] Creating layer scale4b1_branch2c
I0608 17:34:25.624042 10488 net.cpp:84] Creating Layer scale4b1_branch2c
I0608 17:34:25.624055 10488 net.cpp:406] scale4b1_branch2c <- res4b1_branch2c
I0608 17:34:25.624063 10488 net.cpp:367] scale4b1_branch2c -> res4b1_branch2c (in-place)
I0608 17:34:25.624088 10488 layer_factory.hpp:77] Creating layer scale4b1_branch2c
I0608 17:34:25.624152 10488 net.cpp:122] Setting up scale4b1_branch2c
I0608 17:34:25.624193 10488 net.cpp:129] Top shape: 1 1024 14 14 (200704)
I0608 17:34:25.624202 10488 net.cpp:137] Memory required for data: 246263820
I0608 17:34:25.624322 10488 layer_factory.hpp:77] Creating layer res4b1
I0608 17:34:25.624369 10488 net.cpp:84] Creating Layer res4b1
I0608 17:34:25.624382 10488 net.cpp:406] res4b1 <- res4a_res4a_relu_0_split_1
I0608 17:34:25.624389 10488 net.cpp:406] res4b1 <- res4b1_branch2c
I0608 17:34:25.624431 10488 net.cpp:380] res4b1 -> res4b1
I0608 17:34:25.624449 10488 net.cpp:122] Setting up res4b1
I0608 17:34:25.624457 10488 net.cpp:129] Top shape: 1 1024 14 14 (200704)
I0608 17:34:25.624492 10488 net.cpp:137] Memory required for data: 247066636
I0608 17:34:25.624529 10488 layer_factory.hpp:77] Creating layer res4b1_relu
I0608 17:34:25.624570 10488 net.cpp:84] Creating Layer res4b1_relu
I0608 17:34:25.624609 10488 net.cpp:406] res4b1_relu <- res4b1
I0608 17:34:25.624619 10488 net.cpp:367] res4b1_relu -> res4b1 (in-place)
I0608 17:34:25.624630 10488 net.cpp:122] Setting up res4b1_relu
I0608 17:34:25.624637 10488 net.cpp:129] Top shape: 1 1024 14 14 (200704)
I0608 17:34:25.624642 10488 net.cpp:137] Memory required for data: 247869452
I0608 17:34:25.624649 10488 layer_factory.hpp:77] Creating layer res4b1_res4b1_relu_0_split
I0608 17:34:25.624655 10488 net.cpp:84] Creating Layer res4b1_res4b1_relu_0_split
I0608 17:34:25.624661 10488 net.cpp:406] res4b1_res4b1_relu_0_split <- res4b1
I0608 17:34:25.624675 10488 net.cpp:380] res4b1_res4b1_relu_0_split -> res4b1_res4b1_relu_0_split_0
I0608 17:34:25.624686 10488 net.cpp:380] res4b1_res4b1_relu_0_split -> res4b1_res4b1_relu_0_split_1
I0608 17:34:25.624727 10488 net.cpp:122] Setting up res4b1_res4b1_relu_0_split
I0608 17:34:25.624738 10488 net.cpp:129] Top shape: 1 1024 14 14 (200704)
I0608 17:34:25.624745 10488 net.cpp:129] Top shape: 1 1024 14 14 (200704)
I0608 17:34:25.624750 10488 net.cpp:137] Memory required for data: 249475084
I0608 17:34:25.624756 10488 layer_factory.hpp:77] Creating layer res4b2_branch2a
I0608 17:34:25.624780 10488 net.cpp:84] Creating Layer res4b2_branch2a
I0608 17:34:25.624788 10488 net.cpp:406] res4b2_branch2a <- res4b1_res4b1_relu_0_split_0
I0608 17:34:25.624796 10488 net.cpp:380] res4b2_branch2a -> res4b2_branch2a
I0608 17:34:25.651875 10488 net.cpp:122] Setting up res4b2_branch2a
I0608 17:34:25.652017 10488 net.cpp:129] Top shape: 1 256 14 14 (50176)
I0608 17:34:25.652029 10488 net.cpp:137] Memory required for data: 249675788
I0608 17:34:25.652040 10488 layer_factory.hpp:77] Creating layer bn4b2_branch2a
I0608 17:34:25.652057 10488 net.cpp:84] Creating Layer bn4b2_branch2a
I0608 17:34:25.652067 10488 net.cpp:406] bn4b2_branch2a <- res4b2_branch2a
I0608 17:34:25.652091 10488 net.cpp:367] bn4b2_branch2a -> res4b2_branch2a (in-place)
I0608 17:34:25.652153 10488 net.cpp:122] Setting up bn4b2_branch2a
I0608 17:34:25.652195 10488 net.cpp:129] Top shape: 1 256 14 14 (50176)
I0608 17:34:25.652256 10488 net.cpp:137] Memory required for data: 249876492
I0608 17:34:25.652272 10488 layer_factory.hpp:77] Creating layer scale4b2_branch2a
I0608 17:34:25.652312 10488 net.cpp:84] Creating Layer scale4b2_branch2a
I0608 17:34:25.652340 10488 net.cpp:406] scale4b2_branch2a <- res4b2_branch2a
I0608 17:34:25.652381 10488 net.cpp:367] scale4b2_branch2a -> res4b2_branch2a (in-place)
I0608 17:34:25.652436 10488 layer_factory.hpp:77] Creating layer scale4b2_branch2a
I0608 17:34:25.652465 10488 net.cpp:122] Setting up scale4b2_branch2a
I0608 17:34:25.652503 10488 net.cpp:129] Top shape: 1 256 14 14 (50176)
I0608 17:34:25.652539 10488 net.cpp:137] Memory required for data: 250077196
I0608 17:34:25.652551 10488 layer_factory.hpp:77] Creating layer res4b2_branch2a_relu
I0608 17:34:25.652577 10488 net.cpp:84] Creating Layer res4b2_branch2a_relu
I0608 17:34:25.652612 10488 net.cpp:406] res4b2_branch2a_relu <- res4b2_branch2a
I0608 17:34:25.652626 10488 net.cpp:367] res4b2_branch2a_relu -> res4b2_branch2a (in-place)
I0608 17:34:25.652664 10488 net.cpp:122] Setting up res4b2_branch2a_relu
I0608 17:34:25.652704 10488 net.cpp:129] Top shape: 1 256 14 14 (50176)
I0608 17:34:25.652729 10488 net.cpp:137] Memory required for data: 250277900
I0608 17:34:25.652796 10488 layer_factory.hpp:77] Creating layer res4b2_branch2b
I0608 17:34:25.652822 10488 net.cpp:84] Creating Layer res4b2_branch2b
I0608 17:34:25.652858 10488 net.cpp:406] res4b2_branch2b <- res4b2_branch2a
I0608 17:34:25.652873 10488 net.cpp:380] res4b2_branch2b -> res4b2_branch2b
I0608 17:34:25.697510 10488 net.cpp:122] Setting up res4b2_branch2b
I0608 17:34:25.697599 10488 net.cpp:129] Top shape: 1 256 14 14 (50176)
I0608 17:34:25.697635 10488 net.cpp:137] Memory required for data: 250478604
I0608 17:34:25.697654 10488 layer_factory.hpp:77] Creating layer bn4b2_branch2b
I0608 17:34:25.697701 10488 net.cpp:84] Creating Layer bn4b2_branch2b
I0608 17:34:25.697716 10488 net.cpp:406] bn4b2_branch2b <- res4b2_branch2b
I0608 17:34:25.697723 10488 net.cpp:367] bn4b2_branch2b -> res4b2_branch2b (in-place)
I0608 17:34:25.697749 10488 net.cpp:122] Setting up bn4b2_branch2b
I0608 17:34:25.697789 10488 net.cpp:129] Top shape: 1 256 14 14 (50176)
I0608 17:34:25.697799 10488 net.cpp:137] Memory required for data: 250679308
I0608 17:34:25.697808 10488 layer_factory.hpp:77] Creating layer scale4b2_branch2b
I0608 17:34:25.697818 10488 net.cpp:84] Creating Layer scale4b2_branch2b
I0608 17:34:25.697830 10488 net.cpp:406] scale4b2_branch2b <- res4b2_branch2b
I0608 17:34:25.697872 10488 net.cpp:367] scale4b2_branch2b -> res4b2_branch2b (in-place)
I0608 17:34:25.697893 10488 layer_factory.hpp:77] Creating layer scale4b2_branch2b
I0608 17:34:25.697914 10488 net.cpp:122] Setting up scale4b2_branch2b
I0608 17:34:25.697952 10488 net.cpp:129] Top shape: 1 256 14 14 (50176)
I0608 17:34:25.697988 10488 net.cpp:137] Memory required for data: 250880012
I0608 17:34:25.698029 10488 layer_factory.hpp:77] Creating layer res4b2_branch2b_relu
I0608 17:34:25.698068 10488 net.cpp:84] Creating Layer res4b2_branch2b_relu
I0608 17:34:25.698098 10488 net.cpp:406] res4b2_branch2b_relu <- res4b2_branch2b
I0608 17:34:25.698137 10488 net.cpp:367] res4b2_branch2b_relu -> res4b2_branch2b (in-place)
I0608 17:34:25.698180 10488 net.cpp:122] Setting up res4b2_branch2b_relu
I0608 17:34:25.698211 10488 net.cpp:129] Top shape: 1 256 14 14 (50176)
I0608 17:34:25.698245 10488 net.cpp:137] Memory required for data: 251080716
I0608 17:34:25.698310 10488 layer_factory.hpp:77] Creating layer res4b2_branch2c
I0608 17:34:25.698324 10488 net.cpp:84] Creating Layer res4b2_branch2c
I0608 17:34:25.698346 10488 net.cpp:406] res4b2_branch2c <- res4b2_branch2b
I0608 17:34:25.698387 10488 net.cpp:380] res4b2_branch2c -> res4b2_branch2c
I0608 17:34:25.706522 10488 net.cpp:122] Setting up res4b2_branch2c
I0608 17:34:25.706609 10488 net.cpp:129] Top shape: 1 1024 14 14 (200704)
I0608 17:34:25.706621 10488 net.cpp:137] Memory required for data: 251883532
I0608 17:34:25.706631 10488 layer_factory.hpp:77] Creating layer bn4b2_branch2c
I0608 17:34:25.706707 10488 net.cpp:84] Creating Layer bn4b2_branch2c
I0608 17:34:25.706720 10488 net.cpp:406] bn4b2_branch2c <- res4b2_branch2c
I0608 17:34:25.706729 10488 net.cpp:367] bn4b2_branch2c -> res4b2_branch2c (in-place)
I0608 17:34:25.706790 10488 net.cpp:122] Setting up bn4b2_branch2c
I0608 17:34:25.706831 10488 net.cpp:129] Top shape: 1 1024 14 14 (200704)
I0608 17:34:25.706840 10488 net.cpp:137] Memory required for data: 252686348
I0608 17:34:25.706874 10488 layer_factory.hpp:77] Creating layer scale4b2_branch2c
I0608 17:34:25.706888 10488 net.cpp:84] Creating Layer scale4b2_branch2c
I0608 17:34:25.706897 10488 net.cpp:406] scale4b2_branch2c <- res4b2_branch2c
I0608 17:34:25.706907 10488 net.cpp:367] scale4b2_branch2c -> res4b2_branch2c (in-place)
I0608 17:34:25.706929 10488 layer_factory.hpp:77] Creating layer scale4b2_branch2c
I0608 17:34:25.706985 10488 net.cpp:122] Setting up scale4b2_branch2c
I0608 17:34:25.706998 10488 net.cpp:129] Top shape: 1 1024 14 14 (200704)
I0608 17:34:25.707005 10488 net.cpp:137] Memory required for data: 253489164
I0608 17:34:25.707013 10488 layer_factory.hpp:77] Creating layer res4b2
I0608 17:34:25.707022 10488 net.cpp:84] Creating Layer res4b2
I0608 17:34:25.707029 10488 net.cpp:406] res4b2 <- res4b1_res4b1_relu_0_split_1
I0608 17:34:25.707036 10488 net.cpp:406] res4b2 <- res4b2_branch2c
I0608 17:34:25.707047 10488 net.cpp:380] res4b2 -> res4b2
I0608 17:34:25.707059 10488 net.cpp:122] Setting up res4b2
I0608 17:34:25.707067 10488 net.cpp:129] Top shape: 1 1024 14 14 (200704)
I0608 17:34:25.707072 10488 net.cpp:137] Memory required for data: 254291980
I0608 17:34:25.707077 10488 layer_factory.hpp:77] Creating layer res4b2_relu
I0608 17:34:25.707085 10488 net.cpp:84] Creating Layer res4b2_relu
I0608 17:34:25.707093 10488 net.cpp:406] res4b2_relu <- res4b2
I0608 17:34:25.707103 10488 net.cpp:367] res4b2_relu -> res4b2 (in-place)
I0608 17:34:25.707144 10488 net.cpp:122] Setting up res4b2_relu
I0608 17:34:25.707155 10488 net.cpp:129] Top shape: 1 1024 14 14 (200704)
I0608 17:34:25.707162 10488 net.cpp:137] Memory required for data: 255094796
I0608 17:34:25.707167 10488 layer_factory.hpp:77] Creating layer res4b2_res4b2_relu_0_split
I0608 17:34:25.707204 10488 net.cpp:84] Creating Layer res4b2_res4b2_relu_0_split
I0608 17:34:25.707212 10488 net.cpp:406] res4b2_res4b2_relu_0_split <- res4b2
I0608 17:34:25.707221 10488 net.cpp:380] res4b2_res4b2_relu_0_split -> res4b2_res4b2_relu_0_split_0
I0608 17:34:25.707229 10488 net.cpp:380] res4b2_res4b2_relu_0_split -> res4b2_res4b2_relu_0_split_1
…
I0608 17:34:33.752944 10488 net.cpp:137] Memory required for data: 474062860
I0608 17:34:33.752984 10488 layer_factory.hpp:77] Creating layer res4b33_branch2a_relu
I0608 17:34:33.753032 10488 net.cpp:84] Creating Layer res4b33_branch2a_relu
I0608 17:34:33.753082 10488 net.cpp:406] res4b33_branch2a_relu <- res4b33_branch2a
I0608 17:34:33.753119 10488 net.cpp:367] res4b33_branch2a_relu -> res4b33_branch2a (in-place)
I0608 17:34:33.753170 10488 net.cpp:122] Setting up res4b33_branch2a_relu
I0608 17:34:33.753207 10488 net.cpp:129] Top shape: 1 256 14 14 (50176)
I0608 17:34:33.753216 10488 net.cpp:137] Memory required for data: 474263564
I0608 17:34:33.753237 10488 layer_factory.hpp:77] Creating layer res4b33_branch2b
I0608 17:34:33.753278 10488 net.cpp:84] Creating Layer res4b33_branch2b
I0608 17:34:33.753314 10488 net.cpp:406] res4b33_branch2b <- res4b33_branch2a
I0608 17:34:33.753327 10488 net.cpp:380] res4b33_branch2b -> res4b33_branch2b
I0608 17:34:33.857105 10488 net.cpp:122] Setting up res4b33_branch2b
I0608 17:34:33.857188 10488 net.cpp:129] Top shape: 1 256 14 14 (50176)
I0608 17:34:33.857197 10488 net.cpp:137] Memory required for data: 474464268
I0608 17:34:33.857208 10488 layer_factory.hpp:77] Creating layer bn4b33_branch2b
I0608 17:34:33.857226 10488 net.cpp:84] Creating Layer bn4b33_branch2b
I0608 17:34:33.857239 10488 net.cpp:406] bn4b33_branch2b <- res4b33_branch2b
I0608 17:34:33.857272 10488 net.cpp:367] bn4b33_branch2b -> res4b33_branch2b (in-place)
I0608 17:34:33.857308 10488 net.cpp:122] Setting up bn4b33_branch2b
I0608 17:34:33.857350 10488 net.cpp:129] Top shape: 1 256 14 14 (50176)
I0608 17:34:33.857358 10488 net.cpp:137] Memory required for data: 474664972
I0608 17:34:33.857400 10488 layer_factory.hpp:77] Creating layer scale4b33_branch2b
I0608 17:34:33.857426 10488 net.cpp:84] Creating Layer scale4b33_branch2b
I0608 17:34:33.857489 10488 net.cpp:406] scale4b33_branch2b <- res4b33_branch2b
I0608 17:34:33.857501 10488 net.cpp:367] scale4b33_branch2b -> res4b33_branch2b (in-place)
I0608 17:34:33.857519 10488 layer_factory.hpp:77] Creating layer scale4b33_branch2b
I0608 17:34:33.857542 10488 net.cpp:122] Setting up scale4b33_branch2b
I0608 17:34:33.857559 10488 net.cpp:129] Top shape: 1 256 14 14 (50176)
I0608 17:34:33.857566 10488 net.cpp:137] Memory required for data: 474865676
I0608 17:34:33.857607 10488 layer_factory.hpp:77] Creating layer res4b33_branch2b_relu
I0608 17:34:33.857655 10488 net.cpp:84] Creating Layer res4b33_branch2b_relu
I0608 17:34:33.857681 10488 net.cpp:406] res4b33_branch2b_relu <- res4b33_branch2b
I0608 17:34:33.857728 10488 net.cpp:367] res4b33_branch2b_relu -> res4b33_branch2b (in-place)
I0608 17:34:33.857770 10488 net.cpp:122] Setting up res4b33_branch2b_relu
I0608 17:34:33.857810 10488 net.cpp:129] Top shape: 1 256 14 14 (50176)
I0608 17:34:33.857817 10488 net.cpp:137] Memory required for data: 475066380
I0608 17:34:33.857825 10488 layer_factory.hpp:77] Creating layer res4b33_branch2c
I0608 17:34:33.857838 10488 net.cpp:84] Creating Layer res4b33_branch2c
I0608 17:34:33.857844 10488 net.cpp:406] res4b33_branch2c <- res4b33_branch2b
I0608 17:34:33.857884 10488 net.cpp:380] res4b33_branch2c -> res4b33_branch2c
I0608 17:34:33.866163 10488 net.cpp:122] Setting up res4b33_branch2c
I0608 17:34:33.866238 10488 net.cpp:129] Top shape: 1 1024 14 14 (200704)
I0608 17:34:33.866248 10488 net.cpp:137] Memory required for data: 475869196
I0608 17:34:33.866261 10488 layer_factory.hpp:77] Creating layer bn4b33_branch2c
I0608 17:34:33.866274 10488 net.cpp:84] Creating Layer bn4b33_branch2c
I0608 17:34:33.866289 10488 net.cpp:406] bn4b33_branch2c <- res4b33_branch2c
I0608 17:34:33.866335 10488 net.cpp:367] bn4b33_branch2c -> res4b33_branch2c (in-place)
I0608 17:34:33.866405 10488 net.cpp:122] Setting up bn4b33_branch2c
I0608 17:34:33.866418 10488 net.cpp:129] Top shape: 1 1024 14 14 (200704)
I0608 17:34:33.866431 10488 net.cpp:137] Memory required for data: 476672012
I0608 17:34:33.866443 10488 layer_factory.hpp:77] Creating layer scale4b33_branch2c
I0608 17:34:33.866457 10488 net.cpp:84] Creating Layer scale4b33_branch2c
I0608 17:34:33.866464 10488 net.cpp:406] scale4b33_branch2c <- res4b33_branch2c
I0608 17:34:33.866472 10488 net.cpp:367] scale4b33_branch2c -> res4b33_branch2c (in-place)
I0608 17:34:33.866528 10488 layer_factory.hpp:77] Creating layer scale4b33_branch2c
I0608 17:34:33.866557 10488 net.cpp:122] Setting up scale4b33_branch2c
I0608 17:34:33.866595 10488 net.cpp:129] Top shape: 1 1024 14 14 (200704)
I0608 17:34:33.866603 10488 net.cpp:137] Memory required for data: 477474828
I0608 17:34:33.866613 10488 layer_factory.hpp:77] Creating layer res4b33
I0608 17:34:33.866628 10488 net.cpp:84] Creating Layer res4b33
I0608 17:34:33.866637 10488 net.cpp:406] res4b33 <- res4b32_res4b32_relu_0_split_1
I0608 17:34:33.866645 10488 net.cpp:406] res4b33 <- res4b33_branch2c
I0608 17:34:33.866653 10488 net.cpp:380] res4b33 -> res4b33
I0608 17:34:33.866665 10488 net.cpp:122] Setting up res4b33
I0608 17:34:33.866672 10488 net.cpp:129] Top shape: 1 1024 14 14 (200704)
I0608 17:34:33.866677 10488 net.cpp:137] Memory required for data: 478277644
I0608 17:34:33.866680 10488 layer_factory.hpp:77] Creating layer res4b33_relu
I0608 17:34:33.866688 10488 net.cpp:84] Creating Layer res4b33_relu
I0608 17:34:33.866693 10488 net.cpp:406] res4b33_relu <- res4b33
I0608 17:34:33.866698 10488 net.cpp:367] res4b33_relu -> res4b33 (in-place)
I0608 17:34:33.866705 10488 net.cpp:122] Setting up res4b33_relu
I0608 17:34:33.866711 10488 net.cpp:129] Top shape: 1 1024 14 14 (200704)
I0608 17:34:33.866716 10488 net.cpp:137] Memory required for data: 479080460
I0608 17:34:33.866720 10488 layer_factory.hpp:77] Creating layer res4b33_res4b33_relu_0_split
I0608 17:34:33.866727 10488 net.cpp:84] Creating Layer res4b33_res4b33_relu_0_split
I0608 17:34:33.866732 10488 net.cpp:406] res4b33_res4b33_relu_0_split <- res4b33
I0608 17:34:33.866739 10488 net.cpp:380] res4b33_res4b33_relu_0_split -> res4b33_res4b33_relu_0_split_0
I0608 17:34:33.866816 10488 net.cpp:380] res4b33_res4b33_relu_0_split -> res4b33_res4b33_relu_0_split_1
I0608 17:34:33.866993 10488 net.cpp:122] Setting up res4b33_res4b33_relu_0_split
I0608 17:34:33.867008 10488 net.cpp:129] Top shape: 1 1024 14 14 (200704)
I0608 17:34:33.867017 10488 net.cpp:129] Top shape: 1 1024 14 14 (200704)
I0608 17:34:33.867022 10488 net.cpp:137] Memory required for data: 480686092
I0608 17:34:33.867028 10488 layer_factory.hpp:77] Creating layer res4b34_branch2a
I0608 17:34:33.867048 10488 net.cpp:84] Creating Layer res4b34_branch2a
I0608 17:34:33.867086 10488 net.cpp:406] res4b34_branch2a <- res4b33_res4b33_relu_0_split_0
I0608 17:34:33.867100 10488 net.cpp:380] res4b34_branch2a -> res4b34_branch2a
I0608 17:34:33.877184 10488 net.cpp:122] Setting up res4b34_branch2a
I0608 17:34:33.877267 10488 net.cpp:129] Top shape: 1 256 14 14 (50176)
I0608 17:34:33.877276 10488 net.cpp:137] Memory required for data: 480886796
I0608 17:34:33.877287 10488 layer_factory.hpp:77] Creating layer bn4b34_branch2a
I0608 17:34:33.877301 10488 net.cpp:84] Creating Layer bn4b34_branch2a
I0608 17:34:33.877312 10488 net.cpp:406] bn4b34_branch2a <- res4b34_branch2a
I0608 17:34:33.877324 10488 net.cpp:367] bn4b34_branch2a -> res4b34_branch2a (in-place)
I0608 17:34:33.877348 10488 net.cpp:122] Setting up bn4b34_branch2a
I0608 17:34:33.877390 10488 net.cpp:129] Top shape: 1 256 14 14 (50176)
I0608 17:34:33.877420 10488 net.cpp:137] Memory required for data: 481087500
I0608 17:34:33.877490 10488 layer_factory.hpp:77] Creating layer scale4b34_branch2a
I0608 17:34:33.877532 10488 net.cpp:84] Creating Layer scale4b34_branch2a
I0608 17:34:33.877559 10488 net.cpp:406] scale4b34_branch2a <- res4b34_branch2a
I0608 17:34:33.877598 10488 net.cpp:367] scale4b34_branch2a -> res4b34_branch2a (in-place)
I0608 17:34:33.877650 10488 layer_factory.hpp:77] Creating layer scale4b34_branch2a
I0608 17:34:33.877684 10488 net.cpp:122] Setting up scale4b34_branch2a
I0608 17:34:33.877723 10488 net.cpp:129] Top shape: 1 256 14 14 (50176)
I0608 17:34:33.877732 10488 net.cpp:137] Memory required for data: 481288204
I0608 17:34:33.877743 10488 layer_factory.hpp:77] Creating layer res4b34_branch2a_relu
I0608 17:34:33.877751 10488 net.cpp:84] Creating Layer res4b34_branch2a_relu
I0608 17:34:33.877787 10488 net.cpp:406] res4b34_branch2a_relu <- res4b34_branch2a
I0608 17:34:33.877800 10488 net.cpp:367] res4b34_branch2a_relu -> res4b34_branch2a (in-place)
I0608 17:34:33.877811 10488 net.cpp:122] Setting up res4b34_branch2a_relu
I0608 17:34:33.877820 10488 net.cpp:129] Top shape: 1 256 14 14 (50176)
I0608 17:34:33.877854 10488 net.cpp:137] Memory required for data: 481488908
I0608 17:34:33.877862 10488 layer_factory.hpp:77] Creating layer res4b34_branch2b
I0608 17:34:33.877879 10488 net.cpp:84] Creating Layer res4b34_branch2b
I0608 17:34:33.877915 10488 net.cpp:406] res4b34_branch2b <- res4b34_branch2a
I0608 17:34:33.877928 10488 net.cpp:380] res4b34_branch2b -> res4b34_branch2b
I0608 17:34:33.966926 10488 net.cpp:122] Setting up res4b34_branch2b
I0608 17:34:33.967012 10488 net.cpp:129] Top shape: 1 256 14 14 (50176)
I0608 17:34:33.967020 10488 net.cpp:137] Memory required for data: 481689612
I0608 17:34:33.967030 10488 layer_factory.hpp:77] Creating layer bn4b34_branch2b
I0608 17:34:33.967044 10488 net.cpp:84] Creating Layer bn4b34_branch2b
I0608 17:34:33.967058 10488 net.cpp:406] bn4b34_branch2b <- res4b34_branch2b
I0608 17:34:33.967066 10488 net.cpp:367] bn4b34_branch2b -> res4b34_branch2b (in-place)
I0608 17:34:33.967090 10488 net.cpp:122] Setting up bn4b34_branch2b
I0608 17:34:33.967136 10488 net.cpp:129] Top shape: 1 256 14 14 (50176)
I0608 17:34:33.967146 10488 net.cpp:137] Memory required for data: 481890316
I0608 17:34:33.967162 10488 layer_factory.hpp:77] Creating layer scale4b34_branch2b
I0608 17:34:33.967175 10488 net.cpp:84] Creating Layer scale4b34_branch2b
I0608 17:34:33.967213 10488 net.cpp:406] scale4b34_branch2b <- res4b34_branch2b
I0608 17:34:33.967226 10488 net.cpp:367] scale4b34_branch2b -> res4b34_branch2b (in-place)
I0608 17:34:33.967324 10488 layer_factory.hpp:77] Creating layer scale4b34_branch2b
I0608 17:34:33.967350 10488 net.cpp:122] Setting up scale4b34_branch2b
I0608 17:34:33.967387 10488 net.cpp:129] Top shape: 1 256 14 14 (50176)
I0608 17:34:33.967396 10488 net.cpp:137] Memory required for data: 482091020
I0608 17:34:33.967404 10488 layer_factory.hpp:77] Creating layer res4b34_branch2b_relu
I0608 17:34:33.967411 10488 net.cpp:84] Creating Layer res4b34_branch2b_relu
I0608 17:34:33.967417 10488 net.cpp:406] res4b34_branch2b_relu <- res4b34_branch2b
I0608 17:34:33.967424 10488 net.cpp:367] res4b34_branch2b_relu -> res4b34_branch2b (in-place)
I0608 17:34:33.967463 10488 net.cpp:122] Setting up res4b34_branch2b_relu
I0608 17:34:33.967474 10488 net.cpp:129] Top shape: 1 256 14 14 (50176)
I0608 17:34:33.967478 10488 net.cpp:137] Memory required for data: 482291724
I0608 17:34:33.967481 10488 layer_factory.hpp:77] Creating layer res4b34_branch2c
I0608 17:34:33.967494 10488 net.cpp:84] Creating Layer res4b34_branch2c
I0608 17:34:33.967501 10488 net.cpp:406] res4b34_branch2c <- res4b34_branch2b
I0608 17:34:33.967540 10488 net.cpp:380] res4b34_branch2c -> res4b34_branch2c
I0608 17:34:34.047838 10488 net.cpp:122] Setting up res4b34_branch2c
I0608 17:34:34.047924 10488 net.cpp:129] Top shape: 1 1024 14 14 (200704)
I0608 17:34:34.047935 10488 net.cpp:137] Memory required for data: 483094540
I0608 17:34:34.047946 10488 layer_factory.hpp:77] Creating layer bn4b34_branch2c
I0608 17:34:34.047989 10488 net.cpp:84] Creating Layer bn4b34_branch2c
I0608 17:34:34.048033 10488 net.cpp:406] bn4b34_branch2c <- res4b34_branch2c
I0608 17:34:34.048086 10488 net.cpp:367] bn4b34_branch2c -> res4b34_branch2c (in-place)
I0608 17:34:34.048159 10488 net.cpp:122] Setting up bn4b34_branch2c
I0608 17:34:34.048198 10488 net.cpp:129] Top shape: 1 1024 14 14 (200704)
I0608 17:34:34.048207 10488 net.cpp:137] Memory required for data: 483897356
I0608 17:34:34.048328 10488 layer_factory.hpp:77] Creating layer scale4b34_branch2c
I0608 17:34:34.048375 10488 net.cpp:84] Creating Layer scale4b34_branch2c
I0608 17:34:34.048414 10488 net.cpp:406] scale4b34_branch2c <- res4b34_branch2c
I0608 17:34:34.048427 10488 net.cpp:367] scale4b34_branch2c -> res4b34_branch2c (in-place)
I0608 17:34:34.048472 10488 layer_factory.hpp:77] Creating layer scale4b34_branch2c
I0608 17:34:34.048527 10488 net.cpp:122] Setting up scale4b34_branch2c
I0608 17:34:34.048564 10488 net.cpp:129] Top shape: 1 1024 14 14 (200704)
I0608 17:34:34.048573 10488 net.cpp:137] Memory required for data: 484700172
I0608 17:34:34.048604 10488 layer_factory.hpp:77] Creating layer res4b34
I0608 17:34:34.048640 10488 net.cpp:84] Creating Layer res4b34
I0608 17:34:34.048677 10488 net.cpp:406] res4b34 <- res4b33_res4b33_relu_0_split_1
I0608 17:34:34.048717 10488 net.cpp:406] res4b34 <- res4b34_branch2c
I0608 17:34:34.048756 10488 net.cpp:380] res4b34 -> res4b34
I0608 17:34:34.048802 10488 net.cpp:122] Setting up res4b34
I0608 17:34:34.048830 10488 net.cpp:129] Top shape: 1 1024 14 14 (200704)
I0608 17:34:34.048862 10488 net.cpp:137] Memory required for data: 485502988
I0608 17:34:34.048871 10488 layer_factory.hpp:77] Creating layer res4b34_relu
I0608 17:34:34.048941 10488 net.cpp:84] Creating Layer res4b34_relu
I0608 17:34:34.048976 10488 net.cpp:406] res4b34_relu <- res4b34
I0608 17:34:34.048988 10488 net.cpp:367] res4b34_relu -> res4b34 (in-place)
I0608 17:34:34.049019 10488 net.cpp:122] Setting up res4b34_relu
I0608 17:34:34.049027 10488 net.cpp:129] Top shape: 1 1024 14 14 (200704)
I0608 17:34:34.049032 10488 net.cpp:137] Memory required for data: 486305804
I0608 17:34:34.049037 10488 layer_factory.hpp:77] Creating layer res4b34_res4b34_relu_0_split
I0608 17:34:34.049046 10488 net.cpp:84] Creating Layer res4b34_res4b34_relu_0_split
I0608 17:34:34.049051 10488 net.cpp:406] res4b34_res4b34_relu_0_split <- res4b34
I0608 17:34:34.049093 10488 net.cpp:380] res4b34_res4b34_relu_0_split -> res4b34_res4b34_relu_0_split_0
I0608 17:34:34.049129 10488 net.cpp:380] res4b34_res4b34_relu_0_split -> res4b34_res4b34_relu_0_split_1
I0608 17:34:34.049194 10488 net.cpp:122] Setting up res4b34_res4b34_relu_0_split
I0608 17:34:34.049226 10488 net.cpp:129] Top shape: 1 1024 14 14 (200704)
I0608 17:34:34.049234 10488 net.cpp:129] Top shape: 1 1024 14 14 (200704)
I0608 17:34:34.049264 10488 net.cpp:137] Memory required for data: 487911436
I0608 17:34:34.049350 10488 layer_factory.hpp:77] Creating layer res4b35_branch2a
I0608 17:34:34.049372 10488 net.cpp:84] Creating Layer res4b35_branch2a
I0608 17:34:34.049382 10488 net.cpp:406] res4b35_branch2a <- res4b34_res4b34_relu_0_split_0
I0608 17:34:34.049392 10488 net.cpp:380] res4b35_branch2a -> res4b35_branch2a
I0608 17:34:34.057332 10488 net.cpp:122] Setting up res4b35_branch2a
I0608 17:34:34.057407 10488 net.cpp:129] Top shape: 1 256 14 14 (50176)
I0608 17:34:34.057446 10488 net.cpp:137] Memory required for data: 488112140
I0608 17:34:34.057466 10488 layer_factory.hpp:77] Creating layer bn4b35_branch2a
I0608 17:34:34.057514 10488 net.cpp:84] Creating Layer bn4b35_branch2a
I0608 17:34:34.057530 10488 net.cpp:406] bn4b35_branch2a <- res4b35_branch2a
I0608 17:34:34.057575 10488 net.cpp:367] bn4b35_branch2a -> res4b35_branch2a (in-place)
I0608 17:34:34.057772 10488 net.cpp:122] Setting up bn4b35_branch2a
I0608 17:34:34.057819 10488 net.cpp:129] Top shape: 1 256 14 14 (50176)
I0608 17:34:34.057828 10488 net.cpp:137] Memory required for data: 488312844
I0608 17:34:34.057871 10488 layer_factory.hpp:77] Creating layer scale4b35_branch2a
I0608 17:34:34.057912 10488 net.cpp:84] Creating Layer scale4b35_branch2a
I0608 17:34:34.057951 10488 net.cpp:406] scale4b35_branch2a <- res4b35_branch2a
I0608 17:34:34.057970 10488 net.cpp:367] scale4b35_branch2a -> res4b35_branch2a (in-place)
I0608 17:34:34.058017 10488 layer_factory.hpp:77] Creating layer scale4b35_branch2a
I0608 17:34:34.058073 10488 net.cpp:122] Setting up scale4b35_branch2a
I0608 17:34:34.058109 10488 net.cpp:129] Top shape: 1 256 14 14 (50176)
I0608 17:34:34.058117 10488 net.cpp:137] Memory required for data: 488513548
I0608 17:34:34.058156 10488 layer_factory.hpp:77] Creating layer res4b35_branch2a_relu
I0608 17:34:34.058195 10488 net.cpp:84] Creating Layer res4b35_branch2a_relu
I0608 17:34:34.058234 10488 net.cpp:406] res4b35_branch2a_relu <- res4b35_branch2a
I0608 17:34:34.058246 10488 net.cpp:367] res4b35_branch2a_relu -> res4b35_branch2a (in-place)
I0608 17:34:34.058284 10488 net.cpp:122] Setting up res4b35_branch2a_relu
I0608 17:34:34.058321 10488 net.cpp:129] Top shape: 1 256 14 14 (50176)
I0608 17:34:34.058329 10488 net.cpp:137] Memory required for data: 488714252
I0608 17:34:34.058362 10488 layer_factory.hpp:77] Creating layer res4b35_branch2b
I0608 17:34:34.058378 10488 net.cpp:84] Creating Layer res4b35_branch2b
I0608 17:34:34.058410 10488 net.cpp:406] res4b35_branch2b <- res4b35_branch2a
I0608 17:34:34.058428 10488 net.cpp:380] res4b35_branch2b -> res4b35_branch2b
I0608 17:34:34.077698 10488 net.cpp:122] Setting up res4b35_branch2b
I0608 17:34:34.077812 10488 net.cpp:129] Top shape: 1 256 14 14 (50176)
I0608 17:34:34.077824 10488 net.cpp:137] Memory required for data: 488914956
I0608 17:34:34.077837 10488 layer_factory.hpp:77] Creating layer bn4b35_branch2b
I0608 17:34:34.077868 10488 net.cpp:84] Creating Layer bn4b35_branch2b
I0608 17:34:34.077919 10488 net.cpp:406] bn4b35_branch2b <- res4b35_branch2b
I0608 17:34:34.077934 10488 net.cpp:367] bn4b35_branch2b -> res4b35_branch2b (in-place)
I0608 17:34:34.077998 10488 net.cpp:122] Setting up bn4b35_branch2b
I0608 17:34:34.078044 10488 net.cpp:129] Top shape: 1 256 14 14 (50176)
I0608 17:34:34.078305 10488 net.cpp:137] Memory required for data: 489115660
I0608 17:34:34.078336 10488 layer_factory.hpp:77] Creating layer scale4b35_branch2b
I0608 17:34:34.078392 10488 net.cpp:84] Creating Layer scale4b35_branch2b
I0608 17:34:34.078439 10488 net.cpp:406] scale4b35_branch2b <- res4b35_branch2b
I0608 17:34:34.078486 10488 net.cpp:367] scale4b35_branch2b -> res4b35_branch2b (in-place)
I0608 17:34:34.078549 10488 layer_factory.hpp:77] Creating layer scale4b35_branch2b
I0608 17:34:34.078644 10488 net.cpp:122] Setting up scale4b35_branch2b
I0608 17:34:34.078688 10488 net.cpp:129] Top shape: 1 256 14 14 (50176)
I0608 17:34:34.078696 10488 net.cpp:137] Memory required for data: 489316364
I0608 17:34:34.078734 10488 layer_factory.hpp:77] Creating layer res4b35_branch2b_relu
I0608 17:34:34.078778 10488 net.cpp:84] Creating Layer res4b35_branch2b_relu
I0608 17:34:34.078820 10488 net.cpp:406] res4b35_branch2b_relu <- res4b35_branch2b
I0608 17:34:34.078869 10488 net.cpp:367] res4b35_branch2b_relu -> res4b35_branch2b (in-place)
I0608 17:34:34.078922 10488 net.cpp:122] Setting up res4b35_branch2b_relu
I0608 17:34:34.078965 10488 net.cpp:129] Top shape: 1 256 14 14 (50176)
I0608 17:34:34.078975 10488 net.cpp:137] Memory required for data: 489517068
I0608 17:34:34.079013 10488 layer_factory.hpp:77] Creating layer res4b35_branch2c
I0608 17:34:34.079031 10488 net.cpp:84] Creating Layer res4b35_branch2c
I0608 17:34:34.079072 10488 net.cpp:406] res4b35_branch2c <- res4b35_branch2b
I0608 17:34:34.079092 10488 net.cpp:380] res4b35_branch2c -> res4b35_branch2c
I0608 17:34:34.160146 10488 net.cpp:122] Setting up res4b35_branch2c
I0608 17:34:34.160223 10488 net.cpp:129] Top shape: 1 1024 14 14 (200704)
I0608 17:34:34.160231 10488 net.cpp:137] Memory required for data: 490319884
I0608 17:34:34.160241 10488 layer_factory.hpp:77] Creating layer bn4b35_branch2c
I0608 17:34:34.160255 10488 net.cpp:84] Creating Layer bn4b35_branch2c
I0608 17:34:34.160267 10488 net.cpp:406] bn4b35_branch2c <- res4b35_branch2c
I0608 17:34:34.160279 10488 net.cpp:367] bn4b35_branch2c -> res4b35_branch2c (in-place)
I0608 17:34:34.160332 10488 net.cpp:122] Setting up bn4b35_branch2c
I0608 17:34:34.160388 10488 net.cpp:129] Top shape: 1 1024 14 14 (200704)
I0608 17:34:34.160423 10488 net.cpp:137] Memory required for data: 491122700
I0608 17:34:34.160436 10488 layer_factory.hpp:77] Creating layer scale4b35_branch2c
I0608 17:34:34.160476 10488 net.cpp:84] Creating Layer scale4b35_branch2c
I0608 17:34:34.160512 10488 net.cpp:406] scale4b35_branch2c <- res4b35_branch2c
I0608 17:34:34.160523 10488 net.cpp:367] scale4b35_branch2c -> res4b35_branch2c (in-place)
I0608 17:34:34.160576 10488 layer_factory.hpp:77] Creating layer scale4b35_branch2c
I0608 17:34:34.160630 10488 net.cpp:122] Setting up scale4b35_branch2c
I0608 17:34:34.160641 10488 net.cpp:129] Top shape: 1 1024 14 14 (200704)
I0608 17:34:34.160645 10488 net.cpp:137] Memory required for data: 491925516
I0608 17:34:34.160653 10488 layer_factory.hpp:77] Creating layer res4b35
I0608 17:34:34.160663 10488 net.cpp:84] Creating Layer res4b35
I0608 17:34:34.160689 10488 net.cpp:406] res4b35 <- res4b34_res4b34_relu_0_split_1
I0608 17:34:34.160725 10488 net.cpp:406] res4b35 <- res4b35_branch2c
I0608 17:34:34.160737 10488 net.cpp:380] res4b35 -> res4b35
I0608 17:34:34.160776 10488 net.cpp:122] Setting up res4b35
I0608 17:34:34.160816 10488 net.cpp:129] Top shape: 1 1024 14 14 (200704)
I0608 17:34:34.160822 10488 net.cpp:137] Memory required for data: 492728332
I0608 17:34:34.160828 10488 layer_factory.hpp:77] Creating layer res4b35_relu
I0608 17:34:34.160836 10488 net.cpp:84] Creating Layer res4b35_relu
I0608 17:34:34.160842 10488 net.cpp:406] res4b35_relu <- res4b35
I0608 17:34:34.160850 10488 net.cpp:367] res4b35_relu -> res4b35 (in-place)
I0608 17:34:34.160857 10488 net.cpp:122] Setting up res4b35_relu
I0608 17:34:34.160863 10488 net.cpp:129] Top shape: 1 1024 14 14 (200704)
I0608 17:34:34.160868 10488 net.cpp:137] Memory required for data: 493531148
I0608 17:34:34.160872 10488 layer_factory.hpp:77] Creating layer res4b35_res4b35_relu_0_split
I0608 17:34:34.160903 10488 net.cpp:84] Creating Layer res4b35_res4b35_relu_0_split
I0608 17:34:34.160909 10488 net.cpp:406] res4b35_res4b35_relu_0_split <- res4b35
I0608 17:34:34.160948 10488 net.cpp:380] res4b35_res4b35_relu_0_split -> res4b35_res4b35_relu_0_split_0
I0608 17:34:34.160991 10488 net.cpp:380] res4b35_res4b35_relu_0_split -> res4b35_res4b35_relu_0_split_1
I0608 17:34:34.161048 10488 net.cpp:122] Setting up res4b35_res4b35_relu_0_split
I0608 17:34:34.161108 10488 net.cpp:129] Top shape: 1 1024 14 14 (200704)
I0608 17:34:34.161115 10488 net.cpp:129] Top shape: 1 1024 14 14 (200704)
I0608 17:34:34.161144 10488 net.cpp:137] Memory required for data: 495136780
I0608 17:34:34.161180 10488 layer_factory.hpp:77] Creating layer res5a_branch1
I0608 17:34:34.161227 10488 net.cpp:84] Creating Layer res5a_branch1
I0608 17:34:34.161264 10488 net.cpp:406] res5a_branch1 <- res4b35_res4b35_relu_0_split_0
I0608 17:34:34.161275 10488 net.cpp:380] res5a_branch1 -> res5a_branch1
I0608 17:34:34.485031 10488 net.cpp:122] Setting up res5a_branch1
I0608 17:34:34.485103 10488 net.cpp:129] Top shape: 1 2048 7 7 (100352)
I0608 17:34:34.485110 10488 net.cpp:137] Memory required for data: 495538188
I0608 17:34:34.485119 10488 layer_factory.hpp:77] Creating layer bn5a_branch1
I0608 17:34:34.485131 10488 net.cpp:84] Creating Layer bn5a_branch1
I0608 17:34:34.485138 10488 net.cpp:406] bn5a_branch1 <- res5a_branch1
I0608 17:34:34.485177 10488 net.cpp:367] bn5a_branch1 -> res5a_branch1 (in-place)
I0608 17:34:34.485213 10488 net.cpp:122] Setting up bn5a_branch1
I0608 17:34:34.485252 10488 net.cpp:129] Top shape: 1 2048 7 7 (100352)
I0608 17:34:34.485261 10488 net.cpp:137] Memory required for data: 495939596
I0608 17:34:34.485278 10488 layer_factory.hpp:77] Creating layer scale5a_branch1
I0608 17:34:34.485294 10488 net.cpp:84] Creating Layer scale5a_branch1
I0608 17:34:34.485303 10488 net.cpp:406] scale5a_branch1 <- res5a_branch1
I0608 17:34:34.485311 10488 net.cpp:367] scale5a_branch1 -> res5a_branch1 (in-place)
I0608 17:34:34.485357 10488 layer_factory.hpp:77] Creating layer scale5a_branch1
I0608 17:34:34.485386 10488 net.cpp:122] Setting up scale5a_branch1
I0608 17:34:34.485429 10488 net.cpp:129] Top shape: 1 2048 7 7 (100352)
I0608 17:34:34.485437 10488 net.cpp:137] Memory required for data: 496341004
I0608 17:34:34.485447 10488 layer_factory.hpp:77] Creating layer res5a_branch2a
I0608 17:34:34.485463 10488 net.cpp:84] Creating Layer res5a_branch2a
I0608 17:34:34.485474 10488 net.cpp:406] res5a_branch2a <- res4b35_res4b35_relu_0_split_1
I0608 17:34:34.485487 10488 net.cpp:380] res5a_branch2a -> res5a_branch2a
I0608 17:34:34.581611 10488 net.cpp:122] Setting up res5a_branch2a
I0608 17:34:34.581687 10488 net.cpp:129] Top shape: 1 512 7 7 (25088)
I0608 17:34:34.581697 10488 net.cpp:137] Memory required for data: 496441356
I0608 17:34:34.581765 10488 layer_factory.hpp:77] Creating layer bn5a_branch2a
I0608 17:34:34.581811 10488 net.cpp:84] Creating Layer bn5a_branch2a
I0608 17:34:34.581845 10488 net.cpp:406] bn5a_branch2a <- res5a_branch2a
I0608 17:34:34.581866 10488 net.cpp:367] bn5a_branch2a -> res5a_branch2a (in-place)
I0608 17:34:34.581938 10488 net.cpp:122] Setting up bn5a_branch2a
I0608 17:34:34.582007 10488 net.cpp:129] Top shape: 1 512 7 7 (25088)
I0608 17:34:34.582082 10488 net.cpp:137] Memory required for data: 496541708
I0608 17:34:34.582156 10488 layer_factory.hpp:77] Creating layer scale5a_branch2a
I0608 17:34:34.582201 10488 net.cpp:84] Creating Layer scale5a_branch2a
I0608 17:34:34.582231 10488 net.cpp:406] scale5a_branch2a <- res5a_branch2a
I0608 17:34:34.582240 10488 net.cpp:367] scale5a_branch2a -> res5a_branch2a (in-place)
I0608 17:34:34.582263 10488 layer_factory.hpp:77] Creating layer scale5a_branch2a
I0608 17:34:34.582324 10488 net.cpp:122] Setting up scale5a_branch2a
I0608 17:34:34.582361 10488 net.cpp:129] Top shape: 1 512 7 7 (25088)
I0608 17:34:34.582394 10488 net.cpp:137] Memory required for data: 496642060
I0608 17:34:34.582407 10488 layer_factory.hpp:77] Creating layer res5a_branch2a_relu
I0608 17:34:34.582446 10488 net.cpp:84] Creating Layer res5a_branch2a_relu
I0608 17:34:34.582482 10488 net.cpp:406] res5a_branch2a_relu <- res5a_branch2a
I0608 17:34:34.582520 10488 net.cpp:367] res5a_branch2a_relu -> res5a_branch2a (in-place)
I0608 17:34:34.582562 10488 net.cpp:122] Setting up res5a_branch2a_relu
I0608 17:34:34.582600 10488 net.cpp:129] Top shape: 1 512 7 7 (25088)
I0608 17:34:34.582635 10488 net.cpp:137] Memory required for data: 496742412
I0608 17:34:34.582644 10488 layer_factory.hpp:77] Creating layer res5a_branch2b
I0608 17:34:34.582715 10488 net.cpp:84] Creating Layer res5a_branch2b
I0608 17:34:34.582746 10488 net.cpp:406] res5a_branch2b <- res5a_branch2a
I0608 17:34:34.582785 10488 net.cpp:380] res5a_branch2b -> res5a_branch2b
I0608 17:34:34.987798 10488 net.cpp:122] Setting up res5a_branch2b
I0608 17:34:34.987910 10488 net.cpp:129] Top shape: 1 512 7 7 (25088)
I0608 17:34:34.987920 10488 net.cpp:137] Memory required for data: 496842764
I0608 17:34:34.987931 10488 layer_factory.hpp:77] Creating layer bn5a_branch2b
I0608 17:34:34.987947 10488 net.cpp:84] Creating Layer bn5a_branch2b
I0608 17:34:34.987977 10488 net.cpp:406] bn5a_branch2b <- res5a_branch2b
I0608 17:34:34.987999 10488 net.cpp:367] bn5a_branch2b -> res5a_branch2b (in-place)
I0608 17:34:34.988026 10488 net.cpp:122] Setting up bn5a_branch2b
I0608 17:34:34.988070 10488 net.cpp:129] Top shape: 1 512 7 7 (25088)
I0608 17:34:34.988077 10488 net.cpp:137] Memory required for data: 496943116
I0608 17:34:34.988091 10488 layer_factory.hpp:77] Creating layer scale5a_branch2b
I0608 17:34:34.988102 10488 net.cpp:84] Creating Layer scale5a_branch2b
I0608 17:34:34.988114 10488 net.cpp:406] scale5a_branch2b <- res5a_branch2b
I0608 17:34:34.988126 10488 net.cpp:367] scale5a_branch2b -> res5a_branch2b (in-place)
I0608 17:34:34.988175 10488 layer_factory.hpp:77] Creating layer scale5a_branch2b
I0608 17:34:34.988252 10488 net.cpp:122] Setting up scale5a_branch2b
I0608 17:34:34.988294 10488 net.cpp:129] Top shape: 1 512 7 7 (25088)
I0608 17:34:34.988302 10488 net.cpp:137] Memory required for data: 497043468
I0608 17:34:34.988313 10488 layer_factory.hpp:77] Creating layer res5a_branch2b_relu
I0608 17:34:34.988327 10488 net.cpp:84] Creating Layer res5a_branch2b_relu
I0608 17:34:34.988334 10488 net.cpp:406] res5a_branch2b_relu <- res5a_branch2b
I0608 17:34:34.988340 10488 net.cpp:367] res5a_branch2b_relu -> res5a_branch2b (in-place)
I0608 17:34:34.988350 10488 net.cpp:122] Setting up res5a_branch2b_relu
I0608 17:34:34.988358 10488 net.cpp:129] Top shape: 1 512 7 7 (25088)
I0608 17:34:34.988394 10488 net.cpp:137] Memory required for data: 497143820
I0608 17:34:34.988402 10488 layer_factory.hpp:77] Creating layer res5a_branch2c
I0608 17:34:34.988415 10488 net.cpp:84] Creating Layer res5a_branch2c
I0608 17:34:34.988451 10488 net.cpp:406] res5a_branch2c <- res5a_branch2b
I0608 17:34:34.988463 10488 net.cpp:380] res5a_branch2c -> res5a_branch2c
I0608 17:34:35.305006 10488 net.cpp:122] Setting up res5a_branch2c
I0608 17:34:35.305094 10488 net.cpp:129] Top shape: 1 2048 7 7 (100352)
I0608 17:34:35.305104 10488 net.cpp:137] Memory required for data: 497545228
I0608 17:34:35.305115 10488 layer_factory.hpp:77] Creating layer bn5a_branch2c
I0608 17:34:35.305189 10488 net.cpp:84] Creating Layer bn5a_branch2c
I0608 17:34:35.305203 10488 net.cpp:406] bn5a_branch2c <- res5a_branch2c
I0608 17:34:35.305217 10488 net.cpp:367] bn5a_branch2c -> res5a_branch2c (in-place)
I0608 17:34:35.305281 10488 net.cpp:122] Setting up bn5a_branch2c
I0608 17:34:35.305299 10488 net.cpp:129] Top shape: 1 2048 7 7 (100352)
I0608 17:34:35.305306 10488 net.cpp:137] Memory required for data: 497946636
I0608 17:34:35.305318 10488 layer_factory.hpp:77] Creating layer scale5a_branch2c
I0608 17:34:35.305332 10488 net.cpp:84] Creating Layer scale5a_branch2c
I0608 17:34:35.305359 10488 net.cpp:406] scale5a_branch2c <- res5a_branch2c
I0608 17:34:35.305367 10488 net.cpp:367] scale5a_branch2c -> res5a_branch2c (in-place)
I0608 17:34:35.305387 10488 layer_factory.hpp:77] Creating layer scale5a_branch2c
I0608 17:34:35.305451 10488 net.cpp:122] Setting up scale5a_branch2c
I0608 17:34:35.305466 10488 net.cpp:129] Top shape: 1 2048 7 7 (100352)
I0608 17:34:35.305474 10488 net.cpp:137] Memory required for data: 498348044
I0608 17:34:35.305482 10488 layer_factory.hpp:77] Creating layer res5a
I0608 17:34:35.305491 10488 net.cpp:84] Creating Layer res5a
I0608 17:34:35.305498 10488 net.cpp:406] res5a <- res5a_branch1
I0608 17:34:35.305505 10488 net.cpp:406] res5a <- res5a_branch2c
I0608 17:34:35.305514 10488 net.cpp:380] res5a -> res5a
I0608 17:34:35.305590 10488 net.cpp:122] Setting up res5a
I0608 17:34:35.305605 10488 net.cpp:129] Top shape: 1 2048 7 7 (100352)
I0608 17:34:35.305611 10488 net.cpp:137] Memory required for data: 498749452
I0608 17:34:35.305616 10488 layer_factory.hpp:77] Creating layer res5a_relu
I0608 17:34:35.305629 10488 net.cpp:84] Creating Layer res5a_relu
I0608 17:34:35.305672 10488 net.cpp:406] res5a_relu <- res5a
I0608 17:34:35.305685 10488 net.cpp:367] res5a_relu -> res5a (in-place)
I0608 17:34:35.305697 10488 net.cpp:122] Setting up res5a_relu
I0608 17:34:35.305706 10488 net.cpp:129] Top shape: 1 2048 7 7 (100352)
I0608 17:34:35.305711 10488 net.cpp:137] Memory required for data: 499150860
I0608 17:34:35.305717 10488 layer_factory.hpp:77] Creating layer res5a_res5a_relu_0_split
I0608 17:34:35.305724 10488 net.cpp:84] Creating Layer res5a_res5a_relu_0_split
I0608 17:34:35.305730 10488 net.cpp:406] res5a_res5a_relu_0_split <- res5a
I0608 17:34:35.305737 10488 net.cpp:380] res5a_res5a_relu_0_split -> res5a_res5a_relu_0_split_0
I0608 17:34:35.305749 10488 net.cpp:380] res5a_res5a_relu_0_split -> res5a_res5a_relu_0_split_1
I0608 17:34:35.305760 10488 net.cpp:122] Setting up res5a_res5a_relu_0_split
I0608 17:34:35.305768 10488 net.cpp:129] Top shape: 1 2048 7 7 (100352)
I0608 17:34:35.305778 10488 net.cpp:129] Top shape: 1 2048 7 7 (100352)
I0608 17:34:35.305784 10488 net.cpp:137] Memory required for data: 499953676
I0608 17:34:35.305789 10488 layer_factory.hpp:77] Creating layer res5b_branch2a
I0608 17:34:35.305806 10488 net.cpp:84] Creating Layer res5b_branch2a
I0608 17:34:35.305857 10488 net.cpp:406] res5b_branch2a <- res5a_res5a_relu_0_split_0
I0608 17:34:35.305919 10488 net.cpp:380] res5b_branch2a -> res5b_branch2a
I0608 17:34:35.615126 10488 net.cpp:122] Setting up res5b_branch2a
I0608 17:34:35.615209 10488 net.cpp:129] Top shape: 1 512 7 7 (25088)
I0608 17:34:35.615281 10488 net.cpp:137] Memory required for data: 500054028
I0608 17:34:35.615298 10488 layer_factory.hpp:77] Creating layer bn5b_branch2a
I0608 17:34:35.615322 10488 net.cpp:84] Creating Layer bn5b_branch2a
I0608 17:34:35.615342 10488 net.cpp:406] bn5b_branch2a <- res5b_branch2a
I0608 17:34:35.615358 10488 net.cpp:367] bn5b_branch2a -> res5b_branch2a (in-place)
I0608 17:34:35.615417 10488 net.cpp:122] Setting up bn5b_branch2a
I0608 17:34:35.615432 10488 net.cpp:129] Top shape: 1 512 7 7 (25088)
I0608 17:34:35.615466 10488 net.cpp:137] Memory required for data: 500154380
I0608 17:34:35.615485 10488 layer_factory.hpp:77] Creating layer scale5b_branch2a
I0608 17:34:35.615526 10488 net.cpp:84] Creating Layer scale5b_branch2a
I0608 17:34:35.615537 10488 net.cpp:406] scale5b_branch2a <- res5b_branch2a
I0608 17:34:35.615545 10488 net.cpp:367] scale5b_branch2a -> res5b_branch2a (in-place)
I0608 17:34:35.615564 10488 layer_factory.hpp:77] Creating layer scale5b_branch2a
I0608 17:34:35.615619 10488 net.cpp:122] Setting up scale5b_branch2a
I0608 17:34:35.615631 10488 net.cpp:129] Top shape: 1 512 7 7 (25088)
I0608 17:34:35.615665 10488 net.cpp:137] Memory required for data: 500254732
I0608 17:34:35.615677 10488 layer_factory.hpp:77] Creating layer res5b_branch2a_relu
I0608 17:34:35.615687 10488 net.cpp:84] Creating Layer res5b_branch2a_relu
I0608 17:34:35.615694 10488 net.cpp:406] res5b_branch2a_relu <- res5b_branch2a
I0608 17:34:35.615707 10488 net.cpp:367] res5b_branch2a_relu -> res5b_branch2a (in-place)
I0608 17:34:35.615746 10488 net.cpp:122] Setting up res5b_branch2a_relu
I0608 17:34:35.615758 10488 net.cpp:129] Top shape: 1 512 7 7 (25088)
I0608 17:34:35.615763 10488 net.cpp:137] Memory required for data: 500355084
I0608 17:34:35.615768 10488 layer_factory.hpp:77] Creating layer res5b_branch2b
I0608 17:34:35.615808 10488 net.cpp:84] Creating Layer res5b_branch2b
I0608 17:34:35.615819 10488 net.cpp:406] res5b_branch2b <- res5b_branch2a
I0608 17:34:35.615828 10488 net.cpp:380] res5b_branch2b -> res5b_branch2b
I0608 17:34:35.734792 10488 net.cpp:122] Setting up res5b_branch2b
I0608 17:34:35.734887 10488 net.cpp:129] Top shape: 1 512 7 7 (25088)
I0608 17:34:35.735131 10488 net.cpp:137] Memory required for data: 500455436
I0608 17:34:35.735185 10488 layer_factory.hpp:77] Creating layer bn5b_branch2b
I0608 17:34:35.735201 10488 net.cpp:84] Creating Layer bn5b_branch2b
I0608 17:34:35.735231 10488 net.cpp:406] bn5b_branch2b <- res5b_branch2b
I0608 17:34:35.735242 10488 net.cpp:367] bn5b_branch2b -> res5b_branch2b (in-place)
I0608 17:34:35.735275 10488 net.cpp:122] Setting up bn5b_branch2b
I0608 17:34:35.735316 10488 net.cpp:129] Top shape: 1 512 7 7 (25088)
I0608 17:34:35.735323 10488 net.cpp:137] Memory required for data: 500555788
I0608 17:34:35.735338 10488 layer_factory.hpp:77] Creating layer scale5b_branch2b
I0608 17:34:35.735361 10488 net.cpp:84] Creating Layer scale5b_branch2b
I0608 17:34:35.735400 10488 net.cpp:406] scale5b_branch2b <- res5b_branch2b
I0608 17:34:35.735414 10488 net.cpp:367] scale5b_branch2b -> res5b_branch2b (in-place)
I0608 17:34:35.735432 10488 layer_factory.hpp:77] Creating layer scale5b_branch2b
I0608 17:34:35.735456 10488 net.cpp:122] Setting up scale5b_branch2b
I0608 17:34:35.735493 10488 net.cpp:129] Top shape: 1 512 7 7 (25088)
I0608 17:34:35.735500 10488 net.cpp:137] Memory required for data: 500656140
I0608 17:34:35.735538 10488 layer_factory.hpp:77] Creating layer res5b_branch2b_relu
I0608 17:34:35.735551 10488 net.cpp:84] Creating Layer res5b_branch2b_relu
I0608 17:34:35.735560 10488 net.cpp:406] res5b_branch2b_relu <- res5b_branch2b
I0608 17:34:35.735574 10488 net.cpp:367] res5b_branch2b_relu -> res5b_branch2b (in-place)
I0608 17:34:35.735584 10488 net.cpp:122] Setting up res5b_branch2b_relu
I0608 17:34:35.735591 10488 net.cpp:129] Top shape: 1 512 7 7 (25088)
I0608 17:34:35.735599 10488 net.cpp:137] Memory required for data: 500756492
I0608 17:34:35.735605 10488 layer_factory.hpp:77] Creating layer res5b_branch2c
I0608 17:34:35.735616 10488 net.cpp:84] Creating Layer res5b_branch2c
I0608 17:34:35.735622 10488 net.cpp:406] res5b_branch2c <- res5b_branch2b
I0608 17:34:35.735635 10488 net.cpp:380] res5b_branch2c -> res5b_branch2c
I0608 17:34:35.800801 10488 net.cpp:122] Setting up res5b_branch2c
I0608 17:34:35.800909 10488 net.cpp:129] Top shape: 1 2048 7 7 (100352)
I0608 17:34:35.800917 10488 net.cpp:137] Memory required for data: 501157900
I0608 17:34:35.800926 10488 layer_factory.hpp:77] Creating layer bn5b_branch2c
I0608 17:34:35.800977 10488 net.cpp:84] Creating Layer bn5b_branch2c
I0608 17:34:35.800992 10488 net.cpp:406] bn5b_branch2c <- res5b_branch2c
I0608 17:34:35.801002 10488 net.cpp:367] bn5b_branch2c -> res5b_branch2c (in-place)
I0608 17:34:35.801036 10488 net.cpp:122] Setting up bn5b_branch2c
I0608 17:34:35.801075 10488 net.cpp:129] Top shape: 1 2048 7 7 (100352)
I0608 17:34:35.801084 10488 net.cpp:137] Memory required for data: 501559308
I0608 17:34:35.801126 10488 layer_factory.hpp:77] Creating layer scale5b_branch2c
I0608 17:34:35.801168 10488 net.cpp:84] Creating Layer scale5b_branch2c
I0608 17:34:35.801184 10488 net.cpp:406] scale5b_branch2c <- res5b_branch2c
I0608 17:34:35.801193 10488 net.cpp:367] scale5b_branch2c -> res5b_branch2c (in-place)
I0608 17:34:35.801218 10488 layer_factory.hpp:77] Creating layer scale5b_branch2c
I0608 17:34:35.801277 10488 net.cpp:122] Setting up scale5b_branch2c
I0608 17:34:35.801296 10488 net.cpp:129] Top shape: 1 2048 7 7 (100352)
I0608 17:34:35.801332 10488 net.cpp:137] Memory required for data: 501960716
I0608 17:34:35.801347 10488 layer_factory.hpp:77] Creating layer res5b
I0608 17:34:35.801384 10488 net.cpp:84] Creating Layer res5b
I0608 17:34:35.801396 10488 net.cpp:406] res5b <- res5a_res5a_relu_0_split_1
I0608 17:34:35.801405 10488 net.cpp:406] res5b <- res5b_branch2c
I0608 17:34:35.801416 10488 net.cpp:380] res5b -> res5b
I0608 17:34:35.801430 10488 net.cpp:122] Setting up res5b
I0608 17:34:35.801467 10488 net.cpp:129] Top shape: 1 2048 7 7 (100352)
I0608 17:34:35.801476 10488 net.cpp:137] Memory required for data: 502362124
I0608 17:34:35.801506 10488 layer_factory.hpp:77] Creating layer res5b_relu
I0608 17:34:35.801544 10488 net.cpp:84] Creating Layer res5b_relu
I0608 17:34:35.801609 10488 net.cpp:406] res5b_relu <- res5b
I0608 17:34:35.801621 10488 net.cpp:367] res5b_relu -> res5b (in-place)
I0608 17:34:35.801650 10488 net.cpp:122] Setting up res5b_relu
I0608 17:34:35.801686 10488 net.cpp:129] Top shape: 1 2048 7 7 (100352)
I0608 17:34:35.801695 10488 net.cpp:137] Memory required for data: 502763532
I0608 17:34:35.801702 10488 layer_factory.hpp:77] Creating layer res5b_res5b_relu_0_split
I0608 17:34:35.801712 10488 net.cpp:84] Creating Layer res5b_res5b_relu_0_split
I0608 17:34:35.801720 10488 net.cpp:406] res5b_res5b_relu_0_split <- res5b
I0608 17:34:35.801730 10488 net.cpp:380] res5b_res5b_relu_0_split -> res5b_res5b_relu_0_split_0
I0608 17:34:35.801743 10488 net.cpp:380] res5b_res5b_relu_0_split -> res5b_res5b_relu_0_split_1
I0608 17:34:35.801753 10488 net.cpp:122] Setting up res5b_res5b_relu_0_split
I0608 17:34:35.801787 10488 net.cpp:129] Top shape: 1 2048 7 7 (100352)
I0608 17:34:35.801823 10488 net.cpp:129] Top shape: 1 2048 7 7 (100352)
I0608 17:34:35.801834 10488 net.cpp:137] Memory required for data: 503566348
I0608 17:34:35.801841 10488 layer_factory.hpp:77] Creating layer res5c_branch2a
I0608 17:34:35.801858 10488 net.cpp:84] Creating Layer res5c_branch2a
I0608 17:34:35.801867 10488 net.cpp:406] res5c_branch2a <- res5b_res5b_relu_0_split_0
I0608 17:34:35.801877 10488 net.cpp:380] res5c_branch2a -> res5c_branch2a
I0608 17:34:35.907804 10488 net.cpp:122] Setting up res5c_branch2a
I0608 17:34:35.907889 10488 net.cpp:129] Top shape: 1 512 7 7 (25088)
I0608 17:34:35.907897 10488 net.cpp:137] Memory required for data: 503666700
I0608 17:34:35.907907 10488 layer_factory.hpp:77] Creating layer bn5c_branch2a
I0608 17:34:35.907922 10488 net.cpp:84] Creating Layer bn5c_branch2a
I0608 17:34:35.907929 10488 net.cpp:406] bn5c_branch2a <- res5c_branch2a
I0608 17:34:35.907937 10488 net.cpp:367] bn5c_branch2a -> res5c_branch2a (in-place)
I0608 17:34:35.907958 10488 net.cpp:122] Setting up bn5c_branch2a
I0608 17:34:35.907964 10488 net.cpp:129] Top shape: 1 512 7 7 (25088)
I0608 17:34:35.907968 10488 net.cpp:137] Memory required for data: 503767052
I0608 17:34:35.907980 10488 layer_factory.hpp:77] Creating layer scale5c_branch2a
I0608 17:34:35.908001 10488 net.cpp:84] Creating Layer scale5c_branch2a
I0608 17:34:35.908007 10488 net.cpp:406] scale5c_branch2a <- res5c_branch2a
I0608 17:34:35.908016 10488 net.cpp:367] scale5c_branch2a -> res5c_branch2a (in-place)
I0608 17:34:35.908035 10488 layer_factory.hpp:77] Creating layer scale5c_branch2a
I0608 17:34:35.908057 10488 net.cpp:122] Setting up scale5c_branch2a
I0608 17:34:35.908098 10488 net.cpp:129] Top shape: 1 512 7 7 (25088)
I0608 17:34:35.908107 10488 net.cpp:137] Memory required for data: 503867404
I0608 17:34:35.908116 10488 layer_factory.hpp:77] Creating layer res5c_branch2a_relu
I0608 17:34:35.908128 10488 net.cpp:84] Creating Layer res5c_branch2a_relu
I0608 17:34:35.908133 10488 net.cpp:406] res5c_branch2a_relu <- res5c_branch2a
I0608 17:34:35.908139 10488 net.cpp:367] res5c_branch2a_relu -> res5c_branch2a (in-place)
I0608 17:34:35.908149 10488 net.cpp:122] Setting up res5c_branch2a_relu
I0608 17:34:35.908157 10488 net.cpp:129] Top shape: 1 512 7 7 (25088)
I0608 17:34:35.908162 10488 net.cpp:137] Memory required for data: 503967756
I0608 17:34:35.908167 10488 layer_factory.hpp:77] Creating layer res5c_branch2b
I0608 17:34:35.908179 10488 net.cpp:84] Creating Layer res5c_branch2b
I0608 17:34:35.908186 10488 net.cpp:406] res5c_branch2b <- res5c_branch2a
I0608 17:34:35.908196 10488 net.cpp:380] res5c_branch2b -> res5c_branch2b
I0608 17:34:36.045378 10488 net.cpp:122] Setting up res5c_branch2b
I0608 17:34:36.045451 10488 net.cpp:129] Top shape: 1 512 7 7 (25088)
I0608 17:34:36.045459 10488 net.cpp:137] Memory required for data: 504068108
I0608 17:34:36.045467 10488 layer_factory.hpp:77] Creating layer bn5c_branch2b
I0608 17:34:36.045477 10488 net.cpp:84] Creating Layer bn5c_branch2b
I0608 17:34:36.045486 10488 net.cpp:406] bn5c_branch2b <- res5c_branch2b
I0608 17:34:36.045531 10488 net.cpp:367] bn5c_branch2b -> res5c_branch2b (in-place)
I0608 17:34:36.045635 10488 net.cpp:122] Setting up bn5c_branch2b
I0608 17:34:36.045651 10488 net.cpp:129] Top shape: 1 512 7 7 (25088)
I0608 17:34:36.045657 10488 net.cpp:137] Memory required for data: 504168460
I0608 17:34:36.045672 10488 layer_factory.hpp:77] Creating layer scale5c_branch2b
I0608 17:34:36.045683 10488 net.cpp:84] Creating Layer scale5c_branch2b
I0608 17:34:36.045692 10488 net.cpp:406] scale5c_branch2b <- res5c_branch2b
I0608 17:34:36.045701 10488 net.cpp:367] scale5c_branch2b -> res5c_branch2b (in-place)
I0608 17:34:36.045723 10488 layer_factory.hpp:77] Creating layer scale5c_branch2b
I0608 17:34:36.045778 10488 net.cpp:122] Setting up scale5c_branch2b
I0608 17:34:36.045789 10488 net.cpp:129] Top shape: 1 512 7 7 (25088)
I0608 17:34:36.045792 10488 net.cpp:137] Memory required for data: 504268812
I0608 17:34:36.045800 10488 layer_factory.hpp:77] Creating layer res5c_branch2b_relu
I0608 17:34:36.045809 10488 net.cpp:84] Creating Layer res5c_branch2b_relu
I0608 17:34:36.045816 10488 net.cpp:406] res5c_branch2b_relu <- res5c_branch2b
I0608 17:34:36.045823 10488 net.cpp:367] res5c_branch2b_relu -> res5c_branch2b (in-place)
I0608 17:34:36.045833 10488 net.cpp:122] Setting up res5c_branch2b_relu
I0608 17:34:36.045840 10488 net.cpp:129] Top shape: 1 512 7 7 (25088)
I0608 17:34:36.045847 10488 net.cpp:137] Memory required for data: 504369164
I0608 17:34:36.045855 10488 layer_factory.hpp:77] Creating layer res5c_branch2c
I0608 17:34:36.045868 10488 net.cpp:84] Creating Layer res5c_branch2c
I0608 17:34:36.045874 10488 net.cpp:406] res5c_branch2c <- res5c_branch2b
I0608 17:34:36.045882 10488 net.cpp:380] res5c_branch2c -> res5c_branch2c
I0608 17:34:36.191130 10488 net.cpp:122] Setting up res5c_branch2c
I0608 17:34:36.191203 10488 net.cpp:129] Top shape: 1 2048 7 7 (100352)
I0608 17:34:36.191210 10488 net.cpp:137] Memory required for data: 504770572
I0608 17:34:36.191220 10488 layer_factory.hpp:77] Creating layer bn5c_branch2c
I0608 17:34:36.191241 10488 net.cpp:84] Creating Layer bn5c_branch2c
I0608 17:34:36.191251 10488 net.cpp:406] bn5c_branch2c <- res5c_branch2c
I0608 17:34:36.191256 10488 net.cpp:367] bn5c_branch2c -> res5c_branch2c (in-place)
I0608 17:34:36.191313 10488 net.cpp:122] Setting up bn5c_branch2c
I0608 17:34:36.191321 10488 net.cpp:129] Top shape: 1 2048 7 7 (100352)
I0608 17:34:36.191325 10488 net.cpp:137] Memory required for data: 505171980
I0608 17:34:36.191332 10488 layer_factory.hpp:77] Creating layer scale5c_branch2c
I0608 17:34:36.191340 10488 net.cpp:84] Creating Layer scale5c_branch2c
I0608 17:34:36.191345 10488 net.cpp:406] scale5c_branch2c <- res5c_branch2c
I0608 17:34:36.191350 10488 net.cpp:367] scale5c_branch2c -> res5c_branch2c (in-place)
I0608 17:34:36.191367 10488 layer_factory.hpp:77] Creating layer scale5c_branch2c
I0608 17:34:36.191423 10488 net.cpp:122] Setting up scale5c_branch2c
I0608 17:34:36.191454 10488 net.cpp:129] Top shape: 1 2048 7 7 (100352)
I0608 17:34:36.191459 10488 net.cpp:137] Memory required for data: 505573388
I0608 17:34:36.191488 10488 layer_factory.hpp:77] Creating layer res5c
I0608 17:34:36.191519 10488 net.cpp:84] Creating Layer res5c
I0608 17:34:36.191547 10488 net.cpp:406] res5c <- res5b_res5b_relu_0_split_1
I0608 17:34:36.191576 10488 net.cpp:406] res5c <- res5c_branch2c
I0608 17:34:36.191606 10488 net.cpp:380] res5c -> res5c
I0608 17:34:36.191639 10488 net.cpp:122] Setting up res5c
I0608 17:34:36.191668 10488 net.cpp:129] Top shape: 1 2048 7 7 (100352)
I0608 17:34:36.191673 10488 net.cpp:137] Memory required for data: 505974796
I0608 17:34:36.191697 10488 layer_factory.hpp:77] Creating layer res5c_relu
I0608 17:34:36.191709 10488 net.cpp:84] Creating Layer res5c_relu
I0608 17:34:36.191735 10488 net.cpp:406] res5c_relu <- res5c
I0608 17:34:36.191766 10488 net.cpp:367] res5c_relu -> res5c (in-place)
I0608 17:34:36.191797 10488 net.cpp:122] Setting up res5c_relu
I0608 17:34:36.191825 10488 net.cpp:129] Top shape: 1 2048 7 7 (100352)
I0608 17:34:36.191851 10488 net.cpp:137] Memory required for data: 506376204
I0608 17:34:36.191856 10488 layer_factory.hpp:77] Creating layer pool5
I0608 17:34:36.191911 10488 net.cpp:84] Creating Layer pool5
I0608 17:34:36.191918 10488 net.cpp:406] pool5 <- res5c
I0608 17:34:36.191931 10488 net.cpp:380] pool5 -> pool5
I0608 17:34:36.191938 10488 net.cpp:122] Setting up pool5
I0608 17:34:36.191943 10488 net.cpp:129] Top shape: 1 2048 1 1 (2048)
I0608 17:34:36.191946 10488 net.cpp:137] Memory required for data: 506384396
I0608 17:34:36.191949 10488 layer_factory.hpp:77] Creating layer fc3
I0608 17:34:36.191956 10488 net.cpp:84] Creating Layer fc3
I0608 17:34:36.191959 10488 net.cpp:406] fc3 <- pool5
I0608 17:34:36.191963 10488 net.cpp:380] fc3 -> fc3
I0608 17:34:36.192023 10488 net.cpp:122] Setting up fc3
I0608 17:34:36.192064 10488 net.cpp:129] Top shape: 1 3 (3)
I0608 17:34:36.192101 10488 net.cpp:137] Memory required for data: 506384408
I0608 17:34:36.192142 10488 layer_factory.hpp:77] Creating layer fc3_fc3_0_split
I0608 17:34:36.192178 10488 net.cpp:84] Creating Layer fc3_fc3_0_split
I0608 17:34:36.192206 10488 net.cpp:406] fc3_fc3_0_split <- fc3
I0608 17:34:36.192250 10488 net.cpp:380] fc3_fc3_0_split -> fc3_fc3_0_split_0
I0608 17:34:36.192282 10488 net.cpp:380] fc3_fc3_0_split -> fc3_fc3_0_split_1
I0608 17:34:36.192315 10488 net.cpp:380] fc3_fc3_0_split -> fc3_fc3_0_split_2
I0608 17:34:36.192348 10488 net.cpp:122] Setting up fc3_fc3_0_split
I0608 17:34:36.192375 10488 net.cpp:129] Top shape: 1 3 (3)
I0608 17:34:36.192381 10488 net.cpp:129] Top shape: 1 3 (3)
I0608 17:34:36.192406 10488 net.cpp:129] Top shape: 1 3 (3)
I0608 17:34:36.192431 10488 net.cpp:137] Memory required for data: 506384444
I0608 17:34:36.192437 10488 layer_factory.hpp:77] Creating layer loss
I0608 17:34:36.192463 10488 net.cpp:84] Creating Layer loss
I0608 17:34:36.192490 10488 net.cpp:406] loss <- fc3_fc3_0_split_0
I0608 17:34:36.192518 10488 net.cpp:406] loss <- label_data_1_split_0
I0608 17:34:36.192550 10488 net.cpp:380] loss -> loss
I0608 17:34:36.192582 10488 layer_factory.hpp:77] Creating layer loss
I0608 17:34:36.192621 10488 net.cpp:122] Setting up loss
I0608 17:34:36.192651 10488 net.cpp:129] Top shape: (1)
I0608 17:34:36.192657 10488 net.cpp:132]     with loss weight 1
I0608 17:34:36.192689 10488 net.cpp:137] Memory required for data: 506384448
I0608 17:34:36.192695 10488 layer_factory.hpp:77] Creating layer probt
I0608 17:34:36.192701 10488 net.cpp:84] Creating Layer probt
I0608 17:34:36.192704 10488 net.cpp:406] probt <- fc3_fc3_0_split_1
I0608 17:34:36.192713 10488 net.cpp:380] probt -> probt
I0608 17:34:36.192720 10488 net.cpp:122] Setting up probt
I0608 17:34:36.192724 10488 net.cpp:129] Top shape: 1 3 (3)
I0608 17:34:36.192728 10488 net.cpp:137] Memory required for data: 506384460
I0608 17:34:36.192729 10488 layer_factory.hpp:77] Creating layer accuracy/top1
I0608 17:34:36.192737 10488 net.cpp:84] Creating Layer accuracy/top1
I0608 17:34:36.192740 10488 net.cpp:406] accuracy/top1 <- fc3_fc3_0_split_2
I0608 17:34:36.192744 10488 net.cpp:406] accuracy/top1 <- label_data_1_split_1
I0608 17:34:36.192749 10488 net.cpp:380] accuracy/top1 -> accuracy@1
…
