…
I0624 08:46:57.327359 42642 net.cpp:51] Initializing net from parameters: 
name: "MOBILENET"
state {
  phase: TRAIN
  level: 0
  stage: ""
}
layer {
  name: "data"
  type: "ImageData"
  top: "data"
  top: "label"
  include {
    phase: TRAIN
  }
  transform_param {
    scale: 0.017
    mirror: true
    crop_size: 224
    mean_value: 103.94
    mean_value: 116.78
    mean_value: 123.68
  }
  image_data_param {
    source: "train.txt"
    batch_size: 32
    new_height: 256
    new_width: 256
    root_folder: "/home/sun/MobileNet-Caffe-master/face/train/"
  }
}
layer {
  name: "conv1"
  type: "Convolution"
  bottom: "data"
  top: "conv1"
  param {
    lr_mult: 1
    decay_mult: 1
  }
  convolution_param {
    num_output: 32
    bias_term: false
    pad: 1
    kernel_size: 3
    stride: 2
    weight_filler {
      type: "msra"
    }
  }
}
layer {
  name: "conv1/bn"
  type: "BatchNorm"
  bottom: "conv1"
  top: "conv1"
  param {
    lr_mult: 0
    decay_mult: 0
  }
  param {
    lr_mult: 0
    decay_mult: 0
  }
  param {
    lr_mult: 0
    decay_mult: 0
  }
  batch_norm_param {
    use_global_stats: true
    eps: 1e-05
  }
}
layer {
  name: "conv1/scale"
  type: "Scale"
  bottom: "conv1"
  top: "conv1"
  param {
    lr_mult: 1
    decay_mult: 0
  }
  param {
    lr_mult: 1
    decay_mult: 0
  }
  scale_param {
    filler {
      value: 1
    }
    bias_term: true
    bias_filler {
      value: 0
    }
  }
}
layer {
  name: "relu1"
  type: "ReLU"
  bottom: "conv1"
  top: "conv1"
}
layer {
  name: "conv2_1/dw"
  type: "Convolution"
  bottom: "conv1"
  top: "conv2_1/dw"
  param {
    lr_mult: 1
    decay_mult: 1
  }
  convolution_param {
    num_output: 32
    bias_term: false
    pad: 1
    kernel_size: 3
    group: 32
    stride: 1
    weight_filler {
      type: "msra"
    }
    engine: CAFFE
  }
}
layer {
  name: "conv2_1/dw/bn"
  type: "BatchNorm"
  bottom: "conv2_1/dw"
  top: "conv2_1/dw"
  param {
    lr_mult: 0
    decay_mult: 0
  }
  param {
    lr_mult: 0
    decay_mult: 0
  }
  param {
    lr_mult: 0
    decay_mult: 0
  }
  batch_norm_param {
    use_global_stats: true
    eps: 1e-05
  }
}
layer {
  name: "conv2_1/dw/scale"
  type: "Scale"
  bottom: "conv2_1/dw"
  top: "conv2_1/dw"
  param {
    lr_mult: 1
    decay_mult: 0
  }
  param {
    lr_mult: 1
    decay_mult: 0
  }
  scale_param {
    filler {
      value: 1
    }
    bias_term: true
    bias_filler {
      value: 0
    }
  }
}
layer {
  name: "relu2_1/dw"
  type: "ReLU"
  bottom: "conv2_1/dw"
  top: "conv2_1/dw"
}
layer {
  name: "conv2_1/sep"
  type: "Convolution"
  bottom: "conv2_1/dw"
  top: "conv2_1/sep"
  param {
    lr_mult: 1
    decay_mult: 1
  }
  convolution_param {
    num_output: 64
    bias_term: false
    pad: 0
    kernel_size: 1
    stride: 1
    weight_filler {
      type: "msra"
    }
  }
}
layer {
  name: "conv2_1/sep/bn"
  type: "BatchNorm"
  bottom: "conv2_1/sep"
  top: "conv2_1/sep"
  param {
    lr_mult: 0
    decay_mult: 0
  }
  param {
    lr_mult: 0
    decay_mult: 0
  }
  param {
    lr_mult: 0
    decay_mult: 0
  }
  batch_norm_param {
    use_global_stats: true
    eps: 1e-05
  }
}
layer {
  name: "conv2_1/sep/scale"
  type: "Scale"
  bottom: "conv2_1/sep"
  top: "conv2_1/sep"
  param {
    lr_mult: 1
    decay_mult: 0
  }
  param {
    lr_mult: 1
    decay_mult: 0
  }
  scale_param {
    filler {
      value: 1
    }
    bias_term: true
    bias_filler {
      value: 0
    }
  }
}
layer {
  name: "relu2_1/sep"
  type: "ReLU"
  bottom: "conv2_1/sep"
  top: "conv2_1/sep"
}
layer {
  name: "conv2_2/dw"
  type: "Convolution"
  bottom: "conv2_1/sep"
  top: "conv2_2/dw"
  param {
    lr_mult: 1
    decay_mult: 1
  }
  convolution_param {
    num_output: 64
    bias_term: false
    pad: 1
    kernel_size: 3
    group: 64
    stride: 2
    weight_filler {
      type: "msra"
    }
    engine: CAFFE
  }
}
layer {
  name: "conv2_2/dw/bn"
  type: "BatchNorm"
  bottom: "conv2_2/dw"
  top: "conv2_2/dw"
  param {
    lr_mult: 0
    decay_mult: 0
  }
  param {
    lr_mult: 0
    decay_mult: 0
  }
  param {
    lr_mult: 0
    decay_mult: 0
  }
  batch_norm_param {
    use_global_stats: true
    eps: 1e-05
  }
}
layer {
  name: "conv2_2/dw/scale"
  type: "Scale"
  bottom: "conv2_2/dw"
  top: "conv2_2/dw"
  param {
    lr_mult: 1
    decay_mult: 0
  }
  param {
    lr_mult: 1
    decay_mult: 0
  }
  scale_param {
    filler {
      value: 1
    }
    bias_term: true
    bias_filler {
      value: 0
    }
  }
}
layer {
  name: "relu2_2/dw"
  type: "ReLU"
  bottom: "conv2_2/dw"
  top: "conv2_2/dw"
}
layer {
  name: "conv2_2/sep"
  type: "Convolution"
  bottom: "conv2_2/dw"
  top: "conv2_2/sep"
  param {
    lr_mult: 1
    decay_mult: 1
  }
  convolution_param {
    num_output: 128
    bias_term: false
    pad: 0
    kernel_size: 1
    stride: 1
    weight_filler {
      type: "msra"
    }
  }
}
layer {
  name: "conv2_2/sep/bn"
  type: "BatchNorm"
  bottom: "conv2_2/sep"
  top: "conv2_2/sep"
  param {
    lr_mult: 0
    decay_mult: 0
  }
  param {
    lr_mult: 0
    decay_mult: 0
  }
  param {
    lr_mult: 0
    decay_mult: 0
  }
  batch_norm_param {
    use_global_stats: true
    eps: 1e-05
  }
}
layer {
  name: "conv2_2/sep/scale"
  type: "Scale"
  bottom: "conv2_2/sep"
  top: "conv2_2/sep"
  param {
    lr_mult: 1
    decay_mult: 0
  }
  param {
    lr_mult: 1
    decay_mult: 0
  }
  scale_param {
    filler {
      value: 1
    }
    bias_term: true
    bias_filler {
      value: 0
    }
  }
}
layer {
  name: "relu2_2/sep"
  type: "ReLU"
  bottom: "conv2_2/sep"
  top: "conv2_2/sep"
}
layer {
  name: "conv3_1/dw"
  type: "Convolution"
  bottom: "conv2_2/sep"
  top: "conv3_1/dw"
  param {
    lr_mult: 1
    decay_mult: 1
  }
  convolution_param {
    num_output: 128
    bias_term: false
    pad: 1
    kernel_size: 3
    group: 128
    stride: 1
    weight_filler {
      type: "msra"
    }
    engine: CAFFE
  }
}
layer {
  name: "conv3_1/dw/bn"
  type: "BatchNorm"
  bottom: "conv3_1/dw"
  top: "conv3_1/dw"
  param {
    lr_mult: 0
    decay_mult: 0
  }
  param {
    lr_mult: 0
    decay_mult: 0
  }
  param {
    lr_mult: 0
    decay_mult: 0
  }
  batch_norm_param {
    use_global_stats: true
    eps: 1e-05
  }
}
layer {
  name: "conv3_1/dw/scale"
  type: "Scale"
  bottom: "conv3_1/dw"
  top: "conv3_1/dw"
  param {
    lr_mult: 1
    decay_mult: 0
  }
  param {
    lr_mult: 1
    decay_mult: 0
  }
  scale_param {
    filler {
      value: 1
    }
    bias_term: true
    bias_filler {
      value: 0
    }
  }
}
layer {
  name: "relu3_1/dw"
  type: "ReLU"
  bottom: "conv3_1/dw"
  top: "conv3_1/dw"
}
layer {
  name: "conv3_1/sep"
  type: "Convolution"
  bottom: "conv3_1/dw"
  top: "conv3_1/sep"
  param {
    lr_mult: 1
    decay_mult: 1
  }
  convolution_param {
    num_output: 128
    bias_term: false
    pad: 0
    kernel_size: 1
    stride: 1
    weight_filler {
      type: "msra"
    }
  }
}
layer {
  name: "conv3_1/sep/bn"
  type: "BatchNorm"
  bottom: "conv3_1/sep"
  top: "conv3_1/sep"
  param {
    lr_mult: 0
    decay_mult: 0
  }
  param {
    lr_mult: 0
    decay_mult: 0
  }
  param {
    lr_mult: 0
    decay_mult: 0
  }
  batch_norm_param {
    use_global_stats: true
    eps: 1e-05
  }
}
layer {
  name: "conv3_1/sep/scale"
  type: "Scale"
  bottom: "conv3_1/sep"
  top: "conv3_1/sep"
  param {
    lr_mult: 1
    decay_mult: 0
  }
  param {
    lr_mult: 1
    decay_mult: 0
  }
  scale_param {
    filler {
      value: 1
    }
    bias_term: true
    bias_filler {
      value: 0
    }
  }
}
layer {
  name: "relu3_1/sep"
  type: "ReLU"
  bottom: "conv3_1/sep"
  top: "conv3_1/sep"
}
layer {
  name: "conv3_2/dw"
  type: "Convolution"
  bottom: "conv3_1/sep"
  top: "conv3_2/dw"
  param {
    lr_mult: 1
    decay_mult: 1
  }
  convolution_param {
    num_output: 128
    bias_term: false
    pad: 1
    kernel_size: 3
    group: 128
    stride: 2
    weight_filler {
      type: "msra"
    }
    engine: CAFFE
  }
}
layer {
  name: "conv3_2/dw/bn"
  type: "BatchNorm"
  bottom: "conv3_2/dw"
  top: "conv3_2/dw"
  param {
    lr_mult: 0
    decay_mult: 0
  }
  param {
    lr_mult: 0
    decay_mult: 0
  }
  param {
    lr_mult: 0
    decay_mult: 0
  }
  batch_norm_param {
    use_global_stats: true
    eps: 1e-05
  }
}
layer {
  name: "conv3_2/dw/scale"
  type: "Scale"
  bottom: "conv3_2/dw"
  top: "conv3_2/dw"
  param {
    lr_mult: 1
    decay_mult: 0
  }
  param {
    lr_mult: 1
    decay_mult: 0
  }
  scale_param {
    filler {
      value: 1
    }
    bias_term: true
    bias_filler {
      value: 0
    }
  }
}
layer {
  name: "relu3_2/dw"
  type: "ReLU"
  bottom: "conv3_2/dw"
  top: "conv3_2/dw"
}
layer {
  name: "conv3_2/sep"
  type: "Convolution"
  bottom: "conv3_2/dw"
  top: "conv3_2/sep"
  param {
    lr_mult: 1
    decay_mult: 1
  }
  convolution_param {
    num_output: 256
    bias_term: false
    pad: 0
    kernel_size: 1
    stride: 1
    weight_filler {
      type: "msra"
    }
  }
}
layer {
  name: "conv3_2/sep/bn"
  type: "BatchNorm"
  bottom: "conv3_2/sep"
  top: "conv3_2/sep"
  param {
    lr_mult: 0
    decay_mult: 0
  }
  param {
    lr_mult: 0
    decay_mult: 0
  }
  param {
    lr_mult: 0
    decay_mult: 0
  }
  batch_norm_param {
    use_global_stats: true
    eps: 1e-05
  }
}
layer {
  name: "conv3_2/sep/scale"
  type: "Scale"
  bottom: "conv3_2/sep"
  top: "conv3_2/sep"
  param {
    lr_mult: 1
    decay_mult: 0
  }
  param {
    lr_mult: 1
    decay_mult: 0
  }
  scale_param {
    filler {
      value: 1
    }
    bias_term: true
    bias_filler {
      value: 0
    }
  }
}
layer {
  name: "relu3_2/sep"
  type: "ReLU"
  bottom: "conv3_2/sep"
  top: "conv3_2/sep"
}
layer {
  name: "conv4_1/dw"
  type: "Convolution"
  bottom: "conv3_2/sep"
  top: "conv4_1/dw"
  param {
    lr_mult: 1
    decay_mult: 1
  }
  convolution_param {
    num_output: 256
    bias_term: false
    pad: 1
    kernel_size: 3
    group: 256
    stride: 1
    weight_filler {
      type: "msra"
    }
    engine: CAFFE
  }
}
layer {
  name: "conv4_1/dw/bn"
  type: "BatchNorm"
  bottom: "conv4_1/dw"
  top: "conv4_1/dw"
  param {
    lr_mult: 0
    decay_mult: 0
  }
  param {
    lr_mult: 0
    decay_mult: 0
  }
  param {
    lr_mult: 0
    decay_mult: 0
  }
  batch_norm_param {
    use_global_stats: true
    eps: 1e-05
  }
}
layer {
  name: "conv4_1/dw/scale"
  type: "Scale"
  bottom: "conv4_1/dw"
  top: "conv4_1/dw"
  param {
    lr_mult: 1
    decay_mult: 0
  }
  param {
    lr_mult: 1
    decay_mult: 0
  }
  scale_param {
    filler {
      value: 1
    }
    bias_term: true
    bias_filler {
      value: 0
    }
  }
}
layer {
  name: "relu4_1/dw"
  type: "ReLU"
  bottom: "conv4_1/dw"
  top: "conv4_1/dw"
}
layer {
  name: "conv4_1/sep"
  type: "Convolution"
  bottom: "conv4_1/dw"
  top: "conv4_1/sep"
  param {
    lr_mult: 1
    decay_mult: 1
  }
  convolution_param {
    num_output: 256
    bias_term: false
    pad: 0
    kernel_size: 1
    stride: 1
    weight_filler {
      type: "msra"
    }
  }
}
layer {
  name: "conv4_1/sep/bn"
  type: "BatchNorm"
  bottom: "conv4_1/sep"
  top: "conv4_1/sep"
  param {
    lr_mult: 0
    decay_mult: 0
  }
  param {
    lr_mult: 0
    decay_mult: 0
  }
  param {
    lr_mult: 0
    decay_mult: 0
  }
  batch_norm_param {
    use_global_stats: true
    eps: 1e-05
  }
}
layer {
  name: "conv4_1/sep/scale"
  type: "Scale"
  bottom: "conv4_1/sep"
  top: "conv4_1/sep"
  param {
    lr_mult: 1
    decay_mult: 0
  }
  param {
    lr_mult: 1
    decay_mult: 0
  }
  scale_param {
    filler {
      value: 1
    }
    bias_term: true
    bias_filler {
      value: 0
    }
  }
}
layer {
  name: "relu4_1/sep"
  type: "ReLU"
  bottom: "conv4_1/sep"
  top: "conv4_1/sep"
}
layer {
  name: "conv4_2/dw"
  type: "Convolution"
  bottom: "conv4_1/sep"
  top: "conv4_2/dw"
  param {
    lr_mult: 1
    decay_mult: 1
  }
  convolution_param {
    num_output: 256
    bias_term: false
    pad: 1
    kernel_size: 3
    group: 256
    stride: 2
    weight_filler {
      type: "msra"
    }
    engine: CAFFE
  }
}
layer {
  name: "conv4_2/dw/bn"
  type: "BatchNorm"
  bottom: "conv4_2/dw"
  top: "conv4_2/dw"
  param {
    lr_mult: 0
    decay_mult: 0
  }
  param {
    lr_mult: 0
    decay_mult: 0
  }
  param {
    lr_mult: 0
    decay_mult: 0
  }
  batch_norm_param {
    use_global_stats: true
    eps: 1e-05
  }
}
layer {
  name: "conv4_2/dw/scale"
  type: "Scale"
  bottom: "conv4_2/dw"
  top: "conv4_2/dw"
  param {
    lr_mult: 1
    decay_mult: 0
  }
  param {
    lr_mult: 1
    decay_mult: 0
  }
  scale_param {
    filler {
      value: 1
    }
    bias_term: true
    bias_filler {
      value: 0
    }
  }
}
layer {
  name: "relu4_2/dw"
  type: "ReLU"
  bottom: "conv4_2/dw"
  top: "conv4_2/dw"
}
layer {
  name: "conv4_2/sep"
  type: "Convolution"
  bottom: "conv4_2/dw"
  top: "conv4_2/sep"
  param {
    lr_mult: 1
    decay_mult: 1
  }
  convolution_param {
    num_output: 512
    bias_term: false
    pad: 0
    kernel_size: 1
    stride: 1
    weight_filler {
      type: "msra"
    }
  }
}
layer {
  name: "conv4_2/sep/bn"
  type: "BatchNorm"
  bottom: "conv4_2/sep"
  top: "conv4_2/sep"
  param {
    lr_mult: 0
    decay_mult: 0
  }
  param {
    lr_mult: 0
    decay_mult: 0
  }
  param {
    lr_mult: 0
    decay_mult: 0
  }
  batch_norm_param {
    use_global_stats: true
    eps: 1e-05
  }
}
layer {
  name: "conv4_2/sep/scale"
  type: "Scale"
  bottom: "conv4_2/sep"
  top: "conv4_2/sep"
  param {
    lr_mult: 1
    decay_mult: 0
  }
  param {
    lr_mult: 1
    decay_mult: 0
  }
  scale_param {
    filler {
      value: 1
    }
    bias_term: true
    bias_filler {
      value: 0
    }
  }
}
layer {
  name: "relu4_2/sep"
  type: "ReLU"
  bottom: "conv4_2/sep"
  top: "conv4_2/sep"
}
layer {
  name: "conv5_1/dw"
  type: "Convolution"
  bottom: "conv4_2/sep"
  top: "conv5_1/dw"
  param {
    lr_mult: 1
    decay_mult: 1
  }
  convolution_param {
    num_output: 512
    bias_term: false
    pad: 1
    kernel_size: 3
    group: 512
    stride: 1
    weight_filler {
      type: "msra"
    }
    engine: CAFFE
  }
}
layer {
  name: "conv5_1/dw/bn"
  type: "BatchNorm"
  bottom: "conv5_1/dw"
  top: "conv5_1/dw"
  param {
    lr_mult: 0
    decay_mult: 0
  }
  param {
    lr_mult: 0
    decay_mult: 0
  }
  param {
    lr_mult: 0
    decay_mult: 0
  }
  batch_norm_param {
    use_global_stats: true
    eps: 1e-05
  }
}
layer {
  name: "conv5_1/dw/scale"
  type: "Scale"
  bottom: "conv5_1/dw"
  top: "conv5_1/dw"
  param {
    lr_mult: 1
    decay_mult: 0
  }
  param {
    lr_mult: 1
    decay_mult: 0
  }
  scale_param {
    filler {
      value: 1
    }
    bias_term: true
    bias_filler {
      value: 0
    }
  }
}
layer {
  name: "relu5_1/dw"
  type: "ReLU"
  bottom: "conv5_1/dw"
  top: "conv5_1/dw"
}
layer {
  name: "conv5_1/sep"
  type: "Convolution"
  bottom: "conv5_1/dw"
  top: "conv5_1/sep"
  param {
    lr_mult: 1
    decay_mult: 1
  }
  convolution_param {
    num_output: 512
    bias_term: false
    pad: 0
    kernel_size: 1
    stride: 1
    weight_filler {
      type: "msra"
    }
  }
}
layer {
  name: "conv5_1/sep/bn"
  type: "BatchNorm"
  bottom: "conv5_1/sep"
  top: "conv5_1/sep"
  param {
    lr_mult: 0
    decay_mult: 0
  }
  param {
    lr_mult: 0
    decay_mult: 0
  }
  param {
    lr_mult: 0
    decay_mult: 0
  }
  batch_norm_param {
    use_global_stats: true
    eps: 1e-05
  }
}
layer {
  name: "conv5_1/sep/scale"
  type: "Scale"
  bottom: "conv5_1/sep"
  top: "conv5_1/sep"
  param {
    lr_mult: 1
    decay_mult: 0
  }
  param {
    lr_mult: 1
    decay_mult: 0
  }
  scale_param {
    filler {
      value: 1
    }
    bias_term: true
    bias_filler {
      value: 0
    }
  }
}
layer {
  name: "relu5_1/sep"
  type: "ReLU"
  bottom: "conv5_1/sep"
  top: "conv5_1/sep"
}
layer {
  name: "conv5_2/dw"
  type: "Convolution"
  bottom: "conv5_1/sep"
  top: "conv5_2/dw"
  param {
    lr_mult: 1
    decay_mult: 1
  }
  convolution_param {
    num_output: 512
    bias_term: false
    pad: 1
    kernel_size: 3
    group: 512
    stride: 1
    weight_filler {
      type: "msra"
    }
    engine: CAFFE
  }
}
layer {
  name: "conv5_2/dw/bn"
  type: "BatchNorm"
  bottom: "conv5_2/dw"
  top: "conv5_2/dw"
  param {
    lr_mult: 0
    decay_mult: 0
  }
  param {
    lr_mult: 0
    decay_mult: 0
  }
  param {
    lr_mult: 0
    decay_mult: 0
  }
  batch_norm_param {
    use_global_stats: true
    eps: 1e-05
  }
}
layer {
  name: "conv5_2/dw/scale"
  type: "Scale"
  bottom: "conv5_2/dw"
  top: "conv5_2/dw"
  param {
    lr_mult: 1
    decay_mult: 0
  }
  param {
    lr_mult: 1
    decay_mult: 0
  }
  scale_param {
    filler {
      value: 1
    }
    bias_term: true
    bias_filler {
      value: 0
    }
  }
}
layer {
  name: "relu5_2/dw"
  type: "ReLU"
  bottom: "conv5_2/dw"
  top: "conv5_2/dw"
}
layer {
  name: "conv5_2/sep"
  type: "Convolution"
  bottom: "conv5_2/dw"
  top: "conv5_2/sep"
  param {
    lr_mult: 1
    decay_mult: 1
  }
  convolution_param {
    num_output: 512
    bias_term: false
    pad: 0
    kernel_size: 1
    stride: 1
    weight_filler {
      type: "msra"
    }
  }
}
layer {
  name: "conv5_2/sep/bn"
  type: "BatchNorm"
  bottom: "conv5_2/sep"
  top: "conv5_2/sep"
  param {
    lr_mult: 0
    decay_mult: 0
  }
  param {
    lr_mult: 0
    decay_mult: 0
  }
  param {
    lr_mult: 0
    decay_mult: 0
  }
  batch_norm_param {
    use_global_stats: true
    eps: 1e-05
  }
}
layer {
  name: "conv5_2/sep/scale"
  type: "Scale"
  bottom: "conv5_2/sep"
  top: "conv5_2/sep"
  param {
    lr_mult: 1
    decay_mult: 0
  }
  param {
    lr_mult: 1
    decay_mult: 0
  }
  scale_param {
    filler {
      value: 1
    }
    bias_term: true
    bias_filler {
      value: 0
    }
  }
}
layer {
  name: "relu5_2/sep"
  type: "ReLU"
  bottom: "conv5_2/sep"
  top: "conv5_2/sep"
}
layer {
  name: "conv5_3/dw"
  type: "Convolution"
  bottom: "conv5_2/sep"
  top: "conv5_3/dw"
  param {
    lr_mult: 1
    decay_mult: 1
  }
  convolution_param {
    num_output: 512
    bias_term: false
    pad: 1
    kernel_size: 3
    group: 512
    stride: 1
    weight_filler {
      type: "msra"
    }
    engine: CAFFE
  }
}
layer {
  name: "conv5_3/dw/bn"
  type: "BatchNorm"
  bottom: "conv5_3/dw"
  top: "conv5_3/dw"
  param {
    lr_mult: 0
    decay_mult: 0
  }
  param {
    lr_mult: 0
    decay_mult: 0
  }
  param {
    lr_mult: 0
    decay_mult: 0
  }
  batch_norm_param {
    use_global_stats: true
    eps: 1e-05
  }
}
layer {
  name: "conv5_3/dw/scale"
  type: "Scale"
  bottom: "conv5_3/dw"
  top: "conv5_3/dw"
  param {
    lr_mult: 1
    decay_mult: 0
  }
  param {
    lr_mult: 1
    decay_mult: 0
  }
  scale_param {
    filler {
      value: 1
    }
    bias_term: true
    bias_filler {
      value: 0
    }
  }
}
layer {
  name: "relu5_3/dw"
  type: "ReLU"
  bottom: "conv5_3/dw"
  top: "conv5_3/dw"
}
layer {
  name: "conv5_3/sep"
  type: "Convolution"
  bottom: "conv5_3/dw"
  top: "conv5_3/sep"
  param {
    lr_mult: 1
    decay_mult: 1
  }
  convolution_param {
    num_output: 512
    bias_term: false
    pad: 0
    kernel_size: 1
    stride: 1
    weight_filler {
      type: "msra"
    }
  }
}
layer {
  name: "conv5_3/sep/bn"
  type: "BatchNorm"
  bottom: "conv5_3/sep"
  top: "conv5_3/sep"
  param {
    lr_mult: 0
    decay_mult: 0
  }
  param {
    lr_mult: 0
    decay_mult: 0
  }
  param {
    lr_mult: 0
    decay_mult: 0
  }
  batch_norm_param {
    use_global_stats: true
    eps: 1e-05
  }
}
layer {
  name: "conv5_3/sep/scale"
  type: "Scale"
  bottom: "conv5_3/sep"
  top: "conv5_3/sep"
  param {
    lr_mult: 1
    decay_mult: 0
  }
  param {
    lr_mult: 1
    decay_mult: 0
  }
  scale_param {
    filler {
      value: 1
    }
    bias_term: true
    bias_filler {
      value: 0
    }
  }
}
layer {
  name: "relu5_3/sep"
  type: "ReLU"
  bottom: "conv5_3/sep"
  top: "conv5_3/sep"
}
layer {
  name: "conv5_4/dw"
  type: "Convolution"
  bottom: "conv5_3/sep"
  top: "conv5_4/dw"
  param {
    lr_mult: 1
    decay_mult: 1
  }
  convolution_param {
    num_output: 512
    bias_term: false
    pad: 1
    kernel_size: 3
    group: 512
    stride: 1
    weight_filler {
      type: "msra"
    }
    engine: CAFFE
  }
}
layer {
  name: "conv5_4/dw/bn"
  type: "BatchNorm"
  bottom: "conv5_4/dw"
  top: "conv5_4/dw"
  param {
    lr_mult: 0
    decay_mult: 0
  }
  param {
    lr_mult: 0
    decay_mult: 0
  }
  param {
    lr_mult: 0
    decay_mult: 0
  }
  batch_norm_param {
    use_global_stats: true
    eps: 1e-05
  }
}
layer {
  name: "conv5_4/dw/scale"
  type: "Scale"
  bottom: "conv5_4/dw"
  top: "conv5_4/dw"
  param {
    lr_mult: 1
    decay_mult: 0
  }
  param {
    lr_mult: 1
    decay_mult: 0
  }
  scale_param {
    filler {
      value: 1
    }
    bias_term: true
    bias_filler {
      value: 0
    }
  }
}
layer {
  name: "relu5_4/dw"
  type: "ReLU"
  bottom: "conv5_4/dw"
  top: "conv5_4/dw"
}
layer {
  name: "conv5_4/sep"
  type: "Convolution"
  bottom: "conv5_4/dw"
  top: "conv5_4/sep"
  param {
    lr_mult: 1
    decay_mult: 1
  }
  convolution_param {
    num_output: 512
    bias_term: false
    pad: 0
    kernel_size: 1
    stride: 1
    weight_filler {
      type: "msra"
    }
  }
}
layer {
  name: "conv5_4/sep/bn"
  type: "BatchNorm"
  bottom: "conv5_4/sep"
  top: "conv5_4/sep"
  param {
    lr_mult: 0
    decay_mult: 0
  }
  param {
    lr_mult: 0
    decay_mult: 0
  }
  param {
    lr_mult: 0
    decay_mult: 0
  }
  batch_norm_param {
    use_global_stats: true
    eps: 1e-05
  }
}
layer {
  name: "conv5_4/sep/scale"
  type: "Scale"
  bottom: "conv5_4/sep"
  top: "conv5_4/sep"
  param {
    lr_mult: 1
    decay_mult: 0
  }
  param {
    lr_mult: 1
    decay_mult: 0
  }
  scale_param {
    filler {
      value: 1
    }
    bias_term: true
    bias_filler {
      value: 0
    }
  }
}
layer {
  name: "relu5_4/sep"
  type: "ReLU"
  bottom: "conv5_4/sep"
  top: "conv5_4/sep"
}
layer {
  name: "conv5_5/dw"
  type: "Convolution"
  bottom: "conv5_4/sep"
  top: "conv5_5/dw"
  param {
    lr_mult: 1
    decay_mult: 1
  }
  convolution_param {
    num_output: 512
    bias_term: false
    pad: 1
    kernel_size: 3
    group: 512
    stride: 1
    weight_filler {
      type: "msra"
    }
    engine: CAFFE
  }
}
layer {
  name: "conv5_5/dw/bn"
  type: "BatchNorm"
  bottom: "conv5_5/dw"
  top: "conv5_5/dw"
  param {
    lr_mult: 0
    decay_mult: 0
  }
  param {
    lr_mult: 0
    decay_mult: 0
  }
  param {
    lr_mult: 0
    decay_mult: 0
  }
  batch_norm_param {
    use_global_stats: true
    eps: 1e-05
  }
}
layer {
  name: "conv5_5/dw/scale"
  type: "Scale"
  bottom: "conv5_5/dw"
  top: "conv5_5/dw"
  param {
    lr_mult: 1
    decay_mult: 0
  }
  param {
    lr_mult: 1
    decay_mult: 0
  }
  scale_param {
    filler {
      value: 1
    }
    bias_term: true
    bias_filler {
      value: 0
    }
  }
}
layer {
  name: "relu5_5/dw"
  type: "ReLU"
  bottom: "conv5_5/dw"
  top: "conv5_5/dw"
}
layer {
  name: "conv5_5/sep"
  type: "Convolution"
  bottom: "conv5_5/dw"
  top: "conv5_5/sep"
  param {
    lr_mult: 1
    decay_mult: 1
  }
  convolution_param {
    num_output: 512
    bias_term: false
    pad: 0
    kernel_size: 1
    stride: 1
    weight_filler {
      type: "msra"
    }
  }
}
layer {
  name: "conv5_5/sep/bn"
  type: "BatchNorm"
  bottom: "conv5_5/sep"
  top: "conv5_5/sep"
  param {
    lr_mult: 0
    decay_mult: 0
  }
  param {
    lr_mult: 0
    decay_mult: 0
  }
  param {
    lr_mult: 0
    decay_mult: 0
  }
  batch_norm_param {
    use_global_stats: true
    eps: 1e-05
  }
}
layer {
  name: "conv5_5/sep/scale"
  type: "Scale"
  bottom: "conv5_5/sep"
  top: "conv5_5/sep"
  param {
    lr_mult: 1
    decay_mult: 0
  }
  param {
    lr_mult: 1
    decay_mult: 0
  }
  scale_param {
    filler {
      value: 1
    }
    bias_term: true
    bias_filler {
      value: 0
    }
  }
}
layer {
  name: "relu5_5/sep"
  type: "ReLU"
  bottom: "conv5_5/sep"
  top: "conv5_5/sep"
}
layer {
  name: "conv5_6/dw"
  type: "Convolution"
  bottom: "conv5_5/sep"
  top: "conv5_6/dw"
  param {
    lr_mult: 1
    decay_mult: 1
  }
  convolution_param {
    num_output: 512
    bias_term: false
    pad: 1
    kernel_size: 3
    group: 512
    stride: 2
    weight_filler {
      type: "msra"
    }
    engine: CAFFE
  }
}
layer {
  name: "conv5_6/dw/bn"
  type: "BatchNorm"
  bottom: "conv5_6/dw"
  top: "conv5_6/dw"
  param {
    lr_mult: 0
    decay_mult: 0
  }
  param {
    lr_mult: 0
    decay_mult: 0
  }
  param {
    lr_mult: 0
    decay_mult: 0
  }
  batch_norm_param {
    use_global_stats: true
    eps: 1e-05
  }
}
layer {
  name: "conv5_6/dw/scale"
  type: "Scale"
  bottom: "conv5_6/dw"
  top: "conv5_6/dw"
  param {
    lr_mult: 1
    decay_mult: 0
  }
  param {
    lr_mult: 1
    decay_mult: 0
  }
  scale_param {
    filler {
      value: 1
    }
    bias_term: true
    bias_filler {
      value: 0
    }
  }
}
layer {
  name: "relu5_6/dw"
  type: "ReLU"
  bottom: "conv5_6/dw"
  top: "conv5_6/dw"
}
layer {
  name: "conv5_6/sep"
  type: "Convolution"
  bottom: "conv5_6/dw"
  top: "conv5_6/sep"
  param {
    lr_mult: 1
    decay_mult: 1
  }
  convolution_param {
    num_output: 1024
    bias_term: false
    pad: 0
    kernel_size: 1
    stride: 1
    weight_filler {
      type: "msra"
    }
  }
}
layer {
  name: "conv5_6/sep/bn"
  type: "BatchNorm"
  bottom: "conv5_6/sep"
  top: "conv5_6/sep"
  param {
    lr_mult: 0
    decay_mult: 0
  }
  param {
    lr_mult: 0
    decay_mult: 0
  }
  param {
    lr_mult: 0
    decay_mult: 0
  }
  batch_norm_param {
    use_global_stats: true
    eps: 1e-05
  }
}
layer {
  name: "conv5_6/sep/scale"
  type: "Scale"
  bottom: "conv5_6/sep"
  top: "conv5_6/sep"
  param {
    lr_mult: 1
    decay_mult: 0
  }
  param {
    lr_mult: 1
    decay_mult: 0
  }
  scale_param {
    filler {
      value: 1
    }
    bias_term: true
    bias_filler {
      value: 0
    }
  }
}
layer {
  name: "relu5_6/sep"
  type: "ReLU"
  bottom: "conv5_6/sep"
  top: "conv5_6/sep"
}
layer {
  name: "conv6/dw"
  type: "Convolution"
  bottom: "conv5_6/sep"
  top: "conv6/dw"
  param {
    lr_mult: 1
    decay_mult: 1
  }
  convolution_param {
    num_output: 1024
    bias_term: false
    pad: 1
    kernel_size: 3
    group: 1024
    stride: 1
    weight_filler {
      type: "msra"
    }
    engine: CAFFE
  }
}
layer {
  name: "conv6/dw/bn"
  type: "BatchNorm"
  bottom: "conv6/dw"
  top: "conv6/dw"
  param {
    lr_mult: 0
    decay_mult: 0
  }
  param {
    lr_mult: 0
    decay_mult: 0
  }
  param {
    lr_mult: 0
    decay_mult: 0
  }
  batch_norm_param {
    use_global_stats: true
    eps: 1e-05
  }
}
layer {
  name: "conv6/dw/scale"
  type: "Scale"
  bottom: "conv6/dw"
  top: "conv6/dw"
  param {
    lr_mult: 1
    decay_mult: 0
  }
  param {
    lr_mult: 1
    decay_mult: 0
  }
  scale_param {
    filler {
      value: 1
    }
    bias_term: true
    bias_filler {
      value: 0
    }
  }
}
layer {
  name: "relu6/dw"
  type: "ReLU"
  bottom: "conv6/dw"
  top: "conv6/dw"
}
layer {
  name: "conv6/sep"
  type: "Convolution"
  bottom: "conv6/dw"
  top: "conv6/sep"
  param {
    lr_mult: 1
    decay_mult: 1
  }
  convolution_param {
    num_output: 1024
    bias_term: false
    pad: 0
    kernel_size: 1
    stride: 1
    weight_filler {
      type: "msra"
    }
  }
}
layer {
  name: "conv6/sep/bn"
  type: "BatchNorm"
  bottom: "conv6/sep"
  top: "conv6/sep"
  param {
    lr_mult: 0
    decay_mult: 0
  }
  param {
    lr_mult: 0
    decay_mult: 0
  }
  param {
    lr_mult: 0
    decay_mult: 0
  }
  batch_norm_param {
    use_global_stats: true
    eps: 1e-05
  }
}
layer {
  name: "conv6/sep/scale"
  type: "Scale"
  bottom: "conv6/sep"
  top: "conv6/sep"
  param {
    lr_mult: 1
    decay_mult: 0
  }
  param {
    lr_mult: 1
    decay_mult: 0
  }
  scale_param {
    filler {
      value: 1
    }
    bias_term: true
    bias_filler {
      value: 0
    }
  }
}
layer {
  name: "relu6/sep"
  type: "ReLU"
  bottom: "conv6/sep"
  top: "conv6/sep"
}
layer {
  name: "pool6"
  type: "Pooling"
  bottom: "conv6/sep"
  top: "pool6"
  pooling_param {
    pool: AVE
    global_pooling: true
  }
}
layer {
  name: "facefc7"
  type: "Convolution"
  bottom: "pool6"
  top: "facefc7"
  param {
    lr_mult: 1
    decay_mult: 1
  }
  param {
    lr_mult: 2
    decay_mult: 0
  }
  convolution_param {
    num_output: 2
    kernel_size: 1
    weight_filler {
      type: "msra"
    }
    bias_filler {
      type: "constant"
      value: 0
    }
  }
}
layer {
  name: "loss"
  type: "SoftmaxWithLoss"
  bottom: "facefc7"
  bottom: "label"
  top: "loss"
}
I0624 08:46:57.332996 42642 layer_factory.hpp:77] Creating layer data
I0624 08:46:57.334347 42642 net.cpp:84] Creating Layer data
I0624 08:46:57.334699 42642 net.cpp:380] data -> data
I0624 08:46:57.334777 42642 net.cpp:380] data -> label
I0624 08:46:57.335182 42642 image_data_layer.cpp:38] Opening file train.txt
I0624 08:46:57.350687 42642 image_data_layer.cpp:63] A total of 33532 images.
I0624 08:46:57.360020 42642 image_data_layer.cpp:90] output data size: 32,3,224,224
I0624 08:46:57.390782 42642 net.cpp:122] Setting up data
I0624 08:46:57.390871 42642 net.cpp:129] Top shape: 32 3 224 224 (4816896)
I0624 08:46:57.390928 42642 net.cpp:129] Top shape: 32 (32)
I0624 08:46:57.390982 42642 net.cpp:137] Memory required for data: 19267712
I0624 08:46:57.391028 42642 layer_factory.hpp:77] Creating layer conv1
I0624 08:46:57.391093 42642 net.cpp:84] Creating Layer conv1
I0624 08:46:57.391136 42642 net.cpp:406] conv1 <- data
I0624 08:46:57.391165 42642 net.cpp:380] conv1 -> conv1
I0624 08:46:57.393292 42642 net.cpp:122] Setting up conv1
I0624 08:46:57.393350 42642 net.cpp:129] Top shape: 32 32 112 112 (12845056)
I0624 08:46:57.393388 42642 net.cpp:137] Memory required for data: 70647936
I0624 08:46:57.393436 42642 layer_factory.hpp:77] Creating layer conv1/bn
I0624 08:46:57.393998 42642 net.cpp:84] Creating Layer conv1/bn
I0624 08:46:57.394033 42642 net.cpp:406] conv1/bn <- conv1
I0624 08:46:57.394050 42642 net.cpp:367] conv1/bn -> conv1 (in-place)
I0624 08:46:57.394134 42642 net.cpp:122] Setting up conv1/bn
I0624 08:46:57.394183 42642 net.cpp:129] Top shape: 32 32 112 112 (12845056)
I0624 08:46:57.394219 42642 net.cpp:137] Memory required for data: 122028160
I0624 08:46:57.394268 42642 layer_factory.hpp:77] Creating layer conv1/scale
I0624 08:46:57.395110 42642 net.cpp:84] Creating Layer conv1/scale
I0624 08:46:57.395243 42642 net.cpp:406] conv1/scale <- conv1
I0624 08:46:57.395292 42642 net.cpp:367] conv1/scale -> conv1 (in-place)
I0624 08:46:57.395345 42642 layer_factory.hpp:77] Creating layer conv1/scale
I0624 08:46:57.395452 42642 net.cpp:122] Setting up conv1/scale
I0624 08:46:57.395503 42642 net.cpp:129] Top shape: 32 32 112 112 (12845056)
I0624 08:46:57.395586 42642 net.cpp:137] Memory required for data: 173408384
I0624 08:46:57.395615 42642 layer_factory.hpp:77] Creating layer relu1
I0624 08:46:57.395659 42642 net.cpp:84] Creating Layer relu1
I0624 08:46:57.395681 42642 net.cpp:406] relu1 <- conv1
I0624 08:46:57.395694 42642 net.cpp:367] relu1 -> conv1 (in-place)
I0624 08:46:57.395742 42642 net.cpp:122] Setting up relu1
I0624 08:46:57.395788 42642 net.cpp:129] Top shape: 32 32 112 112 (12845056)
I0624 08:46:57.395800 42642 net.cpp:137] Memory required for data: 224788608
I0624 08:46:57.395889 42642 layer_factory.hpp:77] Creating layer conv2_1/dw
I0624 08:46:57.395923 42642 net.cpp:84] Creating Layer conv2_1/dw
I0624 08:46:57.395958 42642 net.cpp:406] conv2_1/dw <- conv1
I0624 08:46:57.395978 42642 net.cpp:380] conv2_1/dw -> conv2_1/dw
I0624 08:46:57.396090 42642 net.cpp:122] Setting up conv2_1/dw
I0624 08:46:57.396137 42642 net.cpp:129] Top shape: 32 32 112 112 (12845056)
I0624 08:46:57.396158 42642 net.cpp:137] Memory required for data: 276168832
I0624 08:46:57.396257 42642 layer_factory.hpp:77] Creating layer conv2_1/dw/bn
I0624 08:46:57.396303 42642 net.cpp:84] Creating Layer conv2_1/dw/bn
I0624 08:46:57.396322 42642 net.cpp:406] conv2_1/dw/bn <- conv2_1/dw
I0624 08:46:57.396360 42642 net.cpp:367] conv2_1/dw/bn -> conv2_1/dw (in-place)
I0624 08:46:57.396410 42642 net.cpp:122] Setting up conv2_1/dw/bn
I0624 08:46:57.396486 42642 net.cpp:129] Top shape: 32 32 112 112 (12845056)
I0624 08:46:57.396523 42642 net.cpp:137] Memory required for data: 327549056
I0624 08:46:57.396553 42642 layer_factory.hpp:77] Creating layer conv2_1/dw/scale
I0624 08:46:57.396623 42642 net.cpp:84] Creating Layer conv2_1/dw/scale
I0624 08:46:57.396664 42642 net.cpp:406] conv2_1/dw/scale <- conv2_1/dw
I0624 08:46:57.396687 42642 net.cpp:367] conv2_1/dw/scale -> conv2_1/dw (in-place)
I0624 08:46:57.396735 42642 layer_factory.hpp:77] Creating layer conv2_1/dw/scale
I0624 08:46:57.396885 42642 net.cpp:122] Setting up conv2_1/dw/scale
I0624 08:46:57.396936 42642 net.cpp:129] Top shape: 32 32 112 112 (12845056)
I0624 08:46:57.396953 42642 net.cpp:137] Memory required for data: 378929280
I0624 08:46:57.396991 42642 layer_factory.hpp:77] Creating layer relu2_1/dw
I0624 08:46:57.397042 42642 net.cpp:84] Creating Layer relu2_1/dw
I0624 08:46:57.397142 42642 net.cpp:406] relu2_1/dw <- conv2_1/dw
I0624 08:46:57.397167 42642 net.cpp:367] relu2_1/dw -> conv2_1/dw (in-place)
I0624 08:46:57.397208 42642 net.cpp:122] Setting up relu2_1/dw
I0624 08:46:57.397249 42642 net.cpp:129] Top shape: 32 32 112 112 (12845056)
I0624 08:46:57.397284 42642 net.cpp:137] Memory required for data: 430309504
I0624 08:46:57.397320 42642 layer_factory.hpp:77] Creating layer conv2_1/sep
I0624 08:46:57.397369 42642 net.cpp:84] Creating Layer conv2_1/sep
I0624 08:46:57.397409 42642 net.cpp:406] conv2_1/sep <- conv2_1/dw
I0624 08:46:57.397452 42642 net.cpp:380] conv2_1/sep -> conv2_1/sep
I0624 08:46:57.397622 42642 net.cpp:122] Setting up conv2_1/sep
I0624 08:46:57.397671 42642 net.cpp:129] Top shape: 32 64 112 112 (25690112)
I0624 08:46:57.397706 42642 net.cpp:137] Memory required for data: 533069952
I0624 08:46:57.397846 42642 layer_factory.hpp:77] Creating layer conv2_1/sep/bn
I0624 08:46:57.397902 42642 net.cpp:84] Creating Layer conv2_1/sep/bn
I0624 08:46:57.397943 42642 net.cpp:406] conv2_1/sep/bn <- conv2_1/sep
I0624 08:46:57.397990 42642 net.cpp:367] conv2_1/sep/bn -> conv2_1/sep (in-place)
I0624 08:46:57.398088 42642 net.cpp:122] Setting up conv2_1/sep/bn
I0624 08:46:57.398211 42642 net.cpp:129] Top shape: 32 64 112 112 (25690112)
I0624 08:46:57.398248 42642 net.cpp:137] Memory required for data: 635830400
I0624 08:46:57.398293 42642 layer_factory.hpp:77] Creating layer conv2_1/sep/scale
I0624 08:46:57.398342 42642 net.cpp:84] Creating Layer conv2_1/sep/scale
I0624 08:46:57.398382 42642 net.cpp:406] conv2_1/sep/scale <- conv2_1/sep
I0624 08:46:57.398423 42642 net.cpp:367] conv2_1/sep/scale -> conv2_1/sep (in-place)
I0624 08:46:57.398521 42642 layer_factory.hpp:77] Creating layer conv2_1/sep/scale
I0624 08:46:57.398715 42642 net.cpp:122] Setting up conv2_1/sep/scale
I0624 08:46:57.398764 42642 net.cpp:129] Top shape: 32 64 112 112 (25690112)
I0624 08:46:57.398799 42642 net.cpp:137] Memory required for data: 738590848
I0624 08:46:57.398850 42642 layer_factory.hpp:77] Creating layer relu2_1/sep
I0624 08:46:57.398895 42642 net.cpp:84] Creating Layer relu2_1/sep
I0624 08:46:57.398931 42642 net.cpp:406] relu2_1/sep <- conv2_1/sep
I0624 08:46:57.398978 42642 net.cpp:367] relu2_1/sep -> conv2_1/sep (in-place)
I0624 08:46:57.399024 42642 net.cpp:122] Setting up relu2_1/sep
I0624 08:46:57.399065 42642 net.cpp:129] Top shape: 32 64 112 112 (25690112)
I0624 08:46:57.399098 42642 net.cpp:137] Memory required for data: 841351296
I0624 08:46:57.399134 42642 layer_factory.hpp:77] Creating layer conv2_2/dw
I0624 08:46:57.399155 42642 net.cpp:84] Creating Layer conv2_2/dw
I0624 08:46:57.399257 42642 net.cpp:406] conv2_2/dw <- conv2_1/sep
I0624 08:46:57.399310 42642 net.cpp:380] conv2_2/dw -> conv2_2/dw
I0624 08:46:57.399410 42642 net.cpp:122] Setting up conv2_2/dw
I0624 08:46:57.399457 42642 net.cpp:129] Top shape: 32 64 56 56 (6422528)
I0624 08:46:57.399492 42642 net.cpp:137] Memory required for data: 867041408
I0624 08:46:57.399530 42642 layer_factory.hpp:77] Creating layer conv2_2/dw/bn
I0624 08:46:57.399577 42642 net.cpp:84] Creating Layer conv2_2/dw/bn
I0624 08:46:57.399616 42642 net.cpp:406] conv2_2/dw/bn <- conv2_2/dw
I0624 08:46:57.399639 42642 net.cpp:367] conv2_2/dw/bn -> conv2_2/dw (in-place)
I0624 08:46:57.399719 42642 net.cpp:122] Setting up conv2_2/dw/bn
I0624 08:46:57.399811 42642 net.cpp:129] Top shape: 32 64 56 56 (6422528)
I0624 08:46:57.399855 42642 net.cpp:137] Memory required for data: 892731520
I0624 08:46:57.399899 42642 layer_factory.hpp:77] Creating layer conv2_2/dw/scale
I0624 08:46:57.399950 42642 net.cpp:84] Creating Layer conv2_2/dw/scale
I0624 08:46:57.399988 42642 net.cpp:406] conv2_2/dw/scale <- conv2_2/dw
I0624 08:46:57.400029 42642 net.cpp:367] conv2_2/dw/scale -> conv2_2/dw (in-place)
I0624 08:46:57.400080 42642 layer_factory.hpp:77] Creating layer conv2_2/dw/scale
I0624 08:46:57.400197 42642 net.cpp:122] Setting up conv2_2/dw/scale
I0624 08:46:57.400245 42642 net.cpp:129] Top shape: 32 64 56 56 (6422528)
I0624 08:46:57.400280 42642 net.cpp:137] Memory required for data: 918421632
I0624 08:46:57.400321 42642 layer_factory.hpp:77] Creating layer relu2_2/dw
I0624 08:46:57.400364 42642 net.cpp:84] Creating Layer relu2_2/dw
I0624 08:46:57.400401 42642 net.cpp:406] relu2_2/dw <- conv2_2/dw
I0624 08:46:57.400450 42642 net.cpp:367] relu2_2/dw -> conv2_2/dw (in-place)
I0624 08:46:57.400496 42642 net.cpp:122] Setting up relu2_2/dw
I0624 08:46:57.400537 42642 net.cpp:129] Top shape: 32 64 56 56 (6422528)
I0624 08:46:57.400570 42642 net.cpp:137] Memory required for data: 944111744
I0624 08:46:57.400604 42642 layer_factory.hpp:77] Creating layer conv2_2/sep
I0624 08:46:57.400672 42642 net.cpp:84] Creating Layer conv2_2/sep
I0624 08:46:57.400713 42642 net.cpp:406] conv2_2/sep <- conv2_2/dw
I0624 08:46:57.400756 42642 net.cpp:380] conv2_2/sep -> conv2_2/sep
I0624 08:46:57.401203 42642 net.cpp:122] Setting up conv2_2/sep
I0624 08:46:57.401252 42642 net.cpp:129] Top shape: 32 128 56 56 (12845056)
I0624 08:46:57.401286 42642 net.cpp:137] Memory required for data: 995491968
I0624 08:46:57.401326 42642 layer_factory.hpp:77] Creating layer conv2_2/sep/bn
I0624 08:46:57.401373 42642 net.cpp:84] Creating Layer conv2_2/sep/bn
I0624 08:46:57.401412 42642 net.cpp:406] conv2_2/sep/bn <- conv2_2/sep
I0624 08:46:57.401451 42642 net.cpp:367] conv2_2/sep/bn -> conv2_2/sep (in-place)
I0624 08:46:57.401520 42642 net.cpp:122] Setting up conv2_2/sep/bn
I0624 08:46:57.401566 42642 net.cpp:129] Top shape: 32 128 56 56 (12845056)
I0624 08:46:57.401600 42642 net.cpp:137] Memory required for data: 1046872192
I0624 08:46:57.401650 42642 layer_factory.hpp:77] Creating layer conv2_2/sep/scale
I0624 08:46:57.401695 42642 net.cpp:84] Creating Layer conv2_2/sep/scale
I0624 08:46:57.401733 42642 net.cpp:406] conv2_2/sep/scale <- conv2_2/sep
I0624 08:46:57.401779 42642 net.cpp:367] conv2_2/sep/scale -> conv2_2/sep (in-place)
I0624 08:46:57.401849 42642 layer_factory.hpp:77] Creating layer conv2_2/sep/scale
I0624 08:46:57.401928 42642 net.cpp:122] Setting up conv2_2/sep/scale
I0624 08:46:57.401974 42642 net.cpp:129] Top shape: 32 128 56 56 (12845056)
I0624 08:46:57.402009 42642 net.cpp:137] Memory required for data: 1098252416
I0624 08:46:57.402050 42642 layer_factory.hpp:77] Creating layer relu2_2/sep
I0624 08:46:57.402174 42642 net.cpp:84] Creating Layer relu2_2/sep
I0624 08:46:57.402215 42642 net.cpp:406] relu2_2/sep <- conv2_2/sep
I0624 08:46:57.402256 42642 net.cpp:367] relu2_2/sep -> conv2_2/sep (in-place)
I0624 08:46:57.402297 42642 net.cpp:122] Setting up relu2_2/sep
I0624 08:46:57.402338 42642 net.cpp:129] Top shape: 32 128 56 56 (12845056)
I0624 08:46:57.402396 42642 net.cpp:137] Memory required for data: 1149632640
I0624 08:46:57.402436 42642 layer_factory.hpp:77] Creating layer conv3_1/dw
I0624 08:46:57.402485 42642 net.cpp:84] Creating Layer conv3_1/dw
I0624 08:46:57.402580 42642 net.cpp:406] conv3_1/dw <- conv2_2/sep
I0624 08:46:57.402642 42642 net.cpp:380] conv3_1/dw -> conv3_1/dw
I0624 08:46:57.402781 42642 net.cpp:122] Setting up conv3_1/dw
I0624 08:46:57.402829 42642 net.cpp:129] Top shape: 32 128 56 56 (12845056)
I0624 08:46:57.402863 42642 net.cpp:137] Memory required for data: 1201012864
I0624 08:46:57.402902 42642 layer_factory.hpp:77] Creating layer conv3_1/dw/bn
I0624 08:46:57.402942 42642 net.cpp:84] Creating Layer conv3_1/dw/bn
I0624 08:46:57.402978 42642 net.cpp:406] conv3_1/dw/bn <- conv3_1/dw
I0624 08:46:57.403025 42642 net.cpp:367] conv3_1/dw/bn -> conv3_1/dw (in-place)
I0624 08:46:57.403097 42642 net.cpp:122] Setting up conv3_1/dw/bn
I0624 08:46:57.403158 42642 net.cpp:129] Top shape: 32 128 56 56 (12845056)
I0624 08:46:57.403172 42642 net.cpp:137] Memory required for data: 1252393088
I0624 08:46:57.403201 42642 layer_factory.hpp:77] Creating layer conv3_1/dw/scale
I0624 08:46:57.403255 42642 net.cpp:84] Creating Layer conv3_1/dw/scale
I0624 08:46:57.403296 42642 net.cpp:406] conv3_1/dw/scale <- conv3_1/dw
I0624 08:46:57.403343 42642 net.cpp:367] conv3_1/dw/scale -> conv3_1/dw (in-place)
I0624 08:46:57.403398 42642 layer_factory.hpp:77] Creating layer conv3_1/dw/scale
I0624 08:46:57.403481 42642 net.cpp:122] Setting up conv3_1/dw/scale
I0624 08:46:57.403527 42642 net.cpp:129] Top shape: 32 128 56 56 (12845056)
I0624 08:46:57.403561 42642 net.cpp:137] Memory required for data: 1303773312
I0624 08:46:57.403614 42642 layer_factory.hpp:77] Creating layer relu3_1/dw
I0624 08:46:57.403653 42642 net.cpp:84] Creating Layer relu3_1/dw
I0624 08:46:57.403690 42642 net.cpp:406] relu3_1/dw <- conv3_1/dw
I0624 08:46:57.403735 42642 net.cpp:367] relu3_1/dw -> conv3_1/dw (in-place)
I0624 08:46:57.403780 42642 net.cpp:122] Setting up relu3_1/dw
I0624 08:46:57.403820 42642 net.cpp:129] Top shape: 32 128 56 56 (12845056)
I0624 08:46:57.403853 42642 net.cpp:137] Memory required for data: 1355153536
I0624 08:46:57.403888 42642 layer_factory.hpp:77] Creating layer conv3_1/sep
I0624 08:46:57.403952 42642 net.cpp:84] Creating Layer conv3_1/sep
I0624 08:46:57.403997 42642 net.cpp:406] conv3_1/sep <- conv3_1/dw
I0624 08:46:57.404039 42642 net.cpp:380] conv3_1/sep -> conv3_1/sep
I0624 08:46:57.404956 42642 net.cpp:122] Setting up conv3_1/sep
I0624 08:46:57.405088 42642 net.cpp:129] Top shape: 32 128 56 56 (12845056)
I0624 08:46:57.405241 42642 net.cpp:137] Memory required for data: 1406533760
I0624 08:46:57.405282 42642 layer_factory.hpp:77] Creating layer conv3_1/sep/bn
I0624 08:46:57.405330 42642 net.cpp:84] Creating Layer conv3_1/sep/bn
I0624 08:46:57.405369 42642 net.cpp:406] conv3_1/sep/bn <- conv3_1/sep
I0624 08:46:57.405409 42642 net.cpp:367] conv3_1/sep/bn -> conv3_1/sep (in-place)
I0624 08:46:57.405488 42642 net.cpp:122] Setting up conv3_1/sep/bn
I0624 08:46:57.405546 42642 net.cpp:129] Top shape: 32 128 56 56 (12845056)
I0624 08:46:57.405583 42642 net.cpp:137] Memory required for data: 1457913984
I0624 08:46:57.405635 42642 layer_factory.hpp:77] Creating layer conv3_1/sep/scale
I0624 08:46:57.405680 42642 net.cpp:84] Creating Layer conv3_1/sep/scale
I0624 08:46:57.405725 42642 net.cpp:406] conv3_1/sep/scale <- conv3_1/sep
I0624 08:46:57.405766 42642 net.cpp:367] conv3_1/sep/scale -> conv3_1/sep (in-place)
I0624 08:46:57.405817 42642 layer_factory.hpp:77] Creating layer conv3_1/sep/scale
I0624 08:46:57.405954 42642 net.cpp:122] Setting up conv3_1/sep/scale
I0624 08:46:57.406002 42642 net.cpp:129] Top shape: 32 128 56 56 (12845056)
I0624 08:46:57.406036 42642 net.cpp:137] Memory required for data: 1509294208
I0624 08:46:57.406077 42642 layer_factory.hpp:77] Creating layer relu3_1/sep
I0624 08:46:57.406124 42642 net.cpp:84] Creating Layer relu3_1/sep
I0624 08:46:57.406163 42642 net.cpp:406] relu3_1/sep <- conv3_1/sep
I0624 08:46:57.406203 42642 net.cpp:367] relu3_1/sep -> conv3_1/sep (in-place)
I0624 08:46:57.406270 42642 net.cpp:122] Setting up relu3_1/sep
I0624 08:46:57.406313 42642 net.cpp:129] Top shape: 32 128 56 56 (12845056)
I0624 08:46:57.406347 42642 net.cpp:137] Memory required for data: 1560674432
I0624 08:46:57.406432 42642 layer_factory.hpp:77] Creating layer conv3_2/dw
I0624 08:46:57.406486 42642 net.cpp:84] Creating Layer conv3_2/dw
I0624 08:46:57.406579 42642 net.cpp:406] conv3_2/dw <- conv3_1/sep
I0624 08:46:57.406625 42642 net.cpp:380] conv3_2/dw -> conv3_2/dw
I0624 08:46:57.406749 42642 net.cpp:122] Setting up conv3_2/dw
I0624 08:46:57.406796 42642 net.cpp:129] Top shape: 32 128 28 28 (3211264)
I0624 08:46:57.406831 42642 net.cpp:137] Memory required for data: 1573519488
I0624 08:46:57.406869 42642 layer_factory.hpp:77] Creating layer conv3_2/dw/bn
I0624 08:46:57.407042 42642 net.cpp:84] Creating Layer conv3_2/dw/bn
I0624 08:46:57.407088 42642 net.cpp:406] conv3_2/dw/bn <- conv3_2/dw
I0624 08:46:57.407127 42642 net.cpp:367] conv3_2/dw/bn -> conv3_2/dw (in-place)
I0624 08:46:57.407212 42642 net.cpp:122] Setting up conv3_2/dw/bn
I0624 08:46:57.407296 42642 net.cpp:129] Top shape: 32 128 28 28 (3211264)
I0624 08:46:57.407333 42642 net.cpp:137] Memory required for data: 1586364544
I0624 08:46:57.407382 42642 layer_factory.hpp:77] Creating layer conv3_2/dw/scale
I0624 08:46:57.407433 42642 net.cpp:84] Creating Layer conv3_2/dw/scale
I0624 08:46:57.407472 42642 net.cpp:406] conv3_2/dw/scale <- conv3_2/dw
I0624 08:46:57.407528 42642 net.cpp:367] conv3_2/dw/scale -> conv3_2/dw (in-place)
I0624 08:46:57.407580 42642 layer_factory.hpp:77] Creating layer conv3_2/dw/scale
I0624 08:46:57.407646 42642 net.cpp:122] Setting up conv3_2/dw/scale
I0624 08:46:57.407696 42642 net.cpp:129] Top shape: 32 128 28 28 (3211264)
I0624 08:46:57.407733 42642 net.cpp:137] Memory required for data: 1599209600
I0624 08:46:57.407773 42642 layer_factory.hpp:77] Creating layer relu3_2/dw
I0624 08:46:57.407819 42642 net.cpp:84] Creating Layer relu3_2/dw
I0624 08:46:57.407855 42642 net.cpp:406] relu3_2/dw <- conv3_2/dw
I0624 08:46:57.407894 42642 net.cpp:367] relu3_2/dw -> conv3_2/dw (in-place)
I0624 08:46:57.407938 42642 net.cpp:122] Setting up relu3_2/dw
I0624 08:46:57.407977 42642 net.cpp:129] Top shape: 32 128 28 28 (3211264)
I0624 08:46:57.408010 42642 net.cpp:137] Memory required for data: 1612054656
I0624 08:46:57.408046 42642 layer_factory.hpp:77] Creating layer conv3_2/sep
I0624 08:46:57.408097 42642 net.cpp:84] Creating Layer conv3_2/sep
I0624 08:46:57.408135 42642 net.cpp:406] conv3_2/sep <- conv3_2/dw
I0624 08:46:57.408176 42642 net.cpp:380] conv3_2/sep -> conv3_2/sep
I0624 08:46:57.409896 42642 net.cpp:122] Setting up conv3_2/sep
I0624 08:46:57.409948 42642 net.cpp:129] Top shape: 32 256 28 28 (6422528)
I0624 08:46:57.409968 42642 net.cpp:137] Memory required for data: 1637744768
I0624 08:46:57.409981 42642 layer_factory.hpp:77] Creating layer conv3_2/sep/bn
I0624 08:46:57.410025 42642 net.cpp:84] Creating Layer conv3_2/sep/bn
I0624 08:46:57.410063 42642 net.cpp:406] conv3_2/sep/bn <- conv3_2/sep
I0624 08:46:57.410104 42642 net.cpp:367] conv3_2/sep/bn -> conv3_2/sep (in-place)
I0624 08:46:57.410166 42642 net.cpp:122] Setting up conv3_2/sep/bn
I0624 08:46:57.410210 42642 net.cpp:129] Top shape: 32 256 28 28 (6422528)
I0624 08:46:57.410244 42642 net.cpp:137] Memory required for data: 1663434880
I0624 08:46:57.410312 42642 layer_factory.hpp:77] Creating layer conv3_2/sep/scale
I0624 08:46:57.410360 42642 net.cpp:84] Creating Layer conv3_2/sep/scale
I0624 08:46:57.410399 42642 net.cpp:406] conv3_2/sep/scale <- conv3_2/sep
I0624 08:46:57.410459 42642 net.cpp:367] conv3_2/sep/scale -> conv3_2/sep (in-place)
I0624 08:46:57.410516 42642 layer_factory.hpp:77] Creating layer conv3_2/sep/scale
I0624 08:46:57.410619 42642 net.cpp:122] Setting up conv3_2/sep/scale
I0624 08:46:57.410666 42642 net.cpp:129] Top shape: 32 256 28 28 (6422528)
I0624 08:46:57.410701 42642 net.cpp:137] Memory required for data: 1689124992
I0624 08:46:57.410742 42642 layer_factory.hpp:77] Creating layer relu3_2/sep
I0624 08:46:57.410807 42642 net.cpp:84] Creating Layer relu3_2/sep
I0624 08:46:57.410846 42642 net.cpp:406] relu3_2/sep <- conv3_2/sep
I0624 08:46:57.410886 42642 net.cpp:367] relu3_2/sep -> conv3_2/sep (in-place)
I0624 08:46:57.410928 42642 net.cpp:122] Setting up relu3_2/sep
I0624 08:46:57.410969 42642 net.cpp:129] Top shape: 32 256 28 28 (6422528)
I0624 08:46:57.411010 42642 net.cpp:137] Memory required for data: 1714815104
I0624 08:46:57.411053 42642 layer_factory.hpp:77] Creating layer conv4_1/dw
I0624 08:46:57.411103 42642 net.cpp:84] Creating Layer conv4_1/dw
I0624 08:46:57.411196 42642 net.cpp:406] conv4_1/dw <- conv3_2/sep
I0624 08:46:57.411240 42642 net.cpp:380] conv4_1/dw -> conv4_1/dw
I0624 08:46:57.411481 42642 net.cpp:122] Setting up conv4_1/dw
I0624 08:46:57.411530 42642 net.cpp:129] Top shape: 32 256 28 28 (6422528)
I0624 08:46:57.411566 42642 net.cpp:137] Memory required for data: 1740505216
I0624 08:46:57.411603 42642 layer_factory.hpp:77] Creating layer conv4_1/dw/bn
I0624 08:46:57.411643 42642 net.cpp:84] Creating Layer conv4_1/dw/bn
I0624 08:46:57.411680 42642 net.cpp:406] conv4_1/dw/bn <- conv4_1/dw
I0624 08:46:57.411720 42642 net.cpp:367] conv4_1/dw/bn -> conv4_1/dw (in-place)
I0624 08:46:57.411823 42642 net.cpp:122] Setting up conv4_1/dw/bn
I0624 08:46:57.411870 42642 net.cpp:129] Top shape: 32 256 28 28 (6422528)
I0624 08:46:57.411903 42642 net.cpp:137] Memory required for data: 1766195328
I0624 08:46:57.411995 42642 layer_factory.hpp:77] Creating layer conv4_1/dw/scale
I0624 08:46:57.412104 42642 net.cpp:84] Creating Layer conv4_1/dw/scale
I0624 08:46:57.412145 42642 net.cpp:406] conv4_1/dw/scale <- conv4_1/dw
I0624 08:46:57.412185 42642 net.cpp:367] conv4_1/dw/scale -> conv4_1/dw (in-place)
I0624 08:46:57.412238 42642 layer_factory.hpp:77] Creating layer conv4_1/dw/scale
I0624 08:46:57.412305 42642 net.cpp:122] Setting up conv4_1/dw/scale
I0624 08:46:57.412356 42642 net.cpp:129] Top shape: 32 256 28 28 (6422528)
I0624 08:46:57.412407 42642 net.cpp:137] Memory required for data: 1791885440
I0624 08:46:57.412448 42642 layer_factory.hpp:77] Creating layer relu4_1/dw
I0624 08:46:57.412489 42642 net.cpp:84] Creating Layer relu4_1/dw
I0624 08:46:57.412577 42642 net.cpp:406] relu4_1/dw <- conv4_1/dw
I0624 08:46:57.412619 42642 net.cpp:367] relu4_1/dw -> conv4_1/dw (in-place)
I0624 08:46:57.412662 42642 net.cpp:122] Setting up relu4_1/dw
I0624 08:46:57.412701 42642 net.cpp:129] Top shape: 32 256 28 28 (6422528)
I0624 08:46:57.412735 42642 net.cpp:137] Memory required for data: 1817575552
I0624 08:46:57.412770 42642 layer_factory.hpp:77] Creating layer conv4_1/sep
I0624 08:46:57.412819 42642 net.cpp:84] Creating Layer conv4_1/sep
I0624 08:46:57.412858 42642 net.cpp:406] conv4_1/sep <- conv4_1/dw
I0624 08:46:57.412899 42642 net.cpp:380] conv4_1/sep -> conv4_1/sep
I0624 08:46:57.416347 42642 net.cpp:122] Setting up conv4_1/sep
I0624 08:46:57.416415 42642 net.cpp:129] Top shape: 32 256 28 28 (6422528)
I0624 08:46:57.416451 42642 net.cpp:137] Memory required for data: 1843265664
I0624 08:46:57.416491 42642 layer_factory.hpp:77] Creating layer conv4_1/sep/bn
I0624 08:46:57.416544 42642 net.cpp:84] Creating Layer conv4_1/sep/bn
I0624 08:46:57.416584 42642 net.cpp:406] conv4_1/sep/bn <- conv4_1/sep
I0624 08:46:57.416630 42642 net.cpp:367] conv4_1/sep/bn -> conv4_1/sep (in-place)
I0624 08:46:57.416730 42642 net.cpp:122] Setting up conv4_1/sep/bn
I0624 08:46:57.416779 42642 net.cpp:129] Top shape: 32 256 28 28 (6422528)
I0624 08:46:57.416812 42642 net.cpp:137] Memory required for data: 1868955776
I0624 08:46:57.418349 42642 layer_factory.hpp:77] Creating layer conv4_1/sep/scale
I0624 08:46:57.418406 42642 net.cpp:84] Creating Layer conv4_1/sep/scale
I0624 08:46:57.418445 42642 net.cpp:406] conv4_1/sep/scale <- conv4_1/sep
I0624 08:46:57.418486 42642 net.cpp:367] conv4_1/sep/scale -> conv4_1/sep (in-place)
I0624 08:46:57.418620 42642 layer_factory.hpp:77] Creating layer conv4_1/sep/scale
I0624 08:46:57.418699 42642 net.cpp:122] Setting up conv4_1/sep/scale
I0624 08:46:57.418745 42642 net.cpp:129] Top shape: 32 256 28 28 (6422528)
I0624 08:46:57.418807 42642 net.cpp:137] Memory required for data: 1894645888
I0624 08:46:57.418870 42642 layer_factory.hpp:77] Creating layer relu4_1/sep
I0624 08:46:57.418917 42642 net.cpp:84] Creating Layer relu4_1/sep
I0624 08:46:57.419009 42642 net.cpp:406] relu4_1/sep <- conv4_1/sep
I0624 08:46:57.419059 42642 net.cpp:367] relu4_1/sep -> conv4_1/sep (in-place)
I0624 08:46:57.419103 42642 net.cpp:122] Setting up relu4_1/sep
I0624 08:46:57.419173 42642 net.cpp:129] Top shape: 32 256 28 28 (6422528)
I0624 08:46:57.419221 42642 net.cpp:137] Memory required for data: 1920336000
I0624 08:46:57.419245 42642 layer_factory.hpp:77] Creating layer conv4_2/dw
I0624 08:46:57.419265 42642 net.cpp:84] Creating Layer conv4_2/dw
I0624 08:46:57.419299 42642 net.cpp:406] conv4_2/dw <- conv4_1/sep
I0624 08:46:57.419348 42642 net.cpp:380] conv4_2/dw -> conv4_2/dw
I0624 08:46:57.419528 42642 net.cpp:122] Setting up conv4_2/dw
I0624 08:46:57.419576 42642 net.cpp:129] Top shape: 32 256 14 14 (1605632)
I0624 08:46:57.419610 42642 net.cpp:137] Memory required for data: 1926758528
I0624 08:46:57.419649 42642 layer_factory.hpp:77] Creating layer conv4_2/dw/bn
I0624 08:46:57.419695 42642 net.cpp:84] Creating Layer conv4_2/dw/bn
I0624 08:46:57.419734 42642 net.cpp:406] conv4_2/dw/bn <- conv4_2/dw
I0624 08:46:57.419780 42642 net.cpp:367] conv4_2/dw/bn -> conv4_2/dw (in-place)
I0624 08:46:57.419842 42642 net.cpp:122] Setting up conv4_2/dw/bn
I0624 08:46:57.419885 42642 net.cpp:129] Top shape: 32 256 14 14 (1605632)
I0624 08:46:57.419921 42642 net.cpp:137] Memory required for data: 1933181056
I0624 08:46:57.420001 42642 layer_factory.hpp:77] Creating layer conv4_2/dw/scale
I0624 08:46:57.420032 42642 net.cpp:84] Creating Layer conv4_2/dw/scale
I0624 08:46:57.420043 42642 net.cpp:406] conv4_2/dw/scale <- conv4_2/dw
I0624 08:46:57.420055 42642 net.cpp:367] conv4_2/dw/scale -> conv4_2/dw (in-place)
I0624 08:46:57.420078 42642 layer_factory.hpp:77] Creating layer conv4_2/dw/scale
I0624 08:46:57.420107 42642 net.cpp:122] Setting up conv4_2/dw/scale
I0624 08:46:57.420122 42642 net.cpp:129] Top shape: 32 256 14 14 (1605632)
I0624 08:46:57.420130 42642 net.cpp:137] Memory required for data: 1939603584
I0624 08:46:57.420143 42642 layer_factory.hpp:77] Creating layer relu4_2/dw
I0624 08:46:57.420156 42642 net.cpp:84] Creating Layer relu4_2/dw
I0624 08:46:57.420164 42642 net.cpp:406] relu4_2/dw <- conv4_2/dw
I0624 08:46:57.420174 42642 net.cpp:367] relu4_2/dw -> conv4_2/dw (in-place)
I0624 08:46:57.420214 42642 net.cpp:122] Setting up relu4_2/dw
I0624 08:46:57.420226 42642 net.cpp:129] Top shape: 32 256 14 14 (1605632)
I0624 08:46:57.420234 42642 net.cpp:137] Memory required for data: 1946026112
I0624 08:46:57.420243 42642 layer_factory.hpp:77] Creating layer conv4_2/sep
I0624 08:46:57.420264 42642 net.cpp:84] Creating Layer conv4_2/sep
I0624 08:46:57.420275 42642 net.cpp:406] conv4_2/sep <- conv4_2/dw
I0624 08:46:57.420295 42642 net.cpp:380] conv4_2/sep -> conv4_2/sep
I0624 08:46:57.427760 42642 net.cpp:122] Setting up conv4_2/sep
I0624 08:46:57.427875 42642 net.cpp:129] Top shape: 32 512 14 14 (3211264)
I0624 08:46:57.427913 42642 net.cpp:137] Memory required for data: 1958871168
I0624 08:46:57.427954 42642 layer_factory.hpp:77] Creating layer conv4_2/sep/bn
I0624 08:46:57.428073 42642 net.cpp:84] Creating Layer conv4_2/sep/bn
I0624 08:46:57.428169 42642 net.cpp:406] conv4_2/sep/bn <- conv4_2/sep
I0624 08:46:57.428215 42642 net.cpp:367] conv4_2/sep/bn -> conv4_2/sep (in-place)
I0624 08:46:57.428256 42642 net.cpp:122] Setting up conv4_2/sep/bn
I0624 08:46:57.428272 42642 net.cpp:129] Top shape: 32 512 14 14 (3211264)
I0624 08:46:57.428279 42642 net.cpp:137] Memory required for data: 1971716224
I0624 08:46:57.428295 42642 layer_factory.hpp:77] Creating layer conv4_2/sep/scale
I0624 08:46:57.428311 42642 net.cpp:84] Creating Layer conv4_2/sep/scale
I0624 08:46:57.428320 42642 net.cpp:406] conv4_2/sep/scale <- conv4_2/sep
I0624 08:46:57.428369 42642 net.cpp:367] conv4_2/sep/scale -> conv4_2/sep (in-place)
I0624 08:46:57.428433 42642 layer_factory.hpp:77] Creating layer conv4_2/sep/scale
I0624 08:46:57.428580 42642 net.cpp:122] Setting up conv4_2/sep/scale
I0624 08:46:57.428629 42642 net.cpp:129] Top shape: 32 512 14 14 (3211264)
I0624 08:46:57.428664 42642 net.cpp:137] Memory required for data: 1984561280
I0624 08:46:57.428704 42642 layer_factory.hpp:77] Creating layer relu4_2/sep
I0624 08:46:57.428745 42642 net.cpp:84] Creating Layer relu4_2/sep
I0624 08:46:57.428782 42642 net.cpp:406] relu4_2/sep <- conv4_2/sep
I0624 08:46:57.428822 42642 net.cpp:367] relu4_2/sep -> conv4_2/sep (in-place)
I0624 08:46:57.428865 42642 net.cpp:122] Setting up relu4_2/sep
I0624 08:46:57.428905 42642 net.cpp:129] Top shape: 32 512 14 14 (3211264)
I0624 08:46:57.428938 42642 net.cpp:137] Memory required for data: 1997406336
I0624 08:46:57.428983 42642 layer_factory.hpp:77] Creating layer conv5_1/dw
I0624 08:46:57.429035 42642 net.cpp:84] Creating Layer conv5_1/dw
I0624 08:46:57.429075 42642 net.cpp:406] conv5_1/dw <- conv4_2/sep
I0624 08:46:57.429117 42642 net.cpp:380] conv5_1/dw -> conv5_1/dw
I0624 08:46:57.429397 42642 net.cpp:122] Setting up conv5_1/dw
I0624 08:46:57.429445 42642 net.cpp:129] Top shape: 32 512 14 14 (3211264)
I0624 08:46:57.429479 42642 net.cpp:137] Memory required for data: 2010251392
I0624 08:46:57.429518 42642 layer_factory.hpp:77] Creating layer conv5_1/dw/bn
I0624 08:46:57.429559 42642 net.cpp:84] Creating Layer conv5_1/dw/bn
I0624 08:46:57.429596 42642 net.cpp:406] conv5_1/dw/bn <- conv5_1/dw
I0624 08:46:57.429641 42642 net.cpp:367] conv5_1/dw/bn -> conv5_1/dw (in-place)
I0624 08:46:57.429702 42642 net.cpp:122] Setting up conv5_1/dw/bn
I0624 08:46:57.429746 42642 net.cpp:129] Top shape: 32 512 14 14 (3211264)
I0624 08:46:57.429780 42642 net.cpp:137] Memory required for data: 2023096448
I0624 08:46:57.429822 42642 layer_factory.hpp:77] Creating layer conv5_1/dw/scale
I0624 08:46:57.429870 42642 net.cpp:84] Creating Layer conv5_1/dw/scale
I0624 08:46:57.429909 42642 net.cpp:406] conv5_1/dw/scale <- conv5_1/dw
I0624 08:46:57.429960 42642 net.cpp:367] conv5_1/dw/scale -> conv5_1/dw (in-place)
I0624 08:46:57.430022 42642 layer_factory.hpp:77] Creating layer conv5_1/dw/scale
I0624 08:46:57.430089 42642 net.cpp:122] Setting up conv5_1/dw/scale
I0624 08:46:57.430142 42642 net.cpp:129] Top shape: 32 512 14 14 (3211264)
I0624 08:46:57.430181 42642 net.cpp:137] Memory required for data: 2035941504
I0624 08:46:57.430222 42642 layer_factory.hpp:77] Creating layer relu5_1/dw
I0624 08:46:57.430261 42642 net.cpp:84] Creating Layer relu5_1/dw
I0624 08:46:57.430299 42642 net.cpp:406] relu5_1/dw <- conv5_1/dw
I0624 08:46:57.430343 42642 net.cpp:367] relu5_1/dw -> conv5_1/dw (in-place)
I0624 08:46:57.430388 42642 net.cpp:122] Setting up relu5_1/dw
I0624 08:46:57.430428 42642 net.cpp:129] Top shape: 32 512 14 14 (3211264)
I0624 08:46:57.430462 42642 net.cpp:137] Memory required for data: 2048786560
I0624 08:46:57.430497 42642 layer_factory.hpp:77] Creating layer conv5_1/sep
I0624 08:46:57.430541 42642 net.cpp:84] Creating Layer conv5_1/sep
I0624 08:46:57.430578 42642 net.cpp:406] conv5_1/sep <- conv5_1/dw
I0624 08:46:57.430625 42642 net.cpp:380] conv5_1/sep -> conv5_1/sep
I0624 08:46:57.443712 42642 net.cpp:122] Setting up conv5_1/sep
I0624 08:46:57.443774 42642 net.cpp:129] Top shape: 32 512 14 14 (3211264)
I0624 08:46:57.443795 42642 net.cpp:137] Memory required for data: 2061631616
I0624 08:46:57.443811 42642 layer_factory.hpp:77] Creating layer conv5_1/sep/bn
I0624 08:46:57.443861 42642 net.cpp:84] Creating Layer conv5_1/sep/bn
I0624 08:46:57.443902 42642 net.cpp:406] conv5_1/sep/bn <- conv5_1/sep
I0624 08:46:57.443944 42642 net.cpp:367] conv5_1/sep/bn -> conv5_1/sep (in-place)
I0624 08:46:57.444015 42642 net.cpp:122] Setting up conv5_1/sep/bn
I0624 08:46:57.444062 42642 net.cpp:129] Top shape: 32 512 14 14 (3211264)
I0624 08:46:57.444097 42642 net.cpp:137] Memory required for data: 2074476672
I0624 08:46:57.444140 42642 layer_factory.hpp:77] Creating layer conv5_1/sep/scale
I0624 08:46:57.444185 42642 net.cpp:84] Creating Layer conv5_1/sep/scale
I0624 08:46:57.444222 42642 net.cpp:406] conv5_1/sep/scale <- conv5_1/sep
I0624 08:46:57.444300 42642 net.cpp:367] conv5_1/sep/scale -> conv5_1/sep (in-place)
I0624 08:46:57.444361 42642 layer_factory.hpp:77] Creating layer conv5_1/sep/scale
I0624 08:46:57.444428 42642 net.cpp:122] Setting up conv5_1/sep/scale
I0624 08:46:57.444475 42642 net.cpp:129] Top shape: 32 512 14 14 (3211264)
I0624 08:46:57.444510 42642 net.cpp:137] Memory required for data: 2087321728
I0624 08:46:57.444551 42642 layer_factory.hpp:77] Creating layer relu5_1/sep
I0624 08:46:57.444603 42642 net.cpp:84] Creating Layer relu5_1/sep
I0624 08:46:57.444643 42642 net.cpp:406] relu5_1/sep <- conv5_1/sep
I0624 08:46:57.444682 42642 net.cpp:367] relu5_1/sep -> conv5_1/sep (in-place)
I0624 08:46:57.444726 42642 net.cpp:122] Setting up relu5_1/sep
I0624 08:46:57.444767 42642 net.cpp:129] Top shape: 32 512 14 14 (3211264)
I0624 08:46:57.444802 42642 net.cpp:137] Memory required for data: 2100166784
I0624 08:46:57.444821 42642 layer_factory.hpp:77] Creating layer conv5_2/dw
I0624 08:46:57.444862 42642 net.cpp:84] Creating Layer conv5_2/dw
I0624 08:46:57.444901 42642 net.cpp:406] conv5_2/dw <- conv5_1/sep
I0624 08:46:57.444944 42642 net.cpp:380] conv5_2/dw -> conv5_2/dw
I0624 08:46:57.445222 42642 net.cpp:122] Setting up conv5_2/dw
I0624 08:46:57.445276 42642 net.cpp:129] Top shape: 32 512 14 14 (3211264)
I0624 08:46:57.445313 42642 net.cpp:137] Memory required for data: 2113011840
I0624 08:46:57.445353 42642 layer_factory.hpp:77] Creating layer conv5_2/dw/bn
I0624 08:46:57.445394 42642 net.cpp:84] Creating Layer conv5_2/dw/bn
I0624 08:46:57.445431 42642 net.cpp:406] conv5_2/dw/bn <- conv5_2/dw
I0624 08:46:57.445477 42642 net.cpp:367] conv5_2/dw/bn -> conv5_2/dw (in-place)
I0624 08:46:57.445539 42642 net.cpp:122] Setting up conv5_2/dw/bn
I0624 08:46:57.445595 42642 net.cpp:129] Top shape: 32 512 14 14 (3211264)
I0624 08:46:57.445629 42642 net.cpp:137] Memory required for data: 2125856896
I0624 08:46:57.445672 42642 layer_factory.hpp:77] Creating layer conv5_2/dw/scale
I0624 08:46:57.445726 42642 net.cpp:84] Creating Layer conv5_2/dw/scale
I0624 08:46:57.445768 42642 net.cpp:406] conv5_2/dw/scale <- conv5_2/dw
I0624 08:46:57.445816 42642 net.cpp:367] conv5_2/dw/scale -> conv5_2/dw (in-place)
I0624 08:46:57.445878 42642 layer_factory.hpp:77] Creating layer conv5_2/dw/scale
I0624 08:46:57.445950 42642 net.cpp:122] Setting up conv5_2/dw/scale
I0624 08:46:57.445997 42642 net.cpp:129] Top shape: 32 512 14 14 (3211264)
I0624 08:46:57.446033 42642 net.cpp:137] Memory required for data: 2138701952
I0624 08:46:57.446074 42642 layer_factory.hpp:77] Creating layer relu5_2/dw
I0624 08:46:57.446132 42642 net.cpp:84] Creating Layer relu5_2/dw
I0624 08:46:57.446174 42642 net.cpp:406] relu5_2/dw <- conv5_2/dw
I0624 08:46:57.446214 42642 net.cpp:367] relu5_2/dw -> conv5_2/dw (in-place)
I0624 08:46:57.446259 42642 net.cpp:122] Setting up relu5_2/dw
I0624 08:46:57.446300 42642 net.cpp:129] Top shape: 32 512 14 14 (3211264)
I0624 08:46:57.446333 42642 net.cpp:137] Memory required for data: 2151547008
I0624 08:46:57.446378 42642 layer_factory.hpp:77] Creating layer conv5_2/sep
I0624 08:46:57.446431 42642 net.cpp:84] Creating Layer conv5_2/sep
I0624 08:46:57.446473 42642 net.cpp:406] conv5_2/sep <- conv5_2/dw
I0624 08:46:57.446516 42642 net.cpp:380] conv5_2/sep -> conv5_2/sep
I0624 08:46:57.460258 42642 net.cpp:122] Setting up conv5_2/sep
I0624 08:46:57.460320 42642 net.cpp:129] Top shape: 32 512 14 14 (3211264)
I0624 08:46:57.460356 42642 net.cpp:137] Memory required for data: 2164392064
I0624 08:46:57.460398 42642 layer_factory.hpp:77] Creating layer conv5_2/sep/bn
I0624 08:46:57.460451 42642 net.cpp:84] Creating Layer conv5_2/sep/bn
I0624 08:46:57.460494 42642 net.cpp:406] conv5_2/sep/bn <- conv5_2/sep
I0624 08:46:57.460543 42642 net.cpp:367] conv5_2/sep/bn -> conv5_2/sep (in-place)
I0624 08:46:57.460674 42642 net.cpp:122] Setting up conv5_2/sep/bn
I0624 08:46:57.460781 42642 net.cpp:129] Top shape: 32 512 14 14 (3211264)
I0624 08:46:57.460820 42642 net.cpp:137] Memory required for data: 2177237120
I0624 08:46:57.460952 42642 layer_factory.hpp:77] Creating layer conv5_2/sep/scale
I0624 08:46:57.461001 42642 net.cpp:84] Creating Layer conv5_2/sep/scale
I0624 08:46:57.461040 42642 net.cpp:406] conv5_2/sep/scale <- conv5_2/sep
I0624 08:46:57.461087 42642 net.cpp:367] conv5_2/sep/scale -> conv5_2/sep (in-place)
I0624 08:46:57.461153 42642 layer_factory.hpp:77] Creating layer conv5_2/sep/scale
I0624 08:46:57.461236 42642 net.cpp:122] Setting up conv5_2/sep/scale
I0624 08:46:57.461289 42642 net.cpp:129] Top shape: 32 512 14 14 (3211264)
I0624 08:46:57.461326 42642 net.cpp:137] Memory required for data: 2190082176
I0624 08:46:57.461369 42642 layer_factory.hpp:77] Creating layer relu5_2/sep
I0624 08:46:57.461470 42642 net.cpp:84] Creating Layer relu5_2/sep
I0624 08:46:57.461510 42642 net.cpp:406] relu5_2/sep <- conv5_2/sep
I0624 08:46:57.461550 42642 net.cpp:367] relu5_2/sep -> conv5_2/sep (in-place)
I0624 08:46:57.461594 42642 net.cpp:122] Setting up relu5_2/sep
I0624 08:46:57.461635 42642 net.cpp:129] Top shape: 32 512 14 14 (3211264)
I0624 08:46:57.461670 42642 net.cpp:137] Memory required for data: 2202927232
I0624 08:46:57.461705 42642 layer_factory.hpp:77] Creating layer conv5_3/dw
I0624 08:46:57.461756 42642 net.cpp:84] Creating Layer conv5_3/dw
I0624 08:46:57.461796 42642 net.cpp:406] conv5_3/dw <- conv5_2/sep
I0624 08:46:57.461839 42642 net.cpp:380] conv5_3/dw -> conv5_3/dw
I0624 08:46:57.462116 42642 net.cpp:122] Setting up conv5_3/dw
I0624 08:46:57.462182 42642 net.cpp:129] Top shape: 32 512 14 14 (3211264)
I0624 08:46:57.462220 42642 net.cpp:137] Memory required for data: 2215772288
I0624 08:46:57.462260 42642 layer_factory.hpp:77] Creating layer conv5_3/dw/bn
I0624 08:46:57.462301 42642 net.cpp:84] Creating Layer conv5_3/dw/bn
I0624 08:46:57.462339 42642 net.cpp:406] conv5_3/dw/bn <- conv5_3/dw
I0624 08:46:57.462386 42642 net.cpp:367] conv5_3/dw/bn -> conv5_3/dw (in-place)
I0624 08:46:57.462507 42642 net.cpp:122] Setting up conv5_3/dw/bn
I0624 08:46:57.462555 42642 net.cpp:129] Top shape: 32 512 14 14 (3211264)
I0624 08:46:57.462641 42642 net.cpp:137] Memory required for data: 2228617344
I0624 08:46:57.462694 42642 layer_factory.hpp:77] Creating layer conv5_3/dw/scale
I0624 08:46:57.462740 42642 net.cpp:84] Creating Layer conv5_3/dw/scale
I0624 08:46:57.462865 42642 net.cpp:406] conv5_3/dw/scale <- conv5_3/dw
I0624 08:46:57.462910 42642 net.cpp:367] conv5_3/dw/scale -> conv5_3/dw (in-place)
I0624 08:46:57.462971 42642 layer_factory.hpp:77] Creating layer conv5_3/dw/scale
I0624 08:46:57.463045 42642 net.cpp:122] Setting up conv5_3/dw/scale
I0624 08:46:57.463093 42642 net.cpp:129] Top shape: 32 512 14 14 (3211264)
I0624 08:46:57.463127 42642 net.cpp:137] Memory required for data: 2241462400
I0624 08:46:57.463181 42642 layer_factory.hpp:77] Creating layer relu5_3/dw
I0624 08:46:57.463232 42642 net.cpp:84] Creating Layer relu5_3/dw
I0624 08:46:57.463271 42642 net.cpp:406] relu5_3/dw <- conv5_3/dw
I0624 08:46:57.463312 42642 net.cpp:367] relu5_3/dw -> conv5_3/dw (in-place)
I0624 08:46:57.463398 42642 net.cpp:122] Setting up relu5_3/dw
I0624 08:46:57.463443 42642 net.cpp:129] Top shape: 32 512 14 14 (3211264)
I0624 08:46:57.463477 42642 net.cpp:137] Memory required for data: 2254307456
I0624 08:46:57.463512 42642 layer_factory.hpp:77] Creating layer conv5_3/sep
I0624 08:46:57.463564 42642 net.cpp:84] Creating Layer conv5_3/sep
I0624 08:46:57.463605 42642 net.cpp:406] conv5_3/sep <- conv5_3/dw
I0624 08:46:57.463647 42642 net.cpp:380] conv5_3/sep -> conv5_3/sep
I0624 08:46:57.476440 42642 net.cpp:122] Setting up conv5_3/sep
I0624 08:46:57.476550 42642 net.cpp:129] Top shape: 32 512 14 14 (3211264)
I0624 08:46:57.476588 42642 net.cpp:137] Memory required for data: 2267152512
I0624 08:46:57.476629 42642 layer_factory.hpp:77] Creating layer conv5_3/sep/bn
I0624 08:46:57.476672 42642 net.cpp:84] Creating Layer conv5_3/sep/bn
I0624 08:46:57.476711 42642 net.cpp:406] conv5_3/sep/bn <- conv5_3/sep
I0624 08:46:57.476758 42642 net.cpp:367] conv5_3/sep/bn -> conv5_3/sep (in-place)
I0624 08:46:57.476893 42642 net.cpp:122] Setting up conv5_3/sep/bn
I0624 08:46:57.477098 42642 net.cpp:129] Top shape: 32 512 14 14 (3211264)
I0624 08:46:57.477138 42642 net.cpp:137] Memory required for data: 2279997568
I0624 08:46:57.477161 42642 layer_factory.hpp:77] Creating layer conv5_3/sep/scale
I0624 08:46:57.477185 42642 net.cpp:84] Creating Layer conv5_3/sep/scale
I0624 08:46:57.477196 42642 net.cpp:406] conv5_3/sep/scale <- conv5_3/sep
I0624 08:46:57.477208 42642 net.cpp:367] conv5_3/sep/scale -> conv5_3/sep (in-place)
I0624 08:46:57.477236 42642 layer_factory.hpp:77] Creating layer conv5_3/sep/scale
I0624 08:46:57.477277 42642 net.cpp:122] Setting up conv5_3/sep/scale
I0624 08:46:57.477293 42642 net.cpp:129] Top shape: 32 512 14 14 (3211264)
I0624 08:46:57.477301 42642 net.cpp:137] Memory required for data: 2292842624
I0624 08:46:57.477313 42642 layer_factory.hpp:77] Creating layer relu5_3/sep
I0624 08:46:57.477326 42642 net.cpp:84] Creating Layer relu5_3/sep
I0624 08:46:57.477334 42642 net.cpp:406] relu5_3/sep <- conv5_3/sep
I0624 08:46:57.477345 42642 net.cpp:367] relu5_3/sep -> conv5_3/sep (in-place)
I0624 08:46:57.477358 42642 net.cpp:122] Setting up relu5_3/sep
I0624 08:46:57.477370 42642 net.cpp:129] Top shape: 32 512 14 14 (3211264)
I0624 08:46:57.477377 42642 net.cpp:137] Memory required for data: 2305687680
I0624 08:46:57.477385 42642 layer_factory.hpp:77] Creating layer conv5_4/dw
I0624 08:46:57.477406 42642 net.cpp:84] Creating Layer conv5_4/dw
I0624 08:46:57.477418 42642 net.cpp:406] conv5_4/dw <- conv5_3/sep
I0624 08:46:57.477434 42642 net.cpp:380] conv5_4/dw -> conv5_4/dw
I0624 08:46:57.477680 42642 net.cpp:122] Setting up conv5_4/dw
I0624 08:46:57.477699 42642 net.cpp:129] Top shape: 32 512 14 14 (3211264)
I0624 08:46:57.477706 42642 net.cpp:137] Memory required for data: 2318532736
I0624 08:46:57.477717 42642 layer_factory.hpp:77] Creating layer conv5_4/dw/bn
I0624 08:46:57.477730 42642 net.cpp:84] Creating Layer conv5_4/dw/bn
I0624 08:46:57.477741 42642 net.cpp:406] conv5_4/dw/bn <- conv5_4/dw
I0624 08:46:57.477751 42642 net.cpp:367] conv5_4/dw/bn -> conv5_4/dw (in-place)
I0624 08:46:57.477778 42642 net.cpp:122] Setting up conv5_4/dw/bn
I0624 08:46:57.477887 42642 net.cpp:129] Top shape: 32 512 14 14 (3211264)
I0624 08:46:57.477903 42642 net.cpp:137] Memory required for data: 2331377792
I0624 08:46:57.477921 42642 layer_factory.hpp:77] Creating layer conv5_4/dw/scale
I0624 08:46:57.477943 42642 net.cpp:84] Creating Layer conv5_4/dw/scale
I0624 08:46:57.477955 42642 net.cpp:406] conv5_4/dw/scale <- conv5_4/dw
I0624 08:46:57.477967 42642 net.cpp:367] conv5_4/dw/scale -> conv5_4/dw (in-place)
I0624 08:46:57.477994 42642 layer_factory.hpp:77] Creating layer conv5_4/dw/scale
I0624 08:46:57.478067 42642 net.cpp:122] Setting up conv5_4/dw/scale
I0624 08:46:57.478114 42642 net.cpp:129] Top shape: 32 512 14 14 (3211264)
I0624 08:46:57.478149 42642 net.cpp:137] Memory required for data: 2344222848
I0624 08:46:57.478190 42642 layer_factory.hpp:77] Creating layer relu5_4/dw
I0624 08:46:57.478301 42642 net.cpp:84] Creating Layer relu5_4/dw
I0624 08:46:57.478341 42642 net.cpp:406] relu5_4/dw <- conv5_4/dw
I0624 08:46:57.478380 42642 net.cpp:367] relu5_4/dw -> conv5_4/dw (in-place)
I0624 08:46:57.478468 42642 net.cpp:122] Setting up relu5_4/dw
I0624 08:46:57.478512 42642 net.cpp:129] Top shape: 32 512 14 14 (3211264)
I0624 08:46:57.478545 42642 net.cpp:137] Memory required for data: 2357067904
I0624 08:46:57.478581 42642 layer_factory.hpp:77] Creating layer conv5_4/sep
I0624 08:46:57.478631 42642 net.cpp:84] Creating Layer conv5_4/sep
I0624 08:46:57.478672 42642 net.cpp:406] conv5_4/sep <- conv5_4/dw
I0624 08:46:57.478714 42642 net.cpp:380] conv5_4/sep -> conv5_4/sep
I0624 08:46:57.491940 42642 net.cpp:122] Setting up conv5_4/sep
I0624 08:46:57.492017 42642 net.cpp:129] Top shape: 32 512 14 14 (3211264)
I0624 08:46:57.492136 42642 net.cpp:137] Memory required for data: 2369912960
I0624 08:46:57.492187 42642 layer_factory.hpp:77] Creating layer conv5_4/sep/bn
I0624 08:46:57.492234 42642 net.cpp:84] Creating Layer conv5_4/sep/bn
I0624 08:46:57.492276 42642 net.cpp:406] conv5_4/sep/bn <- conv5_4/sep
I0624 08:46:57.492460 42642 net.cpp:367] conv5_4/sep/bn -> conv5_4/sep (in-place)
I0624 08:46:57.492539 42642 net.cpp:122] Setting up conv5_4/sep/bn
I0624 08:46:57.492586 42642 net.cpp:129] Top shape: 32 512 14 14 (3211264)
I0624 08:46:57.492604 42642 net.cpp:137] Memory required for data: 2382758016
I0624 08:46:57.492666 42642 layer_factory.hpp:77] Creating layer conv5_4/sep/scale
I0624 08:46:57.492720 42642 net.cpp:84] Creating Layer conv5_4/sep/scale
I0624 08:46:57.492761 42642 net.cpp:406] conv5_4/sep/scale <- conv5_4/sep
I0624 08:46:57.492790 42642 net.cpp:367] conv5_4/sep/scale -> conv5_4/sep (in-place)
I0624 08:46:57.492852 42642 layer_factory.hpp:77] Creating layer conv5_4/sep/scale
I0624 08:46:57.492952 42642 net.cpp:122] Setting up conv5_4/sep/scale
I0624 08:46:57.493000 42642 net.cpp:129] Top shape: 32 512 14 14 (3211264)
I0624 08:46:57.493017 42642 net.cpp:137] Memory required for data: 2395603072
I0624 08:46:57.493055 42642 layer_factory.hpp:77] Creating layer relu5_4/sep
I0624 08:46:57.493078 42642 net.cpp:84] Creating Layer relu5_4/sep
I0624 08:46:57.493113 42642 net.cpp:406] relu5_4/sep <- conv5_4/sep
I0624 08:46:57.493158 42642 net.cpp:367] relu5_4/sep -> conv5_4/sep (in-place)
I0624 08:46:57.493206 42642 net.cpp:122] Setting up relu5_4/sep
I0624 08:46:57.493247 42642 net.cpp:129] Top shape: 32 512 14 14 (3211264)
I0624 08:46:57.493281 42642 net.cpp:137] Memory required for data: 2408448128
I0624 08:46:57.493316 42642 layer_factory.hpp:77] Creating layer conv5_5/dw
I0624 08:46:57.493372 42642 net.cpp:84] Creating Layer conv5_5/dw
I0624 08:46:57.493430 42642 net.cpp:406] conv5_5/dw <- conv5_4/sep
I0624 08:46:57.493475 42642 net.cpp:380] conv5_5/dw -> conv5_5/dw
I0624 08:46:57.493775 42642 net.cpp:122] Setting up conv5_5/dw
I0624 08:46:57.493839 42642 net.cpp:129] Top shape: 32 512 14 14 (3211264)
I0624 08:46:57.493875 42642 net.cpp:137] Memory required for data: 2421293184
I0624 08:46:57.493916 42642 layer_factory.hpp:77] Creating layer conv5_5/dw/bn
I0624 08:46:57.493963 42642 net.cpp:84] Creating Layer conv5_5/dw/bn
I0624 08:46:57.494004 42642 net.cpp:406] conv5_5/dw/bn <- conv5_5/dw
I0624 08:46:57.494045 42642 net.cpp:367] conv5_5/dw/bn -> conv5_5/dw (in-place)
I0624 08:46:57.494130 42642 net.cpp:122] Setting up conv5_5/dw/bn
I0624 08:46:57.494177 42642 net.cpp:129] Top shape: 32 512 14 14 (3211264)
I0624 08:46:57.494212 42642 net.cpp:137] Memory required for data: 2434138240
I0624 08:46:57.494292 42642 layer_factory.hpp:77] Creating layer conv5_5/dw/scale
I0624 08:46:57.494341 42642 net.cpp:84] Creating Layer conv5_5/dw/scale
I0624 08:46:57.494421 42642 net.cpp:406] conv5_5/dw/scale <- conv5_5/dw
I0624 08:46:57.494477 42642 net.cpp:367] conv5_5/dw/scale -> conv5_5/dw (in-place)
I0624 08:46:57.494542 42642 layer_factory.hpp:77] Creating layer conv5_5/dw/scale
I0624 08:46:57.494613 42642 net.cpp:122] Setting up conv5_5/dw/scale
I0624 08:46:57.494671 42642 net.cpp:129] Top shape: 32 512 14 14 (3211264)
I0624 08:46:57.494709 42642 net.cpp:137] Memory required for data: 2446983296
I0624 08:46:57.494750 42642 layer_factory.hpp:77] Creating layer relu5_5/dw
I0624 08:46:57.494791 42642 net.cpp:84] Creating Layer relu5_5/dw
I0624 08:46:57.494828 42642 net.cpp:406] relu5_5/dw <- conv5_5/dw
I0624 08:46:57.494868 42642 net.cpp:367] relu5_5/dw -> conv5_5/dw (in-place)
I0624 08:46:57.494940 42642 net.cpp:122] Setting up relu5_5/dw
I0624 08:46:57.494982 42642 net.cpp:129] Top shape: 32 512 14 14 (3211264)
I0624 08:46:57.495015 42642 net.cpp:137] Memory required for data: 2459828352
I0624 08:46:57.495051 42642 layer_factory.hpp:77] Creating layer conv5_5/sep
I0624 08:46:57.495095 42642 net.cpp:84] Creating Layer conv5_5/sep
I0624 08:46:57.495172 42642 net.cpp:406] conv5_5/sep <- conv5_5/dw
I0624 08:46:57.495225 42642 net.cpp:380] conv5_5/sep -> conv5_5/sep
I0624 08:46:57.508011 42642 net.cpp:122] Setting up conv5_5/sep
I0624 08:46:57.508118 42642 net.cpp:129] Top shape: 32 512 14 14 (3211264)
I0624 08:46:57.508160 42642 net.cpp:137] Memory required for data: 2472673408
I0624 08:46:57.508234 42642 layer_factory.hpp:77] Creating layer conv5_5/sep/bn
I0624 08:46:57.508281 42642 net.cpp:84] Creating Layer conv5_5/sep/bn
I0624 08:46:57.508401 42642 net.cpp:406] conv5_5/sep/bn <- conv5_5/sep
I0624 08:46:57.508561 42642 net.cpp:367] conv5_5/sep/bn -> conv5_5/sep (in-place)
I0624 08:46:57.508693 42642 net.cpp:122] Setting up conv5_5/sep/bn
I0624 08:46:57.508743 42642 net.cpp:129] Top shape: 32 512 14 14 (3211264)
I0624 08:46:57.508779 42642 net.cpp:137] Memory required for data: 2485518464
I0624 08:46:57.508822 42642 layer_factory.hpp:77] Creating layer conv5_5/sep/scale
I0624 08:46:57.508886 42642 net.cpp:84] Creating Layer conv5_5/sep/scale
I0624 08:46:57.508968 42642 net.cpp:406] conv5_5/sep/scale <- conv5_5/sep
I0624 08:46:57.509013 42642 net.cpp:367] conv5_5/sep/scale -> conv5_5/sep (in-place)
I0624 08:46:57.509102 42642 layer_factory.hpp:77] Creating layer conv5_5/sep/scale
I0624 08:46:57.509176 42642 net.cpp:122] Setting up conv5_5/sep/scale
I0624 08:46:57.509228 42642 net.cpp:129] Top shape: 32 512 14 14 (3211264)
I0624 08:46:57.509265 42642 net.cpp:137] Memory required for data: 2498363520
I0624 08:46:57.509307 42642 layer_factory.hpp:77] Creating layer relu5_5/sep
I0624 08:46:57.509348 42642 net.cpp:84] Creating Layer relu5_5/sep
I0624 08:46:57.509385 42642 net.cpp:406] relu5_5/sep <- conv5_5/sep
I0624 08:46:57.509431 42642 net.cpp:367] relu5_5/sep -> conv5_5/sep (in-place)
I0624 08:46:57.509479 42642 net.cpp:122] Setting up relu5_5/sep
I0624 08:46:57.509519 42642 net.cpp:129] Top shape: 32 512 14 14 (3211264)
I0624 08:46:57.509553 42642 net.cpp:137] Memory required for data: 2511208576
I0624 08:46:57.509589 42642 layer_factory.hpp:77] Creating layer conv5_6/dw
I0624 08:46:57.509634 42642 net.cpp:84] Creating Layer conv5_6/dw
I0624 08:46:57.509673 42642 net.cpp:406] conv5_6/dw <- conv5_5/sep
I0624 08:46:57.509722 42642 net.cpp:380] conv5_6/dw -> conv5_6/dw
I0624 08:46:57.510020 42642 net.cpp:122] Setting up conv5_6/dw
I0624 08:46:57.510068 42642 net.cpp:129] Top shape: 32 512 7 7 (802816)
I0624 08:46:57.510159 42642 net.cpp:137] Memory required for data: 2514419840
I0624 08:46:57.510208 42642 layer_factory.hpp:77] Creating layer conv5_6/dw/bn
I0624 08:46:57.510251 42642 net.cpp:84] Creating Layer conv5_6/dw/bn
I0624 08:46:57.510289 42642 net.cpp:406] conv5_6/dw/bn <- conv5_6/dw
I0624 08:46:57.510329 42642 net.cpp:367] conv5_6/dw/bn -> conv5_6/dw (in-place)
I0624 08:46:57.510391 42642 net.cpp:122] Setting up conv5_6/dw/bn
I0624 08:46:57.510437 42642 net.cpp:129] Top shape: 32 512 7 7 (802816)
I0624 08:46:57.510473 42642 net.cpp:137] Memory required for data: 2517631104
I0624 08:46:57.510537 42642 layer_factory.hpp:77] Creating layer conv5_6/dw/scale
I0624 08:46:57.510586 42642 net.cpp:84] Creating Layer conv5_6/dw/scale
I0624 08:46:57.510627 42642 net.cpp:406] conv5_6/dw/scale <- conv5_6/dw
I0624 08:46:57.510668 42642 net.cpp:367] conv5_6/dw/scale -> conv5_6/dw (in-place)
I0624 08:46:57.510730 42642 layer_factory.hpp:77] Creating layer conv5_6/dw/scale
I0624 08:46:57.510809 42642 net.cpp:122] Setting up conv5_6/dw/scale
I0624 08:46:57.510855 42642 net.cpp:129] Top shape: 32 512 7 7 (802816)
I0624 08:46:57.510890 42642 net.cpp:137] Memory required for data: 2520842368
I0624 08:46:57.510931 42642 layer_factory.hpp:77] Creating layer relu5_6/dw
I0624 08:46:57.510978 42642 net.cpp:84] Creating Layer relu5_6/dw
I0624 08:46:57.511049 42642 net.cpp:406] relu5_6/dw <- conv5_6/dw
I0624 08:46:57.511091 42642 net.cpp:367] relu5_6/dw -> conv5_6/dw (in-place)
I0624 08:46:57.511137 42642 net.cpp:122] Setting up relu5_6/dw
I0624 08:46:57.511162 42642 net.cpp:129] Top shape: 32 512 7 7 (802816)
I0624 08:46:57.511214 42642 net.cpp:137] Memory required for data: 2524053632
I0624 08:46:57.511253 42642 layer_factory.hpp:77] Creating layer conv5_6/sep
I0624 08:46:57.511306 42642 net.cpp:84] Creating Layer conv5_6/sep
I0624 08:46:57.511346 42642 net.cpp:406] conv5_6/sep <- conv5_6/dw
I0624 08:46:57.511389 42642 net.cpp:380] conv5_6/sep -> conv5_6/sep
I0624 08:46:57.537498 42642 net.cpp:122] Setting up conv5_6/sep
I0624 08:46:57.537603 42642 net.cpp:129] Top shape: 32 1024 7 7 (1605632)
I0624 08:46:57.537634 42642 net.cpp:137] Memory required for data: 2530476160
I0624 08:46:57.537663 42642 layer_factory.hpp:77] Creating layer conv5_6/sep/bn
I0624 08:46:57.537716 42642 net.cpp:84] Creating Layer conv5_6/sep/bn
I0624 08:46:57.537744 42642 net.cpp:406] conv5_6/sep/bn <- conv5_6/sep
I0624 08:46:57.537765 42642 net.cpp:367] conv5_6/sep/bn -> conv5_6/sep (in-place)
I0624 08:46:57.537811 42642 net.cpp:122] Setting up conv5_6/sep/bn
I0624 08:46:57.537854 42642 net.cpp:129] Top shape: 32 1024 7 7 (1605632)
I0624 08:46:57.537891 42642 net.cpp:137] Memory required for data: 2536898688
I0624 08:46:57.537923 42642 layer_factory.hpp:77] Creating layer conv5_6/sep/scale
I0624 08:46:57.537967 42642 net.cpp:84] Creating Layer conv5_6/sep/scale
I0624 08:46:57.538007 42642 net.cpp:406] conv5_6/sep/scale <- conv5_6/sep
I0624 08:46:57.538038 42642 net.cpp:367] conv5_6/sep/scale -> conv5_6/sep (in-place)
I0624 08:46:57.538105 42642 layer_factory.hpp:77] Creating layer conv5_6/sep/scale
I0624 08:46:57.538180 42642 net.cpp:122] Setting up conv5_6/sep/scale
I0624 08:46:57.538228 42642 net.cpp:129] Top shape: 32 1024 7 7 (1605632)
I0624 08:46:57.538262 42642 net.cpp:137] Memory required for data: 2543321216
I0624 08:46:57.538288 42642 layer_factory.hpp:77] Creating layer relu5_6/sep
I0624 08:46:57.538312 42642 net.cpp:84] Creating Layer relu5_6/sep
I0624 08:46:57.538350 42642 net.cpp:406] relu5_6/sep <- conv5_6/sep
I0624 08:46:57.538419 42642 net.cpp:367] relu5_6/sep -> conv5_6/sep (in-place)
I0624 08:46:57.538465 42642 net.cpp:122] Setting up relu5_6/sep
I0624 08:46:57.538481 42642 net.cpp:129] Top shape: 32 1024 7 7 (1605632)
I0624 08:46:57.538491 42642 net.cpp:137] Memory required for data: 2549743744
I0624 08:46:57.538498 42642 layer_factory.hpp:77] Creating layer conv6/dw
I0624 08:46:57.538524 42642 net.cpp:84] Creating Layer conv6/dw
I0624 08:46:57.538542 42642 net.cpp:406] conv6/dw <- conv5_6/sep
I0624 08:46:57.538556 42642 net.cpp:380] conv6/dw -> conv6/dw
I0624 08:46:57.539043 42642 net.cpp:122] Setting up conv6/dw
I0624 08:46:57.539099 42642 net.cpp:129] Top shape: 32 1024 7 7 (1605632)
I0624 08:46:57.539193 42642 net.cpp:137] Memory required for data: 2556166272
I0624 08:46:57.539237 42642 layer_factory.hpp:77] Creating layer conv6/dw/bn
I0624 08:46:57.539259 42642 net.cpp:84] Creating Layer conv6/dw/bn
I0624 08:46:57.539294 42642 net.cpp:406] conv6/dw/bn <- conv6/dw
I0624 08:46:57.539366 42642 net.cpp:367] conv6/dw/bn -> conv6/dw (in-place)
I0624 08:46:57.539413 42642 net.cpp:122] Setting up conv6/dw/bn
I0624 08:46:57.539513 42642 net.cpp:129] Top shape: 32 1024 7 7 (1605632)
I0624 08:46:57.539551 42642 net.cpp:137] Memory required for data: 2562588800
I0624 08:46:57.539579 42642 layer_factory.hpp:77] Creating layer conv6/dw/scale
I0624 08:46:57.539609 42642 net.cpp:84] Creating Layer conv6/dw/scale
I0624 08:46:57.539646 42642 net.cpp:406] conv6/dw/scale <- conv6/dw
I0624 08:46:57.539672 42642 net.cpp:367] conv6/dw/scale -> conv6/dw (in-place)
I0624 08:46:57.539716 42642 layer_factory.hpp:77] Creating layer conv6/dw/scale
I0624 08:46:57.539765 42642 net.cpp:122] Setting up conv6/dw/scale
I0624 08:46:57.539784 42642 net.cpp:129] Top shape: 32 1024 7 7 (1605632)
I0624 08:46:57.539929 42642 net.cpp:137] Memory required for data: 2569011328
I0624 08:46:57.539955 42642 layer_factory.hpp:77] Creating layer relu6/dw
I0624 08:46:57.539971 42642 net.cpp:84] Creating Layer relu6/dw
I0624 08:46:57.539981 42642 net.cpp:406] relu6/dw <- conv6/dw
I0624 08:46:57.539991 42642 net.cpp:367] relu6/dw -> conv6/dw (in-place)
I0624 08:46:57.540005 42642 net.cpp:122] Setting up relu6/dw
I0624 08:46:57.540017 42642 net.cpp:129] Top shape: 32 1024 7 7 (1605632)
I0624 08:46:57.540025 42642 net.cpp:137] Memory required for data: 2575433856
I0624 08:46:57.540033 42642 layer_factory.hpp:77] Creating layer conv6/sep
I0624 08:46:57.540063 42642 net.cpp:84] Creating Layer conv6/sep
I0624 08:46:57.540076 42642 net.cpp:406] conv6/sep <- conv6/dw
I0624 08:46:57.540089 42642 net.cpp:380] conv6/sep -> conv6/sep
I0624 08:46:57.593520 42642 net.cpp:122] Setting up conv6/sep
I0624 08:46:57.593592 42642 net.cpp:129] Top shape: 32 1024 7 7 (1605632)
I0624 08:46:57.593632 42642 net.cpp:137] Memory required for data: 2581856384
I0624 08:46:57.593662 42642 layer_factory.hpp:77] Creating layer conv6/sep/bn
I0624 08:46:57.593698 42642 net.cpp:84] Creating Layer conv6/sep/bn
I0624 08:46:57.593737 42642 net.cpp:406] conv6/sep/bn <- conv6/sep
I0624 08:46:57.593761 42642 net.cpp:367] conv6/sep/bn -> conv6/sep (in-place)
I0624 08:46:57.593832 42642 net.cpp:122] Setting up conv6/sep/bn
I0624 08:46:57.593894 42642 net.cpp:129] Top shape: 32 1024 7 7 (1605632)
I0624 08:46:57.593910 42642 net.cpp:137] Memory required for data: 2588278912
I0624 08:46:57.593930 42642 layer_factory.hpp:77] Creating layer conv6/sep/scale
I0624 08:46:57.593973 42642 net.cpp:84] Creating Layer conv6/sep/scale
I0624 08:46:57.594013 42642 net.cpp:406] conv6/sep/scale <- conv6/sep
I0624 08:46:57.594036 42642 net.cpp:367] conv6/sep/scale -> conv6/sep (in-place)
I0624 08:46:57.594080 42642 layer_factory.hpp:77] Creating layer conv6/sep/scale
I0624 08:46:57.594162 42642 net.cpp:122] Setting up conv6/sep/scale
I0624 08:46:57.594257 42642 net.cpp:129] Top shape: 32 1024 7 7 (1605632)
I0624 08:46:57.594295 42642 net.cpp:137] Memory required for data: 2594701440
I0624 08:46:57.594323 42642 layer_factory.hpp:77] Creating layer relu6/sep
I0624 08:46:57.594346 42642 net.cpp:84] Creating Layer relu6/sep
I0624 08:46:57.594382 42642 net.cpp:406] relu6/sep <- conv6/sep
I0624 08:46:57.594403 42642 net.cpp:367] relu6/sep -> conv6/sep (in-place)
I0624 08:46:57.594446 42642 net.cpp:122] Setting up relu6/sep
I0624 08:46:57.594475 42642 net.cpp:129] Top shape: 32 1024 7 7 (1605632)
I0624 08:46:57.594516 42642 net.cpp:137] Memory required for data: 2601123968
I0624 08:46:57.594617 42642 layer_factory.hpp:77] Creating layer pool6
I0624 08:46:57.594667 42642 net.cpp:84] Creating Layer pool6
I0624 08:46:57.594715 42642 net.cpp:406] pool6 <- conv6/sep
I0624 08:46:57.594758 42642 net.cpp:380] pool6 -> pool6
I0624 08:46:57.597558 42642 net.cpp:122] Setting up pool6
I0624 08:46:57.597671 42642 net.cpp:129] Top shape: 32 1024 1 1 (32768)
I0624 08:46:57.597726 42642 net.cpp:137] Memory required for data: 2601255040
I0624 08:46:57.597764 42642 layer_factory.hpp:77] Creating layer facefc7
I0624 08:46:57.597828 42642 net.cpp:84] Creating Layer facefc7
I0624 08:46:57.597885 42642 net.cpp:406] facefc7 <- pool6
I0624 08:46:57.597964 42642 net.cpp:380] facefc7 -> facefc7
I0624 08:46:57.598134 42642 net.cpp:122] Setting up facefc7
I0624 08:46:57.598183 42642 net.cpp:129] Top shape: 32 2 1 1 (64)
I0624 08:46:57.598220 42642 net.cpp:137] Memory required for data: 2601255296
I0624 08:46:57.598261 42642 layer_factory.hpp:77] Creating layer loss
I0624 08:46:57.598322 42642 net.cpp:84] Creating Layer loss
I0624 08:46:57.598368 42642 net.cpp:406] loss <- facefc7
I0624 08:46:57.598392 42642 net.cpp:406] loss <- label
I0624 08:46:57.598417 42642 net.cpp:380] loss -> loss
I0624 08:46:57.598443 42642 layer_factory.hpp:77] Creating layer loss
…
I0624 08:46:57.605336 42642 net.cpp:294] The NetState phase (1) differed from the phase (0) specified by a rule in layer data
I0624 08:46:57.606801 42642 net.cpp:51] Initializing net from parameters: 
name: "MOBILENET"
state {
  phase: TEST
}
layer {
  name: "data"
  type: "ImageData"
  top: "data"
  top: "label"
  include {
    phase: TEST
  }
  transform_param {
    scale: 0.017
    mirror: true
    crop_size: 224
    mean_value: 103.94
    mean_value: 116.78
    mean_value: 123.68
  }
  image_data_param {
    source: "val.txt"
    batch_size: 32
    new_height: 256
    new_width: 256
    root_folder: "/home/sun/MobileNet-Caffe-master/face/val/"
  }
}
layer {
  name: "conv1"
  type: "Convolution"
  bottom: "data"
  top: "conv1"
  param {
    lr_mult: 1
    decay_mult: 1
  }
  convolution_param {
    num_output: 32
    bias_term: false
    pad: 1
    kernel_size: 3
    stride: 2
    weight_filler {
      type: "msra"
    }
  }
}
layer {
  name: "conv1/bn"
  type: "BatchNorm"
  bottom: "conv1"
  top: "conv1"
  param {
    lr_mult: 0
    decay_mult: 0
  }
  param {
    lr_mult: 0
    decay_mult: 0
  }
  param {
    lr_mult: 0
    decay_mult: 0
  }
  batch_norm_param {
    use_global_stats: true
    eps: 1e-05
  }
}
layer {
  name: "conv1/scale"
  type: "Scale"
  bottom: "conv1"
  top: "conv1"
  param {
    lr_mult: 1
    decay_mult: 0
  }
  param {
    lr_mult: 1
    decay_mult: 0
  }
  scale_param {
    filler {
      value: 1
    }
    bias_term: true
    bias_filler {
      value: 0
    }
  }
}
layer {
  name: "relu1"
  type: "ReLU"
  bottom: "conv1"
  top: "conv1"
}
layer {
  name: "conv2_1/dw"
  type: "Convolution"
  bottom: "conv1"
  top: "conv2_1/dw"
  param {
    lr_mult: 1
    decay_mult: 1
  }
  convolution_param {
    num_output: 32
    bias_term: false
    pad: 1
    kernel_size: 3
    group: 32
    stride: 1
    weight_filler {
      type: "msra"
    }
    engine: CAFFE
  }
}
layer {
  name: "conv2_1/dw/bn"
  type: "BatchNorm"
  bottom: "conv2_1/dw"
  top: "conv2_1/dw"
  param {
    lr_mult: 0
    decay_mult: 0
  }
  param {
    lr_mult: 0
    decay_mult: 0
  }
  param {
    lr_mult: 0
    decay_mult: 0
  }
  batch_norm_param {
    use_global_stats: true
    eps: 1e-05
  }
}
layer {
  name: "conv2_1/dw/scale"
  type: "Scale"
  bottom: "conv2_1/dw"
  top: "conv2_1/dw"
  param {
    lr_mult: 1
    decay_mult: 0
  }
  param {
    lr_mult: 1
    decay_mult: 0
  }
  scale_param {
    filler {
      value: 1
    }
    bias_term: true
    bias_filler {
      value: 0
    }
  }
}
layer {
  name: "relu2_1/dw"
  type: "ReLU"
  bottom: "conv2_1/dw"
  top: "conv2_1/dw"
}
layer {
  name: "conv2_1/sep"
  type: "Convolution"
  bottom: "conv2_1/dw"
  top: "conv2_1/sep"
  param {
    lr_mult: 1
    decay_mult: 1
  }
  convolution_param {
    num_output: 64
    bias_term: false
    pad: 0
    kernel_size: 1
    stride: 1
    weight_filler {
      type: "msra"
    }
  }
}
layer {
  name: "conv2_1/sep/bn"
  type: "BatchNorm"
  bottom: "conv2_1/sep"
  top: "conv2_1/sep"
  param {
    lr_mult: 0
    decay_mult: 0
  }
  param {
    lr_mult: 0
    decay_mult: 0
  }
  param {
    lr_mult: 0
    decay_mult: 0
  }
  batch_norm_param {
    use_global_stats: true
    eps: 1e-05
  }
}
layer {
  name: "conv2_1/sep/scale"
  type: "Scale"
  bottom: "conv2_1/sep"
  top: "conv2_1/sep"
  param {
    lr_mult: 1
    decay_mult: 0
  }
  param {
    lr_mult: 1
    decay_mult: 0
  }
  scale_param {
    filler {
      value: 1
    }
    bias_term: true
    bias_filler {
      value: 0
    }
  }
}
layer {
  name: "relu2_1/sep"
  type: "ReLU"
  bottom: "conv2_1/sep"
  top: "conv2_1/sep"
}
layer {
  name: "conv2_2/dw"
  type: "Convolution"
  bottom: "conv2_1/sep"
  top: "conv2_2/dw"
  param {
    lr_mult: 1
    decay_mult: 1
  }
  convolution_param {
    num_output: 64
    bias_term: false
    pad: 1
    kernel_size: 3
    group: 64
    stride: 2
    weight_filler {
      type: "msra"
    }
    engine: CAFFE
  }
}
layer {
  name: "conv2_2/dw/bn"
  type: "BatchNorm"
  bottom: "conv2_2/dw"
  top: "conv2_2/dw"
  param {
    lr_mult: 0
    decay_mult: 0
  }
  param {
    lr_mult: 0
    decay_mult: 0
  }
  param {
    lr_mult: 0
    decay_mult: 0
  }
  batch_norm_param {
    use_global_stats: true
    eps: 1e-05
  }
}
layer {
  name: "conv2_2/dw/scale"
  type: "Scale"
  bottom: "conv2_2/dw"
  top: "conv2_2/dw"
  param {
    lr_mult: 1
    decay_mult: 0
  }
  param {
    lr_mult: 1
    decay_mult: 0
  }
  scale_param {
    filler {
      value: 1
    }
    bias_term: true
    bias_filler {
      value: 0
    }
  }
}
layer {
  name: "relu2_2/dw"
  type: "ReLU"
  bottom: "conv2_2/dw"
  top: "conv2_2/dw"
}
layer {
  name: "conv2_2/sep"
  type: "Convolution"
  bottom: "conv2_2/dw"
  top: "conv2_2/sep"
  param {
    lr_mult: 1
    decay_mult: 1
  }
  convolution_param {
    num_output: 128
    bias_term: false
    pad: 0
    kernel_size: 1
    stride: 1
    weight_filler {
      type: "msra"
    }
  }
}
layer {
  name: "conv2_2/sep/bn"
  type: "BatchNorm"
  bottom: "conv2_2/sep"
  top: "conv2_2/sep"
  param {
    lr_mult: 0
    decay_mult: 0
  }
  param {
    lr_mult: 0
    decay_mult: 0
  }
  param {
    lr_mult: 0
    decay_mult: 0
  }
  batch_norm_param {
    use_global_stats: true
    eps: 1e-05
  }
}
layer {
  name: "conv2_2/sep/scale"
  type: "Scale"
  bottom: "conv2_2/sep"
  top: "conv2_2/sep"
  param {
    lr_mult: 1
    decay_mult: 0
  }
  param {
    lr_mult: 1
    decay_mult: 0
  }
  scale_param {
    filler {
      value: 1
    }
    bias_term: true
    bias_filler {
      value: 0
    }
  }
}
layer {
  name: "relu2_2/sep"
  type: "ReLU"
  bottom: "conv2_2/sep"
  top: "conv2_2/sep"
}
layer {
  name: "conv3_1/dw"
  type: "Convolution"
  bottom: "conv2_2/sep"
  top: "conv3_1/dw"
  param {
    lr_mult: 1
    decay_mult: 1
  }
  convolution_param {
    num_output: 128
    bias_term: false
    pad: 1
    kernel_size: 3
    group: 128
    stride: 1
    weight_filler {
      type: "msra"
    }
    engine: CAFFE
  }
}
layer {
  name: "conv3_1/dw/bn"
  type: "BatchNorm"
  bottom: "conv3_1/dw"
  top: "conv3_1/dw"
  param {
    lr_mult: 0
    decay_mult: 0
  }
  param {
    lr_mult: 0
    decay_mult: 0
  }
  param {
    lr_mult: 0
    decay_mult: 0
  }
  batch_norm_param {
    use_global_stats: true
    eps: 1e-05
  }
}
layer {
  name: "conv3_1/dw/scale"
  type: "Scale"
  bottom: "conv3_1/dw"
  top: "conv3_1/dw"
  param {
    lr_mult: 1
    decay_mult: 0
  }
  param {
    lr_mult: 1
    decay_mult: 0
  }
  scale_param {
    filler {
      value: 1
    }
    bias_term: true
    bias_filler {
      value: 0
    }
  }
}
layer {
  name: "relu3_1/dw"
  type: "ReLU"
  bottom: "conv3_1/dw"
  top: "conv3_1/dw"
}
layer {
  name: "conv3_1/sep"
  type: "Convolution"
  bottom: "conv3_1/dw"
  top: "conv3_1/sep"
  param {
    lr_mult: 1
    decay_mult: 1
  }
  convolution_param {
    num_output: 128
    bias_term: false
    pad: 0
    kernel_size: 1
    stride: 1
    weight_filler {
      type: "msra"
    }
  }
}
layer {
  name: "conv3_1/sep/bn"
  type: "BatchNorm"
  bottom: "conv3_1/sep"
  top: "conv3_1/sep"
  param {
    lr_mult: 0
    decay_mult: 0
  }
  param {
    lr_mult: 0
    decay_mult: 0
  }
  param {
    lr_mult: 0
    decay_mult: 0
  }
  batch_norm_param {
    use_global_stats: true
    eps: 1e-05
  }
}
layer {
  name: "conv3_1/sep/scale"
  type: "Scale"
  bottom: "conv3_1/sep"
  top: "conv3_1/sep"
  param {
    lr_mult: 1
    decay_mult: 0
  }
  param {
    lr_mult: 1
    decay_mult: 0
  }
  scale_param {
    filler {
      value: 1
    }
    bias_term: true
    bias_filler {
      value: 0
    }
  }
}
layer {
  name: "relu3_1/sep"
  type: "ReLU"
  bottom: "conv3_1/sep"
  top: "conv3_1/sep"
}
layer {
  name: "conv3_2/dw"
  type: "Convolution"
  bottom: "conv3_1/sep"
  top: "conv3_2/dw"
  param {
    lr_mult: 1
    decay_mult: 1
  }
  convolution_param {
    num_output: 128
    bias_term: false
    pad: 1
    kernel_size: 3
    group: 128
    stride: 2
    weight_filler {
      type: "msra"
    }
    engine: CAFFE
  }
}
layer {
  name: "conv3_2/dw/bn"
  type: "BatchNorm"
  bottom: "conv3_2/dw"
  top: "conv3_2/dw"
  param {
    lr_mult: 0
    decay_mult: 0
  }
  param {
    lr_mult: 0
    decay_mult: 0
  }
  param {
    lr_mult: 0
    decay_mult: 0
  }
  batch_norm_param {
    use_global_stats: true
    eps: 1e-05
  }
}
layer {
  name: "conv3_2/dw/scale"
  type: "Scale"
  bottom: "conv3_2/dw"
  top: "conv3_2/dw"
  param {
    lr_mult: 1
    decay_mult: 0
  }
  param {
    lr_mult: 1
    decay_mult: 0
  }
  scale_param {
    filler {
      value: 1
    }
    bias_term: true
    bias_filler {
      value: 0
    }
  }
}
layer {
  name: "relu3_2/dw"
  type: "ReLU"
  bottom: "conv3_2/dw"
  top: "conv3_2/dw"
}
layer {
  name: "conv3_2/sep"
  type: "Convolution"
  bottom: "conv3_2/dw"
  top: "conv3_2/sep"
  param {
    lr_mult: 1
    decay_mult: 1
  }
  convolution_param {
    num_output: 256
    bias_term: false
    pad: 0
    kernel_size: 1
    stride: 1
    weight_filler {
      type: "msra"
    }
  }
}
layer {
  name: "conv3_2/sep/bn"
  type: "BatchNorm"
  bottom: "conv3_2/sep"
  top: "conv3_2/sep"
  param {
    lr_mult: 0
    decay_mult: 0
  }
  param {
    lr_mult: 0
    decay_mult: 0
  }
  param {
    lr_mult: 0
    decay_mult: 0
  }
  batch_norm_param {
    use_global_stats: true
    eps: 1e-05
  }
}
layer {
  name: "conv3_2/sep/scale"
  type: "Scale"
  bottom: "conv3_2/sep"
  top: "conv3_2/sep"
  param {
    lr_mult: 1
    decay_mult: 0
  }
  param {
    lr_mult: 1
    decay_mult: 0
  }
  scale_param {
    filler {
      value: 1
    }
    bias_term: true
    bias_filler {
      value: 0
    }
  }
}
layer {
  name: "relu3_2/sep"
  type: "ReLU"
  bottom: "conv3_2/sep"
  top: "conv3_2/sep"
}
layer {
  name: "conv4_1/dw"
  type: "Convolution"
  bottom: "conv3_2/sep"
  top: "conv4_1/dw"
  param {
    lr_mult: 1
    decay_mult: 1
  }
  convolution_param {
    num_output: 256
    bias_term: false
    pad: 1
    kernel_size: 3
    group: 256
    stride: 1
    weight_filler {
      type: "msra"
    }
    engine: CAFFE
  }
}
layer {
  name: "conv4_1/dw/bn"
  type: "BatchNorm"
  bottom: "conv4_1/dw"
  top: "conv4_1/dw"
  param {
    lr_mult: 0
    decay_mult: 0
  }
  param {
    lr_mult: 0
    decay_mult: 0
  }
  param {
    lr_mult: 0
    decay_mult: 0
  }
  batch_norm_param {
    use_global_stats: true
    eps: 1e-05
  }
}
layer {
  name: "conv4_1/dw/scale"
  type: "Scale"
  bottom: "conv4_1/dw"
  top: "conv4_1/dw"
  param {
    lr_mult: 1
    decay_mult: 0
  }
  param {
    lr_mult: 1
    decay_mult: 0
  }
  scale_param {
    filler {
      value: 1
    }
    bias_term: true
    bias_filler {
      value: 0
    }
  }
}
layer {
  name: "relu4_1/dw"
  type: "ReLU"
  bottom: "conv4_1/dw"
  top: "conv4_1/dw"
}
layer {
  name: "conv4_1/sep"
  type: "Convolution"
  bottom: "conv4_1/dw"
  top: "conv4_1/sep"
  param {
    lr_mult: 1
    decay_mult: 1
  }
  convolution_param {
    num_output: 256
    bias_term: false
    pad: 0
    kernel_size: 1
    stride: 1
    weight_filler {
      type: "msra"
    }
  }
}
layer {
  name: "conv4_1/sep/bn"
  type: "BatchNorm"
  bottom: "conv4_1/sep"
  top: "conv4_1/sep"
  param {
    lr_mult: 0
    decay_mult: 0
  }
  param {
    lr_mult: 0
    decay_mult: 0
  }
  param {
    lr_mult: 0
    decay_mult: 0
  }
  batch_norm_param {
    use_global_stats: true
    eps: 1e-05
  }
}
layer {
  name: "conv4_1/sep/scale"
  type: "Scale"
  bottom: "conv4_1/sep"
  top: "conv4_1/sep"
  param {
    lr_mult: 1
    decay_mult: 0
  }
  param {
    lr_mult: 1
    decay_mult: 0
  }
  scale_param {
    filler {
      value: 1
    }
    bias_term: true
    bias_filler {
      value: 0
    }
  }
}
layer {
  name: "relu4_1/sep"
  type: "ReLU"
  bottom: "conv4_1/sep"
  top: "conv4_1/sep"
}
layer {
  name: "conv4_2/dw"
  type: "Convolution"
  bottom: "conv4_1/sep"
  top: "conv4_2/dw"
  param {
    lr_mult: 1
    decay_mult: 1
  }
  convolution_param {
    num_output: 256
    bias_term: false
    pad: 1
    kernel_size: 3
    group: 256
    stride: 2
    weight_filler {
      type: "msra"
    }
    engine: CAFFE
  }
}
layer {
  name: "conv4_2/dw/bn"
  type: "BatchNorm"
  bottom: "conv4_2/dw"
  top: "conv4_2/dw"
  param {
    lr_mult: 0
    decay_mult: 0
  }
  param {
    lr_mult: 0
    decay_mult: 0
  }
  param {
    lr_mult: 0
    decay_mult: 0
  }
  batch_norm_param {
    use_global_stats: true
    eps: 1e-05
  }
}
layer {
  name: "conv4_2/dw/scale"
  type: "Scale"
  bottom: "conv4_2/dw"
  top: "conv4_2/dw"
  param {
    lr_mult: 1
    decay_mult: 0
  }
  param {
    lr_mult: 1
    decay_mult: 0
  }
  scale_param {
    filler {
      value: 1
    }
    bias_term: true
    bias_filler {
      value: 0
    }
  }
}
layer {
  name: "relu4_2/dw"
  type: "ReLU"
  bottom: "conv4_2/dw"
  top: "conv4_2/dw"
}
layer {
  name: "conv4_2/sep"
  type: "Convolution"
  bottom: "conv4_2/dw"
  top: "conv4_2/sep"
  param {
    lr_mult: 1
    decay_mult: 1
  }
  convolution_param {
    num_output: 512
    bias_term: false
    pad: 0
    kernel_size: 1
    stride: 1
    weight_filler {
      type: "msra"
    }
  }
}
layer {
  name: "conv4_2/sep/bn"
  type: "BatchNorm"
  bottom: "conv4_2/sep"
  top: "conv4_2/sep"
  param {
    lr_mult: 0
    decay_mult: 0
  }
  param {
    lr_mult: 0
    decay_mult: 0
  }
  param {
    lr_mult: 0
    decay_mult: 0
  }
  batch_norm_param {
    use_global_stats: true
    eps: 1e-05
  }
}
layer {
  name: "conv4_2/sep/scale"
  type: "Scale"
  bottom: "conv4_2/sep"
  top: "conv4_2/sep"
  param {
    lr_mult: 1
    decay_mult: 0
  }
  param {
    lr_mult: 1
    decay_mult: 0
  }
  scale_param {
    filler {
      value: 1
    }
    bias_term: true
    bias_filler {
      value: 0
    }
  }
}
layer {
  name: "relu4_2/sep"
  type: "ReLU"
  bottom: "conv4_2/sep"
  top: "conv4_2/sep"
}
layer {
  name: "conv5_1/dw"
  type: "Convolution"
  bottom: "conv4_2/sep"
  top: "conv5_1/dw"
  param {
    lr_mult: 1
    decay_mult: 1
  }
  convolution_param {
    num_output: 512
    bias_term: false
    pad: 1
    kernel_size: 3
    group: 512
    stride: 1
    weight_filler {
      type: "msra"
    }
    engine: CAFFE
  }
}
layer {
  name: "conv5_1/dw/bn"
  type: "BatchNorm"
  bottom: "conv5_1/dw"
  top: "conv5_1/dw"
  param {
    lr_mult: 0
    decay_mult: 0
  }
  param {
    lr_mult: 0
    decay_mult: 0
  }
  param {
    lr_mult: 0
    decay_mult: 0
  }
  batch_norm_param {
    use_global_stats: true
    eps: 1e-05
  }
}
layer {
  name: "conv5_1/dw/scale"
  type: "Scale"
  bottom: "conv5_1/dw"
  top: "conv5_1/dw"
  param {
    lr_mult: 1
    decay_mult: 0
  }
  param {
    lr_mult: 1
    decay_mult: 0
  }
  scale_param {
    filler {
      value: 1
    }
    bias_term: true
    bias_filler {
      value: 0
    }
  }
}
layer {
  name: "relu5_1/dw"
  type: "ReLU"
  bottom: "conv5_1/dw"
  top: "conv5_1/dw"
}
layer {
  name: "conv5_1/sep"
  type: "Convolution"
  bottom: "conv5_1/dw"
  top: "conv5_1/sep"
  param {
    lr_mult: 1
    decay_mult: 1
  }
  convolution_param {
    num_output: 512
    bias_term: false
    pad: 0
    kernel_size: 1
    stride: 1
    weight_filler {
      type: "msra"
    }
  }
}
layer {
  name: "conv5_1/sep/bn"
  type: "BatchNorm"
  bottom: "conv5_1/sep"
  top: "conv5_1/sep"
  param {
    lr_mult: 0
    decay_mult: 0
  }
  param {
    lr_mult: 0
    decay_mult: 0
  }
  param {
    lr_mult: 0
    decay_mult: 0
  }
  batch_norm_param {
    use_global_stats: true
    eps: 1e-05
  }
}
layer {
  name: "conv5_1/sep/scale"
  type: "Scale"
  bottom: "conv5_1/sep"
  top: "conv5_1/sep"
  param {
    lr_mult: 1
    decay_mult: 0
  }
  param {
    lr_mult: 1
    decay_mult: 0
  }
  scale_param {
    filler {
      value: 1
    }
    bias_term: true
    bias_filler {
      value: 0
    }
  }
}
layer {
  name: "relu5_1/sep"
  type: "ReLU"
  bottom: "conv5_1/sep"
  top: "conv5_1/sep"
}
layer {
  name: "conv5_2/dw"
  type: "Convolution"
  bottom: "conv5_1/sep"
  top: "conv5_2/dw"
  param {
    lr_mult: 1
    decay_mult: 1
  }
  convolution_param {
    num_output: 512
    bias_term: false
    pad: 1
    kernel_size: 3
    group: 512
    stride: 1
    weight_filler {
      type: "msra"
    }
    engine: CAFFE
  }
}
layer {
  name: "conv5_2/dw/bn"
  type: "BatchNorm"
  bottom: "conv5_2/dw"
  top: "conv5_2/dw"
  param {
    lr_mult: 0
    decay_mult: 0
  }
  param {
    lr_mult: 0
    decay_mult: 0
  }
  param {
    lr_mult: 0
    decay_mult: 0
  }
  batch_norm_param {
    use_global_stats: true
    eps: 1e-05
  }
}
layer {
  name: "conv5_2/dw/scale"
  type: "Scale"
  bottom: "conv5_2/dw"
  top: "conv5_2/dw"
  param {
    lr_mult: 1
    decay_mult: 0
  }
  param {
    lr_mult: 1
    decay_mult: 0
  }
  scale_param {
    filler {
      value: 1
    }
    bias_term: true
    bias_filler {
      value: 0
    }
  }
}
layer {
  name: "relu5_2/dw"
  type: "ReLU"
  bottom: "conv5_2/dw"
  top: "conv5_2/dw"
}
layer {
  name: "conv5_2/sep"
  type: "Convolution"
  bottom: "conv5_2/dw"
  top: "conv5_2/sep"
  param {
    lr_mult: 1
    decay_mult: 1
  }
  convolution_param {
    num_output: 512
    bias_term: false
    pad: 0
    kernel_size: 1
    stride: 1
    weight_filler {
      type: "msra"
    }
  }
}
layer {
  name: "conv5_2/sep/bn"
  type: "BatchNorm"
  bottom: "conv5_2/sep"
  top: "conv5_2/sep"
  param {
    lr_mult: 0
    decay_mult: 0
  }
  param {
    lr_mult: 0
    decay_mult: 0
  }
  param {
    lr_mult: 0
    decay_mult: 0
  }
  batch_norm_param {
    use_global_stats: true
    eps: 1e-05
  }
}
layer {
  name: "conv5_2/sep/scale"
  type: "Scale"
  bottom: "conv5_2/sep"
  top: "conv5_2/sep"
  param {
    lr_mult: 1
    decay_mult: 0
  }
  param {
    lr_mult: 1
    decay_mult: 0
  }
  scale_param {
    filler {
      value: 1
    }
    bias_term: true
    bias_filler {
      value: 0
    }
  }
}
layer {
  name: "relu5_2/sep"
  type: "ReLU"
  bottom: "conv5_2/sep"
  top: "conv5_2/sep"
}
layer {
  name: "conv5_3/dw"
  type: "Convolution"
  bottom: "conv5_2/sep"
  top: "conv5_3/dw"
  param {
    lr_mult: 1
    decay_mult: 1
  }
  convolution_param {
    num_output: 512
    bias_term: false
    pad: 1
    kernel_size: 3
    group: 512
    stride: 1
    weight_filler {
      type: "msra"
    }
    engine: CAFFE
  }
}
layer {
  name: "conv5_3/dw/bn"
  type: "BatchNorm"
  bottom: "conv5_3/dw"
  top: "conv5_3/dw"
  param {
    lr_mult: 0
    decay_mult: 0
  }
  param {
    lr_mult: 0
    decay_mult: 0
  }
  param {
    lr_mult: 0
    decay_mult: 0
  }
  batch_norm_param {
    use_global_stats: true
    eps: 1e-05
  }
}
layer {
  name: "conv5_3/dw/scale"
  type: "Scale"
  bottom: "conv5_3/dw"
  top: "conv5_3/dw"
  param {
    lr_mult: 1
    decay_mult: 0
  }
  param {
    lr_mult: 1
    decay_mult: 0
  }
  scale_param {
    filler {
      value: 1
    }
    bias_term: true
    bias_filler {
      value: 0
    }
  }
}
layer {
  name: "relu5_3/dw"
  type: "ReLU"
  bottom: "conv5_3/dw"
  top: "conv5_3/dw"
}
layer {
  name: "conv5_3/sep"
  type: "Convolution"
  bottom: "conv5_3/dw"
  top: "conv5_3/sep"
  param {
    lr_mult: 1
    decay_mult: 1
  }
  convolution_param {
    num_output: 512
    bias_term: false
    pad: 0
    kernel_size: 1
    stride: 1
    weight_filler {
      type: "msra"
    }
  }
}
layer {
  name: "conv5_3/sep/bn"
  type: "BatchNorm"
  bottom: "conv5_3/sep"
  top: "conv5_3/sep"
  param {
    lr_mult: 0
    decay_mult: 0
  }
  param {
    lr_mult: 0
    decay_mult: 0
  }
  param {
    lr_mult: 0
    decay_mult: 0
  }
  batch_norm_param {
    use_global_stats: true
    eps: 1e-05
  }
}
layer {
  name: "conv5_3/sep/scale"
  type: "Scale"
  bottom: "conv5_3/sep"
  top: "conv5_3/sep"
  param {
    lr_mult: 1
    decay_mult: 0
  }
  param {
    lr_mult: 1
    decay_mult: 0
  }
  scale_param {
    filler {
      value: 1
    }
    bias_term: true
    bias_filler {
      value: 0
    }
  }
}
layer {
  name: "relu5_3/sep"
  type: "ReLU"
  bottom: "conv5_3/sep"
  top: "conv5_3/sep"
}
layer {
  name: "conv5_4/dw"
  type: "Convolution"
  bottom: "conv5_3/sep"
  top: "conv5_4/dw"
  param {
    lr_mult: 1
    decay_mult: 1
  }
  convolution_param {
    num_output: 512
    bias_term: false
    pad: 1
    kernel_size: 3
    group: 512
    stride: 1
    weight_filler {
      type: "msra"
    }
    engine: CAFFE
  }
}
layer {
  name: "conv5_4/dw/bn"
  type: "BatchNorm"
  bottom: "conv5_4/dw"
  top: "conv5_4/dw"
  param {
    lr_mult: 0
    decay_mult: 0
  }
  param {
    lr_mult: 0
    decay_mult: 0
  }
  param {
    lr_mult: 0
    decay_mult: 0
  }
  batch_norm_param {
    use_global_stats: true
    eps: 1e-05
  }
}
layer {
  name: "conv5_4/dw/scale"
  type: "Scale"
  bottom: "conv5_4/dw"
  top: "conv5_4/dw"
  param {
    lr_mult: 1
    decay_mult: 0
  }
  param {
    lr_mult: 1
    decay_mult: 0
  }
  scale_param {
    filler {
      value: 1
    }
    bias_term: true
    bias_filler {
      value: 0
    }
  }
}
layer {
  name: "relu5_4/dw"
  type: "ReLU"
  bottom: "conv5_4/dw"
  top: "conv5_4/dw"
}
layer {
  name: "conv5_4/sep"
  type: "Convolution"
  bottom: "conv5_4/dw"
  top: "conv5_4/sep"
  param {
    lr_mult: 1
    decay_mult: 1
  }
  convolution_param {
    num_output: 512
    bias_term: false
    pad: 0
    kernel_size: 1
    stride: 1
    weight_filler {
      type: "msra"
    }
  }
}
layer {
  name: "conv5_4/sep/bn"
  type: "BatchNorm"
  bottom: "conv5_4/sep"
  top: "conv5_4/sep"
  param {
    lr_mult: 0
    decay_mult: 0
  }
  param {
    lr_mult: 0
    decay_mult: 0
  }
  param {
    lr_mult: 0
    decay_mult: 0
  }
  batch_norm_param {
    use_global_stats: true
    eps: 1e-05
  }
}
layer {
  name: "conv5_4/sep/scale"
  type: "Scale"
  bottom: "conv5_4/sep"
  top: "conv5_4/sep"
  param {
    lr_mult: 1
    decay_mult: 0
  }
  param {
    lr_mult: 1
    decay_mult: 0
  }
  scale_param {
    filler {
      value: 1
    }
    bias_term: true
    bias_filler {
      value: 0
    }
  }
}
layer {
  name: "relu5_4/sep"
  type: "ReLU"
  bottom: "conv5_4/sep"
  top: "conv5_4/sep"
}
layer {
  name: "conv5_5/dw"
  type: "Convolution"
  bottom: "conv5_4/sep"
  top: "conv5_5/dw"
  param {
    lr_mult: 1
    decay_mult: 1
  }
  convolution_param {
    num_output: 512
    bias_term: false
    pad: 1
    kernel_size: 3
    group: 512
    stride: 1
    weight_filler {
      type: "msra"
    }
    engine: CAFFE
  }
}
layer {
  name: "conv5_5/dw/bn"
  type: "BatchNorm"
  bottom: "conv5_5/dw"
  top: "conv5_5/dw"
  param {
    lr_mult: 0
    decay_mult: 0
  }
  param {
    lr_mult: 0
    decay_mult: 0
  }
  param {
    lr_mult: 0
    decay_mult: 0
  }
  batch_norm_param {
    use_global_stats: true
    eps: 1e-05
  }
}
layer {
  name: "conv5_5/dw/scale"
  type: "Scale"
  bottom: "conv5_5/dw"
  top: "conv5_5/dw"
  param {
    lr_mult: 1
    decay_mult: 0
  }
  param {
    lr_mult: 1
    decay_mult: 0
  }
  scale_param {
    filler {
      value: 1
    }
    bias_term: true
    bias_filler {
      value: 0
    }
  }
}
layer {
  name: "relu5_5/dw"
  type: "ReLU"
  bottom: "conv5_5/dw"
  top: "conv5_5/dw"
}
layer {
  name: "conv5_5/sep"
  type: "Convolution"
  bottom: "conv5_5/dw"
  top: "conv5_5/sep"
  param {
    lr_mult: 1
    decay_mult: 1
  }
  convolution_param {
    num_output: 512
    bias_term: false
    pad: 0
    kernel_size: 1
    stride: 1
    weight_filler {
      type: "msra"
    }
  }
}
layer {
  name: "conv5_5/sep/bn"
  type: "BatchNorm"
  bottom: "conv5_5/sep"
  top: "conv5_5/sep"
  param {
    lr_mult: 0
    decay_mult: 0
  }
  param {
    lr_mult: 0
    decay_mult: 0
  }
  param {
    lr_mult: 0
    decay_mult: 0
  }
  batch_norm_param {
    use_global_stats: true
    eps: 1e-05
  }
}
layer {
  name: "conv5_5/sep/scale"
  type: "Scale"
  bottom: "conv5_5/sep"
  top: "conv5_5/sep"
  param {
    lr_mult: 1
    decay_mult: 0
  }
  param {
    lr_mult: 1
    decay_mult: 0
  }
  scale_param {
    filler {
      value: 1
    }
    bias_term: true
    bias_filler {
      value: 0
    }
  }
}
layer {
  name: "relu5_5/sep"
  type: "ReLU"
  bottom: "conv5_5/sep"
  top: "conv5_5/sep"
}
layer {
  name: "conv5_6/dw"
  type: "Convolution"
  bottom: "conv5_5/sep"
  top: "conv5_6/dw"
  param {
    lr_mult: 1
    decay_mult: 1
  }
  convolution_param {
    num_output: 512
    bias_term: false
    pad: 1
    kernel_size: 3
    group: 512
    stride: 2
    weight_filler {
      type: "msra"
    }
    engine: CAFFE
  }
}
layer {
  name: "conv5_6/dw/bn"
  type: "BatchNorm"
  bottom: "conv5_6/dw"
  top: "conv5_6/dw"
  param {
    lr_mult: 0
    decay_mult: 0
  }
  param {
    lr_mult: 0
    decay_mult: 0
  }
  param {
    lr_mult: 0
    decay_mult: 0
  }
  batch_norm_param {
    use_global_stats: true
    eps: 1e-05
  }
}
layer {
  name: "conv5_6/dw/scale"
  type: "Scale"
  bottom: "conv5_6/dw"
  top: "conv5_6/dw"
  param {
    lr_mult: 1
    decay_mult: 0
  }
  param {
    lr_mult: 1
    decay_mult: 0
  }
  scale_param {
    filler {
      value: 1
    }
    bias_term: true
    bias_filler {
      value: 0
    }
  }
}
layer {
  name: "relu5_6/dw"
  type: "ReLU"
  bottom: "conv5_6/dw"
  top: "conv5_6/dw"
}
layer {
  name: "conv5_6/sep"
  type: "Convolution"
  bottom: "conv5_6/dw"
  top: "conv5_6/sep"
  param {
    lr_mult: 1
    decay_mult: 1
  }
  convolution_param {
    num_output: 1024
    bias_term: false
    pad: 0
    kernel_size: 1
    stride: 1
    weight_filler {
      type: "msra"
    }
  }
}
layer {
  name: "conv5_6/sep/bn"
  type: "BatchNorm"
  bottom: "conv5_6/sep"
  top: "conv5_6/sep"
  param {
    lr_mult: 0
    decay_mult: 0
  }
  param {
    lr_mult: 0
    decay_mult: 0
  }
  param {
    lr_mult: 0
    decay_mult: 0
  }
  batch_norm_param {
    use_global_stats: true
    eps: 1e-05
  }
}
layer {
  name: "conv5_6/sep/scale"
  type: "Scale"
  bottom: "conv5_6/sep"
  top: "conv5_6/sep"
  param {
    lr_mult: 1
    decay_mult: 0
  }
  param {
    lr_mult: 1
    decay_mult: 0
  }
  scale_param {
    filler {
      value: 1
    }
    bias_term: true
    bias_filler {
      value: 0
    }
  }
}
layer {
  name: "relu5_6/sep"
  type: "ReLU"
  bottom: "conv5_6/sep"
  top: "conv5_6/sep"
}
layer {
  name: "conv6/dw"
  type: "Convolution"
  bottom: "conv5_6/sep"
  top: "conv6/dw"
  param {
    lr_mult: 1
    decay_mult: 1
  }
  convolution_param {
    num_output: 1024
    bias_term: false
    pad: 1
    kernel_size: 3
    group: 1024
    stride: 1
    weight_filler {
      type: "msra"
    }
    engine: CAFFE
  }
}
layer {
  name: "conv6/dw/bn"
  type: "BatchNorm"
  bottom: "conv6/dw"
  top: "conv6/dw"
  param {
    lr_mult: 0
    decay_mult: 0
  }
  param {
    lr_mult: 0
    decay_mult: 0
  }
  param {
    lr_mult: 0
    decay_mult: 0
  }
  batch_norm_param {
    use_global_stats: true
    eps: 1e-05
  }
}
layer {
  name: "conv6/dw/scale"
  type: "Scale"
  bottom: "conv6/dw"
  top: "conv6/dw"
  param {
    lr_mult: 1
    decay_mult: 0
  }
  param {
    lr_mult: 1
    decay_mult: 0
  }
  scale_param {
    filler {
      value: 1
    }
    bias_term: true
    bias_filler {
      value: 0
    }
  }
}
layer {
  name: "relu6/dw"
  type: "ReLU"
  bottom: "conv6/dw"
  top: "conv6/dw"
}
layer {
  name: "conv6/sep"
  type: "Convolution"
  bottom: "conv6/dw"
  top: "conv6/sep"
  param {
    lr_mult: 1
    decay_mult: 1
  }
  convolution_param {
    num_output: 1024
    bias_term: false
    pad: 0
    kernel_size: 1
    stride: 1
    weight_filler {
      type: "msra"
    }
  }
}
layer {
  name: "conv6/sep/bn"
  type: "BatchNorm"
  bottom: "conv6/sep"
  top: "conv6/sep"
  param {
    lr_mult: 0
    decay_mult: 0
  }
  param {
    lr_mult: 0
    decay_mult: 0
  }
  param {
    lr_mult: 0
    decay_mult: 0
  }
  batch_norm_param {
    use_global_stats: true
    eps: 1e-05
  }
}
layer {
  name: "conv6/sep/scale"
  type: "Scale"
  bottom: "conv6/sep"
  top: "conv6/sep"
  param {
    lr_mult: 1
    decay_mult: 0
  }
  param {
    lr_mult: 1
    decay_mult: 0
  }
  scale_param {
    filler {
      value: 1
    }
    bias_term: true
    bias_filler {
      value: 0
    }
  }
}
layer {
  name: "relu6/sep"
  type: "ReLU"
  bottom: "conv6/sep"
  top: "conv6/sep"
}
layer {
  name: "pool6"
  type: "Pooling"
  bottom: "conv6/sep"
  top: "pool6"
  pooling_param {
    pool: AVE
    global_pooling: true
  }
}
layer {
  name: "facefc7"
  type: "Convolution"
  bottom: "pool6"
  top: "facefc7"
  param {
    lr_mult: 1
    decay_mult: 1
  }
  param {
    lr_mult: 2
    decay_mult: 0
  }
  convolution_param {
    num_output: 2
    kernel_size: 1
    weight_filler {
      type: "msra"
    }
    bias_filler {
      type: "constant"
      value: 0
    }
  }
}
layer {
  name: "loss"
  type: "SoftmaxWithLoss"
  bottom: "facefc7"
  bottom: "label"
  top: "loss"
}
layer {
  name: "top1/acc"
  type: "Accuracy"
  bottom: "facefc7"
  bottom: "label"
  top: "top1/acc"
  include {
    phase: TEST
  }
}
layer {
  name: "top5/acc"
  type: "Accuracy"
  bottom: "facefc7"
  bottom: "label"
  top: "top5/acc"
  include {
    phase: TEST
  }
  accuracy_param {
    top_k: 1
  }
}
I0624 08:46:57.627620 42642 layer_factory.hpp:77] Creating layer data
I0624 08:46:57.627707 42642 net.cpp:84] Creating Layer data
I0624 08:46:57.627810 42642 net.cpp:380] data -> data
I0624 08:46:57.627893 42642 net.cpp:380] data -> label
I0624 08:46:57.627960 42642 image_data_layer.cpp:38] Opening file val.txt
I0624 08:46:57.632356 42642 image_data_layer.cpp:63] A total of 8384 images.
I0624 08:46:57.634943 42642 image_data_layer.cpp:90] output data size: 32,3,224,224
I0624 08:46:57.669581 42642 net.cpp:122] Setting up data
I0624 08:46:57.669659 42642 net.cpp:129] Top shape: 32 3 224 224 (4816896)
I0624 08:46:57.669703 42642 net.cpp:129] Top shape: 32 (32)
I0624 08:46:57.669715 42642 net.cpp:137] Memory required for data: 19267712
I0624 08:46:57.669729 42642 layer_factory.hpp:77] Creating layer label_data_1_split
I0624 08:46:57.669754 42642 net.cpp:84] Creating Layer label_data_1_split
I0624 08:46:57.669790 42642 net.cpp:406] label_data_1_split <- label
I0624 08:46:57.669824 42642 net.cpp:380] label_data_1_split -> label_data_1_split_0
I0624 08:46:57.669845 42642 net.cpp:380] label_data_1_split -> label_data_1_split_1
I0624 08:46:57.669886 42642 net.cpp:380] label_data_1_split -> label_data_1_split_2
I0624 08:46:57.669955 42642 net.cpp:122] Setting up label_data_1_split
I0624 08:46:57.669999 42642 net.cpp:129] Top shape: 32 (32)
I0624 08:46:57.670037 42642 net.cpp:129] Top shape: 32 (32)
I0624 08:46:57.670075 42642 net.cpp:129] Top shape: 32 (32)
I0624 08:46:57.670109 42642 net.cpp:137] Memory required for data: 19268096
I0624 08:46:57.670145 42642 layer_factory.hpp:77] Creating layer conv1
I0624 08:46:57.670209 42642 net.cpp:84] Creating Layer conv1
I0624 08:46:57.670249 42642 net.cpp:406] conv1 <- data
I0624 08:46:57.670269 42642 net.cpp:380] conv1 -> conv1
I0624 08:46:57.670349 42642 net.cpp:122] Setting up conv1
I0624 08:46:57.670392 42642 net.cpp:129] Top shape: 32 32 112 112 (12845056)
I0624 08:46:57.670429 42642 net.cpp:137] Memory required for data: 70648320
I0624 08:46:57.670472 42642 layer_factory.hpp:77] Creating layer conv1/bn
I0624 08:46:57.670518 42642 net.cpp:84] Creating Layer conv1/bn
I0624 08:46:57.670557 42642 net.cpp:406] conv1/bn <- conv1
I0624 08:46:57.670596 42642 net.cpp:367] conv1/bn -> conv1 (in-place)
I0624 08:46:57.670670 42642 net.cpp:122] Setting up conv1/bn
I0624 08:46:57.670717 42642 net.cpp:129] Top shape: 32 32 112 112 (12845056)
I0624 08:46:57.670752 42642 net.cpp:137] Memory required for data: 122028544
I0624 08:46:57.670799 42642 layer_factory.hpp:77] Creating layer conv1/scale
I0624 08:46:57.670867 42642 net.cpp:84] Creating Layer conv1/scale
I0624 08:46:57.670907 42642 net.cpp:406] conv1/scale <- conv1
I0624 08:46:57.670949 42642 net.cpp:367] conv1/scale -> conv1 (in-place)
I0624 08:46:57.671005 42642 layer_factory.hpp:77] Creating layer conv1/scale
I0624 08:46:57.671106 42642 net.cpp:122] Setting up conv1/scale
I0624 08:46:57.671211 42642 net.cpp:129] Top shape: 32 32 112 112 (12845056)
I0624 08:46:57.671291 42642 net.cpp:137] Memory required for data: 173408768
I0624 08:46:57.671341 42642 layer_factory.hpp:77] Creating layer relu1
I0624 08:46:57.671386 42642 net.cpp:84] Creating Layer relu1
I0624 08:46:57.671424 42642 net.cpp:406] relu1 <- conv1
I0624 08:46:57.671464 42642 net.cpp:367] relu1 -> conv1 (in-place)
I0624 08:46:57.671511 42642 net.cpp:122] Setting up relu1
I0624 08:46:57.671564 42642 net.cpp:129] Top shape: 32 32 112 112 (12845056)
I0624 08:46:57.671658 42642 net.cpp:137] Memory required for data: 224788992
I0624 08:46:57.671713 42642 layer_factory.hpp:77] Creating layer conv2_1/dw
I0624 08:46:57.671761 42642 net.cpp:84] Creating Layer conv2_1/dw
I0624 08:46:57.671802 42642 net.cpp:406] conv2_1/dw <- conv1
I0624 08:46:57.671844 42642 net.cpp:380] conv2_1/dw -> conv2_1/dw
I0624 08:46:57.671921 42642 net.cpp:122] Setting up conv2_1/dw
I0624 08:46:57.671967 42642 net.cpp:129] Top shape: 32 32 112 112 (12845056)
I0624 08:46:57.672009 42642 net.cpp:137] Memory required for data: 276169216
I0624 08:46:57.672050 42642 layer_factory.hpp:77] Creating layer conv2_1/dw/bn
I0624 08:46:57.672093 42642 net.cpp:84] Creating Layer conv2_1/dw/bn
I0624 08:46:57.672142 42642 net.cpp:406] conv2_1/dw/bn <- conv2_1/dw
I0624 08:46:57.672184 42642 net.cpp:367] conv2_1/dw/bn -> conv2_1/dw (in-place)
I0624 08:46:57.672257 42642 net.cpp:122] Setting up conv2_1/dw/bn
I0624 08:46:57.672303 42642 net.cpp:129] Top shape: 32 32 112 112 (12845056)
I0624 08:46:57.672339 42642 net.cpp:137] Memory required for data: 327549440
I0624 08:46:57.672385 42642 layer_factory.hpp:77] Creating layer conv2_1/dw/scale
I0624 08:46:57.672433 42642 net.cpp:84] Creating Layer conv2_1/dw/scale
I0624 08:46:57.672472 42642 net.cpp:406] conv2_1/dw/scale <- conv2_1/dw
I0624 08:46:57.672514 42642 net.cpp:367] conv2_1/dw/scale -> conv2_1/dw (in-place)
I0624 08:46:57.672569 42642 layer_factory.hpp:77] Creating layer conv2_1/dw/scale
I0624 08:46:57.672683 42642 net.cpp:122] Setting up conv2_1/dw/scale
I0624 08:46:57.672782 42642 net.cpp:129] Top shape: 32 32 112 112 (12845056)
I0624 08:46:57.672821 42642 net.cpp:137] Memory required for data: 378929664
I0624 08:46:57.672864 42642 layer_factory.hpp:77] Creating layer relu2_1/dw
I0624 08:46:57.672906 42642 net.cpp:84] Creating Layer relu2_1/dw
I0624 08:46:57.672945 42642 net.cpp:406] relu2_1/dw <- conv2_1/dw
I0624 08:46:57.672984 42642 net.cpp:367] relu2_1/dw -> conv2_1/dw (in-place)
I0624 08:46:57.673028 42642 net.cpp:122] Setting up relu2_1/dw
I0624 08:46:57.673069 42642 net.cpp:129] Top shape: 32 32 112 112 (12845056)
I0624 08:46:57.673115 42642 net.cpp:137] Memory required for data: 430309888
I0624 08:46:57.673151 42642 layer_factory.hpp:77] Creating layer conv2_1/sep
I0624 08:46:57.673195 42642 net.cpp:84] Creating Layer conv2_1/sep
I0624 08:46:57.673234 42642 net.cpp:406] conv2_1/sep <- conv2_1/dw
I0624 08:46:57.673275 42642 net.cpp:380] conv2_1/sep -> conv2_1/sep
I0624 08:46:57.673429 42642 net.cpp:122] Setting up conv2_1/sep
I0624 08:46:57.673476 42642 net.cpp:129] Top shape: 32 64 112 112 (25690112)
I0624 08:46:57.673511 42642 net.cpp:137] Memory required for data: 533070336
I0624 08:46:57.673552 42642 layer_factory.hpp:77] Creating layer conv2_1/sep/bn
I0624 08:46:57.673593 42642 net.cpp:84] Creating Layer conv2_1/sep/bn
I0624 08:46:57.673631 42642 net.cpp:406] conv2_1/sep/bn <- conv2_1/sep
I0624 08:46:57.673671 42642 net.cpp:367] conv2_1/sep/bn -> conv2_1/sep (in-place)
I0624 08:46:57.673751 42642 net.cpp:122] Setting up conv2_1/sep/bn
I0624 08:46:57.673799 42642 net.cpp:129] Top shape: 32 64 112 112 (25690112)
I0624 08:46:57.673833 42642 net.cpp:137] Memory required for data: 635830784
I0624 08:46:57.673877 42642 layer_factory.hpp:77] Creating layer conv2_1/sep/scale
I0624 08:46:57.673921 42642 net.cpp:84] Creating Layer conv2_1/sep/scale
I0624 08:46:57.673959 42642 net.cpp:406] conv2_1/sep/scale <- conv2_1/sep
I0624 08:46:57.674021 42642 net.cpp:367] conv2_1/sep/scale -> conv2_1/sep (in-place)
I0624 08:46:57.674093 42642 layer_factory.hpp:77] Creating layer conv2_1/sep/scale
I0624 08:46:57.674290 42642 net.cpp:122] Setting up conv2_1/sep/scale
I0624 08:46:57.674345 42642 net.cpp:129] Top shape: 32 64 112 112 (25690112)
I0624 08:46:57.674381 42642 net.cpp:137] Memory required for data: 738591232
I0624 08:46:57.674434 42642 layer_factory.hpp:77] Creating layer relu2_1/sep
I0624 08:46:57.674479 42642 net.cpp:84] Creating Layer relu2_1/sep
I0624 08:46:57.674517 42642 net.cpp:406] relu2_1/sep <- conv2_1/sep
I0624 08:46:57.674557 42642 net.cpp:367] relu2_1/sep -> conv2_1/sep (in-place)
I0624 08:46:57.674612 42642 net.cpp:122] Setting up relu2_1/sep
I0624 08:46:57.674654 42642 net.cpp:129] Top shape: 32 64 112 112 (25690112)
I0624 08:46:57.674672 42642 net.cpp:137] Memory required for data: 841351680
I0624 08:46:57.674685 42642 layer_factory.hpp:77] Creating layer conv2_2/dw
I0624 08:46:57.674742 42642 net.cpp:84] Creating Layer conv2_2/dw
I0624 08:46:57.674788 42642 net.cpp:406] conv2_2/dw <- conv2_1/sep
I0624 08:46:57.674839 42642 net.cpp:380] conv2_2/dw -> conv2_2/dw
I0624 08:46:57.674947 42642 net.cpp:122] Setting up conv2_2/dw
I0624 08:46:57.675065 42642 net.cpp:129] Top shape: 32 64 56 56 (6422528)
I0624 08:46:57.675110 42642 net.cpp:137] Memory required for data: 867041792
I0624 08:46:57.675165 42642 layer_factory.hpp:77] Creating layer conv2_2/dw/bn
I0624 08:46:57.675218 42642 net.cpp:84] Creating Layer conv2_2/dw/bn
I0624 08:46:57.675259 42642 net.cpp:406] conv2_2/dw/bn <- conv2_2/dw
I0624 08:46:57.675300 42642 net.cpp:367] conv2_2/dw/bn -> conv2_2/dw (in-place)
I0624 08:46:57.675369 42642 net.cpp:122] Setting up conv2_2/dw/bn
I0624 08:46:57.675415 42642 net.cpp:129] Top shape: 32 64 56 56 (6422528)
I0624 08:46:57.675451 42642 net.cpp:137] Memory required for data: 892731904
I0624 08:46:57.675493 42642 layer_factory.hpp:77] Creating layer conv2_2/dw/scale
I0624 08:46:57.675546 42642 net.cpp:84] Creating Layer conv2_2/dw/scale
I0624 08:46:57.675587 42642 net.cpp:406] conv2_2/dw/scale <- conv2_2/dw
I0624 08:46:57.675629 42642 net.cpp:367] conv2_2/dw/scale -> conv2_2/dw (in-place)
I0624 08:46:57.675681 42642 layer_factory.hpp:77] Creating layer conv2_2/dw/scale
I0624 08:46:57.675760 42642 net.cpp:122] Setting up conv2_2/dw/scale
I0624 08:46:57.675806 42642 net.cpp:129] Top shape: 32 64 56 56 (6422528)
I0624 08:46:57.675842 42642 net.cpp:137] Memory required for data: 918422016
I0624 08:46:57.675882 42642 layer_factory.hpp:77] Creating layer relu2_2/dw
I0624 08:46:57.675923 42642 net.cpp:84] Creating Layer relu2_2/dw
I0624 08:46:57.675961 42642 net.cpp:406] relu2_2/dw <- conv2_2/dw
I0624 08:46:57.676007 42642 net.cpp:367] relu2_2/dw -> conv2_2/dw (in-place)
I0624 08:46:57.676144 42642 net.cpp:122] Setting up relu2_2/dw
I0624 08:46:57.676187 42642 net.cpp:129] Top shape: 32 64 56 56 (6422528)
I0624 08:46:57.676221 42642 net.cpp:137] Memory required for data: 944112128
I0624 08:46:57.676256 42642 layer_factory.hpp:77] Creating layer conv2_2/sep
I0624 08:46:57.676307 42642 net.cpp:84] Creating Layer conv2_2/sep
I0624 08:46:57.676347 42642 net.cpp:406] conv2_2/sep <- conv2_2/dw
I0624 08:46:57.676389 42642 net.cpp:380] conv2_2/sep -> conv2_2/sep
I0624 08:46:57.676877 42642 net.cpp:122] Setting up conv2_2/sep
I0624 08:46:57.676928 42642 net.cpp:129] Top shape: 32 128 56 56 (12845056)
I0624 08:46:57.676962 42642 net.cpp:137] Memory required for data: 995492352
I0624 08:46:57.677003 42642 layer_factory.hpp:77] Creating layer conv2_2/sep/bn
I0624 08:46:57.677029 42642 net.cpp:84] Creating Layer conv2_2/sep/bn
I0624 08:46:57.677069 42642 net.cpp:406] conv2_2/sep/bn <- conv2_2/sep
I0624 08:46:57.677132 42642 net.cpp:367] conv2_2/sep/bn -> conv2_2/sep (in-place)
I0624 08:46:57.677212 42642 net.cpp:122] Setting up conv2_2/sep/bn
I0624 08:46:57.677335 42642 net.cpp:129] Top shape: 32 128 56 56 (12845056)
I0624 08:46:57.677392 42642 net.cpp:137] Memory required for data: 1046872576
I0624 08:46:57.677450 42642 layer_factory.hpp:77] Creating layer conv2_2/sep/scale
I0624 08:46:57.677500 42642 net.cpp:84] Creating Layer conv2_2/sep/scale
I0624 08:46:57.677546 42642 net.cpp:406] conv2_2/sep/scale <- conv2_2/sep
I0624 08:46:57.677618 42642 net.cpp:367] conv2_2/sep/scale -> conv2_2/sep (in-place)
I0624 08:46:57.677673 42642 layer_factory.hpp:77] Creating layer conv2_2/sep/scale
I0624 08:46:57.677755 42642 net.cpp:122] Setting up conv2_2/sep/scale
I0624 08:46:57.677810 42642 net.cpp:129] Top shape: 32 128 56 56 (12845056)
I0624 08:46:57.677845 42642 net.cpp:137] Memory required for data: 1098252800
I0624 08:46:57.677886 42642 layer_factory.hpp:77] Creating layer relu2_2/sep
I0624 08:46:57.677934 42642 net.cpp:84] Creating Layer relu2_2/sep
I0624 08:46:57.677984 42642 net.cpp:406] relu2_2/sep <- conv2_2/sep
I0624 08:46:57.678027 42642 net.cpp:367] relu2_2/sep -> conv2_2/sep (in-place)
I0624 08:46:57.678072 42642 net.cpp:122] Setting up relu2_2/sep
I0624 08:46:57.678113 42642 net.cpp:129] Top shape: 32 128 56 56 (12845056)
I0624 08:46:57.678148 42642 net.cpp:137] Memory required for data: 1149633024
I0624 08:46:57.678184 42642 layer_factory.hpp:77] Creating layer conv3_1/dw
I0624 08:46:57.678238 42642 net.cpp:84] Creating Layer conv3_1/dw
I0624 08:46:57.678279 42642 net.cpp:406] conv3_1/dw <- conv2_2/sep
I0624 08:46:57.678324 42642 net.cpp:380] conv3_1/dw -> conv3_1/dw
I0624 08:46:57.678455 42642 net.cpp:122] Setting up conv3_1/dw
I0624 08:46:57.678503 42642 net.cpp:129] Top shape: 32 128 56 56 (12845056)
I0624 08:46:57.678539 42642 net.cpp:137] Memory required for data: 1201013248
I0624 08:46:57.678586 42642 layer_factory.hpp:77] Creating layer conv3_1/dw/bn
I0624 08:46:57.678650 42642 net.cpp:84] Creating Layer conv3_1/dw/bn
I0624 08:46:57.678689 42642 net.cpp:406] conv3_1/dw/bn <- conv3_1/dw
I0624 08:46:57.678737 42642 net.cpp:367] conv3_1/dw/bn -> conv3_1/dw (in-place)
I0624 08:46:57.678808 42642 net.cpp:122] Setting up conv3_1/dw/bn
I0624 08:46:57.678856 42642 net.cpp:129] Top shape: 32 128 56 56 (12845056)
I0624 08:46:57.678959 42642 net.cpp:137] Memory required for data: 1252393472
I0624 08:46:57.678998 42642 layer_factory.hpp:77] Creating layer conv3_1/dw/scale
I0624 08:46:57.679065 42642 net.cpp:84] Creating Layer conv3_1/dw/scale
I0624 08:46:57.679108 42642 net.cpp:406] conv3_1/dw/scale <- conv3_1/dw
I0624 08:46:57.679185 42642 net.cpp:367] conv3_1/dw/scale -> conv3_1/dw (in-place)
I0624 08:46:57.679245 42642 layer_factory.hpp:77] Creating layer conv3_1/dw/scale
I0624 08:46:57.679327 42642 net.cpp:122] Setting up conv3_1/dw/scale
I0624 08:46:57.679375 42642 net.cpp:129] Top shape: 32 128 56 56 (12845056)
I0624 08:46:57.679411 42642 net.cpp:137] Memory required for data: 1303773696
I0624 08:46:57.679452 42642 layer_factory.hpp:77] Creating layer relu3_1/dw
I0624 08:46:57.679493 42642 net.cpp:84] Creating Layer relu3_1/dw
I0624 08:46:57.679530 42642 net.cpp:406] relu3_1/dw <- conv3_1/dw
I0624 08:46:57.679575 42642 net.cpp:367] relu3_1/dw -> conv3_1/dw (in-place)
I0624 08:46:57.679622 42642 net.cpp:122] Setting up relu3_1/dw
I0624 08:46:57.679663 42642 net.cpp:129] Top shape: 32 128 56 56 (12845056)
I0624 08:46:57.679697 42642 net.cpp:137] Memory required for data: 1355153920
I0624 08:46:57.679733 42642 layer_factory.hpp:77] Creating layer conv3_1/sep
I0624 08:46:57.679782 42642 net.cpp:84] Creating Layer conv3_1/sep
I0624 08:46:57.679823 42642 net.cpp:406] conv3_1/sep <- conv3_1/dw
I0624 08:46:57.679865 42642 net.cpp:380] conv3_1/sep -> conv3_1/sep
I0624 08:46:57.680838 42642 net.cpp:122] Setting up conv3_1/sep
I0624 08:46:57.680904 42642 net.cpp:129] Top shape: 32 128 56 56 (12845056)
I0624 08:46:57.680941 42642 net.cpp:137] Memory required for data: 1406534144
I0624 08:46:57.680981 42642 layer_factory.hpp:77] Creating layer conv3_1/sep/bn
I0624 08:46:57.681031 42642 net.cpp:84] Creating Layer conv3_1/sep/bn
I0624 08:46:57.681071 42642 net.cpp:406] conv3_1/sep/bn <- conv3_1/sep
I0624 08:46:57.681113 42642 net.cpp:367] conv3_1/sep/bn -> conv3_1/sep (in-place)
I0624 08:46:57.681181 42642 net.cpp:122] Setting up conv3_1/sep/bn
I0624 08:46:57.681227 42642 net.cpp:129] Top shape: 32 128 56 56 (12845056)
I0624 08:46:57.681262 42642 net.cpp:137] Memory required for data: 1457914368
I0624 08:46:57.681311 42642 layer_factory.hpp:77] Creating layer conv3_1/sep/scale
I0624 08:46:57.681382 42642 net.cpp:84] Creating Layer conv3_1/sep/scale
I0624 08:46:57.681423 42642 net.cpp:406] conv3_1/sep/scale <- conv3_1/sep
I0624 08:46:57.681471 42642 net.cpp:367] conv3_1/sep/scale -> conv3_1/sep (in-place)
I0624 08:46:57.681526 42642 layer_factory.hpp:77] Creating layer conv3_1/sep/scale
I0624 08:46:57.681649 42642 net.cpp:122] Setting up conv3_1/sep/scale
I0624 08:46:57.681705 42642 net.cpp:129] Top shape: 32 128 56 56 (12845056)
I0624 08:46:57.681800 42642 net.cpp:137] Memory required for data: 1509294592
I0624 08:46:57.681861 42642 layer_factory.hpp:77] Creating layer relu3_1/sep
I0624 08:46:57.681933 42642 net.cpp:84] Creating Layer relu3_1/sep
I0624 08:46:57.681977 42642 net.cpp:406] relu3_1/sep <- conv3_1/sep
I0624 08:46:57.682018 42642 net.cpp:367] relu3_1/sep -> conv3_1/sep (in-place)
I0624 08:46:57.682061 42642 net.cpp:122] Setting up relu3_1/sep
I0624 08:46:57.682102 42642 net.cpp:129] Top shape: 32 128 56 56 (12845056)
I0624 08:46:57.682137 42642 net.cpp:137] Memory required for data: 1560674816
I0624 08:46:57.682173 42642 layer_factory.hpp:77] Creating layer conv3_2/dw
I0624 08:46:57.682224 42642 net.cpp:84] Creating Layer conv3_2/dw
I0624 08:46:57.682265 42642 net.cpp:406] conv3_2/dw <- conv3_1/sep
I0624 08:46:57.682308 42642 net.cpp:380] conv3_2/dw -> conv3_2/dw
I0624 08:46:57.682435 42642 net.cpp:122] Setting up conv3_2/dw
I0624 08:46:57.682482 42642 net.cpp:129] Top shape: 32 128 28 28 (3211264)
I0624 08:46:57.682518 42642 net.cpp:137] Memory required for data: 1573519872
I0624 08:46:57.682557 42642 layer_factory.hpp:77] Creating layer conv3_2/dw/bn
I0624 08:46:57.682600 42642 net.cpp:84] Creating Layer conv3_2/dw/bn
I0624 08:46:57.682636 42642 net.cpp:406] conv3_2/dw/bn <- conv3_2/dw
I0624 08:46:57.682683 42642 net.cpp:367] conv3_2/dw/bn -> conv3_2/dw (in-place)
I0624 08:46:57.682750 42642 net.cpp:122] Setting up conv3_2/dw/bn
I0624 08:46:57.682796 42642 net.cpp:129] Top shape: 32 128 28 28 (3211264)
I0624 08:46:57.682831 42642 net.cpp:137] Memory required for data: 1586364928
I0624 08:46:57.682890 42642 layer_factory.hpp:77] Creating layer conv3_2/dw/scale
I0624 08:46:57.682948 42642 net.cpp:84] Creating Layer conv3_2/dw/scale
I0624 08:46:57.682989 42642 net.cpp:406] conv3_2/dw/scale <- conv3_2/dw
I0624 08:46:57.683032 42642 net.cpp:367] conv3_2/dw/scale -> conv3_2/dw (in-place)
I0624 08:46:57.683090 42642 layer_factory.hpp:77] Creating layer conv3_2/dw/scale
I0624 08:46:57.683292 42642 net.cpp:122] Setting up conv3_2/dw/scale
I0624 08:46:57.683343 42642 net.cpp:129] Top shape: 32 128 28 28 (3211264)
I0624 08:46:57.683379 42642 net.cpp:137] Memory required for data: 1599209984
I0624 08:46:57.683421 42642 layer_factory.hpp:77] Creating layer relu3_2/dw
I0624 08:46:57.683467 42642 net.cpp:84] Creating Layer relu3_2/dw
I0624 08:46:57.683528 42642 net.cpp:406] relu3_2/dw <- conv3_2/dw
I0624 08:46:57.683580 42642 net.cpp:367] relu3_2/dw -> conv3_2/dw (in-place)
I0624 08:46:57.683676 42642 net.cpp:122] Setting up relu3_2/dw
I0624 08:46:57.683779 42642 net.cpp:129] Top shape: 32 128 28 28 (3211264)
I0624 08:46:57.683836 42642 net.cpp:137] Memory required for data: 1612055040
I0624 08:46:57.683851 42642 layer_factory.hpp:77] Creating layer conv3_2/sep
I0624 08:46:57.683887 42642 net.cpp:84] Creating Layer conv3_2/sep
I0624 08:46:57.683925 42642 net.cpp:406] conv3_2/sep <- conv3_2/dw
I0624 08:46:57.683969 42642 net.cpp:380] conv3_2/sep -> conv3_2/sep
I0624 08:46:57.685948 42642 net.cpp:122] Setting up conv3_2/sep
I0624 08:46:57.686002 42642 net.cpp:129] Top shape: 32 256 28 28 (6422528)
I0624 08:46:57.686038 42642 net.cpp:137] Memory required for data: 1637745152
I0624 08:46:57.686079 42642 layer_factory.hpp:77] Creating layer conv3_2/sep/bn
I0624 08:46:57.686131 42642 net.cpp:84] Creating Layer conv3_2/sep/bn
I0624 08:46:57.686233 42642 net.cpp:406] conv3_2/sep/bn <- conv3_2/sep
I0624 08:46:57.686295 42642 net.cpp:367] conv3_2/sep/bn -> conv3_2/sep (in-place)
I0624 08:46:57.686362 42642 net.cpp:122] Setting up conv3_2/sep/bn
I0624 08:46:57.686434 42642 net.cpp:129] Top shape: 32 256 28 28 (6422528)
I0624 08:46:57.686470 42642 net.cpp:137] Memory required for data: 1663435264
I0624 08:46:57.696691 42642 layer_factory.hpp:77] Creating layer conv3_2/sep/scale
I0624 08:46:57.696754 42642 net.cpp:84] Creating Layer conv3_2/sep/scale
I0624 08:46:57.696799 42642 net.cpp:406] conv3_2/sep/scale <- conv3_2/sep
I0624 08:46:57.696856 42642 net.cpp:367] conv3_2/sep/scale -> conv3_2/sep (in-place)
I0624 08:46:57.696924 42642 layer_factory.hpp:77] Creating layer conv3_2/sep/scale
I0624 08:46:57.697002 42642 net.cpp:122] Setting up conv3_2/sep/scale
I0624 08:46:57.697049 42642 net.cpp:129] Top shape: 32 256 28 28 (6422528)
I0624 08:46:57.697084 42642 net.cpp:137] Memory required for data: 1689125376
I0624 08:46:57.697126 42642 layer_factory.hpp:77] Creating layer relu3_2/sep
I0624 08:46:57.697178 42642 net.cpp:84] Creating Layer relu3_2/sep
I0624 08:46:57.697229 42642 net.cpp:406] relu3_2/sep <- conv3_2/sep
I0624 08:46:57.697327 42642 net.cpp:367] relu3_2/sep -> conv3_2/sep (in-place)
I0624 08:46:57.697404 42642 net.cpp:122] Setting up relu3_2/sep
I0624 08:46:57.697460 42642 net.cpp:129] Top shape: 32 256 28 28 (6422528)
I0624 08:46:57.697473 42642 net.cpp:137] Memory required for data: 1714815488
I0624 08:46:57.697500 42642 layer_factory.hpp:77] Creating layer conv4_1/dw
I0624 08:46:57.697535 42642 net.cpp:84] Creating Layer conv4_1/dw
I0624 08:46:57.697547 42642 net.cpp:406] conv4_1/dw <- conv3_2/sep
I0624 08:46:57.697602 42642 net.cpp:380] conv4_1/dw -> conv4_1/dw
I0624 08:46:57.697764 42642 net.cpp:122] Setting up conv4_1/dw
I0624 08:46:57.697787 42642 net.cpp:129] Top shape: 32 256 28 28 (6422528)
I0624 08:46:57.697795 42642 net.cpp:137] Memory required for data: 1740505600
I0624 08:46:57.697808 42642 layer_factory.hpp:77] Creating layer conv4_1/dw/bn
I0624 08:46:57.697821 42642 net.cpp:84] Creating Layer conv4_1/dw/bn
I0624 08:46:57.697830 42642 net.cpp:406] conv4_1/dw/bn <- conv4_1/dw
I0624 08:46:57.697841 42642 net.cpp:367] conv4_1/dw/bn -> conv4_1/dw (in-place)
I0624 08:46:57.697875 42642 net.cpp:122] Setting up conv4_1/dw/bn
I0624 08:46:57.697888 42642 net.cpp:129] Top shape: 32 256 28 28 (6422528)
I0624 08:46:57.697897 42642 net.cpp:137] Memory required for data: 1766195712
I0624 08:46:57.697911 42642 layer_factory.hpp:77] Creating layer conv4_1/dw/scale
I0624 08:46:57.697930 42642 net.cpp:84] Creating Layer conv4_1/dw/scale
I0624 08:46:57.697942 42642 net.cpp:406] conv4_1/dw/scale <- conv4_1/dw
I0624 08:46:57.697953 42642 net.cpp:367] conv4_1/dw/scale -> conv4_1/dw (in-place)
I0624 08:46:57.697973 42642 layer_factory.hpp:77] Creating layer conv4_1/dw/scale
I0624 08:46:57.698010 42642 net.cpp:122] Setting up conv4_1/dw/scale
I0624 08:46:57.698029 42642 net.cpp:129] Top shape: 32 256 28 28 (6422528)
I0624 08:46:57.698037 42642 net.cpp:137] Memory required for data: 1791885824
I0624 08:46:57.698050 42642 layer_factory.hpp:77] Creating layer relu4_1/dw
I0624 08:46:57.698063 42642 net.cpp:84] Creating Layer relu4_1/dw
I0624 08:46:57.698071 42642 net.cpp:406] relu4_1/dw <- conv4_1/dw
I0624 08:46:57.698081 42642 net.cpp:367] relu4_1/dw -> conv4_1/dw (in-place)
I0624 08:46:57.698094 42642 net.cpp:122] Setting up relu4_1/dw
I0624 08:46:57.698105 42642 net.cpp:129] Top shape: 32 256 28 28 (6422528)
I0624 08:46:57.698113 42642 net.cpp:137] Memory required for data: 1817575936
I0624 08:46:57.698122 42642 layer_factory.hpp:77] Creating layer conv4_1/sep
I0624 08:46:57.698140 42642 net.cpp:84] Creating Layer conv4_1/sep
I0624 08:46:57.698151 42642 net.cpp:406] conv4_1/sep <- conv4_1/dw
I0624 08:46:57.698197 42642 net.cpp:380] conv4_1/sep -> conv4_1/sep
I0624 08:46:57.701489 42642 net.cpp:122] Setting up conv4_1/sep
I0624 08:46:57.701546 42642 net.cpp:129] Top shape: 32 256 28 28 (6422528)
I0624 08:46:57.701583 42642 net.cpp:137] Memory required for data: 1843266048
I0624 08:46:57.701624 42642 layer_factory.hpp:77] Creating layer conv4_1/sep/bn
I0624 08:46:57.701673 42642 net.cpp:84] Creating Layer conv4_1/sep/bn
I0624 08:46:57.701714 42642 net.cpp:406] conv4_1/sep/bn <- conv4_1/sep
I0624 08:46:57.701799 42642 net.cpp:367] conv4_1/sep/bn -> conv4_1/sep (in-place)
I0624 08:46:57.701869 42642 net.cpp:122] Setting up conv4_1/sep/bn
I0624 08:46:57.701913 42642 net.cpp:129] Top shape: 32 256 28 28 (6422528)
I0624 08:46:57.701948 42642 net.cpp:137] Memory required for data: 1868956160
I0624 08:46:57.701992 42642 layer_factory.hpp:77] Creating layer conv4_1/sep/scale
I0624 08:46:57.702035 42642 net.cpp:84] Creating Layer conv4_1/sep/scale
I0624 08:46:57.702072 42642 net.cpp:406] conv4_1/sep/scale <- conv4_1/sep
I0624 08:46:57.702119 42642 net.cpp:367] conv4_1/sep/scale -> conv4_1/sep (in-place)
I0624 08:46:57.702181 42642 layer_factory.hpp:77] Creating layer conv4_1/sep/scale
I0624 08:46:57.702255 42642 net.cpp:122] Setting up conv4_1/sep/scale
I0624 08:46:57.702301 42642 net.cpp:129] Top shape: 32 256 28 28 (6422528)
I0624 08:46:57.702334 42642 net.cpp:137] Memory required for data: 1894646272
I0624 08:46:57.702405 42642 layer_factory.hpp:77] Creating layer relu4_1/sep
I0624 08:46:57.702451 42642 net.cpp:84] Creating Layer relu4_1/sep
I0624 08:46:57.702489 42642 net.cpp:406] relu4_1/sep <- conv4_1/sep
I0624 08:46:57.702529 42642 net.cpp:367] relu4_1/sep -> conv4_1/sep (in-place)
I0624 08:46:57.702572 42642 net.cpp:122] Setting up relu4_1/sep
I0624 08:46:57.702612 42642 net.cpp:129] Top shape: 32 256 28 28 (6422528)
I0624 08:46:57.702646 42642 net.cpp:137] Memory required for data: 1920336384
I0624 08:46:57.702682 42642 layer_factory.hpp:77] Creating layer conv4_2/dw
I0624 08:46:57.702725 42642 net.cpp:84] Creating Layer conv4_2/dw
I0624 08:46:57.702764 42642 net.cpp:406] conv4_2/dw <- conv4_1/sep
I0624 08:46:57.702811 42642 net.cpp:380] conv4_2/dw -> conv4_2/dw
I0624 08:46:57.702991 42642 net.cpp:122] Setting up conv4_2/dw
I0624 08:46:57.703037 42642 net.cpp:129] Top shape: 32 256 14 14 (1605632)
I0624 08:46:57.703073 42642 net.cpp:137] Memory required for data: 1926758912
I0624 08:46:57.703110 42642 layer_factory.hpp:77] Creating layer conv4_2/dw/bn
I0624 08:46:57.703172 42642 net.cpp:84] Creating Layer conv4_2/dw/bn
I0624 08:46:57.703214 42642 net.cpp:406] conv4_2/dw/bn <- conv4_2/dw
I0624 08:46:57.703261 42642 net.cpp:367] conv4_2/dw/bn -> conv4_2/dw (in-place)
I0624 08:46:57.703327 42642 net.cpp:122] Setting up conv4_2/dw/bn
I0624 08:46:57.703382 42642 net.cpp:129] Top shape: 32 256 14 14 (1605632)
I0624 08:46:57.703416 42642 net.cpp:137] Memory required for data: 1933181440
I0624 08:46:57.703459 42642 layer_factory.hpp:77] Creating layer conv4_2/dw/scale
I0624 08:46:57.703501 42642 net.cpp:84] Creating Layer conv4_2/dw/scale
I0624 08:46:57.703538 42642 net.cpp:406] conv4_2/dw/scale <- conv4_2/dw
I0624 08:46:57.703579 42642 net.cpp:367] conv4_2/dw/scale -> conv4_2/dw (in-place)
I0624 08:46:57.703636 42642 layer_factory.hpp:77] Creating layer conv4_2/dw/scale
I0624 08:46:57.703702 42642 net.cpp:122] Setting up conv4_2/dw/scale
I0624 08:46:57.703747 42642 net.cpp:129] Top shape: 32 256 14 14 (1605632)
I0624 08:46:57.703781 42642 net.cpp:137] Memory required for data: 1939603968
I0624 08:46:57.703822 42642 layer_factory.hpp:77] Creating layer relu4_2/dw
I0624 08:46:57.703862 42642 net.cpp:84] Creating Layer relu4_2/dw
I0624 08:46:57.703898 42642 net.cpp:406] relu4_2/dw <- conv4_2/dw
I0624 08:46:57.703938 42642 net.cpp:367] relu4_2/dw -> conv4_2/dw (in-place)
I0624 08:46:57.703979 42642 net.cpp:122] Setting up relu4_2/dw
I0624 08:46:57.704020 42642 net.cpp:129] Top shape: 32 256 14 14 (1605632)
I0624 08:46:57.704053 42642 net.cpp:137] Memory required for data: 1946026496
I0624 08:46:57.704087 42642 layer_factory.hpp:77] Creating layer conv4_2/sep
I0624 08:46:57.704136 42642 net.cpp:84] Creating Layer conv4_2/sep
I0624 08:46:57.704176 42642 net.cpp:406] conv4_2/sep <- conv4_2/dw
I0624 08:46:57.704224 42642 net.cpp:380] conv4_2/sep -> conv4_2/sep
I0624 08:46:57.714293 42642 net.cpp:122] Setting up conv4_2/sep
I0624 08:46:57.714356 42642 net.cpp:129] Top shape: 32 512 14 14 (3211264)
I0624 08:46:57.714392 42642 net.cpp:137] Memory required for data: 1958871552
I0624 08:46:57.714435 42642 layer_factory.hpp:77] Creating layer conv4_2/sep/bn
I0624 08:46:57.714524 42642 net.cpp:84] Creating Layer conv4_2/sep/bn
I0624 08:46:57.714568 42642 net.cpp:406] conv4_2/sep/bn <- conv4_2/sep
I0624 08:46:57.714612 42642 net.cpp:367] conv4_2/sep/bn -> conv4_2/sep (in-place)
I0624 08:46:57.714678 42642 net.cpp:122] Setting up conv4_2/sep/bn
I0624 08:46:57.714722 42642 net.cpp:129] Top shape: 32 512 14 14 (3211264)
I0624 08:46:57.714764 42642 net.cpp:137] Memory required for data: 1971716608
I0624 08:46:57.714808 42642 layer_factory.hpp:77] Creating layer conv4_2/sep/scale
I0624 08:46:57.714857 42642 net.cpp:84] Creating Layer conv4_2/sep/scale
I0624 08:46:57.714897 42642 net.cpp:406] conv4_2/sep/scale <- conv4_2/sep
I0624 08:46:57.714938 42642 net.cpp:367] conv4_2/sep/scale -> conv4_2/sep (in-place)
I0624 08:46:57.715000 42642 layer_factory.hpp:77] Creating layer conv4_2/sep/scale
I0624 08:46:57.715260 42642 net.cpp:122] Setting up conv4_2/sep/scale
I0624 08:46:57.715309 42642 net.cpp:129] Top shape: 32 512 14 14 (3211264)
I0624 08:46:57.715322 42642 net.cpp:137] Memory required for data: 1984561664
I0624 08:46:57.715337 42642 layer_factory.hpp:77] Creating layer relu4_2/sep
I0624 08:46:57.715374 42642 net.cpp:84] Creating Layer relu4_2/sep
I0624 08:46:57.715412 42642 net.cpp:406] relu4_2/sep <- conv4_2/sep
I0624 08:46:57.715451 42642 net.cpp:367] relu4_2/sep -> conv4_2/sep (in-place)
I0624 08:46:57.715494 42642 net.cpp:122] Setting up relu4_2/sep
I0624 08:46:57.715534 42642 net.cpp:129] Top shape: 32 512 14 14 (3211264)
I0624 08:46:57.715567 42642 net.cpp:137] Memory required for data: 1997406720
I0624 08:46:57.715602 42642 layer_factory.hpp:77] Creating layer conv5_1/dw
I0624 08:46:57.715653 42642 net.cpp:84] Creating Layer conv5_1/dw
I0624 08:46:57.715693 42642 net.cpp:406] conv5_1/dw <- conv4_2/sep
I0624 08:46:57.715735 42642 net.cpp:380] conv5_1/dw -> conv5_1/dw
I0624 08:46:57.716017 42642 net.cpp:122] Setting up conv5_1/dw
I0624 08:46:57.716068 42642 net.cpp:129] Top shape: 32 512 14 14 (3211264)
I0624 08:46:57.716102 42642 net.cpp:137] Memory required for data: 2010251776
I0624 08:46:57.716140 42642 layer_factory.hpp:77] Creating layer conv5_1/dw/bn
I0624 08:46:57.716187 42642 net.cpp:84] Creating Layer conv5_1/dw/bn
I0624 08:46:57.716226 42642 net.cpp:406] conv5_1/dw/bn <- conv5_1/dw
I0624 08:46:57.716266 42642 net.cpp:367] conv5_1/dw/bn -> conv5_1/dw (in-place)
I0624 08:46:57.716325 42642 net.cpp:122] Setting up conv5_1/dw/bn
I0624 08:46:57.716369 42642 net.cpp:129] Top shape: 32 512 14 14 (3211264)
I0624 08:46:57.716403 42642 net.cpp:137] Memory required for data: 2023096832
I0624 08:46:57.716445 42642 layer_factory.hpp:77] Creating layer conv5_1/dw/scale
I0624 08:46:57.716493 42642 net.cpp:84] Creating Layer conv5_1/dw/scale
I0624 08:46:57.716533 42642 net.cpp:406] conv5_1/dw/scale <- conv5_1/dw
I0624 08:46:57.716573 42642 net.cpp:367] conv5_1/dw/scale -> conv5_1/dw (in-place)
I0624 08:46:57.716652 42642 layer_factory.hpp:77] Creating layer conv5_1/dw/scale
I0624 08:46:57.716728 42642 net.cpp:122] Setting up conv5_1/dw/scale
I0624 08:46:57.716775 42642 net.cpp:129] Top shape: 32 512 14 14 (3211264)
I0624 08:46:57.716810 42642 net.cpp:137] Memory required for data: 2035941888
I0624 08:46:57.716851 42642 layer_factory.hpp:77] Creating layer relu5_1/dw
I0624 08:46:57.716892 42642 net.cpp:84] Creating Layer relu5_1/dw
I0624 08:46:57.716984 42642 net.cpp:406] relu5_1/dw <- conv5_1/dw
I0624 08:46:57.717062 42642 net.cpp:367] relu5_1/dw -> conv5_1/dw (in-place)
I0624 08:46:57.717109 42642 net.cpp:122] Setting up relu5_1/dw
I0624 08:46:57.717150 42642 net.cpp:129] Top shape: 32 512 14 14 (3211264)
I0624 08:46:57.717183 42642 net.cpp:137] Memory required for data: 2048786944
I0624 08:46:57.717218 42642 layer_factory.hpp:77] Creating layer conv5_1/sep
I0624 08:46:57.720136 42642 net.cpp:84] Creating Layer conv5_1/sep
I0624 08:46:57.720158 42642 net.cpp:406] conv5_1/sep <- conv5_1/dw
I0624 08:46:57.720180 42642 net.cpp:380] conv5_1/sep -> conv5_1/sep
I0624 08:46:57.733952 42642 net.cpp:122] Setting up conv5_1/sep
I0624 08:46:57.734050 42642 net.cpp:129] Top shape: 32 512 14 14 (3211264)
I0624 08:46:57.734073 42642 net.cpp:137] Memory required for data: 2061632000
I0624 08:46:57.734091 42642 layer_factory.hpp:77] Creating layer conv5_1/sep/bn
I0624 08:46:57.734143 42642 net.cpp:84] Creating Layer conv5_1/sep/bn
I0624 08:46:57.734231 42642 net.cpp:406] conv5_1/sep/bn <- conv5_1/sep
I0624 08:46:57.734278 42642 net.cpp:367] conv5_1/sep/bn -> conv5_1/sep (in-place)
I0624 08:46:57.734356 42642 net.cpp:122] Setting up conv5_1/sep/bn
I0624 08:46:57.734402 42642 net.cpp:129] Top shape: 32 512 14 14 (3211264)
I0624 08:46:57.734437 42642 net.cpp:137] Memory required for data: 2074477056
I0624 08:46:57.734488 42642 layer_factory.hpp:77] Creating layer conv5_1/sep/scale
I0624 08:46:57.734536 42642 net.cpp:84] Creating Layer conv5_1/sep/scale
I0624 08:46:57.734575 42642 net.cpp:406] conv5_1/sep/scale <- conv5_1/sep
I0624 08:46:57.734623 42642 net.cpp:367] conv5_1/sep/scale -> conv5_1/sep (in-place)
I0624 08:46:57.734689 42642 layer_factory.hpp:77] Creating layer conv5_1/sep/scale
I0624 08:46:57.734764 42642 net.cpp:122] Setting up conv5_1/sep/scale
I0624 08:46:57.734869 42642 net.cpp:129] Top shape: 32 512 14 14 (3211264)
I0624 08:46:57.734907 42642 net.cpp:137] Memory required for data: 2087322112
I0624 08:46:57.734948 42642 layer_factory.hpp:77] Creating layer relu5_1/sep
I0624 08:46:57.734998 42642 net.cpp:84] Creating Layer relu5_1/sep
I0624 08:46:57.735038 42642 net.cpp:406] relu5_1/sep <- conv5_1/sep
I0624 08:46:57.735080 42642 net.cpp:367] relu5_1/sep -> conv5_1/sep (in-place)
I0624 08:46:57.735234 42642 net.cpp:122] Setting up relu5_1/sep
I0624 08:46:57.735280 42642 net.cpp:129] Top shape: 32 512 14 14 (3211264)
I0624 08:46:57.735314 42642 net.cpp:137] Memory required for data: 2100167168
I0624 08:46:57.735388 42642 layer_factory.hpp:77] Creating layer conv5_2/dw
I0624 08:46:57.735445 42642 net.cpp:84] Creating Layer conv5_2/dw
I0624 08:46:57.735486 42642 net.cpp:406] conv5_2/dw <- conv5_1/sep
I0624 08:46:57.735529 42642 net.cpp:380] conv5_2/dw -> conv5_2/dw
I0624 08:46:57.735963 42642 net.cpp:122] Setting up conv5_2/dw
I0624 08:46:57.736016 42642 net.cpp:129] Top shape: 32 512 14 14 (3211264)
I0624 08:46:57.736050 42642 net.cpp:137] Memory required for data: 2113012224
I0624 08:46:57.736090 42642 layer_factory.hpp:77] Creating layer conv5_2/dw/bn
I0624 08:46:57.736138 42642 net.cpp:84] Creating Layer conv5_2/dw/bn
I0624 08:46:57.736178 42642 net.cpp:406] conv5_2/dw/bn <- conv5_2/dw
I0624 08:46:57.736219 42642 net.cpp:367] conv5_2/dw/bn -> conv5_2/dw (in-place)
I0624 08:46:57.736280 42642 net.cpp:122] Setting up conv5_2/dw/bn
I0624 08:46:57.736325 42642 net.cpp:129] Top shape: 32 512 14 14 (3211264)
I0624 08:46:57.736361 42642 net.cpp:137] Memory required for data: 2125857280
I0624 08:46:57.736404 42642 layer_factory.hpp:77] Creating layer conv5_2/dw/scale
I0624 08:46:57.736470 42642 net.cpp:84] Creating Layer conv5_2/dw/scale
I0624 08:46:57.736512 42642 net.cpp:406] conv5_2/dw/scale <- conv5_2/dw
I0624 08:46:57.736572 42642 net.cpp:367] conv5_2/dw/scale -> conv5_2/dw (in-place)
I0624 08:46:57.736634 42642 layer_factory.hpp:77] Creating layer conv5_2/dw/scale
I0624 08:46:57.736704 42642 net.cpp:122] Setting up conv5_2/dw/scale
I0624 08:46:57.736752 42642 net.cpp:129] Top shape: 32 512 14 14 (3211264)
I0624 08:46:57.736785 42642 net.cpp:137] Memory required for data: 2138702336
I0624 08:46:57.736827 42642 layer_factory.hpp:77] Creating layer relu5_2/dw
I0624 08:46:57.736869 42642 net.cpp:84] Creating Layer relu5_2/dw
I0624 08:46:57.736914 42642 net.cpp:406] relu5_2/dw <- conv5_2/dw
I0624 08:46:57.736954 42642 net.cpp:367] relu5_2/dw -> conv5_2/dw (in-place)
I0624 08:46:57.736999 42642 net.cpp:122] Setting up relu5_2/dw
I0624 08:46:57.737095 42642 net.cpp:129] Top shape: 32 512 14 14 (3211264)
I0624 08:46:57.737133 42642 net.cpp:137] Memory required for data: 2151547392
I0624 08:46:57.737185 42642 layer_factory.hpp:77] Creating layer conv5_2/sep
I0624 08:46:57.737231 42642 net.cpp:84] Creating Layer conv5_2/sep
I0624 08:46:57.737269 42642 net.cpp:406] conv5_2/sep <- conv5_2/dw
I0624 08:46:57.737346 42642 net.cpp:380] conv5_2/sep -> conv5_2/sep
I0624 08:46:57.750298 42642 net.cpp:122] Setting up conv5_2/sep
I0624 08:46:57.750363 42642 net.cpp:129] Top shape: 32 512 14 14 (3211264)
I0624 08:46:57.750401 42642 net.cpp:137] Memory required for data: 2164392448
I0624 08:46:57.750443 42642 layer_factory.hpp:77] Creating layer conv5_2/sep/bn
I0624 08:46:57.750496 42642 net.cpp:84] Creating Layer conv5_2/sep/bn
I0624 08:46:57.750591 42642 net.cpp:406] conv5_2/sep/bn <- conv5_2/sep
I0624 08:46:57.750664 42642 net.cpp:367] conv5_2/sep/bn -> conv5_2/sep (in-place)
I0624 08:46:57.750737 42642 net.cpp:122] Setting up conv5_2/sep/bn
I0624 08:46:57.750783 42642 net.cpp:129] Top shape: 32 512 14 14 (3211264)
I0624 08:46:57.750824 42642 net.cpp:137] Memory required for data: 2177237504
I0624 08:46:57.750869 42642 layer_factory.hpp:77] Creating layer conv5_2/sep/scale
I0624 08:46:57.750916 42642 net.cpp:84] Creating Layer conv5_2/sep/scale
I0624 08:46:57.750953 42642 net.cpp:406] conv5_2/sep/scale <- conv5_2/sep
I0624 08:46:57.751003 42642 net.cpp:367] conv5_2/sep/scale -> conv5_2/sep (in-place)
I0624 08:46:57.751046 42642 layer_factory.hpp:77] Creating layer conv5_2/sep/scale
I0624 08:46:57.751117 42642 net.cpp:122] Setting up conv5_2/sep/scale
I0624 08:46:57.751142 42642 net.cpp:129] Top shape: 32 512 14 14 (3211264)
I0624 08:46:57.751150 42642 net.cpp:137] Memory required for data: 2190082560
I0624 08:46:57.751163 42642 layer_factory.hpp:77] Creating layer relu5_2/sep
I0624 08:46:57.751183 42642 net.cpp:84] Creating Layer relu5_2/sep
I0624 08:46:57.751260 42642 net.cpp:406] relu5_2/sep <- conv5_2/sep
I0624 08:46:57.751283 42642 net.cpp:367] relu5_2/sep -> conv5_2/sep (in-place)
I0624 08:46:57.751299 42642 net.cpp:122] Setting up relu5_2/sep
I0624 08:46:57.751312 42642 net.cpp:129] Top shape: 32 512 14 14 (3211264)
I0624 08:46:57.751319 42642 net.cpp:137] Memory required for data: 2202927616
I0624 08:46:57.751328 42642 layer_factory.hpp:77] Creating layer conv5_3/dw
I0624 08:46:57.751351 42642 net.cpp:84] Creating Layer conv5_3/dw
I0624 08:46:57.751363 42642 net.cpp:406] conv5_3/dw <- conv5_2/sep
I0624 08:46:57.751374 42642 net.cpp:380] conv5_3/dw -> conv5_3/dw
I0624 08:46:57.751621 42642 net.cpp:122] Setting up conv5_3/dw
I0624 08:46:57.751641 42642 net.cpp:129] Top shape: 32 512 14 14 (3211264)
I0624 08:46:57.751651 42642 net.cpp:137] Memory required for data: 2215772672
I0624 08:46:57.751662 42642 layer_factory.hpp:77] Creating layer conv5_3/dw/bn
I0624 08:46:57.751675 42642 net.cpp:84] Creating Layer conv5_3/dw/bn
I0624 08:46:57.751683 42642 net.cpp:406] conv5_3/dw/bn <- conv5_3/dw
I0624 08:46:57.751699 42642 net.cpp:367] conv5_3/dw/bn -> conv5_3/dw (in-place)
I0624 08:46:57.751729 42642 net.cpp:122] Setting up conv5_3/dw/bn
I0624 08:46:57.751742 42642 net.cpp:129] Top shape: 32 512 14 14 (3211264)
I0624 08:46:57.751750 42642 net.cpp:137] Memory required for data: 2228617728
I0624 08:46:57.751765 42642 layer_factory.hpp:77] Creating layer conv5_3/dw/scale
I0624 08:46:57.751785 42642 net.cpp:84] Creating Layer conv5_3/dw/scale
I0624 08:46:57.751796 42642 net.cpp:406] conv5_3/dw/scale <- conv5_3/dw
I0624 08:46:57.751811 42642 net.cpp:367] conv5_3/dw/scale -> conv5_3/dw (in-place)
I0624 08:46:57.751837 42642 layer_factory.hpp:77] Creating layer conv5_3/dw/scale
I0624 08:46:57.751876 42642 net.cpp:122] Setting up conv5_3/dw/scale
I0624 08:46:57.751893 42642 net.cpp:129] Top shape: 32 512 14 14 (3211264)
I0624 08:46:57.751902 42642 net.cpp:137] Memory required for data: 2241462784
I0624 08:46:57.751914 42642 layer_factory.hpp:77] Creating layer relu5_3/dw
I0624 08:46:57.751931 42642 net.cpp:84] Creating Layer relu5_3/dw
I0624 08:46:57.751942 42642 net.cpp:406] relu5_3/dw <- conv5_3/dw
I0624 08:46:57.751953 42642 net.cpp:367] relu5_3/dw -> conv5_3/dw (in-place)
I0624 08:46:57.751966 42642 net.cpp:122] Setting up relu5_3/dw
I0624 08:46:57.751977 42642 net.cpp:129] Top shape: 32 512 14 14 (3211264)
I0624 08:46:57.751986 42642 net.cpp:137] Memory required for data: 2254307840
I0624 08:46:57.752023 42642 layer_factory.hpp:77] Creating layer conv5_3/sep
I0624 08:46:57.752048 42642 net.cpp:84] Creating Layer conv5_3/sep
I0624 08:46:57.752059 42642 net.cpp:406] conv5_3/sep <- conv5_3/dw
I0624 08:46:57.752071 42642 net.cpp:380] conv5_3/sep -> conv5_3/sep
I0624 08:46:57.765900 42642 net.cpp:122] Setting up conv5_3/sep
I0624 08:46:57.765985 42642 net.cpp:129] Top shape: 32 512 14 14 (3211264)
I0624 08:46:57.766005 42642 net.cpp:137] Memory required for data: 2267152896
I0624 08:46:57.766021 42642 layer_factory.hpp:77] Creating layer conv5_3/sep/bn
I0624 08:46:57.766046 42642 net.cpp:84] Creating Layer conv5_3/sep/bn
I0624 08:46:57.766062 42642 net.cpp:406] conv5_3/sep/bn <- conv5_3/sep
I0624 08:46:57.766085 42642 net.cpp:367] conv5_3/sep/bn -> conv5_3/sep (in-place)
I0624 08:46:57.766165 42642 net.cpp:122] Setting up conv5_3/sep/bn
I0624 08:46:57.766225 42642 net.cpp:129] Top shape: 32 512 14 14 (3211264)
I0624 08:46:57.766263 42642 net.cpp:137] Memory required for data: 2279997952
I0624 08:46:57.766312 42642 layer_factory.hpp:77] Creating layer conv5_3/sep/scale
I0624 08:46:57.766366 42642 net.cpp:84] Creating Layer conv5_3/sep/scale
I0624 08:46:57.766408 42642 net.cpp:406] conv5_3/sep/scale <- conv5_3/sep
I0624 08:46:57.766453 42642 net.cpp:367] conv5_3/sep/scale -> conv5_3/sep (in-place)
I0624 08:46:57.766574 42642 layer_factory.hpp:77] Creating layer conv5_3/sep/scale
I0624 08:46:57.766659 42642 net.cpp:122] Setting up conv5_3/sep/scale
I0624 08:46:57.766708 42642 net.cpp:129] Top shape: 32 512 14 14 (3211264)
I0624 08:46:57.766744 42642 net.cpp:137] Memory required for data: 2292843008
I0624 08:46:57.766786 42642 layer_factory.hpp:77] Creating layer relu5_3/sep
I0624 08:46:57.766845 42642 net.cpp:84] Creating Layer relu5_3/sep
I0624 08:46:57.766942 42642 net.cpp:406] relu5_3/sep <- conv5_3/sep
I0624 08:46:57.766993 42642 net.cpp:367] relu5_3/sep -> conv5_3/sep (in-place)
I0624 08:46:57.767040 42642 net.cpp:122] Setting up relu5_3/sep
I0624 08:46:57.767081 42642 net.cpp:129] Top shape: 32 512 14 14 (3211264)
I0624 08:46:57.767115 42642 net.cpp:137] Memory required for data: 2305688064
I0624 08:46:57.767136 42642 layer_factory.hpp:77] Creating layer conv5_4/dw
I0624 08:46:57.767164 42642 net.cpp:84] Creating Layer conv5_4/dw
I0624 08:46:57.767221 42642 net.cpp:406] conv5_4/dw <- conv5_3/sep
I0624 08:46:57.767287 42642 net.cpp:380] conv5_4/dw -> conv5_4/dw
I0624 08:46:57.767567 42642 net.cpp:122] Setting up conv5_4/dw
I0624 08:46:57.767671 42642 net.cpp:129] Top shape: 32 512 14 14 (3211264)
I0624 08:46:57.767725 42642 net.cpp:137] Memory required for data: 2318533120
I0624 08:46:57.767766 42642 layer_factory.hpp:77] Creating layer conv5_4/dw/bn
I0624 08:46:57.767818 42642 net.cpp:84] Creating Layer conv5_4/dw/bn
I0624 08:46:57.767858 42642 net.cpp:406] conv5_4/dw/bn <- conv5_4/dw
I0624 08:46:57.767899 42642 net.cpp:367] conv5_4/dw/bn -> conv5_4/dw (in-place)
I0624 08:46:57.767969 42642 net.cpp:122] Setting up conv5_4/dw/bn
I0624 08:46:57.768016 42642 net.cpp:129] Top shape: 32 512 14 14 (3211264)
I0624 08:46:57.768036 42642 net.cpp:137] Memory required for data: 2331378176
I0624 08:46:57.768054 42642 layer_factory.hpp:77] Creating layer conv5_4/dw/scale
I0624 08:46:57.768100 42642 net.cpp:84] Creating Layer conv5_4/dw/scale
I0624 08:46:57.768141 42642 net.cpp:406] conv5_4/dw/scale <- conv5_4/dw
I0624 08:46:57.768182 42642 net.cpp:367] conv5_4/dw/scale -> conv5_4/dw (in-place)
I0624 08:46:57.768267 42642 layer_factory.hpp:77] Creating layer conv5_4/dw/scale
I0624 08:46:57.768339 42642 net.cpp:122] Setting up conv5_4/dw/scale
I0624 08:46:57.768386 42642 net.cpp:129] Top shape: 32 512 14 14 (3211264)
I0624 08:46:57.768421 42642 net.cpp:137] Memory required for data: 2344223232
I0624 08:46:57.768462 42642 layer_factory.hpp:77] Creating layer relu5_4/dw
I0624 08:46:57.768503 42642 net.cpp:84] Creating Layer relu5_4/dw
I0624 08:46:57.768596 42642 net.cpp:406] relu5_4/dw <- conv5_4/dw
I0624 08:46:57.768640 42642 net.cpp:367] relu5_4/dw -> conv5_4/dw (in-place)
I0624 08:46:57.768685 42642 net.cpp:122] Setting up relu5_4/dw
I0624 08:46:57.768762 42642 net.cpp:129] Top shape: 32 512 14 14 (3211264)
I0624 08:46:57.768812 42642 net.cpp:137] Memory required for data: 2357068288
I0624 08:46:57.768890 42642 layer_factory.hpp:77] Creating layer conv5_4/sep
I0624 08:46:57.769016 42642 net.cpp:84] Creating Layer conv5_4/sep
I0624 08:46:57.769062 42642 net.cpp:406] conv5_4/sep <- conv5_4/dw
I0624 08:46:57.769107 42642 net.cpp:380] conv5_4/sep -> conv5_4/sep
I0624 08:46:57.782483 42642 net.cpp:122] Setting up conv5_4/sep
I0624 08:46:57.782529 42642 net.cpp:129] Top shape: 32 512 14 14 (3211264)
I0624 08:46:57.782542 42642 net.cpp:137] Memory required for data: 2369913344
I0624 08:46:57.782557 42642 layer_factory.hpp:77] Creating layer conv5_4/sep/bn
I0624 08:46:57.782584 42642 net.cpp:84] Creating Layer conv5_4/sep/bn
I0624 08:46:57.782598 42642 net.cpp:406] conv5_4/sep/bn <- conv5_4/sep
I0624 08:46:57.782610 42642 net.cpp:367] conv5_4/sep/bn -> conv5_4/sep (in-place)
I0624 08:46:57.782646 42642 net.cpp:122] Setting up conv5_4/sep/bn
I0624 08:46:57.782661 42642 net.cpp:129] Top shape: 32 512 14 14 (3211264)
I0624 08:46:57.782670 42642 net.cpp:137] Memory required for data: 2382758400
I0624 08:46:57.782685 42642 layer_factory.hpp:77] Creating layer conv5_4/sep/scale
I0624 08:46:57.782706 42642 net.cpp:84] Creating Layer conv5_4/sep/scale
I0624 08:46:57.782716 42642 net.cpp:406] conv5_4/sep/scale <- conv5_4/sep
I0624 08:46:57.782732 42642 net.cpp:367] conv5_4/sep/scale -> conv5_4/sep (in-place)
I0624 08:46:57.782757 42642 layer_factory.hpp:77] Creating layer conv5_4/sep/scale
I0624 08:46:57.782794 42642 net.cpp:122] Setting up conv5_4/sep/scale
I0624 08:46:57.782856 42642 net.cpp:129] Top shape: 32 512 14 14 (3211264)
I0624 08:46:57.782881 42642 net.cpp:137] Memory required for data: 2395603456
I0624 08:46:57.782896 42642 layer_factory.hpp:77] Creating layer relu5_4/sep
I0624 08:46:57.782912 42642 net.cpp:84] Creating Layer relu5_4/sep
I0624 08:46:57.782920 42642 net.cpp:406] relu5_4/sep <- conv5_4/sep
I0624 08:46:57.782932 42642 net.cpp:367] relu5_4/sep -> conv5_4/sep (in-place)
I0624 08:46:57.782945 42642 net.cpp:122] Setting up relu5_4/sep
I0624 08:46:57.782958 42642 net.cpp:129] Top shape: 32 512 14 14 (3211264)
I0624 08:46:57.782965 42642 net.cpp:137] Memory required for data: 2408448512
I0624 08:46:57.782974 42642 layer_factory.hpp:77] Creating layer conv5_5/dw
I0624 08:46:57.782995 42642 net.cpp:84] Creating Layer conv5_5/dw
I0624 08:46:57.783006 42642 net.cpp:406] conv5_5/dw <- conv5_4/sep
I0624 08:46:57.783022 42642 net.cpp:380] conv5_5/dw -> conv5_5/dw
I0624 08:46:57.783277 42642 net.cpp:122] Setting up conv5_5/dw
I0624 08:46:57.783296 42642 net.cpp:129] Top shape: 32 512 14 14 (3211264)
I0624 08:46:57.783304 42642 net.cpp:137] Memory required for data: 2421293568
I0624 08:46:57.783315 42642 layer_factory.hpp:77] Creating layer conv5_5/dw/bn
I0624 08:46:57.783430 42642 net.cpp:84] Creating Layer conv5_5/dw/bn
I0624 08:46:57.783457 42642 net.cpp:406] conv5_5/dw/bn <- conv5_5/dw
I0624 08:46:57.783470 42642 net.cpp:367] conv5_5/dw/bn -> conv5_5/dw (in-place)
I0624 08:46:57.783524 42642 net.cpp:122] Setting up conv5_5/dw/bn
I0624 08:46:57.783545 42642 net.cpp:129] Top shape: 32 512 14 14 (3211264)
I0624 08:46:57.783553 42642 net.cpp:137] Memory required for data: 2434138624
I0624 08:46:57.783603 42642 layer_factory.hpp:77] Creating layer conv5_5/dw/scale
I0624 08:46:57.783623 42642 net.cpp:84] Creating Layer conv5_5/dw/scale
I0624 08:46:57.783633 42642 net.cpp:406] conv5_5/dw/scale <- conv5_5/dw
I0624 08:46:57.783650 42642 net.cpp:367] conv5_5/dw/scale -> conv5_5/dw (in-place)
I0624 08:46:57.783679 42642 layer_factory.hpp:77] Creating layer conv5_5/dw/scale
I0624 08:46:57.783710 42642 net.cpp:122] Setting up conv5_5/dw/scale
I0624 08:46:57.783725 42642 net.cpp:129] Top shape: 32 512 14 14 (3211264)
I0624 08:46:57.783733 42642 net.cpp:137] Memory required for data: 2446983680
I0624 08:46:57.783746 42642 layer_factory.hpp:77] Creating layer relu5_5/dw
I0624 08:46:57.783762 42642 net.cpp:84] Creating Layer relu5_5/dw
I0624 08:46:57.783772 42642 net.cpp:406] relu5_5/dw <- conv5_5/dw
I0624 08:46:57.783890 42642 net.cpp:367] relu5_5/dw -> conv5_5/dw (in-place)
I0624 08:46:57.783912 42642 net.cpp:122] Setting up relu5_5/dw
I0624 08:46:57.783924 42642 net.cpp:129] Top shape: 32 512 14 14 (3211264)
I0624 08:46:57.783932 42642 net.cpp:137] Memory required for data: 2459828736
I0624 08:46:57.783941 42642 layer_factory.hpp:77] Creating layer conv5_5/sep
I0624 08:46:57.783957 42642 net.cpp:84] Creating Layer conv5_5/sep
I0624 08:46:57.783967 42642 net.cpp:406] conv5_5/sep <- conv5_5/dw
I0624 08:46:57.783991 42642 net.cpp:380] conv5_5/sep -> conv5_5/sep
I0624 08:46:57.797528 42642 net.cpp:122] Setting up conv5_5/sep
I0624 08:46:57.797606 42642 net.cpp:129] Top shape: 32 512 14 14 (3211264)
I0624 08:46:57.797664 42642 net.cpp:137] Memory required for data: 2472673792
I0624 08:46:57.797709 42642 layer_factory.hpp:77] Creating layer conv5_5/sep/bn
I0624 08:46:57.797857 42642 net.cpp:84] Creating Layer conv5_5/sep/bn
I0624 08:46:57.797900 42642 net.cpp:406] conv5_5/sep/bn <- conv5_5/sep
I0624 08:46:57.797955 42642 net.cpp:367] conv5_5/sep/bn -> conv5_5/sep (in-place)
I0624 08:46:57.798036 42642 net.cpp:122] Setting up conv5_5/sep/bn
I0624 08:46:57.798085 42642 net.cpp:129] Top shape: 32 512 14 14 (3211264)
I0624 08:46:57.798121 42642 net.cpp:137] Memory required for data: 2485518848
I0624 08:46:57.798166 42642 layer_factory.hpp:77] Creating layer conv5_5/sep/scale
I0624 08:46:57.798218 42642 net.cpp:84] Creating Layer conv5_5/sep/scale
I0624 08:46:57.798259 42642 net.cpp:406] conv5_5/sep/scale <- conv5_5/sep
I0624 08:46:57.798300 42642 net.cpp:367] conv5_5/sep/scale -> conv5_5/sep (in-place)
I0624 08:46:57.798364 42642 layer_factory.hpp:77] Creating layer conv5_5/sep/scale
I0624 08:46:57.798566 42642 net.cpp:122] Setting up conv5_5/sep/scale
I0624 08:46:57.798619 42642 net.cpp:129] Top shape: 32 512 14 14 (3211264)
I0624 08:46:57.798653 42642 net.cpp:137] Memory required for data: 2498363904
I0624 08:46:57.798694 42642 layer_factory.hpp:77] Creating layer relu5_5/sep
I0624 08:46:57.798738 42642 net.cpp:84] Creating Layer relu5_5/sep
I0624 08:46:57.798775 42642 net.cpp:406] relu5_5/sep <- conv5_5/sep
I0624 08:46:57.798821 42642 net.cpp:367] relu5_5/sep -> conv5_5/sep (in-place)
I0624 08:46:57.798869 42642 net.cpp:122] Setting up relu5_5/sep
I0624 08:46:57.798910 42642 net.cpp:129] Top shape: 32 512 14 14 (3211264)
I0624 08:46:57.798944 42642 net.cpp:137] Memory required for data: 2511208960
I0624 08:46:57.798980 42642 layer_factory.hpp:77] Creating layer conv5_6/dw
I0624 08:46:57.799026 42642 net.cpp:84] Creating Layer conv5_6/dw
I0624 08:46:57.799075 42642 net.cpp:406] conv5_6/dw <- conv5_5/sep
I0624 08:46:57.799125 42642 net.cpp:380] conv5_6/dw -> conv5_6/dw
I0624 08:46:57.799474 42642 net.cpp:122] Setting up conv5_6/dw
I0624 08:46:57.799523 42642 net.cpp:129] Top shape: 32 512 7 7 (802816)
I0624 08:46:57.799559 42642 net.cpp:137] Memory required for data: 2514420224
I0624 08:46:57.799598 42642 layer_factory.hpp:77] Creating layer conv5_6/dw/bn
I0624 08:46:57.799640 42642 net.cpp:84] Creating Layer conv5_6/dw/bn
I0624 08:46:57.799679 42642 net.cpp:406] conv5_6/dw/bn <- conv5_6/dw
I0624 08:46:57.799718 42642 net.cpp:367] conv5_6/dw/bn -> conv5_6/dw (in-place)
I0624 08:46:57.799778 42642 net.cpp:122] Setting up conv5_6/dw/bn
I0624 08:46:57.799823 42642 net.cpp:129] Top shape: 32 512 7 7 (802816)
I0624 08:46:57.799859 42642 net.cpp:137] Memory required for data: 2517631488
I0624 08:46:57.799901 42642 layer_factory.hpp:77] Creating layer conv5_6/dw/scale
I0624 08:46:57.799945 42642 net.cpp:84] Creating Layer conv5_6/dw/scale
I0624 08:46:57.799983 42642 net.cpp:406] conv5_6/dw/scale <- conv5_6/dw
I0624 08:46:57.800042 42642 net.cpp:367] conv5_6/dw/scale -> conv5_6/dw (in-place)
I0624 08:46:57.800108 42642 layer_factory.hpp:77] Creating layer conv5_6/dw/scale
I0624 08:46:57.800177 42642 net.cpp:122] Setting up conv5_6/dw/scale
I0624 08:46:57.800225 42642 net.cpp:129] Top shape: 32 512 7 7 (802816)
I0624 08:46:57.800259 42642 net.cpp:137] Memory required for data: 2520842752
I0624 08:46:57.800334 42642 layer_factory.hpp:77] Creating layer relu5_6/dw
I0624 08:46:57.800379 42642 net.cpp:84] Creating Layer relu5_6/dw
I0624 08:46:57.800416 42642 net.cpp:406] relu5_6/dw <- conv5_6/dw
I0624 08:46:57.800463 42642 net.cpp:367] relu5_6/dw -> conv5_6/dw (in-place)
I0624 08:46:57.800510 42642 net.cpp:122] Setting up relu5_6/dw
I0624 08:46:57.800551 42642 net.cpp:129] Top shape: 32 512 7 7 (802816)
I0624 08:46:57.800585 42642 net.cpp:137] Memory required for data: 2524054016
I0624 08:46:57.800621 42642 layer_factory.hpp:77] Creating layer conv5_6/sep
I0624 08:46:57.800667 42642 net.cpp:84] Creating Layer conv5_6/sep
I0624 08:46:57.800704 42642 net.cpp:406] conv5_6/sep <- conv5_6/dw
I0624 08:46:57.800753 42642 net.cpp:380] conv5_6/sep -> conv5_6/sep
I0624 08:46:57.826951 42642 net.cpp:122] Setting up conv5_6/sep
I0624 08:46:57.827020 42642 net.cpp:129] Top shape: 32 1024 7 7 (1605632)
I0624 08:46:57.827039 42642 net.cpp:137] Memory required for data: 2530476544
I0624 08:46:57.827056 42642 layer_factory.hpp:77] Creating layer conv5_6/sep/bn
I0624 08:46:57.827085 42642 net.cpp:84] Creating Layer conv5_6/sep/bn
I0624 08:46:57.827102 42642 net.cpp:406] conv5_6/sep/bn <- conv5_6/sep
I0624 08:46:57.827200 42642 net.cpp:367] conv5_6/sep/bn -> conv5_6/sep (in-place)
I0624 08:46:57.827255 42642 net.cpp:122] Setting up conv5_6/sep/bn
I0624 08:46:57.827297 42642 net.cpp:129] Top shape: 32 1024 7 7 (1605632)
I0624 08:46:57.827314 42642 net.cpp:137] Memory required for data: 2536899072
I0624 08:46:57.827332 42642 layer_factory.hpp:77] Creating layer conv5_6/sep/scale
I0624 08:46:57.827394 42642 net.cpp:84] Creating Layer conv5_6/sep/scale
I0624 08:46:57.827419 42642 net.cpp:406] conv5_6/sep/scale <- conv5_6/sep
I0624 08:46:57.827437 42642 net.cpp:367] conv5_6/sep/scale -> conv5_6/sep (in-place)
I0624 08:46:57.827502 42642 layer_factory.hpp:77] Creating layer conv5_6/sep/scale
I0624 08:46:57.827585 42642 net.cpp:122] Setting up conv5_6/sep/scale
I0624 08:46:57.827633 42642 net.cpp:129] Top shape: 32 1024 7 7 (1605632)
I0624 08:46:57.827669 42642 net.cpp:137] Memory required for data: 2543321600
I0624 08:46:57.827710 42642 layer_factory.hpp:77] Creating layer relu5_6/sep
I0624 08:46:57.827759 42642 net.cpp:84] Creating Layer relu5_6/sep
I0624 08:46:57.827800 42642 net.cpp:406] relu5_6/sep <- conv5_6/sep
I0624 08:46:57.827832 42642 net.cpp:367] relu5_6/sep -> conv5_6/sep (in-place)
I0624 08:46:57.827991 42642 net.cpp:122] Setting up relu5_6/sep
I0624 08:46:57.828037 42642 net.cpp:129] Top shape: 32 1024 7 7 (1605632)
I0624 08:46:57.828070 42642 net.cpp:137] Memory required for data: 2549744128
I0624 08:46:57.828088 42642 layer_factory.hpp:77] Creating layer conv6/dw
I0624 08:46:57.828130 42642 net.cpp:84] Creating Layer conv6/dw
I0624 08:46:57.828145 42642 net.cpp:406] conv6/dw <- conv5_6/sep
I0624 08:46:57.828158 42642 net.cpp:380] conv6/dw -> conv6/dw
I0624 08:46:57.828790 42642 net.cpp:122] Setting up conv6/dw
I0624 08:46:57.828851 42642 net.cpp:129] Top shape: 32 1024 7 7 (1605632)
I0624 08:46:57.828914 42642 net.cpp:137] Memory required for data: 2556166656
I0624 08:46:57.828959 42642 layer_factory.hpp:77] Creating layer conv6/dw/bn
I0624 08:46:57.829004 42642 net.cpp:84] Creating Layer conv6/dw/bn
I0624 08:46:57.829043 42642 net.cpp:406] conv6/dw/bn <- conv6/dw
I0624 08:46:57.829092 42642 net.cpp:367] conv6/dw/bn -> conv6/dw (in-place)
I0624 08:46:57.829182 42642 net.cpp:122] Setting up conv6/dw/bn
I0624 08:46:57.829231 42642 net.cpp:129] Top shape: 32 1024 7 7 (1605632)
I0624 08:46:57.829268 42642 net.cpp:137] Memory required for data: 2562589184
I0624 08:46:57.829327 42642 layer_factory.hpp:77] Creating layer conv6/dw/scale
I0624 08:46:57.829398 42642 net.cpp:84] Creating Layer conv6/dw/scale
I0624 08:46:57.829437 42642 net.cpp:406] conv6/dw/scale <- conv6/dw
I0624 08:46:57.829490 42642 net.cpp:367] conv6/dw/scale -> conv6/dw (in-place)
I0624 08:46:57.829529 42642 layer_factory.hpp:77] Creating layer conv6/dw/scale
I0624 08:46:57.829565 42642 net.cpp:122] Setting up conv6/dw/scale
I0624 08:46:57.829579 42642 net.cpp:129] Top shape: 32 1024 7 7 (1605632)
I0624 08:46:57.829777 42642 net.cpp:137] Memory required for data: 2569011712
I0624 08:46:57.829834 42642 layer_factory.hpp:77] Creating layer relu6/dw
I0624 08:46:57.829877 42642 net.cpp:84] Creating Layer relu6/dw
I0624 08:46:57.829915 42642 net.cpp:406] relu6/dw <- conv6/dw
I0624 08:46:57.829955 42642 net.cpp:367] relu6/dw -> conv6/dw (in-place)
I0624 08:46:57.829999 42642 net.cpp:122] Setting up relu6/dw
I0624 08:46:57.830040 42642 net.cpp:129] Top shape: 32 1024 7 7 (1605632)
I0624 08:46:57.830075 42642 net.cpp:137] Memory required for data: 2575434240
I0624 08:46:57.830111 42642 layer_factory.hpp:77] Creating layer conv6/sep
I0624 08:46:57.830169 42642 net.cpp:84] Creating Layer conv6/sep
I0624 08:46:57.830214 42642 net.cpp:406] conv6/sep <- conv6/dw
I0624 08:46:57.830257 42642 net.cpp:380] conv6/sep -> conv6/sep
I0624 08:46:57.882906 42642 net.cpp:122] Setting up conv6/sep
I0624 08:46:57.882985 42642 net.cpp:129] Top shape: 32 1024 7 7 (1605632)
I0624 08:46:57.883034 42642 net.cpp:137] Memory required for data: 2581856768
I0624 08:46:57.883080 42642 layer_factory.hpp:77] Creating layer conv6/sep/bn
I0624 08:46:57.883136 42642 net.cpp:84] Creating Layer conv6/sep/bn
I0624 08:46:57.883210 42642 net.cpp:406] conv6/sep/bn <- conv6/sep
I0624 08:46:57.883265 42642 net.cpp:367] conv6/sep/bn -> conv6/sep (in-place)
I0624 08:46:57.883460 42642 net.cpp:122] Setting up conv6/sep/bn
I0624 08:46:57.883512 42642 net.cpp:129] Top shape: 32 1024 7 7 (1605632)
I0624 08:46:57.883549 42642 net.cpp:137] Memory required for data: 2588279296
I0624 08:46:57.883594 42642 layer_factory.hpp:77] Creating layer conv6/sep/scale
I0624 08:46:57.883641 42642 net.cpp:84] Creating Layer conv6/sep/scale
I0624 08:46:57.883679 42642 net.cpp:406] conv6/sep/scale <- conv6/sep
I0624 08:46:57.883728 42642 net.cpp:367] conv6/sep/scale -> conv6/sep (in-place)
I0624 08:46:57.883802 42642 layer_factory.hpp:77] Creating layer conv6/sep/scale
I0624 08:46:57.883858 42642 net.cpp:122] Setting up conv6/sep/scale
I0624 08:46:57.883903 42642 net.cpp:129] Top shape: 32 1024 7 7 (1605632)
I0624 08:46:57.883937 42642 net.cpp:137] Memory required for data: 2594701824
I0624 08:46:57.883990 42642 layer_factory.hpp:77] Creating layer relu6/sep
I0624 08:46:57.884047 42642 net.cpp:84] Creating Layer relu6/sep
I0624 08:46:57.884085 42642 net.cpp:406] relu6/sep <- conv6/sep
I0624 08:46:57.884125 42642 net.cpp:367] relu6/sep -> conv6/sep (in-place)
I0624 08:46:57.884171 42642 net.cpp:122] Setting up relu6/sep
I0624 08:46:57.884212 42642 net.cpp:129] Top shape: 32 1024 7 7 (1605632)
I0624 08:46:57.884246 42642 net.cpp:137] Memory required for data: 2601124352
I0624 08:46:57.884281 42642 layer_factory.hpp:77] Creating layer pool6
I0624 08:46:57.884322 42642 net.cpp:84] Creating Layer pool6
I0624 08:46:57.884361 42642 net.cpp:406] pool6 <- conv6/sep
I0624 08:46:57.884402 42642 net.cpp:380] pool6 -> pool6
I0624 08:46:57.884464 42642 net.cpp:122] Setting up pool6
I0624 08:46:57.884493 42642 net.cpp:129] Top shape: 32 1024 1 1 (32768)
I0624 08:46:57.884541 42642 net.cpp:137] Memory required for data: 2601255424
I0624 08:46:57.884577 42642 layer_factory.hpp:77] Creating layer facefc7
I0624 08:46:57.884630 42642 net.cpp:84] Creating Layer facefc7
I0624 08:46:57.884656 42642 net.cpp:406] facefc7 <- pool6
I0624 08:46:57.884671 42642 net.cpp:380] facefc7 -> facefc7
I0624 08:46:57.884876 42642 net.cpp:122] Setting up facefc7
I0624 08:46:57.884925 42642 net.cpp:129] Top shape: 32 2 1 1 (64)
I0624 08:46:57.884961 42642 net.cpp:137] Memory required for data: 2601255680
I0624 08:46:57.885016 42642 layer_factory.hpp:77] Creating layer facefc7_facefc7_0_split
I0624 08:46:57.885058 42642 net.cpp:84] Creating Layer facefc7_facefc7_0_split
I0624 08:46:57.885098 42642 net.cpp:406] facefc7_facefc7_0_split <- facefc7
I0624 08:46:57.885129 42642 net.cpp:380] facefc7_facefc7_0_split -> facefc7_facefc7_0_split_0
I0624 08:46:57.885181 42642 net.cpp:380] facefc7_facefc7_0_split -> facefc7_facefc7_0_split_1
I0624 08:46:57.885296 42642 net.cpp:380] facefc7_facefc7_0_split -> facefc7_facefc7_0_split_2
I0624 08:46:57.885408 42642 net.cpp:122] Setting up facefc7_facefc7_0_split
I0624 08:46:57.885510 42642 net.cpp:129] Top shape: 32 2 1 1 (64)
I0624 08:46:57.885566 42642 net.cpp:129] Top shape: 32 2 1 1 (64)
I0624 08:46:57.885598 42642 net.cpp:129] Top shape: 32 2 1 1 (64)
I0624 08:46:57.885680 42642 net.cpp:137] Memory required for data: 2601256448
I0624 08:46:57.885721 42642 layer_factory.hpp:77] Creating layer loss
I0624 08:46:57.885782 42642 net.cpp:84] Creating Layer loss
I0624 08:46:57.885800 42642 net.cpp:406] loss <- facefc7_facefc7_0_split_0
I0624 08:46:57.885836 42642 net.cpp:406] loss <- label_data_1_split_0
I0624 08:46:57.885859 42642 net.cpp:380] loss -> loss
…
