…
        max_scale: 1
        min_aspect_ratio: 0.5
        max_aspect_ratio: 2
      }
      sample_constraint {
        min_jaccard_overlap: 0.9
      }
      max_sample: 1
      max_trials: 50
    }
    batch_sampler {
      sampler {
        min_scale: 0.3
        max_scale: 1
        min_aspect_ratio: 0.5
        max_aspect_ratio: 2
      }
      sample_constraint {
        max_jaccard_overlap: 1
      }
      max_sample: 1
      max_trials: 50
    }
    label_map_file: "/home/sun/ssd/caffe/examples/MobileNet-SSD-master/voc/labelmap_voc.prototxt"
  }
}
layer {
  name: "conv0"
  type: "Convolution"
  bottom: "data"
  top: "conv0"
  param {
    lr_mult: 0.1
    decay_mult: 0.1
  }
  convolution_param {
    num_output: 32
    bias_term: false
    pad: 1
    kernel_size: 3
    stride: 2
    weight_filler {
      type: "msra"
    }
  }
}
layer {
  name: "conv0/bn"
  type: "BatchNorm"
  bottom: "conv0"
  top: "conv0"
}
layer {
  name: "conv0/scale"
  type: "Scale"
  bottom: "conv0"
  top: "conv0"
  param {
    lr_mult: 0.1
    decay_mult: 0
  }
  param {
    lr_mult: 0.2
    decay_mult: 0
  }
  scale_param {
    filler {
      value: 1
    }
    bias_term: true
    bias_filler {
      value: 0
    }
  }
}
layer {
  name: "conv0/relu"
  type: "ReLU"
  bottom: "conv0"
  top: "conv0"
}
layer {
  name: "conv1/dw"
  type: "Convolution"
  bottom: "conv0"
  top: "conv1/dw"
  param {
    lr_mult: 0.1
    decay_mult: 0.1
  }
  convolution_param {
    num_output: 32
    bias_term: false
    pad: 1
    kernel_size: 3
    group: 32
    weight_filler {
      type: "msra"
    }
    engine: CAFFE
  }
}
layer {
  name: "conv1/dw/bn"
  type: "BatchNorm"
  bottom: "conv1/dw"
  top: "conv1/dw"
}
layer {
  name: "conv1/dw/scale"
  type: "Scale"
  bottom: "conv1/dw"
  top: "conv1/dw"
  param {
    lr_mult: 0.1
    decay_mult: 0
  }
  param {
    lr_mult: 0.2
    decay_mult: 0
  }
  scale_param {
    filler {
      value: 1
    }
    bias_term: true
    bias_filler {
      value: 0
    }
  }
}
layer {
  name: "conv1/dw/relu"
  type: "ReLU"
  bottom: "conv1/dw"
  top: "conv1/dw"
}
layer {
  name: "conv1"
  type: "Convolution"
  bottom: "conv1/dw"
  top: "conv1"
  param {
    lr_mult: 0.1
    decay_mult: 0.1
  }
  convolution_param {
    num_output: 64
    bias_term: false
    kernel_size: 1
    weight_filler {
      type: "msra"
    }
  }
}
layer {
  name: "conv1/bn"
  type: "BatchNorm"
  bottom: "conv1"
  top: "conv1"
}
layer {
  name: "conv1/scale"
  type: "Scale"
  bottom: "conv1"
  top: "conv1"
  param {
    lr_mult: 0.1
    decay_mult: 0
  }
  param {
    lr_mult: 0.2
    decay_mult: 0
  }
  scale_param {
    filler {
      value: 1
    }
    bias_term: true
    bias_filler {
      value: 0
    }
  }
}
layer {
  name: "conv1/relu"
  type: "ReLU"
  bottom: "conv1"
  top: "conv1"
}
layer {
  name: "conv2/dw"
  type: "Convolution"
  bottom: "conv1"
  top: "conv2/dw"
  param {
    lr_mult: 0.1
    decay_mult: 0.1
  }
  convolution_param {
    num_output: 64
    bias_term: false
    pad: 1
    kernel_size: 3
    group: 64
    stride: 2
    weight_filler {
      type: "msra"
    }
    engine: CAFFE
  }
}
layer {
  name: "conv2/dw/bn"
  type: "BatchNorm"
  bottom: "conv2/dw"
  top: "conv2/dw"
}
layer {
  name: "conv2/dw/scale"
  type: "Scale"
  bottom: "conv2/dw"
  top: "conv2/dw"
  param {
    lr_mult: 0.1
    decay_mult: 0
  }
  param {
    lr_mult: 0.2
    decay_mult: 0
  }
  scale_param {
    filler {
      value: 1
    }
    bias_term: true
    bias_filler {
      value: 0
    }
  }
}
layer {
  name: "conv2/dw/relu"
  type: "ReLU"
  bottom: "conv2/dw"
  top: "conv2/dw"
}
layer {
  name: "conv2"
  type: "Convolution"
  bottom: "conv2/dw"
  top: "conv2"
  param {
    lr_mult: 0.1
    decay_mult: 0.1
  }
  convolution_param {
    num_output: 128
    bias_term: false
    kernel_size: 1
    weight_filler {
      type: "msra"
    }
  }
}
layer {
  name: "conv2/bn"
  type: "BatchNorm"
  bottom: "conv2"
  top: "conv2"
}
layer {
  name: "conv2/scale"
  type: "Scale"
  bottom: "conv2"
  top: "conv2"
  param {
    lr_mult: 0.1
    decay_mult: 0
  }
  param {
    lr_mult: 0.2
    decay_mult: 0
  }
  scale_param {
    filler {
      value: 1
    }
    bias_term: true
    bias_filler {
      value: 0
    }
  }
}
layer {
  name: "conv2/relu"
  type: "ReLU"
  bottom: "conv2"
  top: "conv2"
}
layer {
  name: "conv3/dw"
  type: "Convolution"
  bottom: "conv2"
  top: "conv3/dw"
  param {
    lr_mult: 0.1
    decay_mult: 0.1
  }
  convolution_param {
    num_output: 128
    bias_term: false
    pad: 1
    kernel_size: 3
    group: 128
    weight_filler {
      type: "msra"
    }
    engine: CAFFE
  }
}
layer {
  name: "conv3/dw/bn"
  type: "BatchNorm"
  bottom: "conv3/dw"
  top: "conv3/dw"
}
layer {
  name: "conv3/dw/scale"
  type: "Scale"
  bottom: "conv3/dw"
  top: "conv3/dw"
  param {
    lr_mult: 0.1
    decay_mult: 0
  }
  param {
    lr_mult: 0.2
    decay_mult: 0
  }
  scale_param {
    filler {
      value: 1
    }
    bias_term: true
    bias_filler {
      value: 0
    }
  }
}
layer {
  name: "conv3/dw/relu"
  type: "ReLU"
  bottom: "conv3/dw"
  top: "conv3/dw"
}
layer {
  name: "conv3"
  type: "Convolution"
  bottom: "conv3/dw"
  top: "conv3"
  param {
    lr_mult: 0.1
    decay_mult: 0.1
  }
  convolution_param {
    num_output: 128
    bias_term: false
    kernel_size: 1
    weight_filler {
      type: "msra"
    }
  }
}
layer {
  name: "conv3/bn"
  type: "BatchNorm"
  bottom: "conv3"
  top: "conv3"
}
layer {
  name: "conv3/scale"
  type: "Scale"
  bottom: "conv3"
  top: "conv3"
  param {
    lr_mult: 0.1
    decay_mult: 0
  }
  param {
    lr_mult: 0.2
    decay_mult: 0
  }
  scale_param {
    filler {
      value: 1
    }
    bias_term: true
    bias_filler {
      value: 0
    }
  }
}
layer {
  name: "conv3/relu"
  type: "ReLU"
  bottom: "conv3"
  top: "conv3"
}
layer {
  name: "conv4/dw"
  type: "Convolution"
  bottom: "conv3"
  top: "conv4/dw"
  param {
    lr_mult: 0.1
    decay_mult: 0.1
  }
  convolution_param {
    num_output: 128
    bias_term: false
    pad: 1
    kernel_size: 3
    group: 128
    stride: 2
    weight_filler {
      type: "msra"
    }
    engine: CAFFE
  }
}
layer {
  name: "conv4/dw/bn"
  type: "BatchNorm"
  bottom: "conv4/dw"
  top: "conv4/dw"
}
layer {
  name: "conv4/dw/scale"
  type: "Scale"
  bottom: "conv4/dw"
  top: "conv4/dw"
  param {
    lr_mult: 0.1
    decay_mult: 0
  }
  param {
    lr_mult: 0.2
    decay_mult: 0
  }
  scale_param {
    filler {
      value: 1
    }
    bias_term: true
    bias_filler {
      value: 0
    }
  }
}
layer {
  name: "conv4/dw/relu"
  type: "ReLU"
  bottom: "conv4/dw"
  top: "conv4/dw"
}
layer {
  name: "conv4"
  type: "Convolution"
  bottom: "conv4/dw"
  top: "conv4"
  param {
    lr_mult: 0.1
    decay_mult: 0.1
  }
  convolution_param {
    num_output: 256
    bias_term: false
    kernel_size: 1
    weight_filler {
      type: "msra"
    }
  }
}
layer {
  name: "conv4/bn"
  type: "BatchNorm"
  bottom: "conv4"
  top: "conv4"
}
layer {
  name: "conv4/scale"
  type: "Scale"
  bottom: "conv4"
  top: "conv4"
  param {
    lr_mult: 0.1
    decay_mult: 0
  }
  param {
    lr_mult: 0.2
    decay_mult: 0
  }
  scale_param {
    filler {
      value: 1
    }
    bias_term: true
    bias_filler {
      value: 0
    }
  }
}
layer {
  name: "conv4/relu"
  type: "ReLU"
  bottom: "conv4"
  top: "conv4"
}
layer {
  name: "conv5/dw"
  type: "Convolution"
  bottom: "conv4"
  top: "conv5/dw"
  param {
    lr_mult: 0.1
    decay_mult: 0.1
  }
  convolution_param {
    num_output: 256
    bias_term: false
    pad: 1
    kernel_size: 3
    group: 256
    weight_filler {
      type: "msra"
    }
    engine: CAFFE
  }
}
layer {
  name: "conv5/dw/bn"
  type: "BatchNorm"
  bottom: "conv5/dw"
  top: "conv5/dw"
}
layer {
  name: "conv5/dw/scale"
  type: "Scale"
  bottom: "conv5/dw"
  top: "conv5/dw"
  param {
    lr_mult: 0.1
    decay_mult: 0
  }
  param {
    lr_mult: 0.2
    decay_mult: 0
  }
  scale_param {
    filler {
      value: 1
    }
    bias_term: true
    bias_filler {
      value: 0
    }
  }
}
layer {
  name: "conv5/dw/relu"
  type: "ReLU"
  bottom: "conv5/dw"
  top: "conv5/dw"
}
layer {
  name: "conv5"
  type: "Convolution"
  bottom: "conv5/dw"
  top: "conv5"
  param {
    lr_mult: 0.1
    decay_mult: 0.1
  }
  convolution_param {
    num_output: 256
    bias_term: false
    kernel_size: 1
    weight_filler {
      type: "msra"
    }
  }
}
layer {
  name: "conv5/bn"
  type: "BatchNorm"
  bottom: "conv5"
  top: "conv5"
}
layer {
  name: "conv5/scale"
  type: "Scale"
  bottom: "conv5"
  top: "conv5"
  param {
    lr_mult: 0.1
    decay_mult: 0
  }
  param {
    lr_mult: 0.2
    decay_mult: 0
  }
  scale_param {
    filler {
      value: 1
    }
    bias_term: true
    bias_filler {
      value: 0
    }
  }
}
layer {
  name: "conv5/relu"
  type: "ReLU"
  bottom: "conv5"
  top: "conv5"
}
layer {
  name: "conv6/dw"
  type: "Convolution"
  bottom: "conv5"
  top: "conv6/dw"
  param {
    lr_mult: 0.1
    decay_mult: 0.1
  }
  convolution_param {
    num_output: 256
    bias_term: false
    pad: 1
    kernel_size: 3
    group: 256
    stride: 2
    weight_filler {
      type: "msra"
    }
    engine: CAFFE
  }
}
layer {
  name: "conv6/dw/bn"
  type: "BatchNorm"
  bottom: "conv6/dw"
  top: "conv6/dw"
}
layer {
  name: "conv6/dw/scale"
  type: "Scale"
  bottom: "conv6/dw"
  top: "conv6/dw"
  param {
    lr_mult: 0.1
    decay_mult: 0
  }
  param {
    lr_mult: 0.2
    decay_mult: 0
  }
  scale_param {
    filler {
      value: 1
    }
    bias_term: true
    bias_filler {
      value: 0
    }
  }
}
layer {
  name: "conv6/dw/relu"
  type: "ReLU"
  bottom: "conv6/dw"
  top: "conv6/dw"
}
layer {
  name: "conv6"
  type: "Convolution"
  bottom: "conv6/dw"
  top: "conv6"
  param {
    lr_mult: 0.1
    decay_mult: 0.1
  }
  convolution_param {
    num_output: 512
    bias_term: false
    kernel_size: 1
    weight_filler {
      type: "msra"
    }
  }
}
layer {
  name: "conv6/bn"
  type: "BatchNorm"
  bottom: "conv6"
  top: "conv6"
}
layer {
  name: "conv6/scale"
  type: "Scale"
  bottom: "conv6"
  top: "conv6"
  param {
    lr_mult: 0.1
    decay_mult: 0
  }
  param {
    lr_mult: 0.2
    decay_mult: 0
  }
  scale_param {
    filler {
      value: 1
    }
    bias_term: true
    bias_filler {
      value: 0
    }
  }
}
layer {
  name: "conv6/relu"
  type: "ReLU"
  bottom: "conv6"
  top: "conv6"
}
layer {
  name: "conv7/dw"
  type: "Convolution"
  bottom: "conv6"
  top: "conv7/dw"
  param {
    lr_mult: 0.1
    decay_mult: 0.1
  }
  convolution_param {
    num_output: 512
    bias_term: false
    pad: 1
    kernel_size: 3
    group: 512
    weight_filler {
      type: "msra"
    }
    engine: CAFFE
  }
}
layer {
  name: "conv7/dw/bn"
  type: "BatchNorm"
  bottom: "conv7/dw"
  top: "conv7/dw"
}
layer {
  name: "conv7/dw/scale"
  type: "Scale"
  bottom: "conv7/dw"
  top: "conv7/dw"
  param {
    lr_mult: 0.1
    decay_mult: 0
  }
  param {
    lr_mult: 0.2
    decay_mult: 0
  }
  scale_param {
    filler {
      value: 1
    }
    bias_term: true
    bias_filler {
      value: 0
    }
  }
}
layer {
  name: "conv7/dw/relu"
  type: "ReLU"
  bottom: "conv7/dw"
  top: "conv7/dw"
}
layer {
  name: "conv7"
  type: "Convolution"
  bottom: "conv7/dw"
  top: "conv7"
  param {
    lr_mult: 0.1
    decay_mult: 0.1
  }
  convolution_param {
    num_output: 512
    bias_term: false
    kernel_size: 1
    weight_filler {
      type: "msra"
    }
  }
}
layer {
  name: "conv7/bn"
  type: "BatchNorm"
  bottom: "conv7"
  top: "conv7"
}
layer {
  name: "conv7/scale"
  type: "Scale"
  bottom: "conv7"
  top: "conv7"
  param {
    lr_mult: 0.1
    decay_mult: 0
  }
  param {
    lr_mult: 0.2
    decay_mult: 0
  }
  scale_param {
    filler {
      value: 1
    }
    bias_term: true
    bias_filler {
      value: 0
    }
  }
}
layer {
  name: "conv7/relu"
  type: "ReLU"
  bottom: "conv7"
  top: "conv7"
}
layer {
  name: "conv8/dw"
  type: "Convolution"
  bottom: "conv7"
  top: "conv8/dw"
  param {
    lr_mult: 0.1
    decay_mult: 0.1
  }
  convolution_param {
    num_output: 512
    bias_term: false
    pad: 1
    kernel_size: 3
    group: 512
    weight_filler {
      type: "msra"
    }
    engine: CAFFE
  }
}
layer {
  name: "conv8/dw/bn"
  type: "BatchNorm"
  bottom: "conv8/dw"
  top: "conv8/dw"
}
layer {
  name: "conv8/dw/scale"
  type: "Scale"
  bottom: "conv8/dw"
  top: "conv8/dw"
  param {
    lr_mult: 0.1
    decay_mult: 0
  }
  param {
    lr_mult: 0.2
    decay_mult: 0
  }
  scale_param {
    filler {
      value: 1
    }
    bias_term: true
    bias_filler {
      value: 0
    }
  }
}
layer {
  name: "conv8/dw/relu"
  type: "ReLU"
  bottom: "conv8/dw"
  top: "conv8/dw"
}
layer {
  name: "conv8"
  type: "Convolution"
  bottom: "conv8/dw"
  top: "conv8"
  param {
    lr_mult: 0.1
    decay_mult: 0.1
  }
  convolution_param {
    num_output: 512
    bias_term: false
    kernel_size: 1
    weight_filler {
      type: "msra"
    }
  }
}
layer {
  name: "conv8/bn"
  type: "BatchNorm"
  bottom: "conv8"
  top: "conv8"
}
layer {
  name: "conv8/scale"
  type: "Scale"
  bottom: "conv8"
  top: "conv8"
  param {
    lr_mult: 0.1
    decay_mult: 0
  }
  param {
    lr_mult: 0.2
    decay_mult: 0
  }
  scale_param {
    filler {
      value: 1
    }
    bias_term: true
    bias_filler {
      value: 0
    }
  }
}
layer {
  name: "conv8/relu"
  type: "ReLU"
  bottom: "conv8"
  top: "conv8"
}
layer {
  name: "conv9/dw"
  type: "Convolution"
  bottom: "conv8"
  top: "conv9/dw"
  param {
    lr_mult: 0.1
    decay_mult: 0.1
  }
  convolution_param {
    num_output: 512
    bias_term: false
    pad: 1
    kernel_size: 3
    group: 512
    weight_filler {
      type: "msra"
    }
    engine: CAFFE
  }
}
layer {
  name: "conv9/dw/bn"
  type: "BatchNorm"
  bottom: "conv9/dw"
  top: "conv9/dw"
}
layer {
  name: "conv9/dw/scale"
  type: "Scale"
  bottom: "conv9/dw"
  top: "conv9/dw"
  param {
    lr_mult: 0.1
    decay_mult: 0
  }
  param {
    lr_mult: 0.2
    decay_mult: 0
  }
  scale_param {
    filler {
      value: 1
    }
    bias_term: true
    bias_filler {
      value: 0
    }
  }
}
layer {
  name: "conv9/dw/relu"
  type: "ReLU"
  bottom: "conv9/dw"
  top: "conv9/dw"
}
layer {
  name: "conv9"
  type: "Convolution"
  bottom: "conv9/dw"
  top: "conv9"
  param {
    lr_mult: 0.1
    decay_mult: 0.1
  }
  convolution_param {
    num_output: 512
    bias_term: false
    kernel_size: 1
    weight_filler {
      type: "msra"
    }
  }
}
layer {
  name: "conv9/bn"
  type: "BatchNorm"
  bottom: "conv9"
  top: "conv9"
}
layer {
  name: "conv9/scale"
  type: "Scale"
  bottom: "conv9"
  top: "conv9"
  param {
    lr_mult: 0.1
    decay_mult: 0
  }
  param {
    lr_mult: 0.2
    decay_mult: 0
  }
  scale_param {
    filler {
      value: 1
    }
    bias_term: true
    bias_filler {
      value: 0
    }
  }
}
layer {
  name: "conv9/relu"
  type: "ReLU"
  bottom: "conv9"
  top: "conv9"
}
layer {
  name: "conv10/dw"
  type: "Convolution"
  bottom: "conv9"
  top: "conv10/dw"
  param {
    lr_mult: 0.1
    decay_mult: 0.1
  }
  convolution_param {
    num_output: 512
    bias_term: false
    pad: 1
    kernel_size: 3
    group: 512
    weight_filler {
      type: "msra"
    }
    engine: CAFFE
  }
}
layer {
  name: "conv10/dw/bn"
  type: "BatchNorm"
  bottom: "conv10/dw"
  top: "conv10/dw"
}
layer {
  name: "conv10/dw/scale"
  type: "Scale"
  bottom: "conv10/dw"
  top: "conv10/dw"
  param {
    lr_mult: 0.1
    decay_mult: 0
  }
  param {
    lr_mult: 0.2
    decay_mult: 0
  }
  scale_param {
    filler {
      value: 1
    }
    bias_term: true
    bias_filler {
      value: 0
    }
  }
}
layer {
  name: "conv10/dw/relu"
  type: "ReLU"
  bottom: "conv10/dw"
  top: "conv10/dw"
}
layer {
  name: "conv10"
  type: "Convolution"
  bottom: "conv10/dw"
  top: "conv10"
  param {
    lr_mult: 0.1
    decay_mult: 0.1
  }
  convolution_param {
    num_output: 512
    bias_term: false
    kernel_size: 1
    weight_filler {
      type: "msra"
    }
  }
}
layer {
  name: "conv10/bn"
  type: "BatchNorm"
  bottom: "conv10"
  top: "conv10"
}
layer {
  name: "conv10/scale"
  type: "Scale"
  bottom: "conv10"
  top: "conv10"
  param {
    lr_mult: 0.1
    decay_mult: 0
  }
  param {
    lr_mult: 0.2
    decay_mult: 0
  }
  scale_param {
    filler {
      value: 1
    }
    bias_term: true
    bias_filler {
      value: 0
    }
  }
}
layer {
  name: "conv10/relu"
  type: "ReLU"
  bottom: "conv10"
  top: "conv10"
}
layer {
  name: "conv11/dw"
  type: "Convolution"
  bottom: "conv10"
  top: "conv11/dw"
  param {
    lr_mult: 0.1
    decay_mult: 0.1
  }
  convolution_param {
    num_output: 512
    bias_term: false
    pad: 1
    kernel_size: 3
    group: 512
    weight_filler {
      type: "msra"
    }
    engine: CAFFE
  }
}
layer {
  name: "conv11/dw/bn"
  type: "BatchNorm"
  bottom: "conv11/dw"
  top: "conv11/dw"
}
layer {
  name: "conv11/dw/scale"
  type: "Scale"
  bottom: "conv11/dw"
  top: "conv11/dw"
  param {
    lr_mult: 0.1
    decay_mult: 0
  }
  param {
    lr_mult: 0.2
    decay_mult: 0
  }
  scale_param {
    filler {
      value: 1
    }
    bias_term: true
    bias_filler {
      value: 0
    }
  }
}
layer {
  name: "conv11/dw/relu"
  type: "ReLU"
  bottom: "conv11/dw"
  top: "conv11/dw"
}
layer {
  name: "conv11"
  type: "Convolution"
  bottom: "conv11/dw"
  top: "conv11"
  param {
    lr_mult: 0.1
    decay_mult: 0.1
  }
  convolution_param {
    num_output: 512
    bias_term: false
    kernel_size: 1
    weight_filler {
      type: "msra"
    }
  }
}
layer {
  name: "conv11/bn"
  type: "BatchNorm"
  bottom: "conv11"
  top: "conv11"
}
layer {
  name: "conv11/scale"
  type: "Scale"
  bottom: "conv11"
  top: "conv11"
  param {
    lr_mult: 0.1
    decay_mult: 0
  }
  param {
    lr_mult: 0.2
    decay_mult: 0
  }
  scale_param {
    filler {
      value: 1
    }
    bias_term: true
    bias_filler {
      value: 0
    }
  }
}
layer {
  name: "conv11/relu"
  type: "ReLU"
  bottom: "conv11"
  top: "conv11"
}
layer {
  name: "conv12/dw"
  type: "Convolution"
  bottom: "conv11"
  top: "conv12/dw"
  param {
    lr_mult: 0.1
    decay_mult: 0.1
  }
  convolution_param {
    num_output: 512
    bias_term: false
    pad: 1
    kernel_size: 3
    group: 512
    stride: 2
    weight_filler {
      type: "msra"
    }
    engine: CAFFE
  }
}
layer {
  name: "conv12/dw/bn"
  type: "BatchNorm"
  bottom: "conv12/dw"
  top: "conv12/dw"
}
layer {
  name: "conv12/dw/scale"
  type: "Scale"
  bottom: "conv12/dw"
  top: "conv12/dw"
  param {
    lr_mult: 0.1
    decay_mult: 0
  }
  param {
    lr_mult: 0.2
    decay_mult: 0
  }
  scale_param {
    filler {
      value: 1
    }
    bias_term: true
    bias_filler {
      value: 0
    }
  }
}
layer {
  name: "conv12/dw/relu"
  type: "ReLU"
  bottom: "conv12/dw"
  top: "conv12/dw"
}
layer {
  name: "conv12"
  type: "Convolution"
  bottom: "conv12/dw"
  top: "conv12"
  param {
    lr_mult: 0.1
    decay_mult: 0.1
  }
  convolution_param {
    num_output: 1024
    bias_term: false
    kernel_size: 1
    weight_filler {
      type: "msra"
    }
  }
}
layer {
  name: "conv12/bn"
  type: "BatchNorm"
  bottom: "conv12"
  top: "conv12"
}
layer {
  name: "conv12/scale"
  type: "Scale"
  bottom: "conv12"
  top: "conv12"
  param {
    lr_mult: 0.1
    decay_mult: 0
  }
  param {
    lr_mult: 0.2
    decay_mult: 0
  }
  scale_param {
    filler {
      value: 1
    }
    bias_term: true
    bias_filler {
      value: 0
    }
  }
}
layer {
  name: "conv12/relu"
  type: "ReLU"
  bottom: "conv12"
  top: "conv12"
}
layer {
  name: "conv13/dw"
  type: "Convolution"
  bottom: "conv12"
  top: "conv13/dw"
  param {
    lr_mult: 0.1
    decay_mult: 0.1
  }
  convolution_param {
    num_output: 1024
    bias_term: false
    pad: 1
    kernel_size: 3
    group: 1024
    weight_filler {
      type: "msra"
    }
    engine: CAFFE
  }
}
layer {
  name: "conv13/dw/bn"
  type: "BatchNorm"
  bottom: "conv13/dw"
  top: "conv13/dw"
}
layer {
  name: "conv13/dw/scale"
  type: "Scale"
  bottom: "conv13/dw"
  top: "conv13/dw"
  param {
    lr_mult: 0.1
    decay_mult: 0
  }
  param {
    lr_mult: 0.2
    decay_mult: 0
  }
  scale_param {
    filler {
      value: 1
    }
    bias_term: true
    bias_filler {
      value: 0
    }
  }
}
layer {
  name: "conv13/dw/relu"
  type: "ReLU"
  bottom: "conv13/dw"
  top: "conv13/dw"
}
layer {
  name: "conv13"
  type: "Convolution"
  bottom: "conv13/dw"
  top: "conv13"
  param {
    lr_mult: 0.1
    decay_mult: 0.1
  }
  convolution_param {
    num_output: 1024
    bias_term: false
    kernel_size: 1
    weight_filler {
      type: "msra"
    }
  }
}
layer {
  name: "conv13/bn"
  type: "BatchNorm"
  bottom: "conv13"
  top: "conv13"
}
layer {
  name: "conv13/scale"
  type: "Scale"
  bottom: "conv13"
  top: "conv13"
  param {
    lr_mult: 0.1
    decay_mult: 0
  }
  param {
    lr_mult: 0.2
    decay_mult: 0
  }
  scale_param {
    filler {
      value: 1
    }
    bias_term: true
    bias_filler {
      value: 0
    }
  }
}
layer {
  name: "conv13/relu"
  type: "ReLU"
  bottom: "conv13"
  top: "conv13"
}
layer {
  name: "conv14_1"
  type: "Convolution"
  bottom: "conv13"
  top: "conv14_1"
  param {
    lr_mult: 0.1
    decay_mult: 0.1
  }
  convolution_param {
    num_output: 256
    bias_term: false
    kernel_size: 1
    weight_filler {
      type: "msra"
    }
  }
}
layer {
  name: "conv14_1/bn"
  type: "BatchNorm"
  bottom: "conv14_1"
  top: "conv14_1"
}
layer {
  name: "conv14_1/scale"
  type: "Scale"
  bottom: "conv14_1"
  top: "conv14_1"
  param {
    lr_mult: 0.1
    decay_mult: 0
  }
  param {
    lr_mult: 0.2
    decay_mult: 0
  }
  scale_param {
    filler {
      value: 1
    }
    bias_term: true
    bias_filler {
      value: 0
    }
  }
}
layer {
  name: "conv14_1/relu"
  type: "ReLU"
  bottom: "conv14_1"
  top: "conv14_1"
}
layer {
  name: "conv14_2"
  type: "Convolution"
  bottom: "conv14_1"
  top: "conv14_2"
  param {
    lr_mult: 0.1
    decay_mult: 0.1
  }
  convolution_param {
    num_output: 512
    bias_term: false
    pad: 1
    kernel_size: 3
    stride: 2
    weight_filler {
      type: "msra"
    }
  }
}
layer {
  name: "conv14_2/bn"
  type: "BatchNorm"
  bottom: "conv14_2"
  top: "conv14_2"
}
layer {
  name: "conv14_2/scale"
  type: "Scale"
  bottom: "conv14_2"
  top: "conv14_2"
  param {
    lr_mult: 0.1
    decay_mult: 0
  }
  param {
    lr_mult: 0.2
    decay_mult: 0
  }
  scale_param {
    filler {
      value: 1
    }
    bias_term: true
    bias_filler {
      value: 0
    }
  }
}
layer {
  name: "conv14_2/relu"
  type: "ReLU"
  bottom: "conv14_2"
  top: "conv14_2"
}
layer {
  name: "conv15_1"
  type: "Convolution"
  bottom: "conv14_2"
  top: "conv15_1"
  param {
    lr_mult: 0.1
    decay_mult: 0.1
  }
  convolution_param {
    num_output: 128
    bias_term: false
    kernel_size: 1
    weight_filler {
      type: "msra"
    }
  }
}
layer {
  name: "conv15_1/bn"
  type: "BatchNorm"
  bottom: "conv15_1"
  top: "conv15_1"
}
layer {
  name: "conv15_1/scale"
  type: "Scale"
  bottom: "conv15_1"
  top: "conv15_1"
  param {
    lr_mult: 0.1
    decay_mult: 0
  }
  param {
    lr_mult: 0.2
    decay_mult: 0
  }
  scale_param {
    filler {
      value: 1
    }
    bias_term: true
    bias_filler {
      value: 0
    }
  }
}
layer {
  name: "conv15_1/relu"
  type: "ReLU"
  bottom: "conv15_1"
  top: "conv15_1"
}
layer {
  name: "conv15_2"
  type: "Convolution"
  bottom: "conv15_1"
  top: "conv15_2"
  param {
    lr_mult: 0.1
    decay_mult: 0.1
  }
  convolution_param {
    num_output: 256
    bias_term: false
    pad: 1
    kernel_size: 3
    stride: 2
    weight_filler {
      type: "msra"
    }
  }
}
layer {
  name: "conv15_2/bn"
  type: "BatchNorm"
  bottom: "conv15_2"
  top: "conv15_2"
}
layer {
  name: "conv15_2/scale"
  type: "Scale"
  bottom: "conv15_2"
  top: "conv15_2"
  param {
    lr_mult: 0.1
    decay_mult: 0
  }
  param {
    lr_mult: 0.2
    decay_mult: 0
  }
  scale_param {
    filler {
      value: 1
    }
    bias_term: true
    bias_filler {
      value: 0
    }
  }
}
layer {
  name: "conv15_2/relu"
  type: "ReLU"
  bottom: "conv15_2"
  top: "conv15_2"
}
layer {
  name: "conv16_1"
  type: "Convolution"
  bottom: "conv15_2"
  top: "conv16_1"
  param {
    lr_mult: 0.1
    decay_mult: 0.1
  }
  convolution_param {
    num_output: 128
    bias_term: false
    kernel_size: 1
    weight_filler {
      type: "msra"
    }
  }
}
layer {
  name: "conv16_1/bn"
  type: "BatchNorm"
  bottom: "conv16_1"
  top: "conv16_1"
}
layer {
  name: "conv16_1/scale"
  type: "Scale"
  bottom: "conv16_1"
  top: "conv16_1"
  param {
    lr_mult: 0.1
    decay_mult: 0
  }
  param {
    lr_mult: 0.2
    decay_mult: 0
  }
  scale_param {
    filler {
      value: 1
    }
    bias_term: true
    bias_filler {
      value: 0
    }
  }
}
layer {
  name: "conv16_1/relu"
  type: "ReLU"
  bottom: "conv16_1"
  top: "conv16_1"
}
layer {
  name: "conv16_2"
  type: "Convolution"
  bottom: "conv16_1"
  top: "conv16_2"
  param {
    lr_mult: 0.1
    decay_mult: 0.1
  }
  convolution_param {
    num_output: 256
    bias_term: false
    pad: 1
    kernel_size: 3
    stride: 2
    weight_filler {
      type: "msra"
    }
  }
}
layer {
  name: "conv16_2/bn"
  type: "BatchNorm"
  bottom: "conv16_2"
  top: "conv16_2"
}
layer {
  name: "conv16_2/scale"
  type: "Scale"
  bottom: "conv16_2"
  top: "conv16_2"
  param {
    lr_mult: 0.1
    decay_mult: 0
  }
  param {
    lr_mult: 0.2
    decay_mult: 0
  }
  scale_param {
    filler {
      value: 1
    }
    bias_term: true
    bias_filler {
      value: 0
    }
  }
}
layer {
  name: "conv16_2/relu"
  type: "ReLU"
  bottom: "conv16_2"
  top: "conv16_2"
}
layer {
  name: "conv17_1"
  type: "Convolution"
  bottom: "conv16_2"
  top: "conv17_1"
  param {
    lr_mult: 0.1
    decay_mult: 0.1
  }
  convolution_param {
    num_output: 64
    bias_term: false
    kernel_size: 1
    weight_filler {
      type: "msra"
    }
  }
}
layer {
  name: "conv17_1/bn"
  type: "BatchNorm"
  bottom: "conv17_1"
  top: "conv17_1"
}
layer {
  name: "conv17_1/scale"
  type: "Scale"
  bottom: "conv17_1"
  top: "conv17_1"
  param {
    lr_mult: 0.1
    decay_mult: 0
  }
  param {
    lr_mult: 0.2
    decay_mult: 0
  }
  scale_param {
    filler {
      value: 1
    }
    bias_term: true
    bias_filler {
      value: 0
    }
  }
}
layer {
  name: "conv17_1/relu"
  type: "ReLU"
  bottom: "conv17_1"
  top: "conv17_1"
}
layer {
  name: "conv17_2"
  type: "Convolution"
  bottom: "conv17_1"
  top: "conv17_2"
  param {
    lr_mult: 0.1
    decay_mult: 0.1
  }
  convolution_param {
    num_output: 128
    bias_term: false
    pad: 1
    kernel_size: 3
    stride: 2
    weight_filler {
      type: "msra"
    }
  }
}
layer {
  name: "conv17_2/bn"
  type: "BatchNorm"
  bottom: "conv17_2"
  top: "conv17_2"
}
layer {
  name: "conv17_2/scale"
  type: "Scale"
  bottom: "conv17_2"
  top: "conv17_2"
  param {
    lr_mult: 0.1
    decay_mult: 0
  }
  param {
    lr_mult: 0.2
    decay_mult: 0
  }
  scale_param {
    filler {
      value: 1
    }
    bias_term: true
    bias_filler {
      value: 0
    }
  }
}
layer {
  name: "conv17_2/relu"
  type: "ReLU"
  bottom: "conv17_2"
  top: "conv17_2"
}
layer {
  name: "conv11_mbox_loc"
  type: "Convolution"
  bottom: "conv11"
  top: "conv11_mbox_loc"
  param {
    lr_mult: 0.1
    decay_mult: 0.1
  }
  param {
    lr_mult: 0.2
    decay_mult: 0
  }
  convolution_param {
    num_output: 12
    kernel_size: 1
    weight_filler {
      type: "msra"
    }
    bias_filler {
      type: "constant"
      value: 0
    }
  }
}
layer {
  
I0619 17:17:24.795801  5881 layer_factory.hpp:77] Creating layer data
I0619 17:17:24.882241  5881 net.cpp:100] Creating Layer data
I0619 17:17:24.883185  5881 net.cpp:408] data -> data
I0619 17:17:24.883484  5881 net.cpp:408] data -> label
I0619 17:17:25.001296  5887 db_lmdb.cpp:35] Opened lmdb /home/sun/ssd/caffe/examples/MobileNet-SSD-master/voc/VOCdevkit/VOC0712/lmdb/VOC0712_trainval_lmdb/
I0619 17:17:25.272856  5881 annotated_data_layer.cpp:62] output data size: 8,3,300,300
I0619 17:17:25.289649  5881 net.cpp:150] Setting up data
I0619 17:17:25.289798  5881 net.cpp:157] Top shape: 8 3 300 300 (2160000)
I0619 17:17:25.289825  5881 net.cpp:157] Top shape: 1 1 3 8 (24)
I0619 17:17:25.289836  5881 net.cpp:165] Memory required for data: 8640096
I0619 17:17:25.289857  5881 layer_factory.hpp:77] Creating layer data_data_0_split
I0619 17:17:25.289887  5881 net.cpp:100] Creating Layer data_data_0_split
I0619 17:17:25.289902  5881 net.cpp:434] data_data_0_split <- data
I0619 17:17:25.289928  5881 net.cpp:408] data_data_0_split -> data_data_0_split_0
I0619 17:17:25.289952  5881 net.cpp:408] data_data_0_split -> data_data_0_split_1
I0619 17:17:25.289969  5881 net.cpp:408] data_data_0_split -> data_data_0_split_2
I0619 17:17:25.289986  5881 net.cpp:408] data_data_0_split -> data_data_0_split_3
I0619 17:17:25.290000  5881 net.cpp:408] data_data_0_split -> data_data_0_split_4
I0619 17:17:25.290014  5881 net.cpp:408] data_data_0_split -> data_data_0_split_5
I0619 17:17:25.290027  5881 net.cpp:408] data_data_0_split -> data_data_0_split_6
I0619 17:17:25.290072  5881 net.cpp:150] Setting up data_data_0_split
I0619 17:17:25.290091  5881 net.cpp:157] Top shape: 8 3 300 300 (2160000)
I0619 17:17:25.290102  5881 net.cpp:157] Top shape: 8 3 300 300 (2160000)
I0619 17:17:25.290113  5881 net.cpp:157] Top shape: 8 3 300 300 (2160000)
I0619 17:17:25.290164  5881 net.cpp:157] Top shape: 8 3 300 300 (2160000)
I0619 17:17:25.290177  5881 net.cpp:157] Top shape: 8 3 300 300 (2160000)
I0619 17:17:25.290189  5881 net.cpp:157] Top shape: 8 3 300 300 (2160000)
I0619 17:17:25.290200  5881 net.cpp:157] Top shape: 8 3 300 300 (2160000)
I0619 17:17:25.290210  5881 net.cpp:165] Memory required for data: 69120096
I0619 17:17:25.290220  5881 layer_factory.hpp:77] Creating layer conv0
I0619 17:17:25.290259  5881 net.cpp:100] Creating Layer conv0
I0619 17:17:25.290274  5881 net.cpp:434] conv0 <- data_data_0_split_0
I0619 17:17:25.290292  5881 net.cpp:408] conv0 -> conv0
I0619 17:17:25.351488  5881 net.cpp:150] Setting up conv0
I0619 17:17:25.351573  5881 net.cpp:157] Top shape: 8 32 150 150 (5760000)
I0619 17:17:25.351601  5881 net.cpp:165] Memory required for data: 92160096
I0619 17:17:25.351658  5881 layer_factory.hpp:77] Creating layer conv0/bn
I0619 17:17:25.352134  5881 net.cpp:100] Creating Layer conv0/bn
I0619 17:17:25.352191  5881 net.cpp:434] conv0/bn <- conv0
I0619 17:17:25.352212  5881 net.cpp:395] conv0/bn -> conv0 (in-place)
I0619 17:17:25.352355  5881 net.cpp:150] Setting up conv0/bn
I0619 17:17:25.352394  5881 net.cpp:157] Top shape: 8 32 150 150 (5760000)
I0619 17:17:25.352421  5881 net.cpp:165] Memory required for data: 115200096
I0619 17:17:25.352465  5881 layer_factory.hpp:77] Creating layer conv0/scale
I0619 17:17:25.409086  5881 net.cpp:100] Creating Layer conv0/scale
I0619 17:17:25.409194  5881 net.cpp:434] conv0/scale <- conv0
I0619 17:17:25.409224  5881 net.cpp:395] conv0/scale -> conv0 (in-place)
I0619 17:17:25.409276  5881 layer_factory.hpp:77] Creating layer conv0/scale
I0619 17:17:25.409749  5881 net.cpp:150] Setting up conv0/scale
I0619 17:17:25.409832  5881 net.cpp:157] Top shape: 8 32 150 150 (5760000)
I0619 17:17:25.409842  5881 net.cpp:165] Memory required for data: 138240096
I0619 17:17:25.409867  5881 layer_factory.hpp:77] Creating layer conv0/relu
I0619 17:17:25.409888  5881 net.cpp:100] Creating Layer conv0/relu
I0619 17:17:25.409948  5881 net.cpp:434] conv0/relu <- conv0
I0619 17:17:25.409992  5881 net.cpp:395] conv0/relu -> conv0 (in-place)
I0619 17:17:25.410078  5881 net.cpp:150] Setting up conv0/relu
I0619 17:17:25.410138  5881 net.cpp:157] Top shape: 8 32 150 150 (5760000)
I0619 17:17:25.410151  5881 net.cpp:165] Memory required for data: 161280096
I0619 17:17:25.410161  5881 layer_factory.hpp:77] Creating layer conv1/dw
I0619 17:17:25.410181  5881 net.cpp:100] Creating Layer conv1/dw
I0619 17:17:25.410233  5881 net.cpp:434] conv1/dw <- conv0
I0619 17:17:25.410305  5881 net.cpp:408] conv1/dw -> conv1/dw
I0619 17:17:25.410446  5881 net.cpp:150] Setting up conv1/dw
I0619 17:17:25.410502  5881 net.cpp:157] Top shape: 8 32 150 150 (5760000)
I0619 17:17:25.410513  5881 net.cpp:165] Memory required for data: 184320096
I0619 17:17:25.410524  5881 layer_factory.hpp:77] Creating layer conv1/dw/bn
I0619 17:17:25.410543  5881 net.cpp:100] Creating Layer conv1/dw/bn
I0619 17:17:25.410598  5881 net.cpp:434] conv1/dw/bn <- conv1/dw
I0619 17:17:25.410665  5881 net.cpp:395] conv1/dw/bn -> conv1/dw (in-place)
I0619 17:17:25.410869  5881 net.cpp:150] Setting up conv1/dw/bn
I0619 17:17:25.410933  5881 net.cpp:157] Top shape: 8 32 150 150 (5760000)
I0619 17:17:25.410945  5881 net.cpp:165] Memory required for data: 207360096
I0619 17:17:25.410969  5881 layer_factory.hpp:77] Creating layer conv1/dw/scale
I0619 17:17:25.411047  5881 net.cpp:100] Creating Layer conv1/dw/scale
I0619 17:17:25.411103  5881 net.cpp:434] conv1/dw/scale <- conv1/dw
I0619 17:17:25.411130  5881 net.cpp:395] conv1/dw/scale -> conv1/dw (in-place)
I0619 17:17:25.411201  5881 layer_factory.hpp:77] Creating layer conv1/dw/scale
I0619 17:17:25.411501  5881 net.cpp:150] Setting up conv1/dw/scale
I0619 17:17:25.411561  5881 net.cpp:157] Top shape: 8 32 150 150 (5760000)
I0619 17:17:25.411571  5881 net.cpp:165] Memory required for data: 230400096
I0619 17:17:25.411586  5881 layer_factory.hpp:77] Creating layer conv1/dw/relu
I0619 17:17:25.411685  5881 net.cpp:100] Creating Layer conv1/dw/relu
I0619 17:17:25.411706  5881 net.cpp:434] conv1/dw/relu <- conv1/dw
I0619 17:17:25.411732  5881 net.cpp:395] conv1/dw/relu -> conv1/dw (in-place)
I0619 17:17:25.411754  5881 net.cpp:150] Setting up conv1/dw/relu
I0619 17:17:25.411772  5881 net.cpp:157] Top shape: 8 32 150 150 (5760000)
I0619 17:17:25.411792  5881 net.cpp:165] Memory required for data: 253440096
I0619 17:17:25.411813  5881 layer_factory.hpp:77] Creating layer conv1
I0619 17:17:25.411842  5881 net.cpp:100] Creating Layer conv1
I0619 17:17:25.411960  5881 net.cpp:434] conv1 <- conv1/dw
I0619 17:17:25.411998  5881 net.cpp:408] conv1 -> conv1
I0619 17:17:25.412233  5881 net.cpp:150] Setting up conv1
I0619 17:17:25.412286  5881 net.cpp:157] Top shape: 8 64 150 150 (11520000)
I0619 17:17:25.412295  5881 net.cpp:165] Memory required for data: 299520096
I0619 17:17:25.412307  5881 layer_factory.hpp:77] Creating layer conv1/bn
I0619 17:17:25.412325  5881 net.cpp:100] Creating Layer conv1/bn
I0619 17:17:25.412374  5881 net.cpp:434] conv1/bn <- conv1
I0619 17:17:25.412432  5881 net.cpp:395] conv1/bn -> conv1 (in-place)
I0619 17:17:25.412616  5881 net.cpp:150] Setting up conv1/bn
I0619 17:17:25.412677  5881 net.cpp:157] Top shape: 8 64 150 150 (11520000)
I0619 17:17:25.412727  5881 net.cpp:165] Memory required for data: 345600096
I0619 17:17:25.412802  5881 layer_factory.hpp:77] Creating layer conv1/scale
I0619 17:17:25.412835  5881 net.cpp:100] Creating Layer conv1/scale
I0619 17:17:25.412847  5881 net.cpp:434] conv1/scale <- conv1
I0619 17:17:25.412905  5881 net.cpp:395] conv1/scale -> conv1 (in-place)
I0619 17:17:25.412984  5881 layer_factory.hpp:77] Creating layer conv1/scale
I0619 17:17:25.413300  5881 net.cpp:150] Setting up conv1/scale
I0619 17:17:25.413362  5881 net.cpp:157] Top shape: 8 64 150 150 (11520000)
I0619 17:17:25.413372  5881 net.cpp:165] Memory required for data: 391680096
I0619 17:17:25.413400  5881 layer_factory.hpp:77] Creating layer conv1/relu
I0619 17:17:25.413451  5881 net.cpp:100] Creating Layer conv1/relu
I0619 17:17:25.413463  5881 net.cpp:434] conv1/relu <- conv1
I0619 17:17:25.413475  5881 net.cpp:395] conv1/relu -> conv1 (in-place)
I0619 17:17:25.413528  5881 net.cpp:150] Setting up conv1/relu
I0619 17:17:25.413585  5881 net.cpp:157] Top shape: 8 64 150 150 (11520000)
I0619 17:17:25.413638  5881 net.cpp:165] Memory required for data: 437760096
I0619 17:17:25.413691  5881 layer_factory.hpp:77] Creating layer conv2/dw
I0619 17:17:25.413765  5881 net.cpp:100] Creating Layer conv2/dw
I0619 17:17:25.413816  5881 net.cpp:434] conv2/dw <- conv1
I0619 17:17:25.413836  5881 net.cpp:408] conv2/dw -> conv2/dw
I0619 17:17:25.413923  5881 net.cpp:150] Setting up conv2/dw
I0619 17:17:25.413969  5881 net.cpp:157] Top shape: 8 64 75 75 (2880000)
I0619 17:17:25.413980  5881 net.cpp:165] Memory required for data: 449280096
I0619 17:17:25.413990  5881 layer_factory.hpp:77] Creating layer conv2/dw/bn
I0619 17:17:25.414002  5881 net.cpp:100] Creating Layer conv2/dw/bn
I0619 17:17:25.414016  5881 net.cpp:434] conv2/dw/bn <- conv2/dw
I0619 17:17:25.414031  5881 net.cpp:395] conv2/dw/bn -> conv2/dw (in-place)
I0619 17:17:25.414104  5881 net.cpp:150] Setting up conv2/dw/bn
I0619 17:17:25.414149  5881 net.cpp:157] Top shape: 8 64 75 75 (2880000)
I0619 17:17:25.414160  5881 net.cpp:165] Memory required for data: 460800096
I0619 17:17:25.414175  5881 layer_factory.hpp:77] Creating layer conv2/dw/scale
I0619 17:17:25.414196  5881 net.cpp:100] Creating Layer conv2/dw/scale
I0619 17:17:25.414235  5881 net.cpp:434] conv2/dw/scale <- conv2/dw
I0619 17:17:25.414252  5881 net.cpp:395] conv2/dw/scale -> conv2/dw (in-place)
I0619 17:17:25.414271  5881 layer_factory.hpp:77] Creating layer conv2/dw/scale
I0619 17:17:25.414371  5881 net.cpp:150] Setting up conv2/dw/scale
I0619 17:17:25.414423  5881 net.cpp:157] Top shape: 8 64 75 75 (2880000)
I0619 17:17:25.414434  5881 net.cpp:165] Memory required for data: 472320096
I0619 17:17:25.414448  5881 layer_factory.hpp:77] Creating layer conv2/dw/relu
I0619 17:17:25.414515  5881 net.cpp:100] Creating Layer conv2/dw/relu
I0619 17:17:25.414527  5881 net.cpp:434] conv2/dw/relu <- conv2/dw
I0619 17:17:25.414538  5881 net.cpp:395] conv2/dw/relu -> conv2/dw (in-place)
I0619 17:17:25.414597  5881 net.cpp:150] Setting up conv2/dw/relu
I0619 17:17:25.414626  5881 net.cpp:157] Top shape: 8 64 75 75 (2880000)
I0619 17:17:25.414639  5881 net.cpp:165] Memory required for data: 483840096
I0619 17:17:25.414691  5881 layer_factory.hpp:77] Creating layer conv2
I0619 17:17:25.414727  5881 net.cpp:100] Creating Layer conv2
I0619 17:17:25.414772  5881 net.cpp:434] conv2 <- conv2/dw
I0619 17:17:25.414795  5881 net.cpp:408] conv2 -> conv2
I0619 17:17:25.415375  5881 net.cpp:150] Setting up conv2
I0619 17:17:25.415422  5881 net.cpp:157] Top shape: 8 128 75 75 (5760000)
I0619 17:17:25.415432  5881 net.cpp:165] Memory required for data: 506880096
I0619 17:17:25.415443  5881 layer_factory.hpp:77] Creating layer conv2/bn
I0619 17:17:25.415459  5881 net.cpp:100] Creating Layer conv2/bn
I0619 17:17:25.415473  5881 net.cpp:434] conv2/bn <- conv2
I0619 17:17:25.415488  5881 net.cpp:395] conv2/bn -> conv2 (in-place)
I0619 17:17:25.415567  5881 net.cpp:150] Setting up conv2/bn
I0619 17:17:25.415588  5881 net.cpp:157] Top shape: 8 128 75 75 (5760000)
I0619 17:17:25.415596  5881 net.cpp:165] Memory required for data: 529920096
I0619 17:17:25.415616  5881 layer_factory.hpp:77] Creating layer conv2/scale
I0619 17:17:25.415627  5881 net.cpp:100] Creating Layer conv2/scale
I0619 17:17:25.415666  5881 net.cpp:434] conv2/scale <- conv2
I0619 17:17:25.415683  5881 net.cpp:395] conv2/scale -> conv2 (in-place)
I0619 17:17:25.415709  5881 layer_factory.hpp:77] Creating layer conv2/scale
I0619 17:17:25.415769  5881 net.cpp:150] Setting up conv2/scale
I0619 17:17:25.415833  5881 net.cpp:157] Top shape: 8 128 75 75 (5760000)
I0619 17:17:25.415844  5881 net.cpp:165] Memory required for data: 552960096
I0619 17:17:25.415864  5881 layer_factory.hpp:77] Creating layer conv2/relu
I0619 17:17:25.415881  5881 net.cpp:100] Creating Layer conv2/relu
I0619 17:17:25.415920  5881 net.cpp:434] conv2/relu <- conv2
I0619 17:17:25.415935  5881 net.cpp:395] conv2/relu -> conv2 (in-place)
I0619 17:17:25.415946  5881 net.cpp:150] Setting up conv2/relu
I0619 17:17:25.415956  5881 net.cpp:157] Top shape: 8 128 75 75 (5760000)
I0619 17:17:25.415968  5881 net.cpp:165] Memory required for data: 576000096
I0619 17:17:25.415977  5881 layer_factory.hpp:77] Creating layer conv3/dw
I0619 17:17:25.416002  5881 net.cpp:100] Creating Layer conv3/dw
I0619 17:17:25.416014  5881 net.cpp:434] conv3/dw <- conv2
I0619 17:17:25.416029  5881 net.cpp:408] conv3/dw -> conv3/dw
I0619 17:17:25.416146  5881 net.cpp:150] Setting up conv3/dw
I0619 17:17:25.416188  5881 net.cpp:157] Top shape: 8 128 75 75 (5760000)
I0619 17:17:25.416198  5881 net.cpp:165] Memory required for data: 599040096
I0619 17:17:25.416209  5881 layer_factory.hpp:77] Creating layer conv3/dw/bn
I0619 17:17:25.416224  5881 net.cpp:100] Creating Layer conv3/dw/bn
I0619 17:17:25.416263  5881 net.cpp:434] conv3/dw/bn <- conv3/dw
I0619 17:17:25.416277  5881 net.cpp:395] conv3/dw/bn -> conv3/dw (in-place)
I0619 17:17:25.416318  5881 net.cpp:150] Setting up conv3/dw/bn
I0619 17:17:25.416359  5881 net.cpp:157] Top shape: 8 128 75 75 (5760000)
I0619 17:17:25.416370  5881 net.cpp:165] Memory required for data: 622080096
I0619 17:17:25.416399  5881 layer_factory.hpp:77] Creating layer conv3/dw/scale
I0619 17:17:25.416445  5881 net.cpp:100] Creating Layer conv3/dw/scale
I0619 17:17:25.416487  5881 net.cpp:434] conv3/dw/scale <- conv3/dw
I0619 17:17:25.416554  5881 net.cpp:395] conv3/dw/scale -> conv3/dw (in-place)
I0619 17:17:25.416633  5881 layer_factory.hpp:77] Creating layer conv3/dw/scale
I0619 17:17:25.416749  5881 net.cpp:150] Setting up conv3/dw/scale
I0619 17:17:25.416800  5881 net.cpp:157] Top shape: 8 128 75 75 (5760000)
I0619 17:17:25.416815  5881 net.cpp:165] Memory required for data: 645120096
I0619 17:17:25.416829  5881 layer_factory.hpp:77] Creating layer conv3/dw/relu
I0619 17:17:25.416872  5881 net.cpp:100] Creating Layer conv3/dw/relu
I0619 17:17:25.416942  5881 net.cpp:434] conv3/dw/relu <- conv3/dw
I0619 17:17:25.416978  5881 net.cpp:395] conv3/dw/relu -> conv3/dw (in-place)
I0619 17:17:25.416985  5881 net.cpp:150] Setting up conv3/dw/relu
I0619 17:17:25.417001  5881 net.cpp:157] Top shape: 8 128 75 75 (5760000)
I0619 17:17:25.417007  5881 net.cpp:165] Memory required for data: 668160096
I0619 17:17:25.417011  5881 layer_factory.hpp:77] Creating layer conv3
I0619 17:17:25.417021  5881 net.cpp:100] Creating Layer conv3
I0619 17:17:25.417037  5881 net.cpp:434] conv3 <- conv3/dw
I0619 17:17:25.417045  5881 net.cpp:408] conv3 -> conv3
I0619 17:17:25.417528  5881 net.cpp:150] Setting up conv3
I0619 17:17:25.417551  5881 net.cpp:157] Top shape: 8 128 75 75 (5760000)
I0619 17:17:25.417557  5881 net.cpp:165] Memory required for data: 691200096
I0619 17:17:25.417562  5881 layer_factory.hpp:77] Creating layer conv3/bn
I0619 17:17:25.417569  5881 net.cpp:100] Creating Layer conv3/bn
I0619 17:17:25.417585  5881 net.cpp:434] conv3/bn <- conv3
I0619 17:17:25.417596  5881 net.cpp:395] conv3/bn -> conv3 (in-place)
I0619 17:17:25.417615  5881 net.cpp:150] Setting up conv3/bn
I0619 17:17:25.417634  5881 net.cpp:157] Top shape: 8 128 75 75 (5760000)
I0619 17:17:25.417640  5881 net.cpp:165] Memory required for data: 714240096
I0619 17:17:25.417651  5881 layer_factory.hpp:77] Creating layer conv3/scale
I0619 17:17:25.417670  5881 net.cpp:100] Creating Layer conv3/scale
I0619 17:17:25.417686  5881 net.cpp:434] conv3/scale <- conv3
I0619 17:17:25.417707  5881 net.cpp:395] conv3/scale -> conv3 (in-place)
I0619 17:17:25.417737  5881 layer_factory.hpp:77] Creating layer conv3/scale
I0619 17:17:25.417785  5881 net.cpp:150] Setting up conv3/scale
I0619 17:17:25.417805  5881 net.cpp:157] Top shape: 8 128 75 75 (5760000)
I0619 17:17:25.417812  5881 net.cpp:165] Memory required for data: 737280096
I0619 17:17:25.417819  5881 layer_factory.hpp:77] Creating layer conv3/relu
I0619 17:17:25.417827  5881 net.cpp:100] Creating Layer conv3/relu
I0619 17:17:25.417832  5881 net.cpp:434] conv3/relu <- conv3
I0619 17:17:25.417837  5881 net.cpp:395] conv3/relu -> conv3 (in-place)
I0619 17:17:25.417845  5881 net.cpp:150] Setting up conv3/relu
I0619 17:17:25.417848  5881 net.cpp:157] Top shape: 8 128 75 75 (5760000)
I0619 17:17:25.417852  5881 net.cpp:165] Memory required for data: 760320096
I0619 17:17:25.417856  5881 layer_factory.hpp:77] Creating layer conv4/dw
I0619 17:17:25.417863  5881 net.cpp:100] Creating Layer conv4/dw
I0619 17:17:25.417879  5881 net.cpp:434] conv4/dw <- conv3
I0619 17:17:25.417889  5881 net.cpp:408] conv4/dw -> conv4/dw
I0619 17:17:25.417939  5881 net.cpp:150] Setting up conv4/dw
I0619 17:17:25.417958  5881 net.cpp:157] Top shape: 8 128 38 38 (1478656)
I0619 17:17:25.417964  5881 net.cpp:165] Memory required for data: 766234720
I0619 17:17:25.417969  5881 layer_factory.hpp:77] Creating layer conv4/dw/bn
I0619 17:17:25.417979  5881 net.cpp:100] Creating Layer conv4/dw/bn
I0619 17:17:25.417984  5881 net.cpp:434] conv4/dw/bn <- conv4/dw
I0619 17:17:25.417987  5881 net.cpp:395] conv4/dw/bn -> conv4/dw (in-place)
I0619 17:17:25.418004  5881 net.cpp:150] Setting up conv4/dw/bn
I0619 17:17:25.418021  5881 net.cpp:157] Top shape: 8 128 38 38 (1478656)
I0619 17:17:25.418028  5881 net.cpp:165] Memory required for data: 772149344
I0619 17:17:25.418035  5881 layer_factory.hpp:77] Creating layer conv4/dw/scale
I0619 17:17:25.418057  5881 net.cpp:100] Creating Layer conv4/dw/scale
I0619 17:17:25.418076  5881 net.cpp:434] conv4/dw/scale <- conv4/dw
I0619 17:17:25.418084  5881 net.cpp:395] conv4/dw/scale -> conv4/dw (in-place)
I0619 17:17:25.418093  5881 layer_factory.hpp:77] Creating layer conv4/dw/scale
I0619 17:17:25.418121  5881 net.cpp:150] Setting up conv4/dw/scale
I0619 17:17:25.418141  5881 net.cpp:157] Top shape: 8 128 38 38 (1478656)
I0619 17:17:25.418148  5881 net.cpp:165] Memory required for data: 778063968
I0619 17:17:25.418154  5881 layer_factory.hpp:77] Creating layer conv4/dw/relu
I0619 17:17:25.418160  5881 net.cpp:100] Creating Layer conv4/dw/relu
I0619 17:17:25.418185  5881 net.cpp:434] conv4/dw/relu <- conv4/dw
I0619 17:17:25.418197  5881 net.cpp:395] conv4/dw/relu -> conv4/dw (in-place)
I0619 17:17:25.418205  5881 net.cpp:150] Setting up conv4/dw/relu
I0619 17:17:25.418210  5881 net.cpp:157] Top shape: 8 128 38 38 (1478656)
I0619 17:17:25.418215  5881 net.cpp:165] Memory required for data: 783978592
I0619 17:17:25.418217  5881 layer_factory.hpp:77] Creating layer conv4
I0619 17:17:25.418227  5881 net.cpp:100] Creating Layer conv4
I0619 17:17:25.418248  5881 net.cpp:434] conv4 <- conv4/dw
I0619 17:17:25.418273  5881 net.cpp:408] conv4 -> conv4
I0619 17:17:25.419203  5881 net.cpp:150] Setting up conv4
I0619 17:17:25.419225  5881 net.cpp:157] Top shape: 8 256 38 38 (2957312)
I0619 17:17:25.419231  5881 net.cpp:165] Memory required for data: 795807840
I0619 17:17:25.419237  5881 layer_factory.hpp:77] Creating layer conv4/bn
I0619 17:17:25.419246  5881 net.cpp:100] Creating Layer conv4/bn
I0619 17:17:25.419251  5881 net.cpp:434] conv4/bn <- conv4
I0619 17:17:25.419255  5881 net.cpp:395] conv4/bn -> conv4 (in-place)
I0619 17:17:25.419272  5881 net.cpp:150] Setting up conv4/bn
I0619 17:17:25.419289  5881 net.cpp:157] Top shape: 8 256 38 38 (2957312)
I0619 17:17:25.419296  5881 net.cpp:165] Memory required for data: 807637088
I0619 17:17:25.419303  5881 layer_factory.hpp:77] Creating layer conv4/scale
I0619 17:17:25.419324  5881 net.cpp:100] Creating Layer conv4/scale
I0619 17:17:25.419342  5881 net.cpp:434] conv4/scale <- conv4
I0619 17:17:25.419365  5881 net.cpp:395] conv4/scale -> conv4 (in-place)
I0619 17:17:25.419386  5881 layer_factory.hpp:77] Creating layer conv4/scale
I0619 17:17:25.419415  5881 net.cpp:150] Setting up conv4/scale
I0619 17:17:25.419435  5881 net.cpp:157] Top shape: 8 256 38 38 (2957312)
I0619 17:17:25.419442  5881 net.cpp:165] Memory required for data: 819466336
I0619 17:17:25.419448  5881 layer_factory.hpp:77] Creating layer conv4/relu
I0619 17:17:25.419456  5881 net.cpp:100] Creating Layer conv4/relu
I0619 17:17:25.419458  5881 net.cpp:434] conv4/relu <- conv4
I0619 17:17:25.419464  5881 net.cpp:395] conv4/relu -> conv4 (in-place)
I0619 17:17:25.419469  5881 net.cpp:150] Setting up conv4/relu
I0619 17:17:25.419476  5881 net.cpp:157] Top shape: 8 256 38 38 (2957312)
I0619 17:17:25.419478  5881 net.cpp:165] Memory required for data: 831295584
I0619 17:17:25.419481  5881 layer_factory.hpp:77] Creating layer conv5/dw
I0619 17:17:25.419492  5881 net.cpp:100] Creating Layer conv5/dw
I0619 17:17:25.419513  5881 net.cpp:434] conv5/dw <- conv4
I0619 17:17:25.419535  5881 net.cpp:408] conv5/dw -> conv5/dw
I0619 17:17:25.419623  5881 net.cpp:150] Setting up conv5/dw
I0619 17:17:25.419643  5881 net.cpp:157] Top shape: 8 256 38 38 (2957312)
I0619 17:17:25.419651  5881 net.cpp:165] Memory required for data: 843124832
I0619 17:17:25.419654  5881 layer_factory.hpp:77] Creating layer conv5/dw/bn
I0619 17:17:25.419661  5881 net.cpp:100] Creating Layer conv5/dw/bn
I0619 17:17:25.419665  5881 net.cpp:434] conv5/dw/bn <- conv5/dw
I0619 17:17:25.419674  5881 net.cpp:395] conv5/dw/bn -> conv5/dw (in-place)
I0619 17:17:25.419688  5881 net.cpp:150] Setting up conv5/dw/bn
I0619 17:17:25.419692  5881 net.cpp:157] Top shape: 8 256 38 38 (2957312)
I0619 17:17:25.419695  5881 net.cpp:165] Memory required for data: 854954080
I0619 17:17:25.419700  5881 layer_factory.hpp:77] Creating layer conv5/dw/scale
I0619 17:17:25.419708  5881 net.cpp:100] Creating Layer conv5/dw/scale
I0619 17:17:25.419713  5881 net.cpp:434] conv5/dw/scale <- conv5/dw
I0619 17:17:25.419718  5881 net.cpp:395] conv5/dw/scale -> conv5/dw (in-place)
I0619 17:17:25.419724  5881 layer_factory.hpp:77] Creating layer conv5/dw/scale
I0619 17:17:25.419740  5881 net.cpp:150] Setting up conv5/dw/scale
I0619 17:17:25.419770  5881 net.cpp:157] Top shape: 8 256 38 38 (2957312)
I0619 17:17:25.419786  5881 net.cpp:165] Memory required for data: 866783328
I0619 17:17:25.419793  5881 layer_factory.hpp:77] Creating layer conv5/dw/relu
I0619 17:17:25.419811  5881 net.cpp:100] Creating Layer conv5/dw/relu
I0619 17:17:25.419837  5881 net.cpp:434] conv5/dw/relu <- conv5/dw
I0619 17:17:25.419864  5881 net.cpp:395] conv5/dw/relu -> conv5/dw (in-place)
I0619 17:17:25.419891  5881 net.cpp:150] Setting up conv5/dw/relu
I0619 17:17:25.419914  5881 net.cpp:157] Top shape: 8 256 38 38 (2957312)
I0619 17:17:25.419919  5881 net.cpp:165] Memory required for data: 878612576
I0619 17:17:25.419924  5881 layer_factory.hpp:77] Creating layer conv5
I0619 17:17:25.419971  5881 net.cpp:100] Creating Layer conv5
I0619 17:17:25.419975  5881 net.cpp:434] conv5 <- conv5/dw
I0619 17:17:25.419983  5881 net.cpp:408] conv5 -> conv5
I0619 17:17:25.421829  5881 net.cpp:150] Setting up conv5
I0619 17:17:25.421861  5881 net.cpp:157] Top shape: 8 256 38 38 (2957312)
I0619 17:17:25.421871  5881 net.cpp:165] Memory required for data: 890441824
I0619 17:17:25.421882  5881 layer_factory.hpp:77] Creating layer conv5/bn
I0619 17:17:25.421890  5881 net.cpp:100] Creating Layer conv5/bn
I0619 17:17:25.421900  5881 net.cpp:434] conv5/bn <- conv5
I0619 17:17:25.421906  5881 net.cpp:395] conv5/bn -> conv5 (in-place)
I0619 17:17:25.421928  5881 net.cpp:150] Setting up conv5/bn
I0619 17:17:25.421952  5881 net.cpp:157] Top shape: 8 256 38 38 (2957312)
I0619 17:17:25.421959  5881 net.cpp:165] Memory required for data: 902271072
I0619 17:17:25.421972  5881 layer_factory.hpp:77] Creating layer conv5/scale
I0619 17:17:25.421984  5881 net.cpp:100] Creating Layer conv5/scale
I0619 17:17:25.422005  5881 net.cpp:434] conv5/scale <- conv5
I0619 17:17:25.422019  5881 net.cpp:395] conv5/scale -> conv5 (in-place)
I0619 17:17:25.422051  5881 layer_factory.hpp:77] Creating layer conv5/scale
I0619 17:17:25.422099  5881 net.cpp:150] Setting up conv5/scale
I0619 17:17:25.422123  5881 net.cpp:157] Top shape: 8 256 38 38 (2957312)
I0619 17:17:25.422132  5881 net.cpp:165] Memory required for data: 914100320
I0619 17:17:25.422160  5881 layer_factory.hpp:77] Creating layer conv5/relu
I0619 17:17:25.422185  5881 net.cpp:100] Creating Layer conv5/relu
I0619 17:17:25.422194  5881 net.cpp:434] conv5/relu <- conv5
I0619 17:17:25.422207  5881 net.cpp:395] conv5/relu -> conv5 (in-place)
I0619 17:17:25.422217  5881 net.cpp:150] Setting up conv5/relu
I0619 17:17:25.422240  5881 net.cpp:157] Top shape: 8 256 38 38 (2957312)
I0619 17:17:25.422263  5881 net.cpp:165] Memory required for data: 925929568
I0619 17:17:25.422273  5881 layer_factory.hpp:77] Creating layer conv6/dw
I0619 17:17:25.422286  5881 net.cpp:100] Creating Layer conv6/dw
I0619 17:17:25.422307  5881 net.cpp:434] conv6/dw <- conv5
I0619 17:17:25.422319  5881 net.cpp:408] conv6/dw -> conv6/dw
I0619 17:17:25.422425  5881 net.cpp:150] Setting up conv6/dw
I0619 17:17:25.422451  5881 net.cpp:157] Top shape: 8 256 19 19 (739328)
I0619 17:17:25.422457  5881 net.cpp:165] Memory required for data: 928886880
I0619 17:17:25.422467  5881 layer_factory.hpp:77] Creating layer conv6/dw/bn
I0619 17:17:25.422475  5881 net.cpp:100] Creating Layer conv6/dw/bn
I0619 17:17:25.422483  5881 net.cpp:434] conv6/dw/bn <- conv6/dw
I0619 17:17:25.422493  5881 net.cpp:395] conv6/dw/bn -> conv6/dw (in-place)
I0619 17:17:25.422514  5881 net.cpp:150] Setting up conv6/dw/bn
I0619 17:17:25.422523  5881 net.cpp:157] Top shape: 8 256 19 19 (739328)
I0619 17:17:25.422528  5881 net.cpp:165] Memory required for data: 931844192
I0619 17:17:25.422539  5881 layer_factory.hpp:77] Creating layer conv6/dw/scale
I0619 17:17:25.422567  5881 net.cpp:100] Creating Layer conv6/dw/scale
I0619 17:17:25.422580  5881 net.cpp:434] conv6/dw/scale <- conv6/dw
I0619 17:17:25.422588  5881 net.cpp:395] conv6/dw/scale -> conv6/dw (in-place)
I0619 17:17:25.422605  5881 layer_factory.hpp:77] Creating layer conv6/dw/scale
I0619 17:17:25.422631  5881 net.cpp:150] Setting up conv6/dw/scale
I0619 17:17:25.422664  5881 net.cpp:157] Top shape: 8 256 19 19 (739328)
I0619 17:17:25.422669  5881 net.cpp:165] Memory required for data: 934801504
I0619 17:17:25.422678  5881 layer_factory.hpp:77] Creating layer conv6/dw/relu
I0619 17:17:25.422685  5881 net.cpp:100] Creating Layer conv6/dw/relu
I0619 17:17:25.422689  5881 net.cpp:434] conv6/dw/relu <- conv6/dw
I0619 17:17:25.422736  5881 net.cpp:395] conv6/dw/relu -> conv6/dw (in-place)
I0619 17:17:25.422746  5881 net.cpp:150] Setting up conv6/dw/relu
I0619 17:17:25.422752  5881 net.cpp:157] Top shape: 8 256 19 19 (739328)
I0619 17:17:25.422757  5881 net.cpp:165] Memory required for data: 937758816
I0619 17:17:25.422763  5881 layer_factory.hpp:77] Creating layer conv6
I0619 17:17:25.422776  5881 net.cpp:100] Creating Layer conv6
I0619 17:17:25.422781  5881 net.cpp:434] conv6 <- conv6/dw
I0619 17:17:25.422791  5881 net.cpp:408] conv6 -> conv6
I0619 17:17:25.427561  5881 net.cpp:150] Setting up conv6
I0619 17:17:25.427623  5881 net.cpp:157] Top shape: 8 512 19 19 (1478656)
I0619 17:17:25.427631  5881 net.cpp:165] Memory required for data: 943673440
I0619 17:17:25.427642  5881 layer_factory.hpp:77] Creating layer conv6/bn
I0619 17:17:25.427659  5881 net.cpp:100] Creating Layer conv6/bn
I0619 17:17:25.427667  5881 net.cpp:434] conv6/bn <- conv6
I0619 17:17:25.427677  5881 net.cpp:395] conv6/bn -> conv6 (in-place)
I0619 17:17:25.427707  5881 net.cpp:150] Setting up conv6/bn
I0619 17:17:25.427714  5881 net.cpp:157] Top shape: 8 512 19 19 (1478656)
I0619 17:17:25.427719  5881 net.cpp:165] Memory required for data: 949588064
I0619 17:17:25.427728  5881 layer_factory.hpp:77] Creating layer conv6/scale
I0619 17:17:25.427740  5881 net.cpp:100] Creating Layer conv6/scale
I0619 17:17:25.427744  5881 net.cpp:434] conv6/scale <- conv6
I0619 17:17:25.427752  5881 net.cpp:395] conv6/scale -> conv6 (in-place)
I0619 17:17:25.427769  5881 layer_factory.hpp:77] Creating layer conv6/scale
I0619 17:17:25.427794  5881 net.cpp:150] Setting up conv6/scale
I0619 17:17:25.427809  5881 net.cpp:157] Top shape: 8 512 19 19 (1478656)
I0619 17:17:25.427814  5881 net.cpp:165] Memory required for data: 955502688
I0619 17:17:25.427822  5881 layer_factory.hpp:77] Creating layer conv6/relu
I0619 17:17:25.427834  5881 net.cpp:100] Creating Layer conv6/relu
I0619 17:17:25.427844  5881 net.cpp:434] conv6/relu <- conv6
I0619 17:17:25.427850  5881 net.cpp:395] conv6/relu -> conv6 (in-place)
I0619 17:17:25.427860  5881 net.cpp:150] Setting up conv6/relu
I0619 17:17:25.427898  5881 net.cpp:157] Top shape: 8 512 19 19 (1478656)
I0619 17:17:25.427923  5881 net.cpp:165] Memory required for data: 961417312
I0619 17:17:25.427932  5881 layer_factory.hpp:77] Creating layer conv7/dw
I0619 17:17:25.427966  5881 net.cpp:100] Creating Layer conv7/dw
I0619 17:17:25.427991  5881 net.cpp:434] conv7/dw <- conv6
I0619 17:17:25.428002  5881 net.cpp:408] conv7/dw -> conv7/dw
I0619 17:17:25.428175  5881 net.cpp:150] Setting up conv7/dw
I0619 17:17:25.428205  5881 net.cpp:157] Top shape: 8 512 19 19 (1478656)
I0619 17:17:25.428213  5881 net.cpp:165] Memory required for data: 967331936
I0619 17:17:25.428225  5881 layer_factory.hpp:77] Creating layer conv7/dw/bn
I0619 17:17:25.428232  5881 net.cpp:100] Creating Layer conv7/dw/bn
I0619 17:17:25.428241  5881 net.cpp:434] conv7/dw/bn <- conv7/dw
I0619 17:17:25.428248  5881 net.cpp:395] conv7/dw/bn -> conv7/dw (in-place)
I0619 17:17:25.428270  5881 net.cpp:150] Setting up conv7/dw/bn
I0619 17:17:25.428279  5881 net.cpp:157] Top shape: 8 512 19 19 (1478656)
I0619 17:17:25.428285  5881 net.cpp:165] Memory required for data: 973246560
I0619 17:17:25.428310  5881 layer_factory.hpp:77] Creating layer conv7/dw/scale
I0619 17:17:25.428345  5881 net.cpp:100] Creating Layer conv7/dw/scale
I0619 17:17:25.428354  5881 net.cpp:434] conv7/dw/scale <- conv7/dw
I0619 17:17:25.428360  5881 net.cpp:395] conv7/dw/scale -> conv7/dw (in-place)
I0619 17:17:25.428380  5881 layer_factory.hpp:77] Creating layer conv7/dw/scale
I0619 17:17:25.428397  5881 net.cpp:150] Setting up conv7/dw/scale
I0619 17:17:25.428403  5881 net.cpp:157] Top shape: 8 512 19 19 (1478656)
I0619 17:17:25.428406  5881 net.cpp:165] Memory required for data: 979161184
I0619 17:17:25.428411  5881 layer_factory.hpp:77] Creating layer conv7/dw/relu
I0619 17:17:25.428416  5881 net.cpp:100] Creating Layer conv7/dw/relu
I0619 17:17:25.428419  5881 net.cpp:434] conv7/dw/relu <- conv7/dw
I0619 17:17:25.428445  5881 net.cpp:395] conv7/dw/relu -> conv7/dw (in-place)
I0619 17:17:25.428450  5881 net.cpp:150] Setting up conv7/dw/relu
I0619 17:17:25.428455  5881 net.cpp:157] Top shape: 8 512 19 19 (1478656)
I0619 17:17:25.428457  5881 net.cpp:165] Memory required for data: 985075808
I0619 17:17:25.428462  5881 layer_factory.hpp:77] Creating layer conv7
I0619 17:17:25.428469  5881 net.cpp:100] Creating Layer conv7
I0619 17:17:25.428474  5881 net.cpp:434] conv7 <- conv7/dw
I0619 17:17:25.428480  5881 net.cpp:408] conv7 -> conv7
I0619 17:17:25.448822  5881 net.cpp:150] Setting up conv7
I0619 17:17:25.448871  5881 net.cpp:157] Top shape: 8 512 19 19 (1478656)
I0619 17:17:25.448876  5881 net.cpp:165] Memory required for data: 990990432
I0619 17:17:25.448884  5881 layer_factory.hpp:77] Creating layer conv7/bn
I0619 17:17:25.448896  5881 net.cpp:100] Creating Layer conv7/bn
I0619 17:17:25.448901  5881 net.cpp:434] conv7/bn <- conv7
I0619 17:17:25.448906  5881 net.cpp:395] conv7/bn -> conv7 (in-place)
I0619 17:17:25.449643  5881 net.cpp:150] Setting up conv7/bn
I0619 17:17:25.449745  5881 net.cpp:157] Top shape: 8 512 19 19 (1478656)
I0619 17:17:25.449810  5881 net.cpp:165] Memory required for data: 996905056
I0619 17:17:25.449864  5881 layer_factory.hpp:77] Creating layer conv7/scale
I0619 17:17:25.449995  5881 net.cpp:100] Creating Layer conv7/scale
I0619 17:17:25.450058  5881 net.cpp:434] conv7/scale <- conv7
I0619 17:17:25.450152  5881 net.cpp:395] conv7/scale -> conv7 (in-place)
I0619 17:17:25.450260  5881 layer_factory.hpp:77] Creating layer conv7/scale
I0619 17:17:25.450317  5881 net.cpp:150] Setting up conv7/scale
I0619 17:17:25.450336  5881 net.cpp:157] Top shape: 8 512 19 19 (1478656)
I0619 17:17:25.450342  5881 net.cpp:165] Memory required for data: 1002819680
I0619 17:17:25.450356  5881 layer_factory.hpp:77] Creating layer conv7/relu
I0619 17:17:25.450368  5881 net.cpp:100] Creating Layer conv7/relu
I0619 17:17:25.450386  5881 net.cpp:434] conv7/relu <- conv7
I0619 17:17:25.450397  5881 net.cpp:395] conv7/relu -> conv7 (in-place)
I0619 17:17:25.450450  5881 net.cpp:150] Setting up conv7/relu
I0619 17:17:25.450486  5881 net.cpp:157] Top shape: 8 512 19 19 (1478656)
I0619 17:17:25.450493  5881 net.cpp:165] Memory required for data: 1008734304
I0619 17:17:25.450497  5881 layer_factory.hpp:77] Creating layer conv8/dw
I0619 17:17:25.450517  5881 net.cpp:100] Creating Layer conv8/dw
I0619 17:17:25.450525  5881 net.cpp:434] conv8/dw <- conv7
I0619 17:17:25.450536  5881 net.cpp:408] conv8/dw -> conv8/dw
I0619 17:17:25.450695  5881 net.cpp:150] Setting up conv8/dw
I0619 17:17:25.450722  5881 net.cpp:157] Top shape: 8 512 19 19 (1478656)
I0619 17:17:25.450729  5881 net.cpp:165] Memory required for data: 1014648928
I0619 17:17:25.450734  5881 layer_factory.hpp:77] Creating layer conv8/dw/bn
I0619 17:17:25.450740  5881 net.cpp:100] Creating Layer conv8/dw/bn
I0619 17:17:25.450744  5881 net.cpp:434] conv8/dw/bn <- conv8/dw
I0619 17:17:25.450748  5881 net.cpp:395] conv8/dw/bn -> conv8/dw (in-place)
I0619 17:17:25.450762  5881 net.cpp:150] Setting up conv8/dw/bn
I0619 17:17:25.450780  5881 net.cpp:157] Top shape: 8 512 19 19 (1478656)
I0619 17:17:25.450785  5881 net.cpp:165] Memory required for data: 1020563552
I0619 17:17:25.450795  5881 layer_factory.hpp:77] Creating layer conv8/dw/scale
I0619 17:17:25.450814  5881 net.cpp:100] Creating Layer conv8/dw/scale
I0619 17:17:25.450829  5881 net.cpp:434] conv8/dw/scale <- conv8/dw
I0619 17:17:25.450836  5881 net.cpp:395] conv8/dw/scale -> conv8/dw (in-place)
I0619 17:17:25.450850  5881 layer_factory.hpp:77] Creating layer conv8/dw/scale
I0619 17:17:25.450865  5881 net.cpp:150] Setting up conv8/dw/scale
I0619 17:17:25.450873  5881 net.cpp:157] Top shape: 8 512 19 19 (1478656)
I0619 17:17:25.450876  5881 net.cpp:165] Memory required for data: 1026478176
I0619 17:17:25.450881  5881 layer_factory.hpp:77] Creating layer conv8/dw/relu
I0619 17:17:25.450889  5881 net.cpp:100] Creating Layer conv8/dw/relu
I0619 17:17:25.450892  5881 net.cpp:434] conv8/dw/relu <- conv8/dw
I0619 17:17:25.450930  5881 net.cpp:395] conv8/dw/relu -> conv8/dw (in-place)
I0619 17:17:25.450938  5881 net.cpp:150] Setting up conv8/dw/relu
I0619 17:17:25.450943  5881 net.cpp:157] Top shape: 8 512 19 19 (1478656)
I0619 17:17:25.450945  5881 net.cpp:165] Memory required for data: 1032392800
I0619 17:17:25.450948  5881 layer_factory.hpp:77] Creating layer conv8
I0619 17:17:25.450955  5881 net.cpp:100] Creating Layer conv8
I0619 17:17:25.450958  5881 net.cpp:434] conv8 <- conv8/dw
I0619 17:17:25.450963  5881 net.cpp:408] conv8 -> conv8
I0619 17:17:25.459694  5881 net.cpp:150] Setting up conv8
I0619 17:17:25.459759  5881 net.cpp:157] Top shape: 8 512 19 19 (1478656)
I0619 17:17:25.459765  5881 net.cpp:165] Memory required for data: 1038307424
I0619 17:17:25.459774  5881 layer_factory.hpp:77] Creating layer conv8/bn
I0619 17:17:25.459784  5881 net.cpp:100] Creating Layer conv8/bn
I0619 17:17:25.459789  5881 net.cpp:434] conv8/bn <- conv8
I0619 17:17:25.459797  5881 net.cpp:395] conv8/bn -> conv8 (in-place)
I0619 17:17:25.459815  5881 net.cpp:150] Setting up conv8/bn
I0619 17:17:25.459820  5881 net.cpp:157] Top shape: 8 512 19 19 (1478656)
I0619 17:17:25.459822  5881 net.cpp:165] Memory required for data: 1044222048
I0619 17:17:25.459831  5881 layer_factory.hpp:77] Creating layer conv8/scale
I0619 17:17:25.459844  5881 net.cpp:100] Creating Layer conv8/scale
I0619 17:17:25.459859  5881 net.cpp:434] conv8/scale <- conv8
I0619 17:17:25.459868  5881 net.cpp:395] conv8/scale -> conv8 (in-place)
I0619 17:17:25.459892  5881 layer_factory.hpp:77] Creating layer conv8/scale
I0619 17:17:25.459911  5881 net.cpp:150] Setting up conv8/scale
I0619 17:17:25.459918  5881 net.cpp:157] Top shape: 8 512 19 19 (1478656)
I0619 17:17:25.459921  5881 net.cpp:165] Memory required for data: 1050136672
I0619 17:17:25.459926  5881 layer_factory.hpp:77] Creating layer conv8/relu
I0619 17:17:25.459933  5881 net.cpp:100] Creating Layer conv8/relu
I0619 17:17:25.459939  5881 net.cpp:434] conv8/relu <- conv8
I0619 17:17:25.459942  5881 net.cpp:395] conv8/relu -> conv8 (in-place)
I0619 17:17:25.459947  5881 net.cpp:150] Setting up conv8/relu
I0619 17:17:25.459954  5881 net.cpp:157] Top shape: 8 512 19 19 (1478656)
I0619 17:17:25.459956  5881 net.cpp:165] Memory required for data: 1056051296
I0619 17:17:25.459959  5881 layer_factory.hpp:77] Creating layer conv9/dw
I0619 17:17:25.459970  5881 net.cpp:100] Creating Layer conv9/dw
I0619 17:17:25.459995  5881 net.cpp:434] conv9/dw <- conv8
I0619 17:17:25.460007  5881 net.cpp:408] conv9/dw -> conv9/dw
I0619 17:17:25.460218  5881 net.cpp:150] Setting up conv9/dw
I0619 17:17:25.460230  5881 net.cpp:157] Top shape: 8 512 19 19 (1478656)
I0619 17:17:25.460233  5881 net.cpp:165] Memory required for data: 1061965920
I0619 17:17:25.460238  5881 layer_factory.hpp:77] Creating layer conv9/dw/bn
I0619 17:17:25.460245  5881 net.cpp:100] Creating Layer conv9/dw/bn
I0619 17:17:25.460249  5881 net.cpp:434] conv9/dw/bn <- conv9/dw
I0619 17:17:25.460254  5881 net.cpp:395] conv9/dw/bn -> conv9/dw (in-place)
I0619 17:17:25.460268  5881 net.cpp:150] Setting up conv9/dw/bn
I0619 17:17:25.460273  5881 net.cpp:157] Top shape: 8 512 19 19 (1478656)
I0619 17:17:25.460276  5881 net.cpp:165] Memory required for data: 1067880544
I0619 17:17:25.460283  5881 layer_factory.hpp:77] Creating layer conv9/dw/scale
I0619 17:17:25.460289  5881 net.cpp:100] Creating Layer conv9/dw/scale
I0619 17:17:25.460291  5881 net.cpp:434] conv9/dw/scale <- conv9/dw
I0619 17:17:25.460297  5881 net.cpp:395] conv9/dw/scale -> conv9/dw (in-place)
I0619 17:17:25.460307  5881 layer_factory.hpp:77] Creating layer conv9/dw/scale
I0619 17:17:25.460324  5881 net.cpp:150] Setting up conv9/dw/scale
I0619 17:17:25.460327  5881 net.cpp:157] Top shape: 8 512 19 19 (1478656)
I0619 17:17:25.460330  5881 net.cpp:165] Memory required for data: 1073795168
I0619 17:17:25.460335  5881 layer_factory.hpp:77] Creating layer conv9/dw/relu
I0619 17:17:25.460340  5881 net.cpp:100] Creating Layer conv9/dw/relu
I0619 17:17:25.460343  5881 net.cpp:434] conv9/dw/relu <- conv9/dw
I0619 17:17:25.460377  5881 net.cpp:395] conv9/dw/relu -> conv9/dw (in-place)
I0619 17:17:25.460391  5881 net.cpp:150] Setting up conv9/dw/relu
I0619 17:17:25.460397  5881 net.cpp:157] Top shape: 8 512 19 19 (1478656)
I0619 17:17:25.460405  5881 net.cpp:165] Memory required for data: 1079709792
I0619 17:17:25.460410  5881 layer_factory.hpp:77] Creating layer conv9
I0619 17:17:25.460419  5881 net.cpp:100] Creating Layer conv9
I0619 17:17:25.460427  5881 net.cpp:434] conv9 <- conv9/dw
I0619 17:17:25.460435  5881 net.cpp:408] conv9 -> conv9
I0619 17:17:25.468025  5881 net.cpp:150] Setting up conv9
I0619 17:17:25.468075  5881 net.cpp:157] Top shape: 8 512 19 19 (1478656)
I0619 17:17:25.468080  5881 net.cpp:165] Memory required for data: 1085624416
I0619 17:17:25.468087  5881 layer_factory.hpp:77] Creating layer conv9/bn
I0619 17:17:25.468097  5881 net.cpp:100] Creating Layer conv9/bn
I0619 17:17:25.468102  5881 net.cpp:434] conv9/bn <- conv9
I0619 17:17:25.468108  5881 net.cpp:395] conv9/bn -> conv9 (in-place)
I0619 17:17:25.468132  5881 net.cpp:150] Setting up conv9/bn
I0619 17:17:25.468152  5881 net.cpp:157] Top shape: 8 512 19 19 (1478656)
I0619 17:17:25.468156  5881 net.cpp:165] Memory required for data: 1091539040
I0619 17:17:25.468163  5881 layer_factory.hpp:77] Creating layer conv9/scale
I0619 17:17:25.468171  5881 net.cpp:100] Creating Layer conv9/scale
I0619 17:17:25.468174  5881 net.cpp:434] conv9/scale <- conv9
I0619 17:17:25.468178  5881 net.cpp:395] conv9/scale -> conv9 (in-place)
I0619 17:17:25.468192  5881 layer_factory.hpp:77] Creating layer conv9/scale
I0619 17:17:25.468207  5881 net.cpp:150] Setting up conv9/scale
I0619 17:17:25.468226  5881 net.cpp:157] Top shape: 8 512 19 19 (1478656)
I0619 17:17:25.468230  5881 net.cpp:165] Memory required for data: 1097453664
I0619 17:17:25.468236  5881 layer_factory.hpp:77] Creating layer conv9/relu
I0619 17:17:25.468255  5881 net.cpp:100] Creating Layer conv9/relu
I0619 17:17:25.468260  5881 net.cpp:434] conv9/relu <- conv9
I0619 17:17:25.468266  5881 net.cpp:395] conv9/relu -> conv9 (in-place)
I0619 17:17:25.468272  5881 net.cpp:150] Setting up conv9/relu
I0619 17:17:25.468278  5881 net.cpp:157] Top shape: 8 512 19 19 (1478656)
I0619 17:17:25.468281  5881 net.cpp:165] Memory required for data: 1103368288
I0619 17:17:25.468287  5881 layer_factory.hpp:77] Creating layer conv10/dw
I0619 17:17:25.468297  5881 net.cpp:100] Creating Layer conv10/dw
I0619 17:17:25.468313  5881 net.cpp:434] conv10/dw <- conv9
I0619 17:17:25.468322  5881 net.cpp:408] conv10/dw -> conv10/dw
I0619 17:17:25.468462  5881 net.cpp:150] Setting up conv10/dw
I0619 17:17:25.468482  5881 net.cpp:157] Top shape: 8 512 19 19 (1478656)
I0619 17:17:25.468485  5881 net.cpp:165] Memory required for data: 1109282912
I0619 17:17:25.468489  5881 layer_factory.hpp:77] Creating layer conv10/dw/bn
I0619 17:17:25.468494  5881 net.cpp:100] Creating Layer conv10/dw/bn
I0619 17:17:25.468497  5881 net.cpp:434] conv10/dw/bn <- conv10/dw
I0619 17:17:25.468503  5881 net.cpp:395] conv10/dw/bn -> conv10/dw (in-place)
I0619 17:17:25.468515  5881 net.cpp:150] Setting up conv10/dw/bn
I0619 17:17:25.468520  5881 net.cpp:157] Top shape: 8 512 19 19 (1478656)
I0619 17:17:25.468526  5881 net.cpp:165] Memory required for data: 1115197536
I0619 17:17:25.468533  5881 layer_factory.hpp:77] Creating layer conv10/dw/scale
I0619 17:17:25.468538  5881 net.cpp:100] Creating Layer conv10/dw/scale
I0619 17:17:25.468554  5881 net.cpp:434] conv10/dw/scale <- conv10/dw
I0619 17:17:25.468564  5881 net.cpp:395] conv10/dw/scale -> conv10/dw (in-place)
I0619 17:17:25.468590  5881 layer_factory.hpp:77] Creating layer conv10/dw/scale
I0619 17:17:25.468621  5881 net.cpp:150] Setting up conv10/dw/scale
I0619 17:17:25.468639  5881 net.cpp:157] Top shape: 8 512 19 19 (1478656)
I0619 17:17:25.468643  5881 net.cpp:165] Memory required for data: 1121112160
I0619 17:17:25.468649  5881 layer_factory.hpp:77] Creating layer conv10/dw/relu
I0619 17:17:25.468654  5881 net.cpp:100] Creating Layer conv10/dw/relu
I0619 17:17:25.468657  5881 net.cpp:434] conv10/dw/relu <- conv10/dw
I0619 17:17:25.468683  5881 net.cpp:395] conv10/dw/relu -> conv10/dw (in-place)
I0619 17:17:25.468689  5881 net.cpp:150] Setting up conv10/dw/relu
I0619 17:17:25.468693  5881 net.cpp:157] Top shape: 8 512 19 19 (1478656)
I0619 17:17:25.468698  5881 net.cpp:165] Memory required for data: 1127026784
I0619 17:17:25.468703  5881 layer_factory.hpp:77] Creating layer conv10
I0619 17:17:25.468708  5881 net.cpp:100] Creating Layer conv10
I0619 17:17:25.468724  5881 net.cpp:434] conv10 <- conv10/dw
I0619 17:17:25.468731  5881 net.cpp:408] conv10 -> conv10
I0619 17:17:25.476197  5881 net.cpp:150] Setting up conv10
I0619 17:17:25.476246  5881 net.cpp:157] Top shape: 8 512 19 19 (1478656)
I0619 17:17:25.476253  5881 net.cpp:165] Memory required for data: 1132941408
I0619 17:17:25.476259  5881 layer_factory.hpp:77] Creating layer conv10/bn
I0619 17:17:25.476269  5881 net.cpp:100] Creating Layer conv10/bn
I0619 17:17:25.476274  5881 net.cpp:434] conv10/bn <- conv10
I0619 17:17:25.476279  5881 net.cpp:395] conv10/bn -> conv10 (in-place)
I0619 17:17:25.476301  5881 net.cpp:150] Setting up conv10/bn
I0619 17:17:25.476321  5881 net.cpp:157] Top shape: 8 512 19 19 (1478656)
I0619 17:17:25.476326  5881 net.cpp:165] Memory required for data: 1138856032
I0619 17:17:25.476333  5881 layer_factory.hpp:77] Creating layer conv10/scale
I0619 17:17:25.476341  5881 net.cpp:100] Creating Layer conv10/scale
I0619 17:17:25.476344  5881 net.cpp:434] conv10/scale <- conv10
I0619 17:17:25.476348  5881 net.cpp:395] conv10/scale -> conv10 (in-place)
I0619 17:17:25.476362  5881 layer_factory.hpp:77] Creating layer conv10/scale
I0619 17:17:25.476377  5881 net.cpp:150] Setting up conv10/scale
I0619 17:17:25.476397  5881 net.cpp:157] Top shape: 8 512 19 19 (1478656)
I0619 17:17:25.476400  5881 net.cpp:165] Memory required for data: 1144770656
I0619 17:17:25.476406  5881 layer_factory.hpp:77] Creating layer conv10/relu
I0619 17:17:25.476411  5881 net.cpp:100] Creating Layer conv10/relu
I0619 17:17:25.476414  5881 net.cpp:434] conv10/relu <- conv10
I0619 17:17:25.476418  5881 net.cpp:395] conv10/relu -> conv10 (in-place)
I0619 17:17:25.476423  5881 net.cpp:150] Setting up conv10/relu
I0619 17:17:25.476428  5881 net.cpp:157] Top shape: 8 512 19 19 (1478656)
I0619 17:17:25.476430  5881 net.cpp:165] Memory required for data: 1150685280
I0619 17:17:25.476433  5881 layer_factory.hpp:77] Creating layer conv11/dw
I0619 17:17:25.476444  5881 net.cpp:100] Creating Layer conv11/dw
I0619 17:17:25.476447  5881 net.cpp:434] conv11/dw <- conv10
I0619 17:17:25.476455  5881 net.cpp:408] conv11/dw -> conv11/dw
I0619 17:17:25.476605  5881 net.cpp:150] Setting up conv11/dw
I0619 17:17:25.476624  5881 net.cpp:157] Top shape: 8 512 19 19 (1478656)
I0619 17:17:25.476629  5881 net.cpp:165] Memory required for data: 1156599904
I0619 17:17:25.476634  5881 layer_factory.hpp:77] Creating layer conv11/dw/bn
I0619 17:17:25.476639  5881 net.cpp:100] Creating Layer conv11/dw/bn
I0619 17:17:25.476642  5881 net.cpp:434] conv11/dw/bn <- conv11/dw
I0619 17:17:25.476649  5881 net.cpp:395] conv11/dw/bn -> conv11/dw (in-place)
I0619 17:17:25.476660  5881 net.cpp:150] Setting up conv11/dw/bn
I0619 17:17:25.476681  5881 net.cpp:157] Top shape: 8 512 19 19 (1478656)
I0619 17:17:25.476703  5881 net.cpp:165] Memory required for data: 1162514528
I0619 17:17:25.476753  5881 layer_factory.hpp:77] Creating layer conv11/dw/scale
I0619 17:17:25.476783  5881 net.cpp:100] Creating Layer conv11/dw/scale
I0619 17:17:25.476794  5881 net.cpp:434] conv11/dw/scale <- conv11/dw
I0619 17:17:25.476802  5881 net.cpp:395] conv11/dw/scale -> conv11/dw (in-place)
I0619 17:17:25.476833  5881 layer_factory.hpp:77] Creating layer conv11/dw/scale
I0619 17:17:25.476848  5881 net.cpp:150] Setting up conv11/dw/scale
I0619 17:17:25.476853  5881 net.cpp:157] Top shape: 8 512 19 19 (1478656)
I0619 17:17:25.476856  5881 net.cpp:165] Memory required for data: 1168429152
I0619 17:17:25.476861  5881 layer_factory.hpp:77] Creating layer conv11/dw/relu
I0619 17:17:25.476881  5881 net.cpp:100] Creating Layer conv11/dw/relu
I0619 17:17:25.476918  5881 net.cpp:434] conv11/dw/relu <- conv11/dw
I0619 17:17:25.476925  5881 net.cpp:395] conv11/dw/relu -> conv11/dw (in-place)
I0619 17:17:25.476932  5881 net.cpp:150] Setting up conv11/dw/relu
I0619 17:17:25.476935  5881 net.cpp:157] Top shape: 8 512 19 19 (1478656)
I0619 17:17:25.476938  5881 net.cpp:165] Memory required for data: 1174343776
I0619 17:17:25.476941  5881 layer_factory.hpp:77] Creating layer conv11
I0619 17:17:25.476950  5881 net.cpp:100] Creating Layer conv11
I0619 17:17:25.476953  5881 net.cpp:434] conv11 <- conv11/dw
I0619 17:17:25.476959  5881 net.cpp:408] conv11 -> conv11
I0619 17:17:25.493387  5881 net.cpp:150] Setting up conv11
I0619 17:17:25.493446  5881 net.cpp:157] Top shape: 8 512 19 19 (1478656)
I0619 17:17:25.493453  5881 net.cpp:165] Memory required for data: 1180258400
I0619 17:17:25.493460  5881 layer_factory.hpp:77] Creating layer conv11/bn
I0619 17:17:25.493470  5881 net.cpp:100] Creating Layer conv11/bn
I0619 17:17:25.493476  5881 net.cpp:434] conv11/bn <- conv11
I0619 17:17:25.493481  5881 net.cpp:395] conv11/bn -> conv11 (in-place)
I0619 17:17:25.493504  5881 net.cpp:150] Setting up conv11/bn
I0619 17:17:25.493507  5881 net.cpp:157] Top shape: 8 512 19 19 (1478656)
I0619 17:17:25.493510  5881 net.cpp:165] Memory required for data: 1186173024
I0619 17:17:25.493516  5881 layer_factory.hpp:77] Creating layer conv11/scale
I0619 17:17:25.493525  5881 net.cpp:100] Creating Layer conv11/scale
I0619 17:17:25.493528  5881 net.cpp:434] conv11/scale <- conv11
I0619 17:17:25.493532  5881 net.cpp:395] conv11/scale -> conv11 (in-place)
I0619 17:17:25.493544  5881 layer_factory.hpp:77] Creating layer conv11/scale
I0619 17:17:25.493561  5881 net.cpp:150] Setting up conv11/scale
I0619 17:17:25.493564  5881 net.cpp:157] Top shape: 8 512 19 19 (1478656)
I0619 17:17:25.493567  5881 net.cpp:165] Memory required for data: 1192087648
I0619 17:17:25.493572  5881 layer_factory.hpp:77] Creating layer conv11/relu
I0619 17:17:25.493577  5881 net.cpp:100] Creating Layer conv11/relu
I0619 17:17:25.493580  5881 net.cpp:434] conv11/relu <- conv11
I0619 17:17:25.493584  5881 net.cpp:395] conv11/relu -> conv11 (in-place)
I0619 17:17:25.493589  5881 net.cpp:150] Setting up conv11/relu
I0619 17:17:25.493593  5881 net.cpp:157] Top shape: 8 512 19 19 (1478656)
I0619 17:17:25.493597  5881 net.cpp:165] Memory required for data: 1198002272
I0619 17:17:25.493599  5881 layer_factory.hpp:77] Creating layer conv11_conv11/relu_0_split
I0619 17:17:25.493603  5881 net.cpp:100] Creating Layer conv11_conv11/relu_0_split
I0619 17:17:25.493607  5881 net.cpp:434] conv11_conv11/relu_0_split <- conv11
I0619 17:17:25.493611  5881 net.cpp:408] conv11_conv11/relu_0_split -> conv11_conv11/relu_0_split_0
I0619 17:17:25.493621  5881 net.cpp:408] conv11_conv11/relu_0_split -> conv11_conv11/relu_0_split_1
I0619 17:17:25.493631  5881 net.cpp:408] conv11_conv11/relu_0_split -> conv11_conv11/relu_0_split_2
I0619 17:17:25.493654  5881 net.cpp:408] conv11_conv11/relu_0_split -> conv11_conv11/relu_0_split_3
I0619 17:17:25.493682  5881 net.cpp:150] Setting up conv11_conv11/relu_0_split
I0619 17:17:25.493692  5881 net.cpp:157] Top shape: 8 512 19 19 (1478656)
I0619 17:17:25.493700  5881 net.cpp:157] Top shape: 8 512 19 19 (1478656)
I0619 17:17:25.493705  5881 net.cpp:157] Top shape: 8 512 19 19 (1478656)
I0619 17:17:25.493717  5881 net.cpp:157] Top shape: 8 512 19 19 (1478656)
I0619 17:17:25.493724  5881 net.cpp:165] Memory required for data: 1221660768
I0619 17:17:25.493731  5881 layer_factory.hpp:77] Creating layer conv12/dw
I0619 17:17:25.493748  5881 net.cpp:100] Creating Layer conv12/dw
I0619 17:17:25.493770  5881 net.cpp:434] conv12/dw <- conv11_conv11/relu_0_split_0
I0619 17:17:25.493783  5881 net.cpp:408] conv12/dw -> conv12/dw
I0619 17:17:25.493973  5881 net.cpp:150] Setting up conv12/dw
I0619 17:17:25.493986  5881 net.cpp:157] Top shape: 8 512 10 10 (409600)
I0619 17:17:25.493991  5881 net.cpp:165] Memory required for data: 1223299168
I0619 17:17:25.493997  5881 layer_factory.hpp:77] Creating layer conv12/dw/bn
I0619 17:17:25.494031  5881 net.cpp:100] Creating Layer conv12/dw/bn
I0619 17:17:25.494040  5881 net.cpp:434] conv12/dw/bn <- conv12/dw
I0619 17:17:25.494045  5881 net.cpp:395] conv12/dw/bn -> conv12/dw (in-place)
I0619 17:17:25.494063  5881 net.cpp:150] Setting up conv12/dw/bn
I0619 17:17:25.494071  5881 net.cpp:157] Top shape: 8 512 10 10 (409600)
I0619 17:17:25.494076  5881 net.cpp:165] Memory required for data: 1224937568
I0619 17:17:25.494084  5881 layer_factory.hpp:77] Creating layer conv12/dw/scale
I0619 17:17:25.494096  5881 net.cpp:100] Creating Layer conv12/dw/scale
I0619 17:17:25.494102  5881 net.cpp:434] conv12/dw/scale <- conv12/dw
I0619 17:17:25.494110  5881 net.cpp:395] conv12/dw/scale -> conv12/dw (in-place)
I0619 17:17:25.494138  5881 layer_factory.hpp:77] Creating layer conv12/dw/scale
I0619 17:17:25.494168  5881 net.cpp:150] Setting up conv12/dw/scale
I0619 17:17:25.494194  5881 net.cpp:157] Top shape: 8 512 10 10 (409600)
I0619 17:17:25.494200  5881 net.cpp:165] Memory required for data: 1226575968
I0619 17:17:25.494210  5881 layer_factory.hpp:77] Creating layer conv12/dw/relu
I0619 17:17:25.494218  5881 net.cpp:100] Creating Layer conv12/dw/relu
I0619 17:17:25.494223  5881 net.cpp:434] conv12/dw/relu <- conv12/dw
I0619 17:17:25.494235  5881 net.cpp:395] conv12/dw/relu -> conv12/dw (in-place)
I0619 17:17:25.494243  5881 net.cpp:150] Setting up conv12/dw/relu
I0619 17:17:25.494249  5881 net.cpp:157] Top shape: 8 512 10 10 (409600)
I0619 17:17:25.494253  5881 net.cpp:165] Memory required for data: 1228214368
I0619 17:17:25.494258  5881 layer_factory.hpp:77] Creating layer conv12
I0619 17:17:25.494268  5881 net.cpp:100] Creating Layer conv12
I0619 17:17:25.494273  5881 net.cpp:434] conv12 <- conv12/dw
I0619 17:17:25.494282  5881 net.cpp:408] conv12 -> conv12
I0619 17:17:25.533196  5881 net.cpp:150] Setting up conv12
I0619 17:17:25.533254  5881 net.cpp:157] Top shape: 8 1024 10 10 (819200)
I0619 17:17:25.533260  5881 net.cpp:165] Memory required for data: 1231491168
I0619 17:17:25.533268  5881 layer_factory.hpp:77] Creating layer conv12/bn
I0619 17:17:25.533277  5881 net.cpp:100] Creating Layer conv12/bn
I0619 17:17:25.533282  5881 net.cpp:434] conv12/bn <- conv12
I0619 17:17:25.533293  5881 net.cpp:395] conv12/bn -> conv12 (in-place)
I0619 17:17:25.533329  5881 net.cpp:150] Setting up conv12/bn
I0619 17:17:25.533354  5881 net.cpp:157] Top shape: 8 1024 10 10 (819200)
I0619 17:17:25.533361  5881 net.cpp:165] Memory required for data: 1234767968
I0619 17:17:25.533370  5881 layer_factory.hpp:77] Creating layer conv12/scale
I0619 17:17:25.533380  5881 net.cpp:100] Creating Layer conv12/scale
I0619 17:17:25.533385  5881 net.cpp:434] conv12/scale <- conv12
I0619 17:17:25.533390  5881 net.cpp:395] conv12/scale -> conv12 (in-place)
I0619 17:17:25.533402  5881 layer_factory.hpp:77] Creating layer conv12/scale
I0619 17:17:25.533444  5881 net.cpp:150] Setting up conv12/scale
I0619 17:17:25.533454  5881 net.cpp:157] Top shape: 8 1024 10 10 (819200)
I0619 17:17:25.533464  5881 net.cpp:165] Memory required for data: 1238044768
I0619 17:17:25.533473  5881 layer_factory.hpp:77] Creating layer conv12/relu
I0619 17:17:25.533483  5881 net.cpp:100] Creating Layer conv12/relu
I0619 17:17:25.533491  5881 net.cpp:434] conv12/relu <- conv12
I0619 17:17:25.533500  5881 net.cpp:395] conv12/relu -> conv12 (in-place)
I0619 17:17:25.533525  5881 net.cpp:150] Setting up conv12/relu
I0619 17:17:25.533535  5881 net.cpp:157] Top shape: 8 1024 10 10 (819200)
I0619 17:17:25.533538  5881 net.cpp:165] Memory required for data: 1241321568
I0619 17:17:25.533541  5881 layer_factory.hpp:77] Creating layer conv13/dw
I0619 17:17:25.533552  5881 net.cpp:100] Creating Layer conv13/dw
I0619 17:17:25.533555  5881 net.cpp:434] conv13/dw <- conv12
I0619 17:17:25.533560  5881 net.cpp:408] conv13/dw -> conv13/dw
I0619 17:17:25.533840  5881 net.cpp:150] Setting up conv13/dw
I0619 17:17:25.533864  5881 net.cpp:157] Top shape: 8 1024 10 10 (819200)
I0619 17:17:25.533869  5881 net.cpp:165] Memory required for data: 1244598368
I0619 17:17:25.533874  5881 layer_factory.hpp:77] Creating layer conv13/dw/bn
I0619 17:17:25.533900  5881 net.cpp:100] Creating Layer conv13/dw/bn
I0619 17:17:25.533905  5881 net.cpp:434] conv13/dw/bn <- conv13/dw
I0619 17:17:25.533913  5881 net.cpp:395] conv13/dw/bn -> conv13/dw (in-place)
I0619 17:17:25.533936  5881 net.cpp:150] Setting up conv13/dw/bn
I0619 17:17:25.533958  5881 net.cpp:157] Top shape: 8 1024 10 10 (819200)
I0619 17:17:25.533967  5881 net.cpp:165] Memory required for data: 1247875168
I0619 17:17:25.533974  5881 layer_factory.hpp:77] Creating layer conv13/dw/scale
I0619 17:17:25.533983  5881 net.cpp:100] Creating Layer conv13/dw/scale
I0619 17:17:25.533987  5881 net.cpp:434] conv13/dw/scale <- conv13/dw
I0619 17:17:25.533993  5881 net.cpp:395] conv13/dw/scale -> conv13/dw (in-place)
I0619 17:17:25.534004  5881 layer_factory.hpp:77] Creating layer conv13/dw/scale
I0619 17:17:25.534024  5881 net.cpp:150] Setting up conv13/dw/scale
I0619 17:17:25.534049  5881 net.cpp:157] Top shape: 8 1024 10 10 (819200)
I0619 17:17:25.534060  5881 net.cpp:165] Memory required for data: 1251151968
I0619 17:17:25.534083  5881 layer_factory.hpp:77] Creating layer conv13/dw/relu
I0619 17:17:25.534109  5881 net.cpp:100] Creating Layer conv13/dw/relu
I0619 17:17:25.534116  5881 net.cpp:434] conv13/dw/relu <- conv13/dw
I0619 17:17:25.534124  5881 net.cpp:395] conv13/dw/relu -> conv13/dw (in-place)
I0619 17:17:25.534129  5881 net.cpp:150] Setting up conv13/dw/relu
I0619 17:17:25.534134  5881 net.cpp:157] Top shape: 8 1024 10 10 (819200)
I0619 17:17:25.534137  5881 net.cpp:165] Memory required for data: 1254428768
I0619 17:17:25.534140  5881 layer_factory.hpp:77] Creating layer conv13
I0619 17:17:25.534147  5881 net.cpp:100] Creating Layer conv13
I0619 17:17:25.534150  5881 net.cpp:434] conv13 <- conv13/dw
I0619 17:17:25.534155  5881 net.cpp:408] conv13 -> conv13
I0619 17:17:25.574759  5881 net.cpp:150] Setting up conv13
I0619 17:17:25.574810  5881 net.cpp:157] Top shape: 8 1024 10 10 (819200)
I0619 17:17:25.574815  5881 net.cpp:165] Memory required for data: 1257705568
I0619 17:17:25.574823  5881 layer_factory.hpp:77] Creating layer conv13/bn
I0619 17:17:25.574836  5881 net.cpp:100] Creating Layer conv13/bn
I0619 17:17:25.574841  5881 net.cpp:434] conv13/bn <- conv13
I0619 17:17:25.574872  5881 net.cpp:395] conv13/bn -> conv13 (in-place)
I0619 17:17:25.574911  5881 net.cpp:150] Setting up conv13/bn
I0619 17:17:25.574936  5881 net.cpp:157] Top shape: 8 1024 10 10 (819200)
I0619 17:17:25.574970  5881 net.cpp:165] Memory required for data: 1260982368
I0619 17:17:25.575000  5881 layer_factory.hpp:77] Creating layer conv13/scale
I0619 17:17:25.575023  5881 net.cpp:100] Creating Layer conv13/scale
I0619 17:17:25.575040  5881 net.cpp:434] conv13/scale <- conv13
I0619 17:17:25.575053  5881 net.cpp:395] conv13/scale -> conv13 (in-place)
I0619 17:17:25.575075  5881 layer_factory.hpp:77] Creating layer conv13/scale
I0619 17:17:25.575115  5881 net.cpp:150] Setting up conv13/scale
I0619 17:17:25.575124  5881 net.cpp:157] Top shape: 8 1024 10 10 (819200)
I0619 17:17:25.575126  5881 net.cpp:165] Memory required for data: 1264259168
I0619 17:17:25.575132  5881 layer_factory.hpp:77] Creating layer conv13/relu
I0619 17:17:25.575137  5881 net.cpp:100] Creating Layer conv13/relu
I0619 17:17:25.575141  5881 net.cpp:434] conv13/relu <- conv13
I0619 17:17:25.575146  5881 net.cpp:395] conv13/relu -> conv13 (in-place)
I0619 17:17:25.575155  5881 net.cpp:150] Setting up conv13/relu
I0619 17:17:25.575160  5881 net.cpp:157] Top shape: 8 1024 10 10 (819200)
I0619 17:17:25.575168  5881 net.cpp:165] Memory required for data: 1267535968
I0619 17:17:25.575189  5881 layer_factory.hpp:77] Creating layer conv13_conv13/relu_0_split
I0619 17:17:25.575204  5881 net.cpp:100] Creating Layer conv13_conv13/relu_0_split
I0619 17:17:25.575213  5881 net.cpp:434] conv13_conv13/relu_0_split <- conv13
I0619 17:17:25.575225  5881 net.cpp:408] conv13_conv13/relu_0_split -> conv13_conv13/relu_0_split_0
I0619 17:17:25.575253  5881 net.cpp:408] conv13_conv13/relu_0_split -> conv13_conv13/relu_0_split_1
I0619 17:17:25.575310  5881 net.cpp:408] conv13_conv13/relu_0_split -> conv13_conv13/relu_0_split_2
I0619 17:17:25.575320  5881 net.cpp:408] conv13_conv13/relu_0_split -> conv13_conv13/relu_0_split_3
I0619 17:17:25.575327  5881 net.cpp:150] Setting up conv13_conv13/relu_0_split
I0619 17:17:25.575332  5881 net.cpp:157] Top shape: 8 1024 10 10 (819200)
I0619 17:17:25.575336  5881 net.cpp:157] Top shape: 8 1024 10 10 (819200)
I0619 17:17:25.575340  5881 net.cpp:157] Top shape: 8 1024 10 10 (819200)
I0619 17:17:25.575361  5881 net.cpp:157] Top shape: 8 1024 10 10 (819200)
I0619 17:17:25.575382  5881 net.cpp:165] Memory required for data: 1280643168
I0619 17:17:25.575405  5881 layer_factory.hpp:77] Creating layer conv14_1
I0619 17:17:25.575444  5881 net.cpp:100] Creating Layer conv14_1
I0619 17:17:25.575451  5881 net.cpp:434] conv14_1 <- conv13_conv13/relu_0_split_0
I0619 17:17:25.575460  5881 net.cpp:408] conv14_1 -> conv14_1
I0619 17:17:25.584224  5881 net.cpp:150] Setting up conv14_1
I0619 17:17:25.584334  5881 net.cpp:157] Top shape: 8 256 10 10 (204800)
I0619 17:17:25.584344  5881 net.cpp:165] Memory required for data: 1281462368
I0619 17:17:25.584357  5881 layer_factory.hpp:77] Creating layer conv14_1/bn
I0619 17:17:25.584369  5881 net.cpp:100] Creating Layer conv14_1/bn
I0619 17:17:25.584383  5881 net.cpp:434] conv14_1/bn <- conv14_1
I0619 17:17:25.584391  5881 net.cpp:395] conv14_1/bn -> conv14_1 (in-place)
I0619 17:17:25.584424  5881 net.cpp:150] Setting up conv14_1/bn
I0619 17:17:25.584450  5881 net.cpp:157] Top shape: 8 256 10 10 (204800)
I0619 17:17:25.584456  5881 net.cpp:165] Memory required for data: 1282281568
I0619 17:17:25.584471  5881 layer_factory.hpp:77] Creating layer conv14_1/scale
I0619 17:17:25.584488  5881 net.cpp:100] Creating Layer conv14_1/scale
I0619 17:17:25.584501  5881 net.cpp:434] conv14_1/scale <- conv14_1
I0619 17:17:25.584508  5881 net.cpp:395] conv14_1/scale -> conv14_1 (in-place)
I0619 17:17:25.584529  5881 layer_factory.hpp:77] Creating layer conv14_1/scale
I0619 17:17:25.584570  5881 net.cpp:150] Setting up conv14_1/scale
I0619 17:17:25.584595  5881 net.cpp:157] Top shape: 8 256 10 10 (204800)
I0619 17:17:25.584602  5881 net.cpp:165] Memory required for data: 1283100768
I0619 17:17:25.584626  5881 layer_factory.hpp:77] Creating layer conv14_1/relu
I0619 17:17:25.584640  5881 net.cpp:100] Creating Layer conv14_1/relu
I0619 17:17:25.584648  5881 net.cpp:434] conv14_1/relu <- conv14_1
I0619 17:17:25.584656  5881 net.cpp:395] conv14_1/relu -> conv14_1 (in-place)
I0619 17:17:25.584667  5881 net.cpp:150] Setting up conv14_1/relu
I0619 17:17:25.584676  5881 net.cpp:157] Top shape: 8 256 10 10 (204800)
I0619 17:17:25.584681  5881 net.cpp:165] Memory required for data: 1283919968
I0619 17:17:25.584689  5881 layer_factory.hpp:77] Creating layer conv14_2
I0619 17:17:25.584703  5881 net.cpp:100] Creating Layer conv14_2
I0619 17:17:25.584724  5881 net.cpp:434] conv14_2 <- conv14_1
I0619 17:17:25.584735  5881 net.cpp:408] conv14_2 -> conv14_2
I0619 17:17:25.620478  5881 net.cpp:150] Setting up conv14_2
I0619 17:17:25.620563  5881 net.cpp:157] Top shape: 8 512 5 5 (102400)
I0619 17:17:25.620575  5881 net.cpp:165] Memory required for data: 1284329568
I0619 17:17:25.620594  5881 layer_factory.hpp:77] Creating layer conv14_2/bn
I0619 17:17:25.620646  5881 net.cpp:100] Creating Layer conv14_2/bn
I0619 17:17:25.620674  5881 net.cpp:434] conv14_2/bn <- conv14_2
I0619 17:17:25.620687  5881 net.cpp:395] conv14_2/bn -> conv14_2 (in-place)
I0619 17:17:25.620733  5881 net.cpp:150] Setting up conv14_2/bn
I0619 17:17:25.620759  5881 net.cpp:157] Top shape: 8 512 5 5 (102400)
I0619 17:17:25.620769  5881 net.cpp:165] Memory required for data: 1284739168
I0619 17:17:25.620800  5881 layer_factory.hpp:77] Creating layer conv14_2/scale
I0619 17:17:25.620833  5881 net.cpp:100] Creating Layer conv14_2/scale
I0619 17:17:25.620844  5881 net.cpp:434] conv14_2/scale <- conv14_2
I0619 17:17:25.620857  5881 net.cpp:395] conv14_2/scale -> conv14_2 (in-place)
I0619 17:17:25.620893  5881 layer_factory.hpp:77] Creating layer conv14_2/scale
I0619 17:17:25.620973  5881 net.cpp:150] Setting up conv14_2/scale
I0619 17:17:25.621006  5881 net.cpp:157] Top shape: 8 512 5 5 (102400)
I0619 17:17:25.621016  5881 net.cpp:165] Memory required for data: 1285148768
I0619 17:17:25.621026  5881 layer_factory.hpp:77] Creating layer conv14_2/relu
I0619 17:17:25.621033  5881 net.cpp:100] Creating Layer conv14_2/relu
I0619 17:17:25.621038  5881 net.cpp:434] conv14_2/relu <- conv14_2
I0619 17:17:25.621045  5881 net.cpp:395] conv14_2/relu -> conv14_2 (in-place)
I0619 17:17:25.621057  5881 net.cpp:150] Setting up conv14_2/relu
I0619 17:17:25.621064  5881 net.cpp:157] Top shape: 8 512 5 5 (102400)
I0619 17:17:25.621084  5881 net.cpp:165] Memory required for data: 1285558368
I0619 17:17:25.621095  5881 layer_factory.hpp:77] Creating layer conv14_2_conv14_2/relu_0_split
I0619 17:17:25.621104  5881 net.cpp:100] Creating Layer conv14_2_conv14_2/relu_0_split
I0619 17:17:25.621125  5881 net.cpp:434] conv14_2_conv14_2/relu_0_split <- conv14_2
I0619 17:17:25.621141  5881 net.cpp:408] conv14_2_conv14_2/relu_0_split -> conv14_2_conv14_2/relu_0_split_0
I0619 17:17:25.621153  5881 net.cpp:408] conv14_2_conv14_2/relu_0_split -> conv14_2_conv14_2/relu_0_split_1
I0619 17:17:25.621181  5881 net.cpp:408] conv14_2_conv14_2/relu_0_split -> conv14_2_conv14_2/relu_0_split_2
I0619 17:17:25.621193  5881 net.cpp:408] conv14_2_conv14_2/relu_0_split -> conv14_2_conv14_2/relu_0_split_3
I0619 17:17:25.621204  5881 net.cpp:150] Setting up conv14_2_conv14_2/relu_0_split
I0619 17:17:25.621229  5881 net.cpp:157] Top shape: 8 512 5 5 (102400)
I0619 17:17:25.621237  5881 net.cpp:157] Top shape: 8 512 5 5 (102400)
I0619 17:17:25.621244  5881 net.cpp:157] Top shape: 8 512 5 5 (102400)
I0619 17:17:25.621249  5881 net.cpp:157] Top shape: 8 512 5 5 (102400)
I0619 17:17:25.621258  5881 net.cpp:165] Memory required for data: 1287196768
I0619 17:17:25.621264  5881 layer_factory.hpp:77] Creating layer conv15_1
I0619 17:17:25.621278  5881 net.cpp:100] Creating Layer conv15_1
I0619 17:17:25.621299  5881 net.cpp:434] conv15_1 <- conv14_2_conv14_2/relu_0_split_0
I0619 17:17:25.621315  5881 net.cpp:408] conv15_1 -> conv15_1
I0619 17:17:25.623347  5881 net.cpp:150] Setting up conv15_1
I0619 17:17:25.623378  5881 net.cpp:157] Top shape: 8 128 5 5 (25600)
I0619 17:17:25.623383  5881 net.cpp:165] Memory required for data: 1287299168
I0619 17:17:25.623389  5881 layer_factory.hpp:77] Creating layer conv15_1/bn
I0619 17:17:25.623397  5881 net.cpp:100] Creating Layer conv15_1/bn
I0619 17:17:25.623402  5881 net.cpp:434] conv15_1/bn <- conv15_1
I0619 17:17:25.623407  5881 net.cpp:395] conv15_1/bn -> conv15_1 (in-place)
I0619 17:17:25.623421  5881 net.cpp:150] Setting up conv15_1/bn
I0619 17:17:25.623426  5881 net.cpp:157] Top shape: 8 128 5 5 (25600)
I0619 17:17:25.623430  5881 net.cpp:165] Memory required for data: 1287401568
I0619 17:17:25.623438  5881 layer_factory.hpp:77] Creating layer conv15_1/scale
I0619 17:17:25.623466  5881 net.cpp:100] Creating Layer conv15_1/scale
I0619 17:17:25.623478  5881 net.cpp:434] conv15_1/scale <- conv15_1
I0619 17:17:25.623489  5881 net.cpp:395] conv15_1/scale -> conv15_1 (in-place)
I0619 17:17:25.623502  5881 layer_factory.hpp:77] Creating layer conv15_1/scale
I0619 17:17:25.623524  5881 net.cpp:150] Setting up conv15_1/scale
I0619 17:17:25.623549  5881 net.cpp:157] Top shape: 8 128 5 5 (25600)
I0619 17:17:25.623556  5881 net.cpp:165] Memory required for data: 1287503968
I0619 17:17:25.623569  5881 layer_factory.hpp:77] Creating layer conv15_1/relu
I0619 17:17:25.623579  5881 net.cpp:100] Creating Layer conv15_1/relu
I0619 17:17:25.623601  5881 net.cpp:434] conv15_1/relu <- conv15_1
I0619 17:17:25.623611  5881 net.cpp:395] conv15_1/relu -> conv15_1 (in-place)
I0619 17:17:25.623625  5881 net.cpp:150] Setting up conv15_1/relu
I0619 17:17:25.623631  5881 net.cpp:157] Top shape: 8 128 5 5 (25600)
I0619 17:17:25.623636  5881 net.cpp:165] Memory required for data: 1287606368
I0619 17:17:25.623644  5881 layer_factory.hpp:77] Creating layer conv15_2
I0619 17:17:25.623658  5881 net.cpp:100] Creating Layer conv15_2
I0619 17:17:25.623713  5881 net.cpp:434] conv15_2 <- conv15_1
I0619 17:17:25.623744  5881 net.cpp:408] conv15_2 -> conv15_2
I0619 17:17:25.632496  5881 net.cpp:150] Setting up conv15_2
I0619 17:17:25.632550  5881 net.cpp:157] Top shape: 8 256 3 3 (18432)
I0619 17:17:25.632555  5881 net.cpp:165] Memory required for data: 1287680096
I0619 17:17:25.632567  5881 layer_factory.hpp:77] Creating layer conv15_2/bn
I0619 17:17:25.632580  5881 net.cpp:100] Creating Layer conv15_2/bn
I0619 17:17:25.632599  5881 net.cpp:434] conv15_2/bn <- conv15_2
I0619 17:17:25.632611  5881 net.cpp:395] conv15_2/bn -> conv15_2 (in-place)
I0619 17:17:25.632656  5881 net.cpp:150] Setting up conv15_2/bn
I0619 17:17:25.632681  5881 net.cpp:157] Top shape: 8 256 3 3 (18432)
I0619 17:17:25.632704  5881 net.cpp:165] Memory required for data: 1287753824
I0619 17:17:25.632724  5881 layer_factory.hpp:77] Creating layer conv15_2/scale
I0619 17:17:25.632750  5881 net.cpp:100] Creating Layer conv15_2/scale
I0619 17:17:25.632768  5881 net.cpp:434] conv15_2/scale <- conv15_2
I0619 17:17:25.632777  5881 net.cpp:395] conv15_2/scale -> conv15_2 (in-place)
I0619 17:17:25.632804  5881 layer_factory.hpp:77] Creating layer conv15_2/scale
I0619 17:17:25.632838  5881 net.cpp:150] Setting up conv15_2/scale
I0619 17:17:25.632858  5881 net.cpp:157] Top shape: 8 256 3 3 (18432)
I0619 17:17:25.632863  5881 net.cpp:165] Memory required for data: 1287827552
I0619 17:17:25.632870  5881 layer_factory.hpp:77] Creating layer conv15_2/relu
I0619 17:17:25.632891  5881 net.cpp:100] Creating Layer conv15_2/relu
I0619 17:17:25.632908  5881 net.cpp:434] conv15_2/relu <- conv15_2
I0619 17:17:25.632915  5881 net.cpp:395] conv15_2/relu -> conv15_2 (in-place)
I0619 17:17:25.632935  5881 net.cpp:150] Setting up conv15_2/relu
I0619 17:17:25.632943  5881 net.cpp:157] Top shape: 8 256 3 3 (18432)
I0619 17:17:25.632946  5881 net.cpp:165] Memory required for data: 1287901280
I0619 17:17:25.632949  5881 layer_factory.hpp:77] Creating layer conv15_2_conv15_2/relu_0_split
I0619 17:17:25.632957  5881 net.cpp:100] Creating Layer conv15_2_conv15_2/relu_0_split
I0619 17:17:25.632961  5881 net.cpp:434] conv15_2_conv15_2/relu_0_split <- conv15_2
I0619 17:17:25.632969  5881 net.cpp:408] conv15_2_conv15_2/relu_0_split -> conv15_2_conv15_2/relu_0_split_0
I0619 17:17:25.632975  5881 net.cpp:408] conv15_2_conv15_2/relu_0_split -> conv15_2_conv15_2/relu_0_split_1
I0619 17:17:25.632995  5881 net.cpp:408] conv15_2_conv15_2/relu_0_split -> conv15_2_conv15_2/relu_0_split_2
I0619 17:17:25.633005  5881 net.cpp:408] conv15_2_conv15_2/relu_0_split -> conv15_2_conv15_2/relu_0_split_3
I0619 17:17:25.633013  5881 net.cpp:150] Setting up conv15_2_conv15_2/relu_0_split
I0619 17:17:25.633029  5881 net.cpp:157] Top shape: 8 256 3 3 (18432)
I0619 17:17:25.633034  5881 net.cpp:157] Top shape: 8 256 3 3 (18432)
I0619 17:17:25.633040  5881 net.cpp:157] Top shape: 8 256 3 3 (18432)
I0619 17:17:25.633044  5881 net.cpp:157] Top shape: 8 256 3 3 (18432)
I0619 17:17:25.633060  5881 net.cpp:165] Memory required for data: 1288196192
I0619 17:17:25.633082  5881 layer_factory.hpp:77] Creating layer conv16_1
I0619 17:17:25.633101  5881 net.cpp:100] Creating Layer conv16_1
I0619 17:17:25.633118  5881 net.cpp:434] conv16_1 <- conv15_2_conv15_2/relu_0_split_0
I0619 17:17:25.633126  5881 net.cpp:408] conv16_1 -> conv16_1
I0619 17:17:25.634111  5881 net.cpp:150] Setting up conv16_1
I0619 17:17:25.634136  5881 net.cpp:157] Top shape: 8 128 3 3 (9216)
I0619 17:17:25.634141  5881 net.cpp:165] Memory required for data: 1288233056
I0619 17:17:25.634146  5881 layer_factory.hpp:77] Creating layer conv16_1/bn
I0619 17:17:25.634157  5881 net.cpp:100] Creating Layer conv16_1/bn
I0619 17:17:25.634179  5881 net.cpp:434] conv16_1/bn <- conv16_1
I0619 17:17:25.634191  5881 net.cpp:395] conv16_1/bn -> conv16_1 (in-place)
I0619 17:17:25.634232  5881 net.cpp:150] Setting up conv16_1/bn
I0619 17:17:25.634253  5881 net.cpp:157] Top shape: 8 128 3 3 (9216)
I0619 17:17:25.634258  5881 net.cpp:165] Memory required for data: 1288269920
I0619 17:17:25.634268  5881 layer_factory.hpp:77] Creating layer conv16_1/scale
I0619 17:17:25.634316  5881 net.cpp:100] Creating Layer conv16_1/scale
I0619 17:17:25.634335  5881 net.cpp:434] conv16_1/scale <- conv16_1
I0619 17:17:25.634344  5881 net.cpp:395] conv16_1/scale -> conv16_1 (in-place)
I0619 17:17:25.634368  5881 layer_factory.hpp:77] Creating layer conv16_1/scale
I0619 17:17:25.634398  5881 net.cpp:150] Setting up conv16_1/scale
I0619 17:17:25.634418  5881 net.cpp:157] Top shape: 8 128 3 3 (9216)
I0619 17:17:25.634423  5881 net.cpp:165] Memory required for data: 1288306784
I0619 17:17:25.634430  5881 layer_factory.hpp:77] Creating layer conv16_1/relu
I0619 17:17:25.634438  5881 net.cpp:100] Creating Layer conv16_1/relu
I0619 17:17:25.634454  5881 net.cpp:434] conv16_1/relu <- conv16_1
I0619 17:17:25.634460  5881 net.cpp:395] conv16_1/relu -> conv16_1 (in-place)
I0619 17:17:25.634479  5881 net.cpp:150] Setting up conv16_1/relu
I0619 17:17:25.634485  5881 net.cpp:157] Top shape: 8 128 3 3 (9216)
I0619 17:17:25.634490  5881 net.cpp:165] Memory required for data: 1288343648
I0619 17:17:25.634493  5881 layer_factory.hpp:77] Creating layer conv16_2
I0619 17:17:25.634505  5881 net.cpp:100] Creating Layer conv16_2
I0619 17:17:25.634521  5881 net.cpp:434] conv16_2 <- conv16_1
I0619 17:17:25.634527  5881 net.cpp:408] conv16_2 -> conv16_2
I0619 17:17:25.643077  5881 net.cpp:150] Setting up conv16_2
I0619 17:17:25.643131  5881 net.cpp:157] Top shape: 8 256 2 2 (8192)
I0619 17:17:25.643157  5881 net.cpp:165] Memory required for data: 1288376416
I0619 17:17:25.643185  5881 layer_factory.hpp:77] Creating layer conv16_2/bn
I0619 17:17:25.643203  5881 net.cpp:100] Creating Layer conv16_2/bn
I0619 17:17:25.643214  5881 net.cpp:434] conv16_2/bn <- conv16_2
I0619 17:17:25.643226  5881 net.cpp:395] conv16_2/bn -> conv16_2 (in-place)
I0619 17:17:25.643270  5881 net.cpp:150] Setting up conv16_2/bn
I0619 17:17:25.643297  5881 net.cpp:157] Top shape: 8 256 2 2 (8192)
I0619 17:17:25.643307  5881 net.cpp:165] Memory required for data: 1288409184
I0619 17:17:25.643319  5881 layer_factory.hpp:77] Creating layer conv16_2/scale
I0619 17:17:25.643332  5881 net.cpp:100] Creating Layer conv16_2/scale
I0619 17:17:25.643339  5881 net.cpp:434] conv16_2/scale <- conv16_2
I0619 17:17:25.643352  5881 net.cpp:395] conv16_2/scale -> conv16_2 (in-place)
I0619 17:17:25.643369  5881 layer_factory.hpp:77] Creating layer conv16_2/scale
I0619 17:17:25.643410  5881 net.cpp:150] Setting up conv16_2/scale
I0619 17:17:25.643435  5881 net.cpp:157] Top shape: 8 256 2 2 (8192)
I0619 17:17:25.643442  5881 net.cpp:165] Memory required for data: 1288441952
I0619 17:17:25.643455  5881 layer_factory.hpp:77] Creating layer conv16_2/relu
I0619 17:17:25.643463  5881 net.cpp:100] Creating Layer conv16_2/relu
I0619 17:17:25.643484  5881 net.cpp:434] conv16_2/relu <- conv16_2
I0619 17:17:25.643494  5881 net.cpp:395] conv16_2/relu -> conv16_2 (in-place)
I0619 17:17:25.643519  5881 net.cpp:150] Setting up conv16_2/relu
I0619 17:17:25.643532  5881 net.cpp:157] Top shape: 8 256 2 2 (8192)
I0619 17:17:25.643537  5881 net.cpp:165] Memory required for data: 1288474720
I0619 17:17:25.643543  5881 layer_factory.hpp:77] Creating layer conv16_2_conv16_2/relu_0_split
I0619 17:17:25.643559  5881 net.cpp:100] Creating Layer conv16_2_conv16_2/relu_0_split
I0619 17:17:25.643568  5881 net.cpp:434] conv16_2_conv16_2/relu_0_split <- conv16_2
I0619 17:17:25.643575  5881 net.cpp:408] conv16_2_conv16_2/relu_0_split -> conv16_2_conv16_2/relu_0_split_0
I0619 17:17:25.643587  5881 net.cpp:408] conv16_2_conv16_2/relu_0_split -> conv16_2_conv16_2/relu_0_split_1
I0619 17:17:25.643596  5881 net.cpp:408] conv16_2_conv16_2/relu_0_split -> conv16_2_conv16_2/relu_0_split_2
I0619 17:17:25.643625  5881 net.cpp:408] conv16_2_conv16_2/relu_0_split -> conv16_2_conv16_2/relu_0_split_3
I0619 17:17:25.643641  5881 net.cpp:150] Setting up conv16_2_conv16_2/relu_0_split
I0619 17:17:25.643649  5881 net.cpp:157] Top shape: 8 256 2 2 (8192)
I0619 17:17:25.643657  5881 net.cpp:157] Top shape: 8 256 2 2 (8192)
I0619 17:17:25.643663  5881 net.cpp:157] Top shape: 8 256 2 2 (8192)
I0619 17:17:25.643718  5881 net.cpp:157] Top shape: 8 256 2 2 (8192)
I0619 17:17:25.643741  5881 net.cpp:165] Memory required for data: 1288605792
I0619 17:17:25.643749  5881 layer_factory.hpp:77] Creating layer conv17_1
I0619 17:17:25.643767  5881 net.cpp:100] Creating Layer conv17_1
I0619 17:17:25.643776  5881 net.cpp:434] conv17_1 <- conv16_2_conv16_2/relu_0_split_0
I0619 17:17:25.643788  5881 net.cpp:408] conv17_1 -> conv17_1
I0619 17:17:25.644325  5881 net.cpp:150] Setting up conv17_1
I0619 17:17:25.644356  5881 net.cpp:157] Top shape: 8 64 2 2 (2048)
I0619 17:17:25.644363  5881 net.cpp:165] Memory required for data: 1288613984
I0619 17:17:25.644374  5881 layer_factory.hpp:77] Creating layer conv17_1/bn
I0619 17:17:25.644387  5881 net.cpp:100] Creating Layer conv17_1/bn
I0619 17:17:25.644407  5881 net.cpp:434] conv17_1/bn <- conv17_1
I0619 17:17:25.644421  5881 net.cpp:395] conv17_1/bn -> conv17_1 (in-place)
I0619 17:17:25.644459  5881 net.cpp:150] Setting up conv17_1/bn
I0619 17:17:25.644484  5881 net.cpp:157] Top shape: 8 64 2 2 (2048)
I0619 17:17:25.644492  5881 net.cpp:165] Memory required for data: 1288622176
I0619 17:17:25.644505  5881 layer_factory.hpp:77] Creating layer conv17_1/scale
I0619 17:17:25.644516  5881 net.cpp:100] Creating Layer conv17_1/scale
I0619 17:17:25.644537  5881 net.cpp:434] conv17_1/scale <- conv17_1
I0619 17:17:25.644558  5881 net.cpp:395] conv17_1/scale -> conv17_1 (in-place)
I0619 17:17:25.644588  5881 layer_factory.hpp:77] Creating layer conv17_1/scale
I0619 17:17:25.644629  5881 net.cpp:150] Setting up conv17_1/scale
I0619 17:17:25.644654  5881 net.cpp:157] Top shape: 8 64 2 2 (2048)
I0619 17:17:25.644661  5881 net.cpp:165] Memory required for data: 1288630368
I0619 17:17:25.644673  5881 layer_factory.hpp:77] Creating layer conv17_1/relu
I0619 17:17:25.644685  5881 net.cpp:100] Creating Layer conv17_1/relu
I0619 17:17:25.644706  5881 net.cpp:434] conv17_1/relu <- conv17_1
I0619 17:17:25.644716  5881 net.cpp:395] conv17_1/relu -> conv17_1 (in-place)
I0619 17:17:25.644740  5881 net.cpp:150] Setting up conv17_1/relu
I0619 17:17:25.644753  5881 net.cpp:157] Top shape: 8 64 2 2 (2048)
I0619 17:17:25.644758  5881 net.cpp:165] Memory required for data: 1288638560
I0619 17:17:25.644764  5881 layer_factory.hpp:77] Creating layer conv17_2
I0619 17:17:25.644779  5881 net.cpp:100] Creating Layer conv17_2
I0619 17:17:25.644788  5881 net.cpp:434] conv17_2 <- conv17_1
I0619 17:17:25.644798  5881 net.cpp:408] conv17_2 -> conv17_2
I0619 17:17:25.646860  5881 net.cpp:150] Setting up conv17_2
I0619 17:17:25.646888  5881 net.cpp:157] Top shape: 8 128 1 1 (1024)
I0619 17:17:25.646894  5881 net.cpp:165] Memory required for data: 1288642656
I0619 17:17:25.646905  5881 layer_factory.hpp:77] Creating layer conv17_2/bn
I0619 17:17:25.646917  5881 net.cpp:100] Creating Layer conv17_2/bn
I0619 17:17:25.646939  5881 net.cpp:434] conv17_2/bn <- conv17_2
I0619 17:17:25.646953  5881 net.cpp:395] conv17_2/bn -> conv17_2 (in-place)
I0619 17:17:25.646989  5881 net.cpp:150] Setting up conv17_2/bn
I0619 17:17:25.647014  5881 net.cpp:157] Top shape: 8 128 1 1 (1024)
I0619 17:17:25.647022  5881 net.cpp:165] Memory required for data: 1288646752
I0619 17:17:25.647034  5881 layer_factory.hpp:77] Creating layer conv17_2/scale
I0619 17:17:25.647048  5881 net.cpp:100] Creating Layer conv17_2/scale
I0619 17:17:25.647069  5881 net.cpp:434] conv17_2/scale <- conv17_2
I0619 17:17:25.647079  5881 net.cpp:395] conv17_2/scale -> conv17_2 (in-place)
I0619 17:17:25.647114  5881 layer_factory.hpp:77] Creating layer conv17_2/scale
I0619 17:17:25.647155  5881 net.cpp:150] Setting up conv17_2/scale
I0619 17:17:25.647179  5881 net.cpp:157] Top shape: 8 128 1 1 (1024)
I0619 17:17:25.647200  5881 net.cpp:165] Memory required for data: 1288650848
I0619 17:17:25.647227  5881 layer_factory.hpp:77] Creating layer conv17_2/relu
I0619 17:17:25.647239  5881 net.cpp:100] Creating Layer conv17_2/relu
I0619 17:17:25.647245  5881 net.cpp:434] conv17_2/relu <- conv17_2
I0619 17:17:25.647254  5881 net.cpp:395] conv17_2/relu -> conv17_2 (in-place)
I0619 17:17:25.647297  5881 net.cpp:150] Setting up conv17_2/relu
I0619 17:17:25.647311  5881 net.cpp:157] Top shape: 8 128 1 1 (1024)
I0619 17:17:25.647316  5881 net.cpp:165] Memory required for data: 1288654944
I0619 17:17:25.647325  5881 layer_factory.hpp:77] Creating layer conv17_2_conv17_2/relu_0_split
I0619 17:17:25.647334  5881 net.cpp:100] Creating Layer conv17_2_conv17_2/relu_0_split
I0619 17:17:25.647342  5881 net.cpp:434] conv17_2_conv17_2/relu_0_split <- conv17_2
I0619 17:17:25.647351  5881 net.cpp:408] conv17_2_conv17_2/relu_0_split -> conv17_2_conv17_2/relu_0_split_0
I0619 17:17:25.647372  5881 net.cpp:408] conv17_2_conv17_2/relu_0_split -> conv17_2_conv17_2/relu_0_split_1
I0619 17:17:25.647399  5881 net.cpp:408] conv17_2_conv17_2/relu_0_split -> conv17_2_conv17_2/relu_0_split_2
I0619 17:17:25.647416  5881 net.cpp:150] Setting up conv17_2_conv17_2/relu_0_split
I0619 17:17:25.647425  5881 net.cpp:157] Top shape: 8 128 1 1 (1024)
I0619 17:17:25.647446  5881 net.cpp:157] Top shape: 8 128 1 1 (1024)
I0619 17:17:25.647455  5881 net.cpp:157] Top shape: 8 128 1 1 (1024)
I0619 17:17:25.647475  5881 net.cpp:165] Memory required for data: 1288667232
I0619 17:17:25.647483  5881 layer_factory.hpp:77] Creating layer conv11_mbox_loc
I0619 17:17:25.647503  5881 net.cpp:100] Creating Layer conv11_mbox_loc
I0619 17:17:25.647526  5881 net.cpp:434] conv11_mbox_loc <- conv11_conv11/relu_0_split_1
I0619 17:17:25.647537  5881 net.cpp:408] conv11_mbox_loc -> conv11_mbox_loc
I0619 17:17:25.647898  5881 net.cpp:150] Setting up conv11_mbox_loc
I0619 17:17:25.647996  5881 net.cpp:157] Top shape: 8 12 19 19 (34656)
I0619 17:17:25.648026  5881 net.cpp:165] Memory required for data: 1288805856
I0619 17:17:25.648042  5881 layer_factory.hpp:77] Creating layer conv11_mbox_loc_perm
I0619 17:17:25.659371  5881 net.cpp:100] Creating Layer conv11_mbox_loc_perm
I0619 17:17:25.659457  5881 net.cpp:434] conv11_mbox_loc_perm <- conv11_mbox_loc
I0619 17:17:25.659632  5881 net.cpp:408] conv11_mbox_loc_perm -> conv11_mbox_loc_perm
I0619 17:17:25.659936  5881 net.cpp:150] Setting up conv11_mbox_loc_perm
I0619 17:17:25.659991  5881 net.cpp:157] Top shape: 8 19 19 12 (34656)
I0619 17:17:25.660003  5881 net.cpp:165] Memory required for data: 1288944480
I0619 17:17:25.660014  5881 layer_factory.hpp:77] Creating layer conv11_mbox_loc_flat
I0619 17:17:25.670076  5881 net.cpp:100] Creating Layer conv11_mbox_loc_flat
I0619 17:17:25.670158  5881 net.cpp:434] conv11_mbox_loc_flat <- conv11_mbox_loc_perm
I0619 17:17:25.670207  5881 net.cpp:408] conv11_mbox_loc_flat -> conv11_mbox_loc_flat
I0619 17:17:25.670771  5881 net.cpp:150] Setting up conv11_mbox_loc_flat
I0619 17:17:25.670883  5881 net.cpp:157] Top shape: 8 4332 (34656)
I0619 17:17:25.670909  5881 net.cpp:165] Memory required for data: 1289083104
I0619 17:17:25.670938  5881 layer_factory.hpp:77] Creating layer conv11_mbox_conf_new
I0619 17:17:25.670980  5881 net.cpp:100] Creating Layer conv11_mbox_conf_new
I0619 17:17:25.671016  5881 net.cpp:434] conv11_mbox_conf_new <- conv11_conv11/relu_0_split_2
I0619 17:17:25.671056  5881 net.cpp:408] conv11_mbox_conf_new -> conv11_mbox_conf
I0619 17:17:25.672245  5881 net.cpp:150] Setting up conv11_mbox_conf_new
I0619 17:17:25.672338  5881 net.cpp:157] Top shape: 8 63 19 19 (181944)
I0619 17:17:25.672348  5881 net.cpp:165] Memory required for data: 1289810880
I0619 17:17:25.672360  5881 layer_factory.hpp:77] Creating layer conv11_mbox_conf_perm
I0619 17:17:25.672391  5881 net.cpp:100] Creating Layer conv11_mbox_conf_perm
I0619 17:17:25.672418  5881 net.cpp:434] conv11_mbox_conf_perm <- conv11_mbox_conf
I0619 17:17:25.672437  5881 net.cpp:408] conv11_mbox_conf_perm -> conv11_mbox_conf_perm
I0619 17:17:25.672461  5881 net.cpp:150] Setting up conv11_mbox_conf_perm
I0619 17:17:25.672487  5881 net.cpp:157] Top shape: 8 19 19 63 (181944)
I0619 17:17:25.672509  5881 net.cpp:165] Memory required for data: 1290538656
I0619 17:17:25.672518  5881 layer_factory.hpp:77] Creating layer conv11_mbox_conf_flat
I0619 17:17:25.672544  5881 net.cpp:100] Creating Layer conv11_mbox_conf_flat
I0619 17:17:25.672592  5881 net.cpp:434] conv11_mbox_conf_flat <- conv11_mbox_conf_perm
I0619 17:17:25.672607  5881 net.cpp:408] conv11_mbox_conf_flat -> conv11_mbox_conf_flat
I0619 17:17:25.672619  5881 net.cpp:150] Setting up conv11_mbox_conf_flat
I0619 17:17:25.672643  5881 net.cpp:157] Top shape: 8 22743 (181944)
I0619 17:17:25.672653  5881 net.cpp:165] Memory required for data: 1291266432
I0619 17:17:25.672659  5881 layer_factory.hpp:77] Creating layer conv11_mbox_priorbox
I0619 17:17:25.679236  5881 net.cpp:100] Creating Layer conv11_mbox_priorbox
I0619 17:17:25.679270  5881 net.cpp:434] conv11_mbox_priorbox <- conv11_conv11/relu_0_split_3
I0619 17:17:25.679285  5881 net.cpp:434] conv11_mbox_priorbox <- data_data_0_split_1
I0619 17:17:25.679308  5881 net.cpp:408] conv11_mbox_priorbox -> conv11_mbox_priorbox
I0619 17:17:25.679435  5881 net.cpp:150] Setting up conv11_mbox_priorbox
I0619 17:17:25.679472  5881 net.cpp:157] Top shape: 1 2 4332 (8664)
I0619 17:17:25.679484  5881 net.cpp:165] Memory required for data: 1291301088
I0619 17:17:25.679492  5881 layer_factory.hpp:77] Creating layer conv13_mbox_loc
I0619 17:17:25.679529  5881 net.cpp:100] Creating Layer conv13_mbox_loc
I0619 17:17:25.679559  5881 net.cpp:434] conv13_mbox_loc <- conv13_conv13/relu_0_split_1
I0619 17:17:25.679592  5881 net.cpp:408] conv13_mbox_loc -> conv13_mbox_loc
I0619 17:17:25.680570  5881 net.cpp:150] Setting up conv13_mbox_loc
I0619 17:17:25.680613  5881 net.cpp:157] Top shape: 8 24 10 10 (19200)
I0619 17:17:25.680620  5881 net.cpp:165] Memory required for data: 1291377888
I0619 17:17:25.680630  5881 layer_factory.hpp:77] Creating layer conv13_mbox_loc_perm
I0619 17:17:25.680645  5881 net.cpp:100] Creating Layer conv13_mbox_loc_perm
I0619 17:17:25.680651  5881 net.cpp:434] conv13_mbox_loc_perm <- conv13_mbox_loc
I0619 17:17:25.680680  5881 net.cpp:408] conv13_mbox_loc_perm -> conv13_mbox_loc_perm
I0619 17:17:25.680701  5881 net.cpp:150] Setting up conv13_mbox_loc_perm
I0619 17:17:25.680722  5881 net.cpp:157] Top shape: 8 10 10 24 (19200)
I0619 17:17:25.680747  5881 net.cpp:165] Memory required for data: 1291454688
I0619 17:17:25.680755  5881 layer_factory.hpp:77] Creating layer conv13_mbox_loc_flat
I0619 17:17:25.680769  5881 net.cpp:100] Creating Layer conv13_mbox_loc_flat
I0619 17:17:25.680778  5881 net.cpp:434] conv13_mbox_loc_flat <- conv13_mbox_loc_perm
I0619 17:17:25.680785  5881 net.cpp:408] conv13_mbox_loc_flat -> conv13_mbox_loc_flat
I0619 17:17:25.680811  5881 net.cpp:150] Setting up conv13_mbox_loc_flat
I0619 17:17:25.680835  5881 net.cpp:157] Top shape: 8 2400 (19200)
I0619 17:17:25.680855  5881 net.cpp:165] Memory required for data: 1291531488
I0619 17:17:25.680874  5881 layer_factory.hpp:77] Creating layer conv13_mbox_conf_new
I0619 17:17:25.680891  5881 net.cpp:100] Creating Layer conv13_mbox_conf_new
I0619 17:17:25.680898  5881 net.cpp:434] conv13_mbox_conf_new <- conv13_conv13/relu_0_split_2
I0619 17:17:25.680908  5881 net.cpp:408] conv13_mbox_conf_new -> conv13_mbox_conf
I0619 17:17:25.685588  5881 net.cpp:150] Setting up conv13_mbox_conf_new
I0619 17:17:25.685636  5881 net.cpp:157] Top shape: 8 126 10 10 (100800)
I0619 17:17:25.685644  5881 net.cpp:165] Memory required for data: 1291934688
I0619 17:17:25.685657  5881 layer_factory.hpp:77] Creating layer conv13_mbox_conf_perm
I0619 17:17:25.685670  5881 net.cpp:100] Creating Layer conv13_mbox_conf_perm
I0619 17:17:25.685698  5881 net.cpp:434] conv13_mbox_conf_perm <- conv13_mbox_conf
I0619 17:17:25.685714  5881 net.cpp:408] conv13_mbox_conf_perm -> conv13_mbox_conf_perm
I0619 17:17:25.685751  5881 net.cpp:150] Setting up conv13_mbox_conf_perm
I0619 17:17:25.685776  5881 net.cpp:157] Top shape: 8 10 10 126 (100800)
I0619 17:17:25.685786  5881 net.cpp:165] Memory required for data: 1292337888
I0619 17:17:25.685806  5881 layer_factory.hpp:77] Creating layer conv13_mbox_conf_flat
I0619 17:17:25.685835  5881 net.cpp:100] Creating Layer conv13_mbox_conf_flat
I0619 17:17:25.685858  5881 net.cpp:434] conv13_mbox_conf_flat <- conv13_mbox_conf_perm
I0619 17:17:25.685909  5881 net.cpp:408] conv13_mbox_conf_flat -> conv13_mbox_conf_flat
I0619 17:17:25.685927  5881 net.cpp:150] Setting up conv13_mbox_conf_flat
I0619 17:17:25.685937  5881 net.cpp:157] Top shape: 8 12600 (100800)
I0619 17:17:25.685948  5881 net.cpp:165] Memory required for data: 1292741088
I0619 17:17:25.685955  5881 layer_factory.hpp:77] Creating layer conv13_mbox_priorbox
I0619 17:17:25.685978  5881 net.cpp:100] Creating Layer conv13_mbox_priorbox
I0619 17:17:25.686002  5881 net.cpp:434] conv13_mbox_priorbox <- conv13_conv13/relu_0_split_3
I0619 17:17:25.686028  5881 net.cpp:434] conv13_mbox_priorbox <- data_data_0_split_2
I0619 17:17:25.686055  5881 net.cpp:408] conv13_mbox_priorbox -> conv13_mbox_priorbox
I0619 17:17:25.686087  5881 net.cpp:150] Setting up conv13_mbox_priorbox
I0619 17:17:25.686112  5881 net.cpp:157] Top shape: 1 2 2400 (4800)
I0619 17:17:25.686122  5881 net.cpp:165] Memory required for data: 1292760288
I0619 17:17:25.686128  5881 layer_factory.hpp:77] Creating layer conv14_2_mbox_loc
I0619 17:17:25.686161  5881 net.cpp:100] Creating Layer conv14_2_mbox_loc
I0619 17:17:25.686184  5881 net.cpp:434] conv14_2_mbox_loc <- conv14_2_conv14_2/relu_0_split_1
I0619 17:17:25.686197  5881 net.cpp:408] conv14_2_mbox_loc -> conv14_2_mbox_loc
I0619 17:17:25.686694  5881 net.cpp:150] Setting up conv14_2_mbox_loc
I0619 17:17:25.686746  5881 net.cpp:157] Top shape: 8 24 5 5 (4800)
I0619 17:17:25.686758  5881 net.cpp:165] Memory required for data: 1292779488
I0619 17:17:25.686771  5881 layer_factory.hpp:77] Creating layer conv14_2_mbox_loc_perm
I0619 17:17:25.686801  5881 net.cpp:100] Creating Layer conv14_2_mbox_loc_perm
I0619 17:17:25.686812  5881 net.cpp:434] conv14_2_mbox_loc_perm <- conv14_2_mbox_loc
I0619 17:17:25.686823  5881 net.cpp:408] conv14_2_mbox_loc_perm -> conv14_2_mbox_loc_perm
I0619 17:17:25.686892  5881 net.cpp:150] Setting up conv14_2_mbox_loc_perm
I0619 17:17:25.686906  5881 net.cpp:157] Top shape: 8 5 5 24 (4800)
I0619 17:17:25.686930  5881 net.cpp:165] Memory required for data: 1292798688
I0619 17:17:25.686954  5881 layer_factory.hpp:77] Creating layer conv14_2_mbox_loc_flat
I0619 17:17:25.686982  5881 net.cpp:100] Creating Layer conv14_2_mbox_loc_flat
I0619 17:17:25.687005  5881 net.cpp:434] conv14_2_mbox_loc_flat <- conv14_2_mbox_loc_perm
I0619 17:17:25.687014  5881 net.cpp:408] conv14_2_mbox_loc_flat -> conv14_2_mbox_loc_flat
I0619 17:17:25.687026  5881 net.cpp:150] Setting up conv14_2_mbox_loc_flat
I0619 17:17:25.687032  5881 net.cpp:157] Top shape: 8 600 (4800)
I0619 17:17:25.687037  5881 net.cpp:165] Memory required for data: 1292817888
I0619 17:17:25.687042  5881 layer_factory.hpp:77] Creating layer conv14_2_mbox_conf_new
I0619 17:17:25.687057  5881 net.cpp:100] Creating Layer conv14_2_mbox_conf_new
I0619 17:17:25.687067  5881 net.cpp:434] conv14_2_mbox_conf_new <- conv14_2_conv14_2/relu_0_split_2
I0619 17:17:25.687078  5881 net.cpp:408] conv14_2_mbox_conf_new -> conv14_2_mbox_conf
I0619 17:17:25.689205  5881 net.cpp:150] Setting up conv14_2_mbox_conf_new
I0619 17:17:25.689244  5881 net.cpp:157] Top shape: 8 126 5 5 (25200)
I0619 17:17:25.689254  5881 net.cpp:165] Memory required for data: 1292918688
I0619 17:17:25.689265  5881 layer_factory.hpp:77] Creating layer conv14_2_mbox_conf_perm
I0619 17:17:25.689275  5881 net.cpp:100] Creating Layer conv14_2_mbox_conf_perm
I0619 17:17:25.689287  5881 net.cpp:434] conv14_2_mbox_conf_perm <- conv14_2_mbox_conf
I0619 17:17:25.689299  5881 net.cpp:408] conv14_2_mbox_conf_perm -> conv14_2_mbox_conf_perm
I0619 17:17:25.689334  5881 net.cpp:150] Setting up conv14_2_mbox_conf_perm
I0619 17:17:25.689362  5881 net.cpp:157] Top shape: 8 5 5 126 (25200)
I0619 17:17:25.689371  5881 net.cpp:165] Memory required for data: 1293019488
I0619 17:17:25.689378  5881 layer_factory.hpp:77] Creating layer conv14_2_mbox_conf_flat
I0619 17:17:25.689393  5881 net.cpp:100] Creating Layer conv14_2_mbox_conf_flat
I0619 17:17:25.689401  5881 net.cpp:434] conv14_2_mbox_conf_flat <- conv14_2_mbox_conf_perm
I0619 17:17:25.689409  5881 net.cpp:408] conv14_2_mbox_conf_flat -> conv14_2_mbox_conf_flat
I0619 17:17:25.689460  5881 net.cpp:150] Setting up conv14_2_mbox_conf_flat
I0619 17:17:25.689486  5881 net.cpp:157] Top shape: 8 3150 (25200)
I0619 17:17:25.689496  5881 net.cpp:165] Memory required for data: 1293120288
I0619 17:17:25.689502  5881 layer_factory.hpp:77] Creating layer conv14_2_mbox_priorbox
I0619 17:17:25.689517  5881 net.cpp:100] Creating Layer conv14_2_mbox_priorbox
I0619 17:17:25.689527  5881 net.cpp:434] conv14_2_mbox_priorbox <- conv14_2_conv14_2/relu_0_split_3
I0619 17:17:25.689535  5881 net.cpp:434] conv14_2_mbox_priorbox <- data_data_0_split_3
I0619 17:17:25.689560  5881 net.cpp:408] conv14_2_mbox_priorbox -> conv14_2_mbox_priorbox
I0619 17:17:25.689579  5881 net.cpp:150] Setting up conv14_2_mbox_priorbox
I0619 17:17:25.689600  5881 net.cpp:157] Top shape: 1 2 600 (1200)
I0619 17:17:25.689610  5881 net.cpp:165] Memory required for data: 1293125088
I0619 17:17:25.689616  5881 layer_factory.hpp:77] Creating layer conv15_2_mbox_loc
I0619 17:17:25.689647  5881 net.cpp:100] Creating Layer conv15_2_mbox_loc
I0619 17:17:25.689671  5881 net.cpp:434] conv15_2_mbox_loc <- conv15_2_conv15_2/relu_0_split_1
I0619 17:17:25.689689  5881 net.cpp:408] conv15_2_mbox_loc -> conv15_2_mbox_loc
I0619 17:17:25.689877  5881 net.cpp:150] Setting up conv15_2_mbox_loc
I0619 17:17:25.689896  5881 net.cpp:157] Top shape: 8 24 3 3 (1728)
I0619 17:17:25.689901  5881 net.cpp:165] Memory required for data: 1293132000
I0619 17:17:25.689908  5881 layer_factory.hpp:77] Creating layer conv15_2_mbox_loc_perm
I0619 17:17:25.689929  5881 net.cpp:100] Creating Layer conv15_2_mbox_loc_perm
I0619 17:17:25.689937  5881 net.cpp:434] conv15_2_mbox_loc_perm <- conv15_2_mbox_loc
I0619 17:17:25.689942  5881 net.cpp:408] conv15_2_mbox_loc_perm -> conv15_2_mbox_loc_perm
I0619 17:17:25.689954  5881 net.cpp:150] Setting up conv15_2_mbox_loc_perm
I0619 17:17:25.689960  5881 net.cpp:157] Top shape: 8 3 3 24 (1728)
I0619 17:17:25.689962  5881 net.cpp:165] Memory required for data: 1293138912
I0619 17:17:25.689965  5881 layer_factory.hpp:77] Creating layer conv15_2_mbox_loc_flat
I0619 17:17:25.689972  5881 net.cpp:100] Creating Layer conv15_2_mbox_loc_flat
I0619 17:17:25.689975  5881 net.cpp:434] conv15_2_mbox_loc_flat <- conv15_2_mbox_loc_perm
I0619 17:17:25.689981  5881 net.cpp:408] conv15_2_mbox_loc_flat -> conv15_2_mbox_loc_flat
I0619 17:17:25.690001  5881 net.cpp:150] Setting up conv15_2_mbox_loc_flat
I0619 17:17:25.690009  5881 net.cpp:157] Top shape: 8 216 (1728)
I0619 17:17:25.690012  5881 net.cpp:165] Memory required for data: 1293145824
I0619 17:17:25.690016  5881 layer_factory.hpp:77] Creating layer conv15_2_mbox_conf_new
I0619 17:17:25.690026  5881 net.cpp:100] Creating Layer conv15_2_mbox_conf_new
I0619 17:17:25.690032  5881 net.cpp:434] conv15_2_mbox_conf_new <- conv15_2_conv15_2/relu_0_split_2
I0619 17:17:25.690039  5881 net.cpp:408] conv15_2_mbox_conf_new -> conv15_2_mbox_conf
I0619 17:17:25.691249  5881 net.cpp:150] Setting up conv15_2_mbox_conf_new
I0619 17:17:25.691421  5881 net.cpp:157] Top shape: 8 126 3 3 (9072)
I0619 17:17:25.691447  5881 net.cpp:165] Memory required for data: 1293182112
I0619 17:17:25.691470  5881 layer_factory.hpp:77] Creating layer conv15_2_mbox_conf_perm
I0619 17:17:25.691501  5881 net.cpp:100] Creating Layer conv15_2_mbox_conf_perm
I0619 17:17:25.691540  5881 net.cpp:434] conv15_2_mbox_conf_perm <- conv15_2_mbox_conf
I0619 17:17:25.691627  5881 net.cpp:408] conv15_2_mbox_conf_perm -> conv15_2_mbox_conf_perm
I0619 17:17:25.691742  5881 net.cpp:150] Setting up conv15_2_mbox_conf_perm
I0619 17:17:25.691777  5881 net.cpp:157] Top shape: 8 3 3 126 (9072)
I0619 17:17:25.691788  5881 net.cpp:165] Memory required for data: 1293218400
I0619 17:17:25.691793  5881 layer_factory.hpp:77] Creating layer conv15_2_mbox_conf_flat
I0619 17:17:25.691802  5881 net.cpp:100] Creating Layer conv15_2_mbox_conf_flat
I0619 17:17:25.691807  5881 net.cpp:434] conv15_2_mbox_conf_flat <- conv15_2_mbox_conf_perm
I0619 17:17:25.691817  5881 net.cpp:408] conv15_2_mbox_conf_flat -> conv15_2_mbox_conf_flat
I0619 17:17:25.691853  5881 net.cpp:150] Setting up conv15_2_mbox_conf_flat
I0619 17:17:25.691859  5881 net.cpp:157] Top shape: 8 1134 (9072)
I0619 17:17:25.691864  5881 net.cpp:165] Memory required for data: 1293254688
I0619 17:17:25.691869  5881 layer_factory.hpp:77] Creating layer conv15_2_mbox_priorbox
I0619 17:17:25.691877  5881 net.cpp:100] Creating Layer conv15_2_mbox_priorbox
I0619 17:17:25.691922  5881 net.cpp:434] conv15_2_mbox_priorbox <- conv15_2_conv15_2/relu_0_split_3
I0619 17:17:25.691938  5881 net.cpp:434] conv15_2_mbox_priorbox <- data_data_0_split_4
I0619 17:17:25.691965  5881 net.cpp:408] conv15_2_mbox_priorbox -> conv15_2_mbox_priorbox
I0619 17:17:25.691995  5881 net.cpp:150] Setting up conv15_2_mbox_priorbox
I0619 17:17:25.692004  5881 net.cpp:157] Top shape: 1 2 216 (432)
I0619 17:17:25.692009  5881 net.cpp:165] Memory required for data: 1293256416
I0619 17:17:25.692014  5881 layer_factory.hpp:77] Creating layer conv16_2_mbox_loc
I0619 17:17:25.692029  5881 net.cpp:100] Creating Layer conv16_2_mbox_loc
I0619 17:17:25.692035  5881 net.cpp:434] conv16_2_mbox_loc <- conv16_2_conv16_2/relu_0_split_1
I0619 17:17:25.692050  5881 net.cpp:408] conv16_2_mbox_loc -> conv16_2_mbox_loc
I0619 17:17:25.692308  5881 net.cpp:150] Setting up conv16_2_mbox_loc
I0619 17:17:25.692332  5881 net.cpp:157] Top shape: 8 24 2 2 (768)
I0619 17:17:25.692338  5881 net.cpp:165] Memory required for data: 1293259488
I0619 17:17:25.692348  5881 layer_factory.hpp:77] Creating layer conv16_2_mbox_loc_perm
I0619 17:17:25.692358  5881 net.cpp:100] Creating Layer conv16_2_mbox_loc_perm
I0619 17:17:25.692364  5881 net.cpp:434] conv16_2_mbox_loc_perm <- conv16_2_mbox_loc
I0619 17:17:25.692375  5881 net.cpp:408] conv16_2_mbox_loc_perm -> conv16_2_mbox_loc_perm
I0619 17:17:25.692389  5881 net.cpp:150] Setting up conv16_2_mbox_loc_perm
I0619 17:17:25.692410  5881 net.cpp:157] Top shape: 8 2 2 24 (768)
I0619 17:17:25.692416  5881 net.cpp:165] Memory required for data: 1293262560
I0619 17:17:25.692422  5881 layer_factory.hpp:77] Creating layer conv16_2_mbox_loc_flat
I0619 17:17:25.692430  5881 net.cpp:100] Creating Layer conv16_2_mbox_loc_flat
I0619 17:17:25.692435  5881 net.cpp:434] conv16_2_mbox_loc_flat <- conv16_2_mbox_loc_perm
I0619 17:17:25.692442  5881 net.cpp:408] conv16_2_mbox_loc_flat -> conv16_2_mbox_loc_flat
I0619 17:17:25.692451  5881 net.cpp:150] Setting up conv16_2_mbox_loc_flat
I0619 17:17:25.692461  5881 net.cpp:157] Top shape: 8 96 (768)
I0619 17:17:25.692466  5881 net.cpp:165] Memory required for data: 1293265632
I0619 17:17:25.692472  5881 layer_factory.hpp:77] Creating layer conv16_2_mbox_conf_new
I0619 17:17:25.692486  5881 net.cpp:100] Creating Layer conv16_2_mbox_conf_new
I0619 17:17:25.692507  5881 net.cpp:434] conv16_2_mbox_conf_new <- conv16_2_conv16_2/relu_0_split_2
I0619 17:17:25.692517  5881 net.cpp:408] conv16_2_mbox_conf_new -> conv16_2_mbox_conf
I0619 17:17:25.693742  5881 net.cpp:150] Setting up conv16_2_mbox_conf_new
I0619 17:17:25.693774  5881 net.cpp:157] Top shape: 8 126 2 2 (4032)
I0619 17:17:25.693781  5881 net.cpp:165] Memory required for data: 1293281760
I0619 17:17:25.693790  5881 layer_factory.hpp:77] Creating layer conv16_2_mbox_conf_perm
I0619 17:17:25.693801  5881 net.cpp:100] Creating Layer conv16_2_mbox_conf_perm
I0619 17:17:25.693809  5881 net.cpp:434] conv16_2_mbox_conf_perm <- conv16_2_mbox_conf
I0619 17:17:25.693820  5881 net.cpp:408] conv16_2_mbox_conf_perm -> conv16_2_mbox_conf_perm
I0619 17:17:25.693835  5881 net.cpp:150] Setting up conv16_2_mbox_conf_perm
I0619 17:17:25.693856  5881 net.cpp:157] Top shape: 8 2 2 126 (4032)
I0619 17:17:25.693862  5881 net.cpp:165] Memory required for data: 1293297888
I0619 17:17:25.693867  5881 layer_factory.hpp:77] Creating layer conv16_2_mbox_conf_flat
I0619 17:17:25.693877  5881 net.cpp:100] Creating Layer conv16_2_mbox_conf_flat
I0619 17:17:25.693883  5881 net.cpp:434] conv16_2_mbox_conf_flat <- conv16_2_mbox_conf_perm
I0619 17:17:25.693892  5881 net.cpp:408] conv16_2_mbox_conf_flat -> conv16_2_mbox_conf_flat
I0619 17:17:25.693902  5881 net.cpp:150] Setting up conv16_2_mbox_conf_flat
I0619 17:17:25.693940  5881 net.cpp:157] Top shape: 8 504 (4032)
I0619 17:17:25.693948  5881 net.cpp:165] Memory required for data: 1293314016
I0619 17:17:25.693953  5881 layer_factory.hpp:77] Creating layer conv16_2_mbox_priorbox
I0619 17:17:25.693961  5881 net.cpp:100] Creating Layer conv16_2_mbox_priorbox
I0619 17:17:25.693967  5881 net.cpp:434] conv16_2_mbox_priorbox <- conv16_2_conv16_2/relu_0_split_3
I0619 17:17:25.693974  5881 net.cpp:434] conv16_2_mbox_priorbox <- data_data_0_split_5
I0619 17:17:25.693987  5881 net.cpp:408] conv16_2_mbox_priorbox -> conv16_2_mbox_priorbox
I0619 17:17:25.694001  5881 net.cpp:150] Setting up conv16_2_mbox_priorbox
I0619 17:17:25.694023  5881 net.cpp:157] Top shape: 1 2 96 (192)
I0619 17:17:25.694030  5881 net.cpp:165] Memory required for data: 1293314784
I0619 17:17:25.694048  5881 layer_factory.hpp:77] Creating layer conv17_2_mbox_loc
I0619 17:17:25.694063  5881 net.cpp:100] Creating Layer conv17_2_mbox_loc
I0619 17:17:25.694083  5881 net.cpp:434] conv17_2_mbox_loc <- conv17_2_conv17_2/relu_0_split_0
I0619 17:17:25.694094  5881 net.cpp:408] conv17_2_mbox_loc -> conv17_2_mbox_loc
I0619 17:17:25.694236  5881 net.cpp:150] Setting up conv17_2_mbox_loc
I0619 17:17:25.694259  5881 net.cpp:157] Top shape: 8 24 1 1 (192)
I0619 17:17:25.694267  5881 net.cpp:165] Memory required for data: 1293315552
I0619 17:17:25.694274  5881 layer_factory.hpp:77] Creating layer conv17_2_mbox_loc_perm
I0619 17:17:25.694283  5881 net.cpp:100] Creating Layer conv17_2_mbox_loc_perm
I0619 17:17:25.694288  5881 net.cpp:434] conv17_2_mbox_loc_perm <- conv17_2_mbox_loc
I0619 17:17:25.694298  5881 net.cpp:408] conv17_2_mbox_loc_perm -> conv17_2_mbox_loc_perm
I0619 17:17:25.694326  5881 net.cpp:150] Setting up conv17_2_mbox_loc_perm
I0619 17:17:25.694350  5881 net.cpp:157] Top shape: 8 1 1 24 (192)
I0619 17:17:25.694355  5881 net.cpp:165] Memory required for data: 1293316320
I0619 17:17:25.694361  5881 layer_factory.hpp:77] Creating layer conv17_2_mbox_loc_flat
I0619 17:17:25.694367  5881 net.cpp:100] Creating Layer conv17_2_mbox_loc_flat
I0619 17:17:25.694373  5881 net.cpp:434] conv17_2_mbox_loc_flat <- conv17_2_mbox_loc_perm
I0619 17:17:25.694380  5881 net.cpp:408] conv17_2_mbox_loc_flat -> conv17_2_mbox_loc_flat
I0619 17:17:25.694388  5881 net.cpp:150] Setting up conv17_2_mbox_loc_flat
I0619 17:17:25.694396  5881 net.cpp:157] Top shape: 8 24 (192)
I0619 17:17:25.694403  5881 net.cpp:165] Memory required for data: 1293317088
I0619 17:17:25.694408  5881 layer_factory.hpp:77] Creating layer conv17_2_mbox_conf_new
I0619 17:17:25.694438  5881 net.cpp:100] Creating Layer conv17_2_mbox_conf_new
I0619 17:17:25.694460  5881 net.cpp:434] conv17_2_mbox_conf_new <- conv17_2_conv17_2/relu_0_split_1
I0619 17:17:25.694474  5881 net.cpp:408] conv17_2_mbox_conf_new -> conv17_2_mbox_conf
I0619 17:17:25.695037  5881 net.cpp:150] Setting up conv17_2_mbox_conf_new
I0619 17:17:25.695062  5881 net.cpp:157] Top shape: 8 126 1 1 (1008)
I0619 17:17:25.695066  5881 net.cpp:165] Memory required for data: 1293321120
I0619 17:17:25.695072  5881 layer_factory.hpp:77] Creating layer conv17_2_mbox_conf_perm
I0619 17:17:25.695083  5881 net.cpp:100] Creating Layer conv17_2_mbox_conf_perm
I0619 17:17:25.695091  5881 net.cpp:434] conv17_2_mbox_conf_perm <- conv17_2_mbox_conf
I0619 17:17:25.695096  5881 net.cpp:408] conv17_2_mbox_conf_perm -> conv17_2_mbox_conf_perm
I0619 17:17:25.695104  5881 net.cpp:150] Setting up conv17_2_mbox_conf_perm
I0619 17:17:25.695124  5881 net.cpp:157] Top shape: 8 1 1 126 (1008)
I0619 17:17:25.695132  5881 net.cpp:165] Memory required for data: 1293325152
I0619 17:17:25.695135  5881 layer_factory.hpp:77] Creating layer conv17_2_mbox_conf_flat
I0619 17:17:25.695140  5881 net.cpp:100] Creating Layer conv17_2_mbox_conf_flat
I0619 17:17:25.695147  5881 net.cpp:434] conv17_2_mbox_conf_flat <- conv17_2_mbox_conf_perm
I0619 17:17:25.695152  5881 net.cpp:408] conv17_2_mbox_conf_flat -> conv17_2_mbox_conf_flat
I0619 17:17:25.695160  5881 net.cpp:150] Setting up conv17_2_mbox_conf_flat
I0619 17:17:25.695165  5881 net.cpp:157] Top shape: 8 126 (1008)
I0619 17:17:25.695190  5881 net.cpp:165] Memory required for data: 1293329184
I0619 17:17:25.695196  5881 layer_factory.hpp:77] Creating layer conv17_2_mbox_priorbox
I0619 17:17:25.695204  5881 net.cpp:100] Creating Layer conv17_2_mbox_priorbox
I0619 17:17:25.695209  5881 net.cpp:434] conv17_2_mbox_priorbox <- conv17_2_conv17_2/relu_0_split_2
I0619 17:17:25.695215  5881 net.cpp:434] conv17_2_mbox_priorbox <- data_data_0_split_6
I0619 17:17:25.695224  5881 net.cpp:408] conv17_2_mbox_priorbox -> conv17_2_mbox_priorbox
I0619 17:17:25.695246  5881 net.cpp:150] Setting up conv17_2_mbox_priorbox
I0619 17:17:25.695255  5881 net.cpp:157] Top shape: 1 2 24 (48)
I0619 17:17:25.695257  5881 net.cpp:165] Memory required for data: 1293329376
I0619 17:17:25.695278  5881 layer_factory.hpp:77] Creating layer mbox_loc
I0619 17:17:25.695298  5881 net.cpp:100] Creating Layer mbox_loc
I0619 17:17:25.695319  5881 net.cpp:434] mbox_loc <- conv11_mbox_loc_flat
I0619 17:17:25.695345  5881 net.cpp:434] mbox_loc <- conv13_mbox_loc_flat
I0619 17:17:25.695369  5881 net.cpp:434] mbox_loc <- conv14_2_mbox_loc_flat
I0619 17:17:25.695379  5881 net.cpp:434] mbox_loc <- conv15_2_mbox_loc_flat
I0619 17:17:25.695382  5881 net.cpp:434] mbox_loc <- conv16_2_mbox_loc_flat
I0619 17:17:25.695389  5881 net.cpp:434] mbox_loc <- conv17_2_mbox_loc_flat
I0619 17:17:25.695396  5881 net.cpp:408] mbox_loc -> mbox_loc
I0619 17:17:25.695412  5881 net.cpp:150] Setting up mbox_loc
I0619 17:17:25.695430  5881 net.cpp:157] Top shape: 8 7668 (61344)
I0619 17:17:25.695436  5881 net.cpp:165] Memory required for data: 1293574752
I0619 17:17:25.695441  5881 layer_factory.hpp:77] Creating layer mbox_conf
I0619 17:17:25.695446  5881 net.cpp:100] Creating Layer mbox_conf
I0619 17:17:25.695452  5881 net.cpp:434] mbox_conf <- conv11_mbox_conf_flat
I0619 17:17:25.695458  5881 net.cpp:434] mbox_conf <- conv13_mbox_conf_flat
I0619 17:17:25.695466  5881 net.cpp:434] mbox_conf <- conv14_2_mbox_conf_flat
I0619 17:17:25.695469  5881 net.cpp:434] mbox_conf <- conv15_2_mbox_conf_flat
I0619 17:17:25.695473  5881 net.cpp:434] mbox_conf <- conv16_2_mbox_conf_flat
I0619 17:17:25.695490  5881 net.cpp:434] mbox_conf <- conv17_2_mbox_conf_flat
I0619 17:17:25.695499  5881 net.cpp:408] mbox_conf -> mbox_conf
I0619 17:17:25.695521  5881 net.cpp:150] Setting up mbox_conf
I0619 17:17:25.695529  5881 net.cpp:157] Top shape: 8 40257 (322056)
I0619 17:17:25.695533  5881 net.cpp:165] Memory required for data: 1294862976
I0619 17:17:25.695535  5881 layer_factory.hpp:77] Creating layer mbox_priorbox
I0619 17:17:25.695542  5881 net.cpp:100] Creating Layer mbox_priorbox
I0619 17:17:25.695546  5881 net.cpp:434] mbox_priorbox <- conv11_mbox_priorbox
I0619 17:17:25.695551  5881 net.cpp:434] mbox_priorbox <- conv13_mbox_priorbox
I0619 17:17:25.695569  5881 net.cpp:434] mbox_priorbox <- conv14_2_mbox_priorbox
I0619 17:17:25.695574  5881 net.cpp:434] mbox_priorbox <- conv15_2_mbox_priorbox
I0619 17:17:25.695591  5881 net.cpp:434] mbox_priorbox <- conv16_2_mbox_priorbox
I0619 17:17:25.695597  5881 net.cpp:434] mbox_priorbox <- conv17_2_mbox_priorbox
I0619 17:17:25.695606  5881 net.cpp:408] mbox_priorbox -> mbox_priorbox
I0619 17:17:25.695613  5881 net.cpp:150] Setting up mbox_priorbox
I0619 17:17:25.695631  5881 net.cpp:157] Top shape: 1 2 7668 (15336)
I0619 17:17:25.695634  5881 net.cpp:165] Memory required for data: 1294924320
I0619 17:17:25.695641  5881 layer_factory.hpp:77] Creating layer mbox_loss
I0619 17:17:25.717555  5881 net.cpp:100] Creating Layer mbox_loss
I0619 17:17:25.717640  5881 net.cpp:434] mbox_loss <- mbox_loc
I0619 17:17:25.717665  5881 net.cpp:434] mbox_loss <- mbox_conf
I0619 17:17:25.717677  5881 net.cpp:434] mbox_loss <- mbox_priorbox
…
  }
  transform_param {
    scale: 0.007843
    mean_value: 127.5
    mean_value: 127.5
    mean_value: 127.5
    resize_param {
      prob: 1
      resize_mode: WARP
      height: 300
      width: 300
      interp_mode: LINEAR
    }
  }
  data_param {
    source: "/home/sun/ssd/caffe/examples/MobileNet-SSD-master/voc/VOCdevkit/VOC0712/lmdb/VOC0712_test_lmdb/"
    batch_size: 8
    backend: LMDB
  }
  annotated_data_param {
    batch_sampler {
    }
    label_map_file: "/home/sun/ssd/caffe/examples/MobileNet-SSD-master/voc/labelmap_voc.prototxt"
  }
}
layer {
  name: "conv0"
  type: "Convolution"
  bottom: "data"
  top: "conv0"
  param {
    lr_mult: 1
    decay_mult: 1
  }
  convolution_param {
    num_output: 32
    bias_term: false
    pad: 1
    kernel_size: 3
    stride: 2
    weight_filler {
      type: "msra"
    }
  }
}
layer {
  name: "conv0/bn"
  type: "BatchNorm"
  bottom: "conv0"
  top: "conv0"
}
layer {
  name: "conv0/scale"
  type: "Scale"
  bottom: "conv0"
  top: "conv0"
  param {
    lr_mult: 1
    decay_mult: 0
  }
  param {
    lr_mult: 2
    decay_mult: 0
  }
  scale_param {
    filler {
      value: 1
    }
    bias_term: true
    bias_filler {
      value: 0
    }
  }
}
layer {
  name: "conv0/relu"
  type: "ReLU"
  bottom: "conv0"
  top: "conv0"
}
layer {
  name: "conv1/dw"
  type: "Convolution"
  bottom: "conv0"
  top: "conv1/dw"
  param {
    lr_mult: 1
    decay_mult: 1
  }
  convolution_param {
    num_output: 32
    bias_term: false
    pad: 1
    kernel_size: 3
    group: 32
    weight_filler {
      type: "msra"
    }
    engine: CAFFE
  }
}
layer {
  name: "conv1/dw/bn"
  type: "BatchNorm"
  bottom: "conv1/dw"
  top: "conv1/dw"
}
layer {
  name: "conv1/dw/scale"
  type: "Scale"
  bottom: "conv1/dw"
  top: "conv1/dw"
  param {
    lr_mult: 1
    decay_mult: 0
  }
  param {
    lr_mult: 2
    decay_mult: 0
  }
  scale_param {
    filler {
      value: 1
    }
    bias_term: true
    bias_filler {
      value: 0
    }
  }
}
layer {
  name: "conv1/dw/relu"
  type: "ReLU"
  bottom: "conv1/dw"
  top: "conv1/dw"
}
layer {
  name: "conv1"
  type: "Convolution"
  bottom: "conv1/dw"
  top: "conv1"
  param {
    lr_mult: 1
    decay_mult: 1
  }
  convolution_param {
    num_output: 64
    bias_term: false
    kernel_size: 1
    weight_filler {
      type: "msra"
    }
  }
}
layer {
  name: "conv1/bn"
  type: "BatchNorm"
  bottom: "conv1"
  top: "conv1"
}
layer {
  name: "conv1/scale"
  type: "Scale"
  bottom: "conv1"
  top: "conv1"
  param {
    lr_mult: 1
    decay_mult: 0
  }
  param {
    lr_mult: 2
    decay_mult: 0
  }
  scale_param {
    filler {
      value: 1
    }
    bias_term: true
    bias_filler {
      value: 0
    }
  }
}
layer {
  name: "conv1/relu"
  type: "ReLU"
  bottom: "conv1"
  top: "conv1"
}
layer {
  name: "conv2/dw"
  type: "Convolution"
  bottom: "conv1"
  top: "conv2/dw"
  param {
    lr_mult: 1
    decay_mult: 1
  }
  convolution_param {
    num_output: 64
    bias_term: false
    pad: 1
    kernel_size: 3
    group: 64
    stride: 2
    weight_filler {
      type: "msra"
    }
    engine: CAFFE
  }
}
layer {
  name: "conv2/dw/bn"
  type: "BatchNorm"
  bottom: "conv2/dw"
  top: "conv2/dw"
}
layer {
  name: "conv2/dw/scale"
  type: "Scale"
  bottom: "conv2/dw"
  top: "conv2/dw"
  param {
    lr_mult: 1
    decay_mult: 0
  }
  param {
    lr_mult: 2
    decay_mult: 0
  }
  scale_param {
    filler {
      value: 1
    }
    bias_term: true
    bias_filler {
      value: 0
    }
  }
}
layer {
  name: "conv2/dw/relu"
  type: "ReLU"
  bottom: "conv2/dw"
  top: "conv2/dw"
}
layer {
  name: "conv2"
  type: "Convolution"
  bottom: "conv2/dw"
  top: "conv2"
  param {
    lr_mult: 1
    decay_mult: 1
  }
  convolution_param {
    num_output: 128
    bias_term: false
    kernel_size: 1
    weight_filler {
      type: "msra"
    }
  }
}
layer {
  name: "conv2/bn"
  type: "BatchNorm"
  bottom: "conv2"
  top: "conv2"
}
layer {
  name: "conv2/scale"
  type: "Scale"
  bottom: "conv2"
  top: "conv2"
  param {
    lr_mult: 1
    decay_mult: 0
  }
  param {
    lr_mult: 2
    decay_mult: 0
  }
  scale_param {
    filler {
      value: 1
    }
    bias_term: true
    bias_filler {
      value: 0
    }
  }
}
layer {
  name: "conv2/relu"
  type: "ReLU"
  bottom: "conv2"
  top: "conv2"
}
layer {
  name: "conv3/dw"
  type: "Convolution"
  bottom: "conv2"
  top: "conv3/dw"
  param {
    lr_mult: 1
    decay_mult: 1
  }
  convolution_param {
    num_output: 128
    bias_term: false
    pad: 1
    kernel_size: 3
    group: 128
    weight_filler {
      type: "msra"
    }
    engine: CAFFE
  }
}
layer {
  name: "conv3/dw/bn"
  type: "BatchNorm"
  bottom: "conv3/dw"
  top: "conv3/dw"
}
layer {
  name: "conv3/dw/scale"
  type: "Scale"
  bottom: "conv3/dw"
  top: "conv3/dw"
  param {
    lr_mult: 1
    decay_mult: 0
  }
  param {
    lr_mult: 2
    decay_mult: 0
  }
  scale_param {
    filler {
      value: 1
    }
    bias_term: true
    bias_filler {
      value: 0
    }
  }
}
layer {
  name: "conv3/dw/relu"
  type: "ReLU"
  bottom: "conv3/dw"
  top: "conv3/dw"
}
layer {
  name: "conv3"
  type: "Convolution"
  bottom: "conv3/dw"
  top: "conv3"
  param {
    lr_mult: 1
    decay_mult: 1
  }
  convolution_param {
    num_output: 128
    bias_term: false
    kernel_size: 1
    weight_filler {
      type: "msra"
    }
  }
}
layer {
  name: "conv3/bn"
  type: "BatchNorm"
  bottom: "conv3"
  top: "conv3"
}
layer {
  name: "conv3/scale"
  type: "Scale"
  bottom: "conv3"
  top: "conv3"
  param {
    lr_mult: 1
    decay_mult: 0
  }
  param {
    lr_mult: 2
    decay_mult: 0
  }
  scale_param {
    filler {
      value: 1
    }
    bias_term: true
    bias_filler {
      value: 0
    }
  }
}
layer {
  name: "conv3/relu"
  type: "ReLU"
  bottom: "conv3"
  top: "conv3"
}
layer {
  name: "conv4/dw"
  type: "Convolution"
  bottom: "conv3"
  top: "conv4/dw"
  param {
    lr_mult: 1
    decay_mult: 1
  }
  convolution_param {
    num_output: 128
    bias_term: false
    pad: 1
    kernel_size: 3
    group: 128
    stride: 2
    weight_filler {
      type: "msra"
    }
    engine: CAFFE
  }
}
layer {
  name: "conv4/dw/bn"
  type: "BatchNorm"
  bottom: "conv4/dw"
  top: "conv4/dw"
}
layer {
  name: "conv4/dw/scale"
  type: "Scale"
  bottom: "conv4/dw"
  top: "conv4/dw"
  param {
    lr_mult: 1
    decay_mult: 0
  }
  param {
    lr_mult: 2
    decay_mult: 0
  }
  scale_param {
    filler {
      value: 1
    }
    bias_term: true
    bias_filler {
      value: 0
    }
  }
}
layer {
  name: "conv4/dw/relu"
  type: "ReLU"
  bottom: "conv4/dw"
  top: "conv4/dw"
}
layer {
  name: "conv4"
  type: "Convolution"
  bottom: "conv4/dw"
  top: "conv4"
  param {
    lr_mult: 1
    decay_mult: 1
  }
  convolution_param {
    num_output: 256
    bias_term: false
    kernel_size: 1
    weight_filler {
      type: "msra"
    }
  }
}
layer {
  name: "conv4/bn"
  type: "BatchNorm"
  bottom: "conv4"
  top: "conv4"
}
layer {
  name: "conv4/scale"
  type: "Scale"
  bottom: "conv4"
  top: "conv4"
  param {
    lr_mult: 1
    decay_mult: 0
  }
  param {
    lr_mult: 2
    decay_mult: 0
  }
  scale_param {
    filler {
      value: 1
    }
    bias_term: true
    bias_filler {
      value: 0
    }
  }
}
layer {
  name: "conv4/relu"
  type: "ReLU"
  bottom: "conv4"
  top: "conv4"
}
layer {
  name: "conv5/dw"
  type: "Convolution"
  bottom: "conv4"
  top: "conv5/dw"
  param {
    lr_mult: 1
    decay_mult: 1
  }
  convolution_param {
    num_output: 256
    bias_term: false
    pad: 1
    kernel_size: 3
    group: 256
    weight_filler {
      type: "msra"
    }
    engine: CAFFE
  }
}
layer {
  name: "conv5/dw/bn"
  type: "BatchNorm"
  bottom: "conv5/dw"
  top: "conv5/dw"
}
layer {
  name: "conv5/dw/scale"
  type: "Scale"
  bottom: "conv5/dw"
  top: "conv5/dw"
  param {
    lr_mult: 1
    decay_mult: 0
  }
  param {
    lr_mult: 2
    decay_mult: 0
  }
  scale_param {
    filler {
      value: 1
    }
    bias_term: true
    bias_filler {
      value: 0
    }
  }
}
layer {
  name: "conv5/dw/relu"
  type: "ReLU"
  bottom: "conv5/dw"
  top: "conv5/dw"
}
layer {
  name: "conv5"
  type: "Convolution"
  bottom: "conv5/dw"
  top: "conv5"
  param {
    lr_mult: 1
    decay_mult: 1
  }
  convolution_param {
    num_output: 256
    bias_term: false
    kernel_size: 1
    weight_filler {
      type: "msra"
    }
  }
}
layer {
  name: "conv5/bn"
  type: "BatchNorm"
  bottom: "conv5"
  top: "conv5"
}
layer {
  name: "conv5/scale"
  type: "Scale"
  bottom: "conv5"
  top: "conv5"
  param {
    lr_mult: 1
    decay_mult: 0
  }
  param {
    lr_mult: 2
    decay_mult: 0
  }
  scale_param {
    filler {
      value: 1
    }
    bias_term: true
    bias_filler {
      value: 0
    }
  }
}
layer {
  name: "conv5/relu"
  type: "ReLU"
  bottom: "conv5"
  top: "conv5"
}
layer {
  name: "conv6/dw"
  type: "Convolution"
  bottom: "conv5"
  top: "conv6/dw"
  param {
    lr_mult: 1
    decay_mult: 1
  }
  convolution_param {
    num_output: 256
    bias_term: false
    pad: 1
    kernel_size: 3
    group: 256
    stride: 2
    weight_filler {
      type: "msra"
    }
    engine: CAFFE
  }
}
layer {
  name: "conv6/dw/bn"
  type: "BatchNorm"
  bottom: "conv6/dw"
  top: "conv6/dw"
}
layer {
  name: "conv6/dw/scale"
  type: "Scale"
  bottom: "conv6/dw"
  top: "conv6/dw"
  param {
    lr_mult: 1
    decay_mult: 0
  }
  param {
    lr_mult: 2
    decay_mult: 0
  }
  scale_param {
    filler {
      value: 1
    }
    bias_term: true
    bias_filler {
      value: 0
    }
  }
}
layer {
  name: "conv6/dw/relu"
  type: "ReLU"
  bottom: "conv6/dw"
  top: "conv6/dw"
}
layer {
  name: "conv6"
  type: "Convolution"
  bottom: "conv6/dw"
  top: "conv6"
  param {
    lr_mult: 1
    decay_mult: 1
  }
  convolution_param {
    num_output: 512
    bias_term: false
    kernel_size: 1
    weight_filler {
      type: "msra"
    }
  }
}
layer {
  name: "conv6/bn"
  type: "BatchNorm"
  bottom: "conv6"
  top: "conv6"
}
layer {
  name: "conv6/scale"
  type: "Scale"
  bottom: "conv6"
  top: "conv6"
  param {
    lr_mult: 1
    decay_mult: 0
  }
  param {
    lr_mult: 2
    decay_mult: 0
  }
  scale_param {
    filler {
      value: 1
    }
    bias_term: true
    bias_filler {
      value: 0
    }
  }
}
layer {
  name: "conv6/relu"
  type: "ReLU"
  bottom: "conv6"
  top: "conv6"
}
layer {
  name: "conv7/dw"
  type: "Convolution"
  bottom: "conv6"
  top: "conv7/dw"
  param {
    lr_mult: 1
    decay_mult: 1
  }
  convolution_param {
    num_output: 512
    bias_term: false
    pad: 1
    kernel_size: 3
    group: 512
    weight_filler {
      type: "msra"
    }
    engine: CAFFE
  }
}
layer {
  name: "conv7/dw/bn"
  type: "BatchNorm"
  bottom: "conv7/dw"
  top: "conv7/dw"
}
layer {
  name: "conv7/dw/scale"
  type: "Scale"
  bottom: "conv7/dw"
  top: "conv7/dw"
  param {
    lr_mult: 1
    decay_mult: 0
  }
  param {
    lr_mult: 2
    decay_mult: 0
  }
  scale_param {
    filler {
      value: 1
    }
    bias_term: true
    bias_filler {
      value: 0
    }
  }
}
layer {
  name: "conv7/dw/relu"
  type: "ReLU"
  bottom: "conv7/dw"
  top: "conv7/dw"
}
layer {
  name: "conv7"
  type: "Convolution"
  bottom: "conv7/dw"
  top: "conv7"
  param {
    lr_mult: 1
    decay_mult: 1
  }
  convolution_param {
    num_output: 512
    bias_term: false
    kernel_size: 1
    weight_filler {
      type: "msra"
    }
  }
}
layer {
  name: "conv7/bn"
  type: "BatchNorm"
  bottom: "conv7"
  top: "conv7"
}
layer {
  name: "conv7/scale"
  type: "Scale"
  bottom: "conv7"
  top: "conv7"
  param {
    lr_mult: 1
    decay_mult: 0
  }
  param {
    lr_mult: 2
    decay_mult: 0
  }
  scale_param {
    filler {
      value: 1
    }
    bias_term: true
    bias_filler {
      value: 0
    }
  }
}
layer {
  name: "conv7/relu"
  type: "ReLU"
  bottom: "conv7"
  top: "conv7"
}
layer {
  name: "conv8/dw"
  type: "Convolution"
  bottom: "conv7"
  top: "conv8/dw"
  param {
    lr_mult: 1
    decay_mult: 1
  }
  convolution_param {
    num_output: 512
    bias_term: false
    pad: 1
    kernel_size: 3
    group: 512
    weight_filler {
      type: "msra"
    }
    engine: CAFFE
  }
}
layer {
  name: "conv8/dw/bn"
  type: "BatchNorm"
  bottom: "conv8/dw"
  top: "conv8/dw"
}
layer {
  name: "conv8/dw/scale"
  type: "Scale"
  bottom: "conv8/dw"
  top: "conv8/dw"
  param {
    lr_mult: 1
    decay_mult: 0
  }
  param {
    lr_mult: 2
    decay_mult: 0
  }
  scale_param {
    filler {
      value: 1
    }
    bias_term: true
    bias_filler {
      value: 0
    }
  }
}
layer {
  name: "conv8/dw/relu"
  type: "ReLU"
  bottom: "conv8/dw"
  top: "conv8/dw"
}
layer {
  name: "conv8"
  type: "Convolution"
  bottom: "conv8/dw"
  top: "conv8"
  param {
    lr_mult: 1
    decay_mult: 1
  }
  convolution_param {
    num_output: 512
    bias_term: false
    kernel_size: 1
    weight_filler {
      type: "msra"
    }
  }
}
layer {
  name: "conv8/bn"
  type: "BatchNorm"
  bottom: "conv8"
  top: "conv8"
}
layer {
  name: "conv8/scale"
  type: "Scale"
  bottom: "conv8"
  top: "conv8"
  param {
    lr_mult: 1
    decay_mult: 0
  }
  param {
    lr_mult: 2
    decay_mult: 0
  }
  scale_param {
    filler {
      value: 1
    }
    bias_term: true
    bias_filler {
      value: 0
    }
  }
}
layer {
  name: "conv8/relu"
  type: "ReLU"
  bottom: "conv8"
  top: "conv8"
}
layer {
  name: "conv9/dw"
  type: "Convolution"
  bottom: "conv8"
  top: "conv9/dw"
  param {
    lr_mult: 1
    decay_mult: 1
  }
  convolution_param {
    num_output: 512
    bias_term: false
    pad: 1
    kernel_size: 3
    group: 512
    weight_filler {
      type: "msra"
    }
    engine: CAFFE
  }
}
layer {
  name: "conv9/dw/bn"
  type: "BatchNorm"
  bottom: "conv9/dw"
  top: "conv9/dw"
}
layer {
  name: "conv9/dw/scale"
  type: "Scale"
  bottom: "conv9/dw"
  top: "conv9/dw"
  param {
    lr_mult: 1
    decay_mult: 0
  }
  param {
    lr_mult: 2
    decay_mult: 0
  }
  scale_param {
    filler {
      value: 1
    }
    bias_term: true
    bias_filler {
      value: 0
    }
  }
}
layer {
  name: "conv9/dw/relu"
  type: "ReLU"
  bottom: "conv9/dw"
  top: "conv9/dw"
}
layer {
  name: "conv9"
  type: "Convolution"
  bottom: "conv9/dw"
  top: "conv9"
  param {
    lr_mult: 1
    decay_mult: 1
  }
  convolution_param {
    num_output: 512
    bias_term: false
    kernel_size: 1
    weight_filler {
      type: "msra"
    }
  }
}
layer {
  name: "conv9/bn"
  type: "BatchNorm"
  bottom: "conv9"
  top: "conv9"
}
…
I0619 17:17:26.082909  5881 layer_factory.hpp:77] Creating layer conv14_1/scale
I0619 17:17:26.082937  5881 net.cpp:100] Creating Layer conv14_1/scale
I0619 17:17:26.082958  5881 net.cpp:434] conv14_1/scale <- conv14_1
I0619 17:17:26.082983  5881 net.cpp:395] conv14_1/scale -> conv14_1 (in-place)
I0619 17:17:26.083014  5881 layer_factory.hpp:77] Creating layer conv14_1/scale
I0619 17:17:26.083057  5881 net.cpp:150] Setting up conv14_1/scale
I0619 17:17:26.083081  5881 net.cpp:157] Top shape: 8 256 10 10 (204800)
I0619 17:17:26.083086  5881 net.cpp:165] Memory required for data: 1283100736
I0619 17:17:26.083097  5881 layer_factory.hpp:77] Creating layer conv14_1/relu
I0619 17:17:26.083111  5881 net.cpp:100] Creating Layer conv14_1/relu
I0619 17:17:26.083118  5881 net.cpp:434] conv14_1/relu <- conv14_1
I0619 17:17:26.083124  5881 net.cpp:395] conv14_1/relu -> conv14_1 (in-place)
I0619 17:17:26.083134  5881 net.cpp:150] Setting up conv14_1/relu
I0619 17:17:26.083142  5881 net.cpp:157] Top shape: 8 256 10 10 (204800)
I0619 17:17:26.083160  5881 net.cpp:165] Memory required for data: 1283919936
I0619 17:17:26.083170  5881 layer_factory.hpp:77] Creating layer conv14_2
I0619 17:17:26.083199  5881 net.cpp:100] Creating Layer conv14_2
I0619 17:17:26.083220  5881 net.cpp:434] conv14_2 <- conv14_1
I0619 17:17:26.083230  5881 net.cpp:408] conv14_2 -> conv14_2
I0619 17:17:26.129053  5881 net.cpp:150] Setting up conv14_2
I0619 17:17:26.129112  5881 net.cpp:157] Top shape: 8 512 5 5 (102400)
I0619 17:17:26.129124  5881 net.cpp:165] Memory required for data: 1284329536
I0619 17:17:26.129153  5881 layer_factory.hpp:77] Creating layer conv14_2/bn
I0619 17:17:26.129186  5881 net.cpp:100] Creating Layer conv14_2/bn
I0619 17:17:26.129214  5881 net.cpp:434] conv14_2/bn <- conv14_2
I0619 17:17:26.129242  5881 net.cpp:395] conv14_2/bn -> conv14_2 (in-place)
I0619 17:17:26.129287  5881 net.cpp:150] Setting up conv14_2/bn
I0619 17:17:26.129314  5881 net.cpp:157] Top shape: 8 512 5 5 (102400)
I0619 17:17:26.129338  5881 net.cpp:165] Memory required for data: 1284739136
I0619 17:17:26.129369  5881 layer_factory.hpp:77] Creating layer conv14_2/scale
I0619 17:17:26.129395  5881 net.cpp:100] Creating Layer conv14_2/scale
I0619 17:17:26.129417  5881 net.cpp:434] conv14_2/scale <- conv14_2
I0619 17:17:26.129446  5881 net.cpp:395] conv14_2/scale -> conv14_2 (in-place)
I0619 17:17:26.129483  5881 layer_factory.hpp:77] Creating layer conv14_2/scale
I0619 17:17:26.129528  5881 net.cpp:150] Setting up conv14_2/scale
I0619 17:17:26.129554  5881 net.cpp:157] Top shape: 8 512 5 5 (102400)
I0619 17:17:26.129573  5881 net.cpp:165] Memory required for data: 1285148736
I0619 17:17:26.129597  5881 layer_factory.hpp:77] Creating layer conv14_2/relu
I0619 17:17:26.129649  5881 net.cpp:100] Creating Layer conv14_2/relu
I0619 17:17:26.129673  5881 net.cpp:434] conv14_2/relu <- conv14_2
I0619 17:17:26.129695  5881 net.cpp:395] conv14_2/relu -> conv14_2 (in-place)
I0619 17:17:26.129724  5881 net.cpp:150] Setting up conv14_2/relu
I0619 17:17:26.129747  5881 net.cpp:157] Top shape: 8 512 5 5 (102400)
I0619 17:17:26.129767  5881 net.cpp:165] Memory required for data: 1285558336
I0619 17:17:26.129788  5881 layer_factory.hpp:77] Creating layer conv14_2_conv14_2/relu_0_split
I0619 17:17:26.129811  5881 net.cpp:100] Creating Layer conv14_2_conv14_2/relu_0_split
I0619 17:17:26.129832  5881 net.cpp:434] conv14_2_conv14_2/relu_0_split <- conv14_2
I0619 17:17:26.129856  5881 net.cpp:408] conv14_2_conv14_2/relu_0_split -> conv14_2_conv14_2/relu_0_split_0
I0619 17:17:26.129882  5881 net.cpp:408] conv14_2_conv14_2/relu_0_split -> conv14_2_conv14_2/relu_0_split_1
I0619 17:17:26.129909  5881 net.cpp:408] conv14_2_conv14_2/relu_0_split -> conv14_2_conv14_2/relu_0_split_2
I0619 17:17:26.129935  5881 net.cpp:408] conv14_2_conv14_2/relu_0_split -> conv14_2_conv14_2/relu_0_split_3
I0619 17:17:26.129967  5881 net.cpp:150] Setting up conv14_2_conv14_2/relu_0_split
I0619 17:17:26.129992  5881 net.cpp:157] Top shape: 8 512 5 5 (102400)
I0619 17:17:26.130013  5881 net.cpp:157] Top shape: 8 512 5 5 (102400)
I0619 17:17:26.130034  5881 net.cpp:157] Top shape: 8 512 5 5 (102400)
I0619 17:17:26.130055  5881 net.cpp:157] Top shape: 8 512 5 5 (102400)
I0619 17:17:26.130075  5881 net.cpp:165] Memory required for data: 1287196736
I0619 17:17:26.130095  5881 layer_factory.hpp:77] Creating layer conv15_1
I0619 17:17:26.130122  5881 net.cpp:100] Creating Layer conv15_1
I0619 17:17:26.130143  5881 net.cpp:434] conv15_1 <- conv14_2_conv14_2/relu_0_split_0
I0619 17:17:26.130167  5881 net.cpp:408] conv15_1 -> conv15_1
I0619 17:17:26.132700  5881 net.cpp:150] Setting up conv15_1
I0619 17:17:26.132740  5881 net.cpp:157] Top shape: 8 128 5 5 (25600)
I0619 17:17:26.132750  5881 net.cpp:165] Memory required for data: 1287299136
I0619 17:17:26.132774  5881 layer_factory.hpp:77] Creating layer conv15_1/bn
I0619 17:17:26.132798  5881 net.cpp:100] Creating Layer conv15_1/bn
I0619 17:17:26.132820  5881 net.cpp:434] conv15_1/bn <- conv15_1
I0619 17:17:26.132846  5881 net.cpp:395] conv15_1/bn -> conv15_1 (in-place)
I0619 17:17:26.132885  5881 net.cpp:150] Setting up conv15_1/bn
I0619 17:17:26.132925  5881 net.cpp:157] Top shape: 8 128 5 5 (25600)
I0619 17:17:26.132983  5881 net.cpp:165] Memory required for data: 1287401536
I0619 17:17:26.133010  5881 layer_factory.hpp:77] Creating layer conv15_1/scale
I0619 17:17:26.133039  5881 net.cpp:100] Creating Layer conv15_1/scale
I0619 17:17:26.133064  5881 net.cpp:434] conv15_1/scale <- conv15_1
I0619 17:17:26.133088  5881 net.cpp:395] conv15_1/scale -> conv15_1 (in-place)
I0619 17:17:26.133138  5881 layer_factory.hpp:77] Creating layer conv15_1/scale
I0619 17:17:26.133180  5881 net.cpp:150] Setting up conv15_1/scale
I0619 17:17:26.133205  5881 net.cpp:157] Top shape: 8 128 5 5 (25600)
I0619 17:17:26.133211  5881 net.cpp:165] Memory required for data: 1287503936
I0619 17:17:26.133235  5881 layer_factory.hpp:77] Creating layer conv15_1/relu
I0619 17:17:26.133249  5881 net.cpp:100] Creating Layer conv15_1/relu
I0619 17:17:26.133255  5881 net.cpp:434] conv15_1/relu <- conv15_1
I0619 17:17:26.133281  5881 net.cpp:395] conv15_1/relu -> conv15_1 (in-place)
I0619 17:17:26.133306  5881 net.cpp:150] Setting up conv15_1/relu
I0619 17:17:26.133330  5881 net.cpp:157] Top shape: 8 128 5 5 (25600)
I0619 17:17:26.133352  5881 net.cpp:165] Memory required for data: 1287606336
I0619 17:17:26.133363  5881 layer_factory.hpp:77] Creating layer conv15_2
I0619 17:17:26.133375  5881 net.cpp:100] Creating Layer conv15_2
I0619 17:17:26.133394  5881 net.cpp:434] conv15_2 <- conv15_1
I0619 17:17:26.133411  5881 net.cpp:408] conv15_2 -> conv15_2
I0619 17:17:26.143468  5881 net.cpp:150] Setting up conv15_2
I0619 17:17:26.143525  5881 net.cpp:157] Top shape: 8 256 3 3 (18432)
I0619 17:17:26.143594  5881 net.cpp:165] Memory required for data: 1287680064
I0619 17:17:26.143623  5881 layer_factory.hpp:77] Creating layer conv15_2/bn
I0619 17:17:26.143654  5881 net.cpp:100] Creating Layer conv15_2/bn
I0619 17:17:26.143681  5881 net.cpp:434] conv15_2/bn <- conv15_2
I0619 17:17:26.143692  5881 net.cpp:395] conv15_2/bn -> conv15_2 (in-place)
I0619 17:17:26.143719  5881 net.cpp:150] Setting up conv15_2/bn
I0619 17:17:26.143726  5881 net.cpp:157] Top shape: 8 256 3 3 (18432)
I0619 17:17:26.143733  5881 net.cpp:165] Memory required for data: 1287753792
I0619 17:17:26.143744  5881 layer_factory.hpp:77] Creating layer conv15_2/scale
I0619 17:17:26.143756  5881 net.cpp:100] Creating Layer conv15_2/scale
I0619 17:17:26.143762  5881 net.cpp:434] conv15_2/scale <- conv15_2
I0619 17:17:26.143770  5881 net.cpp:395] conv15_2/scale -> conv15_2 (in-place)
I0619 17:17:26.143784  5881 layer_factory.hpp:77] Creating layer conv15_2/scale
I0619 17:17:26.143808  5881 net.cpp:150] Setting up conv15_2/scale
I0619 17:17:26.143815  5881 net.cpp:157] Top shape: 8 256 3 3 (18432)
I0619 17:17:26.143818  5881 net.cpp:165] Memory required for data: 1287827520
I0619 17:17:26.143826  5881 layer_factory.hpp:77] Creating layer conv15_2/relu
I0619 17:17:26.143857  5881 net.cpp:100] Creating Layer conv15_2/relu
I0619 17:17:26.143863  5881 net.cpp:434] conv15_2/relu <- conv15_2
I0619 17:17:26.143869  5881 net.cpp:395] conv15_2/relu -> conv15_2 (in-place)
I0619 17:17:26.143878  5881 net.cpp:150] Setting up conv15_2/relu
I0619 17:17:26.143884  5881 net.cpp:157] Top shape: 8 256 3 3 (18432)
I0619 17:17:26.143889  5881 net.cpp:165] Memory required for data: 1287901248
I0619 17:17:26.143894  5881 layer_factory.hpp:77] Creating layer conv15_2_conv15_2/relu_0_split
I0619 17:17:26.143903  5881 net.cpp:100] Creating Layer conv15_2_conv15_2/relu_0_split
I0619 17:17:26.143909  5881 net.cpp:434] conv15_2_conv15_2/relu_0_split <- conv15_2
I0619 17:17:26.143916  5881 net.cpp:408] conv15_2_conv15_2/relu_0_split -> conv15_2_conv15_2/relu_0_split_0
I0619 17:17:26.143925  5881 net.cpp:408] conv15_2_conv15_2/relu_0_split -> conv15_2_conv15_2/relu_0_split_1
I0619 17:17:26.143935  5881 net.cpp:408] conv15_2_conv15_2/relu_0_split -> conv15_2_conv15_2/relu_0_split_2
I0619 17:17:26.143944  5881 net.cpp:408] conv15_2_conv15_2/relu_0_split -> conv15_2_conv15_2/relu_0_split_3
I0619 17:17:26.143954  5881 net.cpp:150] Setting up conv15_2_conv15_2/relu_0_split
I0619 17:17:26.143959  5881 net.cpp:157] Top shape: 8 256 3 3 (18432)
I0619 17:17:26.143965  5881 net.cpp:157] Top shape: 8 256 3 3 (18432)
I0619 17:17:26.143971  5881 net.cpp:157] Top shape: 8 256 3 3 (18432)
I0619 17:17:26.143977  5881 net.cpp:157] Top shape: 8 256 3 3 (18432)
I0619 17:17:26.143981  5881 net.cpp:165] Memory required for data: 1288196160
I0619 17:17:26.143986  5881 layer_factory.hpp:77] Creating layer conv16_1
I0619 17:17:26.143998  5881 net.cpp:100] Creating Layer conv16_1
I0619 17:17:26.144004  5881 net.cpp:434] conv16_1 <- conv15_2_conv15_2/relu_0_split_0
I0619 17:17:26.144012  5881 net.cpp:408] conv16_1 -> conv16_1
I0619 17:17:26.145493  5881 net.cpp:150] Setting up conv16_1
I0619 17:17:26.145578  5881 net.cpp:157] Top shape: 8 128 3 3 (9216)
I0619 17:17:26.145592  5881 net.cpp:165] Memory required for data: 1288233024
I0619 17:17:26.145606  5881 layer_factory.hpp:77] Creating layer conv16_1/bn
I0619 17:17:26.145619  5881 net.cpp:100] Creating Layer conv16_1/bn
I0619 17:17:26.145668  5881 net.cpp:434] conv16_1/bn <- conv16_1
I0619 17:17:26.145716  5881 net.cpp:395] conv16_1/bn -> conv16_1 (in-place)
I0619 17:17:26.145746  5881 net.cpp:150] Setting up conv16_1/bn
I0619 17:17:26.145784  5881 net.cpp:157] Top shape: 8 128 3 3 (9216)
I0619 17:17:26.145792  5881 net.cpp:165] Memory required for data: 1288269888
I0619 17:17:26.145834  5881 layer_factory.hpp:77] Creating layer conv16_1/scale
I0619 17:17:26.145870  5881 net.cpp:100] Creating Layer conv16_1/scale
I0619 17:17:26.145881  5881 net.cpp:434] conv16_1/scale <- conv16_1
I0619 17:17:26.145922  5881 net.cpp:395] conv16_1/scale -> conv16_1 (in-place)
I0619 17:17:26.146006  5881 layer_factory.hpp:77] Creating layer conv16_1/scale
I0619 17:17:26.146064  5881 net.cpp:150] Setting up conv16_1/scale
I0619 17:17:26.146090  5881 net.cpp:157] Top shape: 8 128 3 3 (9216)
I0619 17:17:26.146136  5881 net.cpp:165] Memory required for data: 1288306752
I0619 17:17:26.146165  5881 layer_factory.hpp:77] Creating layer conv16_1/relu
I0619 17:17:26.146194  5881 net.cpp:100] Creating Layer conv16_1/relu
I0619 17:17:26.146219  5881 net.cpp:434] conv16_1/relu <- conv16_1
I0619 17:17:26.146263  5881 net.cpp:395] conv16_1/relu -> conv16_1 (in-place)
I0619 17:17:26.146281  5881 net.cpp:150] Setting up conv16_1/relu
I0619 17:17:26.146288  5881 net.cpp:157] Top shape: 8 128 3 3 (9216)
I0619 17:17:26.146292  5881 net.cpp:165] Memory required for data: 1288343616
I0619 17:17:26.146297  5881 layer_factory.hpp:77] Creating layer conv16_2
I0619 17:17:26.146340  5881 net.cpp:100] Creating Layer conv16_2
I0619 17:17:26.146438  5881 net.cpp:434] conv16_2 <- conv16_1
I0619 17:17:26.146476  5881 net.cpp:408] conv16_2 -> conv16_2
I0619 17:17:26.156762  5881 net.cpp:150] Setting up conv16_2
I0619 17:17:26.156801  5881 net.cpp:157] Top shape: 8 256 2 2 (8192)
I0619 17:17:26.156807  5881 net.cpp:165] Memory required for data: 1288376384
I0619 17:17:26.156817  5881 layer_factory.hpp:77] Creating layer conv16_2/bn
I0619 17:17:26.156832  5881 net.cpp:100] Creating Layer conv16_2/bn
I0619 17:17:26.156841  5881 net.cpp:434] conv16_2/bn <- conv16_2
I0619 17:17:26.156849  5881 net.cpp:395] conv16_2/bn -> conv16_2 (in-place)
I0619 17:17:26.156874  5881 net.cpp:150] Setting up conv16_2/bn
I0619 17:17:26.156882  5881 net.cpp:157] Top shape: 8 256 2 2 (8192)
I0619 17:17:26.156885  5881 net.cpp:165] Memory required for data: 1288409152
I0619 17:17:26.156895  5881 layer_factory.hpp:77] Creating layer conv16_2/scale
I0619 17:17:26.156908  5881 net.cpp:100] Creating Layer conv16_2/scale
I0619 17:17:26.156913  5881 net.cpp:434] conv16_2/scale <- conv16_2
I0619 17:17:26.156919  5881 net.cpp:395] conv16_2/scale -> conv16_2 (in-place)
I0619 17:17:26.156935  5881 layer_factory.hpp:77] Creating layer conv16_2/scale
I0619 17:17:26.156955  5881 net.cpp:150] Setting up conv16_2/scale
I0619 17:17:26.156961  5881 net.cpp:157] Top shape: 8 256 2 2 (8192)
I0619 17:17:26.156966  5881 net.cpp:165] Memory required for data: 1288441920
I0619 17:17:26.156975  5881 layer_factory.hpp:77] Creating layer conv16_2/relu
I0619 17:17:26.156985  5881 net.cpp:100] Creating Layer conv16_2/relu
I0619 17:17:26.156989  5881 net.cpp:434] conv16_2/relu <- conv16_2
I0619 17:17:26.156996  5881 net.cpp:395] conv16_2/relu -> conv16_2 (in-place)
I0619 17:17:26.157002  5881 net.cpp:150] Setting up conv16_2/relu
I0619 17:17:26.157009  5881 net.cpp:157] Top shape: 8 256 2 2 (8192)
I0619 17:17:26.157014  5881 net.cpp:165] Memory required for data: 1288474688
I0619 17:17:26.157019  5881 layer_factory.hpp:77] Creating layer conv16_2_conv16_2/relu_0_split
I0619 17:17:26.157025  5881 net.cpp:100] Creating Layer conv16_2_conv16_2/relu_0_split
I0619 17:17:26.157030  5881 net.cpp:434] conv16_2_conv16_2/relu_0_split <- conv16_2
I0619 17:17:26.157039  5881 net.cpp:408] conv16_2_conv16_2/relu_0_split -> conv16_2_conv16_2/relu_0_split_0
I0619 17:17:26.157049  5881 net.cpp:408] conv16_2_conv16_2/relu_0_split -> conv16_2_conv16_2/relu_0_split_1
I0619 17:17:26.157058  5881 net.cpp:408] conv16_2_conv16_2/relu_0_split -> conv16_2_conv16_2/relu_0_split_2
I0619 17:17:26.157066  5881 net.cpp:408] conv16_2_conv16_2/relu_0_split -> conv16_2_conv16_2/relu_0_split_3
I0619 17:17:26.157075  5881 net.cpp:150] Setting up conv16_2_conv16_2/relu_0_split
I0619 17:17:26.157083  5881 net.cpp:157] Top shape: 8 256 2 2 (8192)
I0619 17:17:26.157089  5881 net.cpp:157] Top shape: 8 256 2 2 (8192)
I0619 17:17:26.157095  5881 net.cpp:157] Top shape: 8 256 2 2 (8192)
I0619 17:17:26.157101  5881 net.cpp:157] Top shape: 8 256 2 2 (8192)
I0619 17:17:26.157105  5881 net.cpp:165] Memory required for data: 1288605760
I0619 17:17:26.157110  5881 layer_factory.hpp:77] Creating layer conv17_1
I0619 17:17:26.157152  5881 net.cpp:100] Creating Layer conv17_1
I0619 17:17:26.157160  5881 net.cpp:434] conv17_1 <- conv16_2_conv16_2/relu_0_split_0
I0619 17:17:26.157168  5881 net.cpp:408] conv17_1 -> conv17_1
I0619 17:17:26.158026  5881 net.cpp:150] Setting up conv17_1
I0619 17:17:26.158170  5881 net.cpp:157] Top shape: 8 64 2 2 (2048)
I0619 17:17:26.158277  5881 net.cpp:165] Memory required for data: 1288613952
I0619 17:17:26.158341  5881 layer_factory.hpp:77] Creating layer conv17_1/bn
I0619 17:17:26.158460  5881 net.cpp:100] Creating Layer conv17_1/bn
I0619 17:17:26.158475  5881 net.cpp:434] conv17_1/bn <- conv17_1
I0619 17:17:26.158484  5881 net.cpp:395] conv17_1/bn -> conv17_1 (in-place)
I0619 17:17:26.158509  5881 net.cpp:150] Setting up conv17_1/bn
I0619 17:17:26.158530  5881 net.cpp:157] Top shape: 8 64 2 2 (2048)
I0619 17:17:26.158538  5881 net.cpp:165] Memory required for data: 1288622144
I0619 17:17:26.158551  5881 layer_factory.hpp:77] Creating layer conv17_1/scale
I0619 17:17:26.158563  5881 net.cpp:100] Creating Layer conv17_1/scale
I0619 17:17:26.158569  5881 net.cpp:434] conv17_1/scale <- conv17_1
I0619 17:17:26.158591  5881 net.cpp:395] conv17_1/scale -> conv17_1 (in-place)
I0619 17:17:26.158607  5881 layer_factory.hpp:77] Creating layer conv17_1/scale
I0619 17:17:26.158627  5881 net.cpp:150] Setting up conv17_1/scale
I0619 17:17:26.158633  5881 net.cpp:157] Top shape: 8 64 2 2 (2048)
I0619 17:17:26.158638  5881 net.cpp:165] Memory required for data: 1288630336
I0619 17:17:26.158646  5881 layer_factory.hpp:77] Creating layer conv17_1/relu
I0619 17:17:26.158654  5881 net.cpp:100] Creating Layer conv17_1/relu
I0619 17:17:26.158660  5881 net.cpp:434] conv17_1/relu <- conv17_1
I0619 17:17:26.158668  5881 net.cpp:395] conv17_1/relu -> conv17_1 (in-place)
I0619 17:17:26.158677  5881 net.cpp:150] Setting up conv17_1/relu
I0619 17:17:26.158710  5881 net.cpp:157] Top shape: 8 64 2 2 (2048)
I0619 17:17:26.158715  5881 net.cpp:165] Memory required for data: 1288638528
I0619 17:17:26.158720  5881 layer_factory.hpp:77] Creating layer conv17_2
I0619 17:17:26.158733  5881 net.cpp:100] Creating Layer conv17_2
I0619 17:17:26.158740  5881 net.cpp:434] conv17_2 <- conv17_1
I0619 17:17:26.158751  5881 net.cpp:408] conv17_2 -> conv17_2
I0619 17:17:26.161658  5881 net.cpp:150] Setting up conv17_2
I0619 17:17:26.161689  5881 net.cpp:157] Top shape: 8 128 1 1 (1024)
I0619 17:17:26.161695  5881 net.cpp:165] Memory required for data: 1288642624
I0619 17:17:26.161705  5881 layer_factory.hpp:77] Creating layer conv17_2/bn
I0619 17:17:26.161717  5881 net.cpp:100] Creating Layer conv17_2/bn
I0619 17:17:26.161725  5881 net.cpp:434] conv17_2/bn <- conv17_2
I0619 17:17:26.161733  5881 net.cpp:395] conv17_2/bn -> conv17_2 (in-place)
I0619 17:17:26.161756  5881 net.cpp:150] Setting up conv17_2/bn
I0619 17:17:26.161763  5881 net.cpp:157] Top shape: 8 128 1 1 (1024)
I0619 17:17:26.161768  5881 net.cpp:165] Memory required for data: 1288646720
I0619 17:17:26.161778  5881 layer_factory.hpp:77] Creating layer conv17_2/scale
I0619 17:17:26.161788  5881 net.cpp:100] Creating Layer conv17_2/scale
I0619 17:17:26.161793  5881 net.cpp:434] conv17_2/scale <- conv17_2
I0619 17:17:26.161800  5881 net.cpp:395] conv17_2/scale -> conv17_2 (in-place)
I0619 17:17:26.161814  5881 layer_factory.hpp:77] Creating layer conv17_2/scale
I0619 17:17:26.161835  5881 net.cpp:150] Setting up conv17_2/scale
I0619 17:17:26.161842  5881 net.cpp:157] Top shape: 8 128 1 1 (1024)
I0619 17:17:26.161847  5881 net.cpp:165] Memory required for data: 1288650816
I0619 17:17:26.161854  5881 layer_factory.hpp:77] Creating layer conv17_2/relu
I0619 17:17:26.161864  5881 net.cpp:100] Creating Layer conv17_2/relu
I0619 17:17:26.161870  5881 net.cpp:434] conv17_2/relu <- conv17_2
I0619 17:17:26.161875  5881 net.cpp:395] conv17_2/relu -> conv17_2 (in-place)
I0619 17:17:26.161883  5881 net.cpp:150] Setting up conv17_2/relu
I0619 17:17:26.161890  5881 net.cpp:157] Top shape: 8 128 1 1 (1024)
I0619 17:17:26.161895  5881 net.cpp:165] Memory required for data: 1288654912
I0619 17:17:26.161900  5881 layer_factory.hpp:77] Creating layer conv17_2_conv17_2/relu_0_split
I0619 17:17:26.161931  5881 net.cpp:100] Creating Layer conv17_2_conv17_2/relu_0_split
I0619 17:17:26.161937  5881 net.cpp:434] conv17_2_conv17_2/relu_0_split <- conv17_2
I0619 17:17:26.161947  5881 net.cpp:408] conv17_2_conv17_2/relu_0_split -> conv17_2_conv17_2/relu_0_split_0
I0619 17:17:26.161967  5881 net.cpp:408] conv17_2_conv17_2/relu_0_split -> conv17_2_conv17_2/relu_0_split_1
I0619 17:17:26.161976  5881 net.cpp:408] conv17_2_conv17_2/relu_0_split -> conv17_2_conv17_2/relu_0_split_2
I0619 17:17:26.161988  5881 net.cpp:150] Setting up conv17_2_conv17_2/relu_0_split
I0619 17:17:26.161994  5881 net.cpp:157] Top shape: 8 128 1 1 (1024)
I0619 17:17:26.162000  5881 net.cpp:157] Top shape: 8 128 1 1 (1024)
I0619 17:17:26.162006  5881 net.cpp:157] Top shape: 8 128 1 1 (1024)
I0619 17:17:26.162011  5881 net.cpp:165] Memory required for data: 1288667200
I0619 17:17:26.162016  5881 layer_factory.hpp:77] Creating layer conv11_mbox_loc
I0619 17:17:26.162031  5881 net.cpp:100] Creating Layer conv11_mbox_loc
I0619 17:17:26.162037  5881 net.cpp:434] conv11_mbox_loc <- conv11_conv11/relu_0_split_1
I0619 17:17:26.162048  5881 net.cpp:408] conv11_mbox_loc -> conv11_mbox_loc
I0619 17:17:26.162297  5881 net.cpp:150] Setting up conv11_mbox_loc
I0619 17:17:26.162308  5881 net.cpp:157] Top shape: 8 12 19 19 (34656)
I0619 17:17:26.162333  5881 net.cpp:165] Memory required for data: 1288805824
I0619 17:17:26.162348  5881 layer_factory.hpp:77] Creating layer conv11_mbox_loc_perm
I0619 17:17:26.162358  5881 net.cpp:100] Creating Layer conv11_mbox_loc_perm
I0619 17:17:26.162364  5881 net.cpp:434] conv11_mbox_loc_perm <- conv11_mbox_loc
I0619 17:17:26.162386  5881 net.cpp:408] conv11_mbox_loc_perm -> conv11_mbox_loc_perm
I0619 17:17:26.162405  5881 net.cpp:150] Setting up conv11_mbox_loc_perm
I0619 17:17:26.162415  5881 net.cpp:157] Top shape: 8 19 19 12 (34656)
I0619 17:17:26.162420  5881 net.cpp:165] Memory required for data: 1288944448
I0619 17:17:26.162425  5881 layer_factory.hpp:77] Creating layer conv11_mbox_loc_flat
I0619 17:17:26.162432  5881 net.cpp:100] Creating Layer conv11_mbox_loc_flat
I0619 17:17:26.162438  5881 net.cpp:434] conv11_mbox_loc_flat <- conv11_mbox_loc_perm
I0619 17:17:26.162446  5881 net.cpp:408] conv11_mbox_loc_flat -> conv11_mbox_loc_flat
I0619 17:17:26.162454  5881 net.cpp:150] Setting up conv11_mbox_loc_flat
I0619 17:17:26.162461  5881 net.cpp:157] Top shape: 8 4332 (34656)
I0619 17:17:26.162466  5881 net.cpp:165] Memory required for data: 1289083072
I0619 17:17:26.162472  5881 layer_factory.hpp:77] Creating layer conv11_mbox_conf_new
I0619 17:17:26.162485  5881 net.cpp:100] Creating Layer conv11_mbox_conf_new
I0619 17:17:26.162492  5881 net.cpp:434] conv11_mbox_conf_new <- conv11_conv11/relu_0_split_2
I0619 17:17:26.162499  5881 net.cpp:408] conv11_mbox_conf_new -> conv11_mbox_conf
I0619 17:17:26.164288  5881 net.cpp:150] Setting up conv11_mbox_conf_new
I0619 17:17:26.164351  5881 net.cpp:157] Top shape: 8 63 19 19 (181944)
I0619 17:17:26.164378  5881 net.cpp:165] Memory required for data: 1289810848
I0619 17:17:26.164412  5881 layer_factory.hpp:77] Creating layer conv11_mbox_conf_perm
I0619 17:17:26.164446  5881 net.cpp:100] Creating Layer conv11_mbox_conf_perm
I0619 17:17:26.164474  5881 net.cpp:434] conv11_mbox_conf_perm <- conv11_mbox_conf
I0619 17:17:26.164501  5881 net.cpp:408] conv11_mbox_conf_perm -> conv11_mbox_conf_perm
I0619 17:17:26.164546  5881 net.cpp:150] Setting up conv11_mbox_conf_perm
I0619 17:17:26.164573  5881 net.cpp:157] Top shape: 8 19 19 63 (181944)
I0619 17:17:26.164597  5881 net.cpp:165] Memory required for data: 1290538624
I0619 17:17:26.164621  5881 layer_factory.hpp:77] Creating layer conv11_mbox_conf_flat
I0619 17:17:26.164649  5881 net.cpp:100] Creating Layer conv11_mbox_conf_flat
I0619 17:17:26.164674  5881 net.cpp:434] conv11_mbox_conf_flat <- conv11_mbox_conf_perm
I0619 17:17:26.164705  5881 net.cpp:408] conv11_mbox_conf_flat -> conv11_mbox_conf_flat
I0619 17:17:26.164737  5881 net.cpp:150] Setting up conv11_mbox_conf_flat
I0619 17:17:26.164791  5881 net.cpp:157] Top shape: 8 22743 (181944)
I0619 17:17:26.164836  5881 net.cpp:165] Memory required for data: 1291266400
I0619 17:17:26.164849  5881 layer_factory.hpp:77] Creating layer conv11_mbox_priorbox
I0619 17:17:26.164861  5881 net.cpp:100] Creating Layer conv11_mbox_priorbox
I0619 17:17:26.164868  5881 net.cpp:434] conv11_mbox_priorbox <- conv11_conv11/relu_0_split_3
I0619 17:17:26.164877  5881 net.cpp:434] conv11_mbox_priorbox <- data_data_0_split_1
I0619 17:17:26.164911  5881 net.cpp:408] conv11_mbox_priorbox -> conv11_mbox_priorbox
I0619 17:17:26.164945  5881 net.cpp:150] Setting up conv11_mbox_priorbox
I0619 17:17:26.165303  5881 net.cpp:157] Top shape: 1 2 4332 (8664)
I0619 17:17:26.165324  5881 net.cpp:165] Memory required for data: 1291301056
I0619 17:17:26.165333  5881 layer_factory.hpp:77] Creating layer conv13_mbox_loc
I0619 17:17:26.165354  5881 net.cpp:100] Creating Layer conv13_mbox_loc
I0619 17:17:26.165381  5881 net.cpp:434] conv13_mbox_loc <- conv13_conv13/relu_0_split_1
I0619 17:17:26.165400  5881 net.cpp:408] conv13_mbox_loc -> conv13_mbox_loc
I0619 17:17:26.166379  5881 net.cpp:150] Setting up conv13_mbox_loc
I0619 17:17:26.166414  5881 net.cpp:157] Top shape: 8 24 10 10 (19200)
I0619 17:17:26.166425  5881 net.cpp:165] Memory required for data: 1291377856
I0619 17:17:26.166436  5881 layer_factory.hpp:77] Creating layer conv13_mbox_loc_perm
I0619 17:17:26.166455  5881 net.cpp:100] Creating Layer conv13_mbox_loc_perm
I0619 17:17:26.166477  5881 net.cpp:434] conv13_mbox_loc_perm <- conv13_mbox_loc
I0619 17:17:26.166492  5881 net.cpp:408] conv13_mbox_loc_perm -> conv13_mbox_loc_perm
I0619 17:17:26.166514  5881 net.cpp:150] Setting up conv13_mbox_loc_perm
I0619 17:17:26.166538  5881 net.cpp:157] Top shape: 8 10 10 24 (19200)
I0619 17:17:26.166549  5881 net.cpp:165] Memory required for data: 1291454656
I0619 17:17:26.166555  5881 layer_factory.hpp:77] Creating layer conv13_mbox_loc_flat
I0619 17:17:26.166566  5881 net.cpp:100] Creating Layer conv13_mbox_loc_flat
I0619 17:17:26.166573  5881 net.cpp:434] conv13_mbox_loc_flat <- conv13_mbox_loc_perm
I0619 17:17:26.166599  5881 net.cpp:408] conv13_mbox_loc_flat -> conv13_mbox_loc_flat
I0619 17:17:26.166630  5881 net.cpp:150] Setting up conv13_mbox_loc_flat
I0619 17:17:26.166656  5881 net.cpp:157] Top shape: 8 2400 (19200)
I0619 17:17:26.166666  5881 net.cpp:165] Memory required for data: 1291531456
I0619 17:17:26.166672  5881 layer_factory.hpp:77] Creating layer conv13_mbox_conf_new
I0619 17:17:26.166689  5881 net.cpp:100] Creating Layer conv13_mbox_conf_new
I0619 17:17:26.166712  5881 net.cpp:434] conv13_mbox_conf_new <- conv13_conv13/relu_0_split_2
I0619 17:17:26.166726  5881 net.cpp:408] conv13_mbox_conf_new -> conv13_mbox_conf
I0619 17:17:26.171389  5881 net.cpp:150] Setting up conv13_mbox_conf_new
I0619 17:17:26.171447  5881 net.cpp:157] Top shape: 8 126 10 10 (100800)
I0619 17:17:26.171454  5881 net.cpp:165] Memory required for data: 1291934656
I0619 17:17:26.171465  5881 layer_factory.hpp:77] Creating layer conv13_mbox_conf_perm
I0619 17:17:26.171485  5881 net.cpp:100] Creating Layer conv13_mbox_conf_perm
I0619 17:17:26.171511  5881 net.cpp:434] conv13_mbox_conf_perm <- conv13_mbox_conf
I0619 17:17:26.171530  5881 net.cpp:408] conv13_mbox_conf_perm -> conv13_mbox_conf_perm
I0619 17:17:26.171569  5881 net.cpp:150] Setting up conv13_mbox_conf_perm
I0619 17:17:26.171705  5881 net.cpp:157] Top shape: 8 10 10 126 (100800)
I0619 17:17:26.171737  5881 net.cpp:165] Memory required for data: 1292337856
I0619 17:17:26.171746  5881 layer_factory.hpp:77] Creating layer conv13_mbox_conf_flat
I0619 17:17:26.171756  5881 net.cpp:100] Creating Layer conv13_mbox_conf_flat
I0619 17:17:26.171763  5881 net.cpp:434] conv13_mbox_conf_flat <- conv13_mbox_conf_perm
I0619 17:17:26.171774  5881 net.cpp:408] conv13_mbox_conf_flat -> conv13_mbox_conf_flat
I0619 17:17:26.171787  5881 net.cpp:150] Setting up conv13_mbox_conf_flat
I0619 17:17:26.171794  5881 net.cpp:157] Top shape: 8 12600 (100800)
I0619 17:17:26.171799  5881 net.cpp:165] Memory required for data: 1292741056
I0619 17:17:26.171830  5881 layer_factory.hpp:77] Creating layer conv13_mbox_priorbox
I0619 17:17:26.171846  5881 net.cpp:100] Creating Layer conv13_mbox_priorbox
I0619 17:17:26.171855  5881 net.cpp:434] conv13_mbox_priorbox <- conv13_conv13/relu_0_split_3
I0619 17:17:26.171864  5881 net.cpp:434] conv13_mbox_priorbox <- data_data_0_split_2
I0619 17:17:26.171890  5881 net.cpp:408] conv13_mbox_priorbox -> conv13_mbox_priorbox
I0619 17:17:26.171921  5881 net.cpp:150] Setting up conv13_mbox_priorbox
I0619 17:17:26.171944  5881 net.cpp:157] Top shape: 1 2 2400 (4800)
I0619 17:17:26.171954  5881 net.cpp:165] Memory required for data: 1292760256
I0619 17:17:26.171960  5881 layer_factory.hpp:77] Creating layer conv14_2_mbox_loc
I0619 17:17:26.171990  5881 net.cpp:100] Creating Layer conv14_2_mbox_loc
I0619 17:17:26.172013  5881 net.cpp:434] conv14_2_mbox_loc <- conv14_2_conv14_2/relu_0_split_1
I0619 17:17:26.172030  5881 net.cpp:408] conv14_2_mbox_loc -> conv14_2_mbox_loc
I0619 17:17:26.172526  5881 net.cpp:150] Setting up conv14_2_mbox_loc
I0619 17:17:26.172552  5881 net.cpp:157] Top shape: 8 24 5 5 (4800)
I0619 17:17:26.172562  5881 net.cpp:165] Memory required for data: 1292779456
I0619 17:17:26.172572  5881 layer_factory.hpp:77] Creating layer conv14_2_mbox_loc_perm
I0619 17:17:26.172598  5881 net.cpp:100] Creating Layer conv14_2_mbox_loc_perm
I0619 17:17:26.172621  5881 net.cpp:434] conv14_2_mbox_loc_perm <- conv14_2_mbox_loc
I0619 17:17:26.172633  5881 net.cpp:408] conv14_2_mbox_loc_perm -> conv14_2_mbox_loc_perm
I0619 17:17:26.172653  5881 net.cpp:150] Setting up conv14_2_mbox_loc_perm
I0619 17:17:26.172675  5881 net.cpp:157] Top shape: 8 5 5 24 (4800)
I0619 17:17:26.172684  5881 net.cpp:165] Memory required for data: 1292798656
I0619 17:17:26.172690  5881 layer_factory.hpp:77] Creating layer conv14_2_mbox_loc_flat
I0619 17:17:26.172700  5881 net.cpp:100] Creating Layer conv14_2_mbox_loc_flat
I0619 17:17:26.172708  5881 net.cpp:434] conv14_2_mbox_loc_flat <- conv14_2_mbox_loc_perm
I0619 17:17:26.172719  5881 net.cpp:408] conv14_2_mbox_loc_flat -> conv14_2_mbox_loc_flat
I0619 17:17:26.172744  5881 net.cpp:150] Setting up conv14_2_mbox_loc_flat
I0619 17:17:26.172767  5881 net.cpp:157] Top shape: 8 600 (4800)
I0619 17:17:26.172776  5881 net.cpp:165] Memory required for data: 1292817856
I0619 17:17:26.172781  5881 layer_factory.hpp:77] Creating layer conv14_2_mbox_conf_new
I0619 17:17:26.172797  5881 net.cpp:100] Creating Layer conv14_2_mbox_conf_new
I0619 17:17:26.172818  5881 net.cpp:434] conv14_2_mbox_conf_new <- conv14_2_conv14_2/relu_0_split_2
I0619 17:17:26.172834  5881 net.cpp:408] conv14_2_mbox_conf_new -> conv14_2_mbox_conf
I0619 17:17:26.175938  5881 net.cpp:150] Setting up conv14_2_mbox_conf_new
I0619 17:17:26.175994  5881 net.cpp:157] Top shape: 8 126 5 5 (25200)
I0619 17:17:26.176002  5881 net.cpp:165] Memory required for data: 1292918656
I0619 17:17:26.176013  5881 layer_factory.hpp:77] Creating layer conv14_2_mbox_conf_perm
I0619 17:17:26.176029  5881 net.cpp:100] Creating Layer conv14_2_mbox_conf_perm
I0619 17:17:26.176039  5881 net.cpp:434] conv14_2_mbox_conf_perm <- conv14_2_mbox_conf
I0619 17:17:26.176048  5881 net.cpp:408] conv14_2_mbox_conf_perm -> conv14_2_mbox_conf_perm
I0619 17:17:26.176067  5881 net.cpp:150] Setting up conv14_2_mbox_conf_perm
I0619 17:17:26.176077  5881 net.cpp:157] Top shape: 8 5 5 126 (25200)
I0619 17:17:26.176082  5881 net.cpp:165] Memory required for data: 1293019456
I0619 17:17:26.176087  5881 layer_factory.hpp:77] Creating layer conv14_2_mbox_conf_flat
I0619 17:17:26.176095  5881 net.cpp:100] Creating Layer conv14_2_mbox_conf_flat
I0619 17:17:26.176101  5881 net.cpp:434] conv14_2_mbox_conf_flat <- conv14_2_mbox_conf_perm
I0619 17:17:26.176110  5881 net.cpp:408] conv14_2_mbox_conf_flat -> conv14_2_mbox_conf_flat
I0619 17:17:26.176120  5881 net.cpp:150] Setting up conv14_2_mbox_conf_flat
I0619 17:17:26.176126  5881 net.cpp:157] Top shape: 8 3150 (25200)
I0619 17:17:26.176129  5881 net.cpp:165] Memory required for data: 1293120256
I0619 17:17:26.176158  5881 layer_factory.hpp:77] Creating layer conv14_2_mbox_priorbox
I0619 17:17:26.176167  5881 net.cpp:100] Creating Layer conv14_2_mbox_priorbox
I0619 17:17:26.176173  5881 net.cpp:434] conv14_2_mbox_priorbox <- conv14_2_conv14_2/relu_0_split_3
I0619 17:17:26.176182  5881 net.cpp:434] conv14_2_mbox_priorbox <- data_data_0_split_3
I0619 17:17:26.176190  5881 net.cpp:408] conv14_2_mbox_priorbox -> conv14_2_mbox_priorbox
I0619 17:17:26.176203  5881 net.cpp:150] Setting up conv14_2_mbox_priorbox
I0619 17:17:26.176208  5881 net.cpp:157] Top shape: 1 2 600 (1200)
I0619 17:17:26.176213  5881 net.cpp:165] Memory required for data: 1293125056
I0619 17:17:26.176218  5881 layer_factory.hpp:77] Creating layer conv15_2_mbox_loc
I0619 17:17:26.176231  5881 net.cpp:100] Creating Layer conv15_2_mbox_loc
I0619 17:17:26.176236  5881 net.cpp:434] conv15_2_mbox_loc <- conv15_2_conv15_2/relu_0_split_1
I0619 17:17:26.176245  5881 net.cpp:408] conv15_2_mbox_loc -> conv15_2_mbox_loc
I0619 17:17:26.176496  5881 net.cpp:150] Setting up conv15_2_mbox_loc
I0619 17:17:26.176507  5881 net.cpp:157] Top shape: 8 24 3 3 (1728)
I0619 17:17:26.176517  5881 net.cpp:165] Memory required for data: 1293131968
I0619 17:17:26.176524  5881 layer_factory.hpp:77] Creating layer conv15_2_mbox_loc_perm
I0619 17:17:26.176550  5881 net.cpp:100] Creating Layer conv15_2_mbox_loc_perm
I0619 17:17:26.176573  5881 net.cpp:434] conv15_2_mbox_loc_perm <- conv15_2_mbox_loc
I0619 17:17:26.176589  5881 net.cpp:408] conv15_2_mbox_loc_perm -> conv15_2_mbox_loc_perm
I0619 17:17:26.176604  5881 net.cpp:150] Setting up conv15_2_mbox_loc_perm
I0619 17:17:26.176628  5881 net.cpp:157] Top shape: 8 3 3 24 (1728)
I0619 17:17:26.176648  5881 net.cpp:165] Memory required for data: 1293138880
I0619 17:17:26.176658  5881 layer_factory.hpp:77] Creating layer conv15_2_mbox_loc_flat
I0619 17:17:26.176666  5881 net.cpp:100] Creating Layer conv15_2_mbox_loc_flat
I0619 17:17:26.176686  5881 net.cpp:434] conv15_2_mbox_loc_flat <- conv15_2_mbox_loc_perm
I0619 17:17:26.176697  5881 net.cpp:408] conv15_2_mbox_loc_flat -> conv15_2_mbox_loc_flat
I0619 17:17:26.176707  5881 net.cpp:150] Setting up conv15_2_mbox_loc_flat
I0619 17:17:26.176728  5881 net.cpp:157] Top shape: 8 216 (1728)
I0619 17:17:26.176738  5881 net.cpp:165] Memory required for data: 1293145792
I0619 17:17:26.176743  5881 layer_factory.hpp:77] Creating layer conv15_2_mbox_conf_new
I0619 17:17:26.176772  5881 net.cpp:100] Creating Layer conv15_2_mbox_conf_new
I0619 17:17:26.176795  5881 net.cpp:434] conv15_2_mbox_conf_new <- conv15_2_conv15_2/relu_0_split_2
I0619 17:17:26.176808  5881 net.cpp:408] conv15_2_mbox_conf_new -> conv15_2_mbox_conf
I0619 17:17:26.178055  5881 net.cpp:150] Setting up conv15_2_mbox_conf_new
I0619 17:17:26.178086  5881 net.cpp:157] Top shape: 8 126 3 3 (9072)
I0619 17:17:26.178092  5881 net.cpp:165] Memory required for data: 1293182080
I0619 17:17:26.178117  5881 layer_factory.hpp:77] Creating layer conv15_2_mbox_conf_perm
I0619 17:17:26.178143  5881 net.cpp:100] Creating Layer conv15_2_mbox_conf_perm
I0619 17:17:26.178165  5881 net.cpp:434] conv15_2_mbox_conf_perm <- conv15_2_mbox_conf
I0619 17:17:26.178192  5881 net.cpp:408] conv15_2_mbox_conf_perm -> conv15_2_mbox_conf_perm
I0619 17:17:26.178225  5881 net.cpp:150] Setting up conv15_2_mbox_conf_perm
I0619 17:17:26.178247  5881 net.cpp:157] Top shape: 8 3 3 126 (9072)
I0619 17:17:26.178256  5881 net.cpp:165] Memory required for data: 1293218368
I0619 17:17:26.178261  5881 layer_factory.hpp:77] Creating layer conv15_2_mbox_conf_flat
I0619 17:17:26.178274  5881 net.cpp:100] Creating Layer conv15_2_mbox_conf_flat
I0619 17:17:26.178294  5881 net.cpp:434] conv15_2_mbox_conf_flat <- conv15_2_mbox_conf_perm
I0619 17:17:26.178308  5881 net.cpp:408] conv15_2_mbox_conf_flat -> conv15_2_mbox_conf_flat
I0619 17:17:26.178319  5881 net.cpp:150] Setting up conv15_2_mbox_conf_flat
I0619 17:17:26.178328  5881 net.cpp:157] Top shape: 8 1134 (9072)
I0619 17:17:26.178333  5881 net.cpp:165] Memory required for data: 1293254656
I0619 17:17:26.178352  5881 layer_factory.hpp:77] Creating layer conv15_2_mbox_priorbox
I0619 17:17:26.178400  5881 net.cpp:100] Creating Layer conv15_2_mbox_priorbox
I0619 17:17:26.178421  5881 net.cpp:434] conv15_2_mbox_priorbox <- conv15_2_conv15_2/relu_0_split_3
I0619 17:17:26.178434  5881 net.cpp:434] conv15_2_mbox_priorbox <- data_data_0_split_4
I0619 17:17:26.178445  5881 net.cpp:408] conv15_2_mbox_priorbox -> conv15_2_mbox_priorbox
I0619 17:17:26.178459  5881 net.cpp:150] Setting up conv15_2_mbox_priorbox
I0619 17:17:26.178481  5881 net.cpp:157] Top shape: 1 2 216 (432)
I0619 17:17:26.178490  5881 net.cpp:165] Memory required for data: 1293256384
I0619 17:17:26.178495  5881 layer_factory.hpp:77] Creating layer conv16_2_mbox_loc
I0619 17:17:26.178524  5881 net.cpp:100] Creating Layer conv16_2_mbox_loc
I0619 17:17:26.178561  5881 net.cpp:434] conv16_2_mbox_loc <- conv16_2_conv16_2/relu_0_split_1
I0619 17:17:26.178601  5881 net.cpp:408] conv16_2_mbox_loc -> conv16_2_mbox_loc
I0619 17:17:26.178889  5881 net.cpp:150] Setting up conv16_2_mbox_loc
I0619 17:17:26.178905  5881 net.cpp:157] Top shape: 8 24 2 2 (768)
I0619 17:17:26.178910  5881 net.cpp:165] Memory required for data: 1293259456
I0619 17:17:26.178918  5881 layer_factory.hpp:77] Creating layer conv16_2_mbox_loc_perm
I0619 17:17:26.178926  5881 net.cpp:100] Creating Layer conv16_2_mbox_loc_perm
I0619 17:17:26.178932  5881 net.cpp:434] conv16_2_mbox_loc_perm <- conv16_2_mbox_loc
I0619 17:17:26.178942  5881 net.cpp:408] conv16_2_mbox_loc_perm -> conv16_2_mbox_loc_perm
I0619 17:17:26.178956  5881 net.cpp:150] Setting up conv16_2_mbox_loc_perm
I0619 17:17:26.178961  5881 net.cpp:157] Top shape: 8 2 2 24 (768)
I0619 17:17:26.178966  5881 net.cpp:165] Memory required for data: 1293262528
I0619 17:17:26.178972  5881 layer_factory.hpp:77] Creating layer conv16_2_mbox_loc_flat
I0619 17:17:26.178980  5881 net.cpp:100] Creating Layer conv16_2_mbox_loc_flat
I0619 17:17:26.178985  5881 net.cpp:434] conv16_2_mbox_loc_flat <- conv16_2_mbox_loc_perm
I0619 17:17:26.178992  5881 net.cpp:408] conv16_2_mbox_loc_flat -> conv16_2_mbox_loc_flat
I0619 17:17:26.178999  5881 net.cpp:150] Setting up conv16_2_mbox_loc_flat
I0619 17:17:26.179005  5881 net.cpp:157] Top shape: 8 96 (768)
I0619 17:17:26.179010  5881 net.cpp:165] Memory required for data: 1293265600
I0619 17:17:26.179015  5881 layer_factory.hpp:77] Creating layer conv16_2_mbox_conf_new
I0619 17:17:26.179026  5881 net.cpp:100] Creating Layer conv16_2_mbox_conf_new
I0619 17:17:26.179049  5881 net.cpp:434] conv16_2_mbox_conf_new <- conv16_2_conv16_2/relu_0_split_2
I0619 17:17:26.179064  5881 net.cpp:408] conv16_2_mbox_conf_new -> conv16_2_mbox_conf
I0619 17:17:26.180359  5881 net.cpp:150] Setting up conv16_2_mbox_conf_new
I0619 17:17:26.180449  5881 net.cpp:157] Top shape: 8 126 2 2 (4032)
I0619 17:17:26.180457  5881 net.cpp:165] Memory required for data: 1293281728
I0619 17:17:26.180469  5881 layer_factory.hpp:77] Creating layer conv16_2_mbox_conf_perm
I0619 17:17:26.180483  5881 net.cpp:100] Creating Layer conv16_2_mbox_conf_perm
I0619 17:17:26.180492  5881 net.cpp:434] conv16_2_mbox_conf_perm <- conv16_2_mbox_conf
I0619 17:17:26.180505  5881 net.cpp:408] conv16_2_mbox_conf_perm -> conv16_2_mbox_conf_perm
I0619 17:17:26.180522  5881 net.cpp:150] Setting up conv16_2_mbox_conf_perm
I0619 17:17:26.180529  5881 net.cpp:157] Top shape: 8 2 2 126 (4032)
I0619 17:17:26.180534  5881 net.cpp:165] Memory required for data: 1293297856
I0619 17:17:26.180539  5881 layer_factory.hpp:77] Creating layer conv16_2_mbox_conf_flat
I0619 17:17:26.180546  5881 net.cpp:100] Creating Layer conv16_2_mbox_conf_flat
I0619 17:17:26.195271  5881 net.cpp:434] conv16_2_mbox_conf_flat <- conv16_2_mbox_conf_perm
I0619 17:17:26.195312  5881 net.cpp:408] conv16_2_mbox_conf_flat -> conv16_2_mbox_conf_flat
I0619 17:17:26.195334  5881 net.cpp:150] Setting up conv16_2_mbox_conf_flat
I0619 17:17:26.195348  5881 net.cpp:157] Top shape: 8 504 (4032)
I0619 17:17:26.195356  5881 net.cpp:165] Memory required for data: 1293313984
I0619 17:17:26.195365  5881 layer_factory.hpp:77] Creating layer conv16_2_mbox_priorbox
I0619 17:17:26.195406  5881 net.cpp:100] Creating Layer conv16_2_mbox_priorbox
I0619 17:17:26.195417  5881 net.cpp:434] conv16_2_mbox_priorbox <- conv16_2_conv16_2/relu_0_split_3
I0619 17:17:26.195428  5881 net.cpp:434] conv16_2_mbox_priorbox <- data_data_0_split_5
I0619 17:17:26.195441  5881 net.cpp:408] conv16_2_mbox_priorbox -> conv16_2_mbox_priorbox
I0619 17:17:26.195456  5881 net.cpp:150] Setting up conv16_2_mbox_priorbox
I0619 17:17:26.195466  5881 net.cpp:157] Top shape: 1 2 96 (192)
I0619 17:17:26.195473  5881 net.cpp:165] Memory required for data: 1293314752
I0619 17:17:26.195482  5881 layer_factory.hpp:77] Creating layer conv17_2_mbox_loc
I0619 17:17:26.195499  5881 net.cpp:100] Creating Layer conv17_2_mbox_loc
I0619 17:17:26.195508  5881 net.cpp:434] conv17_2_mbox_loc <- conv17_2_conv17_2/relu_0_split_0
I0619 17:17:26.195523  5881 net.cpp:408] conv17_2_mbox_loc -> conv17_2_mbox_loc
I0619 17:17:26.195672  5881 net.cpp:150] Setting up conv17_2_mbox_loc
I0619 17:17:26.195684  5881 net.cpp:157] Top shape: 8 24 1 1 (192)
I0619 17:17:26.195693  5881 net.cpp:165] Memory required for data: 1293315520
I0619 17:17:26.195704  5881 layer_factory.hpp:77] Creating layer conv17_2_mbox_loc_perm
I0619 17:17:26.195716  5881 net.cpp:100] Creating Layer conv17_2_mbox_loc_perm
I0619 17:17:26.195725  5881 net.cpp:434] conv17_2_mbox_loc_perm <- conv17_2_mbox_loc
I0619 17:17:26.195735  5881 net.cpp:408] conv17_2_mbox_loc_perm -> conv17_2_mbox_loc_perm
I0619 17:17:26.195753  5881 net.cpp:150] Setting up conv17_2_mbox_loc_perm
I0619 17:17:26.195763  5881 net.cpp:157] Top shape: 8 1 1 24 (192)
I0619 17:17:26.195771  5881 net.cpp:165] Memory required for data: 1293316288
I0619 17:17:26.195780  5881 layer_factory.hpp:77] Creating layer conv17_2_mbox_loc_flat
I0619 17:17:26.195789  5881 net.cpp:100] Creating Layer conv17_2_mbox_loc_flat
I0619 17:17:26.195798  5881 net.cpp:434] conv17_2_mbox_loc_flat <- conv17_2_mbox_loc_perm
I0619 17:17:26.195807  5881 net.cpp:408] conv17_2_mbox_loc_flat -> conv17_2_mbox_loc_flat
I0619 17:17:26.195819  5881 net.cpp:150] Setting up conv17_2_mbox_loc_flat
I0619 17:17:26.195828  5881 net.cpp:157] Top shape: 8 24 (192)
I0619 17:17:26.195837  5881 net.cpp:165] Memory required for data: 1293317056
I0619 17:17:26.195844  5881 layer_factory.hpp:77] Creating layer conv17_2_mbox_conf_new
I0619 17:17:26.195858  5881 net.cpp:100] Creating Layer conv17_2_mbox_conf_new
I0619 17:17:26.195866  5881 net.cpp:434] conv17_2_mbox_conf_new <- conv17_2_conv17_2/relu_0_split_1
I0619 17:17:26.195878  5881 net.cpp:408] conv17_2_mbox_conf_new -> conv17_2_mbox_conf
I0619 17:17:26.196499  5881 net.cpp:150] Setting up conv17_2_mbox_conf_new
I0619 17:17:26.196513  5881 net.cpp:157] Top shape: 8 126 1 1 (1008)
I0619 17:17:26.196521  5881 net.cpp:165] Memory required for data: 1293321088
I0619 17:17:26.196532  5881 layer_factory.hpp:77] Creating layer conv17_2_mbox_conf_perm
I0619 17:17:26.196542  5881 net.cpp:100] Creating Layer conv17_2_mbox_conf_perm
I0619 17:17:26.196552  5881 net.cpp:434] conv17_2_mbox_conf_perm <- conv17_2_mbox_conf
I0619 17:17:26.196563  5881 net.cpp:408] conv17_2_mbox_conf_perm -> conv17_2_mbox_conf_perm
I0619 17:17:26.196578  5881 net.cpp:150] Setting up conv17_2_mbox_conf_perm
I0619 17:17:26.196586  5881 net.cpp:157] Top shape: 8 1 1 126 (1008)
I0619 17:17:26.196594  5881 net.cpp:165] Memory required for data: 1293325120
I0619 17:17:26.196602  5881 layer_factory.hpp:77] Creating layer conv17_2_mbox_conf_flat
I0619 17:17:26.196614  5881 net.cpp:100] Creating Layer conv17_2_mbox_conf_flat
I0619 17:17:26.196621  5881 net.cpp:434] conv17_2_mbox_conf_flat <- conv17_2_mbox_conf_perm
I0619 17:17:26.196630  5881 net.cpp:408] conv17_2_mbox_conf_flat -> conv17_2_mbox_conf_flat
I0619 17:17:26.196641  5881 net.cpp:150] Setting up conv17_2_mbox_conf_flat
I0619 17:17:26.196650  5881 net.cpp:157] Top shape: 8 126 (1008)
I0619 17:17:26.196658  5881 net.cpp:165] Memory required for data: 1293329152
I0619 17:17:26.196666  5881 layer_factory.hpp:77] Creating layer conv17_2_mbox_priorbox
I0619 17:17:26.196676  5881 net.cpp:100] Creating Layer conv17_2_mbox_priorbox
I0619 17:17:26.196696  5881 net.cpp:434] conv17_2_mbox_priorbox <- conv17_2_conv17_2/relu_0_split_2
I0619 17:17:26.196705  5881 net.cpp:434] conv17_2_mbox_priorbox <- data_data_0_split_6
I0619 17:17:26.196715  5881 net.cpp:408] conv17_2_mbox_priorbox -> conv17_2_mbox_priorbox
I0619 17:17:26.196728  5881 net.cpp:150] Setting up conv17_2_mbox_priorbox
I0619 17:17:26.196738  5881 net.cpp:157] Top shape: 1 2 24 (48)
I0619 17:17:26.196745  5881 net.cpp:165] Memory required for data: 1293329344
I0619 17:17:26.196753  5881 layer_factory.hpp:77] Creating layer mbox_loc
I0619 17:17:26.196768  5881 net.cpp:100] Creating Layer mbox_loc
I0619 17:17:26.196779  5881 net.cpp:434] mbox_loc <- conv11_mbox_loc_flat
I0619 17:17:26.196789  5881 net.cpp:434] mbox_loc <- conv13_mbox_loc_flat
I0619 17:17:26.196799  5881 net.cpp:434] mbox_loc <- conv14_2_mbox_loc_flat
I0619 17:17:26.196808  5881 net.cpp:434] mbox_loc <- conv15_2_mbox_loc_flat
I0619 17:17:26.196817  5881 net.cpp:434] mbox_loc <- conv16_2_mbox_loc_flat
I0619 17:17:26.196826  5881 net.cpp:434] mbox_loc <- conv17_2_mbox_loc_flat
I0619 17:17:26.196835  5881 net.cpp:408] mbox_loc -> mbox_loc
I0619 17:17:26.196848  5881 net.cpp:150] Setting up mbox_loc
I0619 17:17:26.196857  5881 net.cpp:157] Top shape: 8 7668 (61344)
I0619 17:17:26.196866  5881 net.cpp:165] Memory required for data: 1293574720
I0619 17:17:26.196872  5881 layer_factory.hpp:77] Creating layer mbox_conf
I0619 17:17:26.196884  5881 net.cpp:100] Creating Layer mbox_conf
I0619 17:17:26.196893  5881 net.cpp:434] mbox_conf <- conv11_mbox_conf_flat
I0619 17:17:26.196903  5881 net.cpp:434] mbox_conf <- conv13_mbox_conf_flat
I0619 17:17:26.196913  5881 net.cpp:434] mbox_conf <- conv14_2_mbox_conf_flat
I0619 17:17:26.196921  5881 net.cpp:434] mbox_conf <- conv15_2_mbox_conf_flat
I0619 17:17:26.196929  5881 net.cpp:434] mbox_conf <- conv16_2_mbox_conf_flat
I0619 17:17:26.196938  5881 net.cpp:434] mbox_conf <- conv17_2_mbox_conf_flat
I0619 17:17:26.196947  5881 net.cpp:408] mbox_conf -> mbox_conf
I0619 17:17:26.196959  5881 net.cpp:150] Setting up mbox_conf
I0619 17:17:26.196969  5881 net.cpp:157] Top shape: 8 40257 (322056)
I0619 17:17:26.196976  5881 net.cpp:165] Memory required for data: 1294862944
I0619 17:17:26.196983  5881 layer_factory.hpp:77] Creating layer mbox_priorbox
I0619 17:17:26.196995  5881 net.cpp:100] Creating Layer mbox_priorbox
I0619 17:17:26.197003  5881 net.cpp:434] mbox_priorbox <- conv11_mbox_priorbox
I0619 17:17:26.197013  5881 net.cpp:434] mbox_priorbox <- conv13_mbox_priorbox
I0619 17:17:26.197023  5881 net.cpp:434] mbox_priorbox <- conv14_2_mbox_priorbox
I0619 17:17:26.197031  5881 net.cpp:434] mbox_priorbox <- conv15_2_mbox_priorbox
I0619 17:17:26.197041  5881 net.cpp:434] mbox_priorbox <- conv16_2_mbox_priorbox
I0619 17:17:26.197077  5881 net.cpp:434] mbox_priorbox <- conv17_2_mbox_priorbox
I0619 17:17:26.197095  5881 net.cpp:408] mbox_priorbox -> mbox_priorbox
I0619 17:17:26.197109  5881 net.cpp:150] Setting up mbox_priorbox
I0619 17:17:26.204763  5881 net.cpp:157] Top shape: 1 2 7668 (15336)
I0619 17:17:26.204787  5881 net.cpp:165] Memory required for data: 1294924288
I0619 17:17:26.204797  5881 layer_factory.hpp:77] Creating layer mbox_conf_reshape
I0619 17:17:26.204856  5881 net.cpp:100] Creating Layer mbox_conf_reshape
I0619 17:17:26.204869  5881 net.cpp:434] mbox_conf_reshape <- mbox_conf
I0619 17:17:26.204880  5881 net.cpp:408] mbox_conf_reshape -> mbox_conf_reshape
I0619 17:17:26.204946  5881 net.cpp:150] Setting up mbox_conf_reshape
I0619 17:17:26.204973  5881 net.cpp:157] Top shape: 8 1917 21 (322056)
I0619 17:17:26.204995  5881 net.cpp:165] Memory required for data: 1296212512
I0619 17:17:26.205003  5881 layer_factory.hpp:77] Creating layer mbox_conf_softmax
I0619 17:17:26.205025  5881 net.cpp:100] Creating Layer mbox_conf_softmax
I0619 17:17:26.205046  5881 net.cpp:434] mbox_conf_softmax <- mbox_conf_reshape
I0619 17:17:26.205060  5881 net.cpp:408] mbox_conf_softmax -> mbox_conf_softmax
I0619 17:17:26.205073  5881 net.cpp:150] Setting up mbox_conf_softmax
I0619 17:17:26.205106  5881 net.cpp:157] Top shape: 8 1917 21 (322056)
I0619 17:17:26.205111  5881 net.cpp:165] Memory required for data: 1297500736
I0619 17:17:26.205116  5881 layer_factory.hpp:77] Creating layer mbox_conf_flatten
I0619 17:17:26.205127  5881 net.cpp:100] Creating Layer mbox_conf_flatten
I0619 17:17:26.205132  5881 net.cpp:434] mbox_conf_flatten <- mbox_conf_softmax
I0619 17:17:26.205138  5881 net.cpp:408] mbox_conf_flatten -> mbox_conf_flatten
I0619 17:17:26.205147  5881 net.cpp:150] Setting up mbox_conf_flatten
I0619 17:17:26.205153  5881 net.cpp:157] Top shape: 8 40257 (322056)
I0619 17:17:26.205158  5881 net.cpp:165] Memory required for data: 1298788960
I0619 17:17:26.205163  5881 layer_factory.hpp:77] Creating layer detection_out
I0619 17:17:26.221441  5881 net.cpp:100] Creating Layer detection_out
I0619 17:17:26.221498  5881 net.cpp:434] detection_out <- mbox_loc
I0619 17:17:26.221515  5881 net.cpp:434] detection_out <- mbox_conf_flatten
I0619 17:17:26.221540  5881 net.cpp:434] detection_out <- mbox_priorbox
I0619 17:17:26.221565  5881 net.cpp:408] detection_out -> detection_out
I0619 17:17:26.232260  5881 net.cpp:150] Setting up detection_out
I0619 17:17:26.232296  5881 net.cpp:157] Top shape: 1 1 1 7 (7)
I0619 17:17:26.232302  5881 net.cpp:165] Memory required for data: 1298788988
I0619 17:17:26.232309  5881 layer_factory.hpp:77] Creating layer detection_eval
I0619 17:17:26.232363  5881 net.cpp:100] Creating Layer detection_eval
I0619 17:17:26.232378  5881 net.cpp:434] detection_eval <- detection_out
I0619 17:17:26.232385  5881 net.cpp:434] detection_eval <- label
I0619 17:17:26.232398  5881 net.cpp:408] detection_eval -> detection_eval
I0619 17:17:26.232442  5881 net.cpp:150] Setting up detection_eval
I0619 17:17:26.232455  5881 net.cpp:157] Top shape: 1 1 21 5 (105)
I0619 17:17:26.232458  5881 net.cpp:165] Memory required for data: 1298789408
I0619 17:17:26.232465  5881 net.cpp:228] detection_eval does not need backward computation.
I0619 17:17:26.232470  5881 net.cpp:228] detection_out does not need backward computation.
I0619 17:17:26.232476  5881 net.cpp:228] mbox_conf_flatten does not need backward computation.
I0619 17:17:26.232481  5881 net.cpp:228] mbox_conf_softmax does not need backward computation.
…
