…
I0625 08:50:02.742872 55699 net.cpp:294] The NetState phase (0) differed from the phase (1) specified by a rule in layer top5/acc
I0625 08:50:02.744132 55699 net.cpp:51] Initializing net from parameters: 
name: "MOBILENET"
state {
  phase: TRAIN
  level: 0
  stage: ""
}
layer {
  name: "data"
  type: "Data"
  top: "data"
  top: "label"
  include {
    phase: TRAIN
  }
  transform_param {
    mirror: true
    mean_file: "/home/sun/MobileNet-Caffe-master/cifar10/mean/mean.binaryproto"
  }
  data_param {
    source: "/home/sun/MobileNet-Caffe-master/cifar10/lmdb/cifar10_train_lmdb"
    batch_size: 64
    backend: LMDB
  }
}
layer {
  name: "conv1"
  type: "Convolution"
  bottom: "data"
  top: "conv1"
  param {
    lr_mult: 1
    decay_mult: 1
  }
  convolution_param {
    num_output: 32
    bias_term: false
    pad: 1
    kernel_size: 3
    stride: 2
    weight_filler {
      type: "msra"
    }
  }
}
layer {
  name: "conv1/bn"
  type: "BatchNorm"
  bottom: "conv1"
  top: "conv1"
  param {
    lr_mult: 0
    decay_mult: 0
  }
  param {
    lr_mult: 0
    decay_mult: 0
  }
  param {
    lr_mult: 0
    decay_mult: 0
  }
  batch_norm_param {
    use_global_stats: true
    eps: 1e-05
  }
}
layer {
  name: "conv1/scale"
  type: "Scale"
  bottom: "conv1"
  top: "conv1"
  param {
    lr_mult: 1
    decay_mult: 0
  }
  param {
    lr_mult: 1
    decay_mult: 0
  }
  scale_param {
    filler {
      value: 1
    }
    bias_term: true
    bias_filler {
      value: 0
    }
  }
}
layer {
  name: "relu1"
  type: "ReLU"
  bottom: "conv1"
  top: "conv1"
}
layer {
  name: "conv2_1/dw"
  type: "Convolution"
  bottom: "conv1"
  top: "conv2_1/dw"
  param {
    lr_mult: 1
    decay_mult: 1
  }
  convolution_param {
    num_output: 32
    bias_term: false
    pad: 1
    kernel_size: 3
    group: 32
    stride: 1
    weight_filler {
      type: "msra"
    }
    engine: CAFFE
  }
}
layer {
  name: "conv2_1/dw/bn"
  type: "BatchNorm"
  bottom: "conv2_1/dw"
  top: "conv2_1/dw"
  param {
    lr_mult: 0
    decay_mult: 0
  }
  param {
    lr_mult: 0
    decay_mult: 0
  }
  param {
    lr_mult: 0
    decay_mult: 0
  }
  batch_norm_param {
    use_global_stats: true
    eps: 1e-05
  }
}
layer {
  name: "conv2_1/dw/scale"
  type: "Scale"
  bottom: "conv2_1/dw"
  top: "conv2_1/dw"
  param {
    lr_mult: 1
    decay_mult: 0
  }
  param {
    lr_mult: 1
    decay_mult: 0
  }
  scale_param {
    filler {
      value: 1
    }
    bias_term: true
    bias_filler {
      value: 0
    }
  }
}
layer {
  name: "relu2_1/dw"
  type: "ReLU"
  bottom: "conv2_1/dw"
  top: "conv2_1/dw"
}
layer {
  name: "conv2_1/sep"
  type: "Convolution"
  bottom: "conv2_1/dw"
  top: "conv2_1/sep"
  param {
    lr_mult: 1
    decay_mult: 1
  }
  convolution_param {
    num_output: 64
    bias_term: false
    pad: 0
    kernel_size: 1
    stride: 1
    weight_filler {
      type: "msra"
    }
  }
}
layer {
  name: "conv2_1/sep/bn"
  type: "BatchNorm"
  bottom: "conv2_1/sep"
  top: "conv2_1/sep"
  param {
    lr_mult: 0
    decay_mult: 0
  }
  param {
    lr_mult: 0
    decay_mult: 0
  }
  param {
    lr_mult: 0
    decay_mult: 0
  }
  batch_norm_param {
    use_global_stats: true
    eps: 1e-05
  }
}
layer {
  name: "conv2_1/sep/scale"
  type: "Scale"
  bottom: "conv2_1/sep"
  top: "conv2_1/sep"
  param {
    lr_mult: 1
    decay_mult: 0
  }
  param {
    lr_mult: 1
    decay_mult: 0
  }
  scale_param {
    filler {
      value: 1
    }
    bias_term: true
    bias_filler {
      value: 0
    }
  }
}
layer {
  name: "relu2_1/sep"
  type: "ReLU"
  bottom: "conv2_1/sep"
  top: "conv2_1/sep"
}
layer {
  name: "conv2_2/dw"
  type: "Convolution"
  bottom: "conv2_1/sep"
  top: "conv2_2/dw"
  param {
    lr_mult: 1
    decay_mult: 1
  }
  convolution_param {
    num_output: 64
    bias_term: false
    pad: 1
    kernel_size: 3
    group: 64
    stride: 2
    weight_filler {
      type: "msra"
    }
    engine: CAFFE
  }
}
layer {
  name: "conv2_2/dw/bn"
  type: "BatchNorm"
  bottom: "conv2_2/dw"
  top: "conv2_2/dw"
  param {
    lr_mult: 0
    decay_mult: 0
  }
  param {
    lr_mult: 0
    decay_mult: 0
  }
  param {
    lr_mult: 0
    decay_mult: 0
  }
  batch_norm_param {
    use_global_stats: true
    eps: 1e-05
  }
}
layer {
  name: "conv2_2/dw/scale"
  type: "Scale"
  bottom: "conv2_2/dw"
  top: "conv2_2/dw"
  param {
    lr_mult: 1
    decay_mult: 0
  }
  param {
    lr_mult: 1
    decay_mult: 0
  }
  scale_param {
    filler {
      value: 1
    }
    bias_term: true
    bias_filler {
      value: 0
    }
  }
}
layer {
  name: "relu2_2/dw"
  type: "ReLU"
  bottom: "conv2_2/dw"
  top: "conv2_2/dw"
}
layer {
  name: "conv2_2/sep"
  type: "Convolution"
  bottom: "conv2_2/dw"
  top: "conv2_2/sep"
  param {
    lr_mult: 1
    decay_mult: 1
  }
  convolution_param {
    num_output: 128
    bias_term: false
    pad: 0
    kernel_size: 1
    stride: 1
    weight_filler {
      type: "msra"
    }
  }
}
layer {
  name: "conv2_2/sep/bn"
  type: "BatchNorm"
  bottom: "conv2_2/sep"
  top: "conv2_2/sep"
  param {
    lr_mult: 0
    decay_mult: 0
  }
  param {
    lr_mult: 0
    decay_mult: 0
  }
  param {
    lr_mult: 0
    decay_mult: 0
  }
  batch_norm_param {
    use_global_stats: true
    eps: 1e-05
  }
}
layer {
  name: "conv2_2/sep/scale"
  type: "Scale"
  bottom: "conv2_2/sep"
  top: "conv2_2/sep"
  param {
    lr_mult: 1
    decay_mult: 0
  }
  param {
    lr_mult: 1
    decay_mult: 0
  }
  scale_param {
    filler {
      value: 1
    }
    bias_term: true
    bias_filler {
      value: 0
    }
  }
}
layer {
  name: "relu2_2/sep"
  type: "ReLU"
  bottom: "conv2_2/sep"
  top: "conv2_2/sep"
}
layer {
  name: "conv3_1/dw"
  type: "Convolution"
  bottom: "conv2_2/sep"
  top: "conv3_1/dw"
  param {
    lr_mult: 1
    decay_mult: 1
  }
  convolution_param {
    num_output: 128
    bias_term: false
    pad: 1
    kernel_size: 3
    group: 128
    stride: 1
    weight_filler {
      type: "msra"
    }
    engine: CAFFE
  }
}
layer {
  name: "conv3_1/dw/bn"
  type: "BatchNorm"
  bottom: "conv3_1/dw"
  top: "conv3_1/dw"
  param {
    lr_mult: 0
    decay_mult: 0
  }
  param {
    lr_mult: 0
    decay_mult: 0
  }
  param {
    lr_mult: 0
    decay_mult: 0
  }
  batch_norm_param {
    use_global_stats: true
    eps: 1e-05
  }
}
layer {
  name: "conv3_1/dw/scale"
  type: "Scale"
  bottom: "conv3_1/dw"
  top: "conv3_1/dw"
  param {
    lr_mult: 1
    decay_mult: 0
  }
  param {
    lr_mult: 1
    decay_mult: 0
  }
  scale_param {
    filler {
      value: 1
    }
    bias_term: true
    bias_filler {
      value: 0
    }
  }
}
layer {
  name: "relu3_1/dw"
  type: "ReLU"
  bottom: "conv3_1/dw"
  top: "conv3_1/dw"
}
layer {
  name: "conv3_1/sep"
  type: "Convolution"
  bottom: "conv3_1/dw"
  top: "conv3_1/sep"
  param {
    lr_mult: 1
    decay_mult: 1
  }
  convolution_param {
    num_output: 128
    bias_term: false
    pad: 0
    kernel_size: 1
    stride: 1
    weight_filler {
      type: "msra"
    }
  }
}
layer {
  name: "conv3_1/sep/bn"
  type: "BatchNorm"
  bottom: "conv3_1/sep"
  top: "conv3_1/sep"
  param {
    lr_mult: 0
    decay_mult: 0
  }
  param {
    lr_mult: 0
    decay_mult: 0
  }
  param {
    lr_mult: 0
    decay_mult: 0
  }
  batch_norm_param {
    use_global_stats: true
    eps: 1e-05
  }
}
layer {
  name: "conv3_1/sep/scale"
  type: "Scale"
  bottom: "conv3_1/sep"
  top: "conv3_1/sep"
  param {
    lr_mult: 1
    decay_mult: 0
  }
  param {
    lr_mult: 1
    decay_mult: 0
  }
  scale_param {
    filler {
      value: 1
    }
    bias_term: true
    bias_filler {
      value: 0
    }
  }
}
layer {
  name: "relu3_1/sep"
  type: "ReLU"
  bottom: "conv3_1/sep"
  top: "conv3_1/sep"
}
layer {
  name: "conv3_2/dw"
  type: "Convolution"
  bottom: "conv3_1/sep"
  top: "conv3_2/dw"
  param {
    lr_mult: 1
    decay_mult: 1
  }
  convolution_param {
    num_output: 128
    bias_term: false
    pad: 1
    kernel_size: 3
    group: 128
    stride: 2
    weight_filler {
      type: "msra"
    }
    engine: CAFFE
  }
}
layer {
  name: "conv3_2/dw/bn"
  type: "BatchNorm"
  bottom: "conv3_2/dw"
  top: "conv3_2/dw"
  param {
    lr_mult: 0
    decay_mult: 0
  }
  param {
    lr_mult: 0
    decay_mult: 0
  }
  param {
    lr_mult: 0
    decay_mult: 0
  }
  batch_norm_param {
    use_global_stats: true
    eps: 1e-05
  }
}
layer {
  name: "conv3_2/dw/scale"
  type: "Scale"
  bottom: "conv3_2/dw"
  top: "conv3_2/dw"
  param {
    lr_mult: 1
    decay_mult: 0
  }
  param {
    lr_mult: 1
    decay_mult: 0
  }
  scale_param {
    filler {
      value: 1
    }
    bias_term: true
    bias_filler {
      value: 0
    }
  }
}
layer {
  name: "relu3_2/dw"
  type: "ReLU"
  bottom: "conv3_2/dw"
  top: "conv3_2/dw"
}
layer {
  name: "conv3_2/sep"
  type: "Convolution"
  bottom: "conv3_2/dw"
  top: "conv3_2/sep"
  param {
    lr_mult: 1
    decay_mult: 1
  }
  convolution_param {
    num_output: 256
    bias_term: false
    pad: 0
    kernel_size: 1
    stride: 1
    weight_filler {
      type: "msra"
    }
  }
}
layer {
  name: "conv3_2/sep/bn"
  type: "BatchNorm"
  bottom: "conv3_2/sep"
  top: "conv3_2/sep"
  param {
    lr_mult: 0
    decay_mult: 0
  }
  param {
    lr_mult: 0
    decay_mult: 0
  }
  param {
    lr_mult: 0
    decay_mult: 0
  }
  batch_norm_param {
    use_global_stats: true
    eps: 1e-05
  }
}
layer {
  name: "conv3_2/sep/scale"
  type: "Scale"
  bottom: "conv3_2/sep"
  top: "conv3_2/sep"
  param {
    lr_mult: 1
    decay_mult: 0
  }
  param {
    lr_mult: 1
    decay_mult: 0
  }
  scale_param {
    filler {
      value: 1
    }
    bias_term: true
    bias_filler {
      value: 0
    }
  }
}
layer {
  name: "relu3_2/sep"
  type: "ReLU"
  bottom: "conv3_2/sep"
  top: "conv3_2/sep"
}
layer {
  name: "conv4_1/dw"
  type: "Convolution"
  bottom: "conv3_2/sep"
  top: "conv4_1/dw"
  param {
    lr_mult: 1
    decay_mult: 1
  }
  convolution_param {
    num_output: 256
    bias_term: false
    pad: 1
    kernel_size: 3
    group: 256
    stride: 1
    weight_filler {
      type: "msra"
    }
    engine: CAFFE
  }
}
layer {
  name: "conv4_1/dw/bn"
  type: "BatchNorm"
  bottom: "conv4_1/dw"
  top: "conv4_1/dw"
  param {
    lr_mult: 0
    decay_mult: 0
  }
  param {
    lr_mult: 0
    decay_mult: 0
  }
  param {
    lr_mult: 0
    decay_mult: 0
  }
  batch_norm_param {
    use_global_stats: true
    eps: 1e-05
  }
}
layer {
  name: "conv4_1/dw/scale"
  type: "Scale"
  bottom: "conv4_1/dw"
  top: "conv4_1/dw"
  param {
    lr_mult: 1
    decay_mult: 0
  }
  param {
    lr_mult: 1
    decay_mult: 0
  }
  scale_param {
    filler {
      value: 1
    }
    bias_term: true
    bias_filler {
      value: 0
    }
  }
}
layer {
  name: "relu4_1/dw"
  type: "ReLU"
  bottom: "conv4_1/dw"
  top: "conv4_1/dw"
}
layer {
  name: "conv4_1/sep"
  type: "Convolution"
  bottom: "conv4_1/dw"
  top: "conv4_1/sep"
  param {
    lr_mult: 1
    decay_mult: 1
  }
  convolution_param {
    num_output: 256
    bias_term: false
    pad: 0
    kernel_size: 1
    stride: 1
    weight_filler {
      type: "msra"
    }
  }
}
layer {
  name: "conv4_1/sep/bn"
  type: "BatchNorm"
  bottom: "conv4_1/sep"
  top: "conv4_1/sep"
  param {
    lr_mult: 0
    decay_mult: 0
  }
  param {
    lr_mult: 0
    decay_mult: 0
  }
  param {
    lr_mult: 0
    decay_mult: 0
  }
  batch_norm_param {
    use_global_stats: true
    eps: 1e-05
  }
}
layer {
  name: "conv4_1/sep/scale"
  type: "Scale"
  bottom: "conv4_1/sep"
  top: "conv4_1/sep"
  param {
    lr_mult: 1
    decay_mult: 0
  }
  param {
    lr_mult: 1
    decay_mult: 0
  }
  scale_param {
    filler {
      value: 1
    }
    bias_term: true
    bias_filler {
      value: 0
    }
  }
}
layer {
  name: "relu4_1/sep"
  type: "ReLU"
  bottom: "conv4_1/sep"
  top: "conv4_1/sep"
}
layer {
  name: "conv4_2/dw"
  type: "Convolution"
  bottom: "conv4_1/sep"
  top: "conv4_2/dw"
  param {
    lr_mult: 1
    decay_mult: 1
  }
  convolution_param {
    num_output: 256
    bias_term: false
    pad: 1
    kernel_size: 3
    group: 256
    stride: 2
    weight_filler {
      type: "msra"
    }
    engine: CAFFE
  }
}
layer {
  name: "conv4_2/dw/bn"
  type: "BatchNorm"
  bottom: "conv4_2/dw"
  top: "conv4_2/dw"
  param {
    lr_mult: 0
    decay_mult: 0
  }
  param {
    lr_mult: 0
    decay_mult: 0
  }
  param {
    lr_mult: 0
    decay_mult: 0
  }
  batch_norm_param {
    use_global_stats: true
    eps: 1e-05
  }
}
layer {
  name: "conv4_2/dw/scale"
  type: "Scale"
  bottom: "conv4_2/dw"
  top: "conv4_2/dw"
  param {
    lr_mult: 1
    decay_mult: 0
  }
  param {
    lr_mult: 1
    decay_mult: 0
  }
  scale_param {
    filler {
      value: 1
    }
    bias_term: true
    bias_filler {
      value: 0
    }
  }
}
layer {
  name: "relu4_2/dw"
  type: "ReLU"
  bottom: "conv4_2/dw"
  top: "conv4_2/dw"
}
layer {
  name: "conv4_2/sep"
  type: "Convolution"
  bottom: "conv4_2/dw"
  top: "conv4_2/sep"
  param {
    lr_mult: 1
    decay_mult: 1
  }
  convolution_param {
    num_output: 512
    bias_term: false
    pad: 0
    kernel_size: 1
    stride: 1
    weight_filler {
      type: "msra"
    }
  }
}
layer {
  name: "conv4_2/sep/bn"
  type: "BatchNorm"
  bottom: "conv4_2/sep"
  top: "conv4_2/sep"
  param {
    lr_mult: 0
    decay_mult: 0
  }
  param {
    lr_mult: 0
    decay_mult: 0
  }
  param {
    lr_mult: 0
    decay_mult: 0
  }
  batch_norm_param {
    use_global_stats: true
    eps: 1e-05
  }
}
layer {
  name: "conv4_2/sep/scale"
  type: "Scale"
  bottom: "conv4_2/sep"
  top: "conv4_2/sep"
  param {
    lr_mult: 1
    decay_mult: 0
  }
  param {
    lr_mult: 1
    decay_mult: 0
  }
  scale_param {
    filler {
      value: 1
    }
    bias_term: true
    bias_filler {
      value: 0
    }
  }
}
layer {
  name: "relu4_2/sep"
  type: "ReLU"
  bottom: "conv4_2/sep"
  top: "conv4_2/sep"
}
layer {
  name: "conv5_1/dw"
  type: "Convolution"
  bottom: "conv4_2/sep"
  top: "conv5_1/dw"
  param {
    lr_mult: 1
    decay_mult: 1
  }
  convolution_param {
    num_output: 512
    bias_term: false
    pad: 1
    kernel_size: 3
    group: 512
    stride: 1
    weight_filler {
      type: "msra"
    }
    engine: CAFFE
  }
}
layer {
  name: "conv5_1/dw/bn"
  type: "BatchNorm"
  bottom: "conv5_1/dw"
  top: "conv5_1/dw"
  param {
    lr_mult: 0
    decay_mult: 0
  }
  param {
    lr_mult: 0
    decay_mult: 0
  }
  param {
    lr_mult: 0
    decay_mult: 0
  }
  batch_norm_param {
    use_global_stats: true
    eps: 1e-05
  }
}
layer {
  name: "conv5_1/dw/scale"
  type: "Scale"
  bottom: "conv5_1/dw"
  top: "conv5_1/dw"
  param {
    lr_mult: 1
    decay_mult: 0
  }
  param {
    lr_mult: 1
    decay_mult: 0
  }
  scale_param {
    filler {
      value: 1
    }
    bias_term: true
    bias_filler {
      value: 0
    }
  }
}
layer {
  name: "relu5_1/dw"
  type: "ReLU"
  bottom: "conv5_1/dw"
  top: "conv5_1/dw"
}
layer {
  name: "conv5_1/sep"
  type: "Convolution"
  bottom: "conv5_1/dw"
  top: "conv5_1/sep"
  param {
    lr_mult: 1
    decay_mult: 1
  }
  convolution_param {
    num_output: 512
    bias_term: false
    pad: 0
    kernel_size: 1
    stride: 1
    weight_filler {
      type: "msra"
    }
  }
}
layer {
  name: "conv5_1/sep/bn"
  type: "BatchNorm"
  bottom: "conv5_1/sep"
  top: "conv5_1/sep"
  param {
    lr_mult: 0
    decay_mult: 0
  }
  param {
    lr_mult: 0
    decay_mult: 0
  }
  param {
    lr_mult: 0
    decay_mult: 0
  }
  batch_norm_param {
    use_global_stats: true
    eps: 1e-05
  }
}
layer {
  name: "conv5_1/sep/scale"
  type: "Scale"
  bottom: "conv5_1/sep"
  top: "conv5_1/sep"
  param {
    lr_mult: 1
    decay_mult: 0
  }
  param {
    lr_mult: 1
    decay_mult: 0
  }
  scale_param {
    filler {
      value: 1
    }
    bias_term: true
    bias_filler {
      value: 0
    }
  }
}
layer {
  name: "relu5_1/sep"
  type: "ReLU"
  bottom: "conv5_1/sep"
  top: "conv5_1/sep"
}
layer {
  name: "conv5_2/dw"
  type: "Convolution"
  bottom: "conv5_1/sep"
  top: "conv5_2/dw"
  param {
    lr_mult: 1
    decay_mult: 1
  }
  convolution_param {
    num_output: 512
    bias_term: false
    pad: 1
    kernel_size: 3
    group: 512
    stride: 1
    weight_filler {
      type: "msra"
    }
    engine: CAFFE
  }
}
layer {
  name: "conv5_2/dw/bn"
  type: "BatchNorm"
  bottom: "conv5_2/dw"
  top: "conv5_2/dw"
  param {
    lr_mult: 0
    decay_mult: 0
  }
  param {
    lr_mult: 0
    decay_mult: 0
  }
  param {
    lr_mult: 0
    decay_mult: 0
  }
  batch_norm_param {
    use_global_stats: true
    eps: 1e-05
  }
}
layer {
  name: "conv5_2/dw/scale"
  type: "Scale"
  bottom: "conv5_2/dw"
  top: "conv5_2/dw"
  param {
    lr_mult: 1
    decay_mult: 0
  }
  param {
    lr_mult: 1
    decay_mult: 0
  }
  scale_param {
    filler {
      value: 1
    }
    bias_term: true
    bias_filler {
      value: 0
    }
  }
}
layer {
  name: "relu5_2/dw"
  type: "ReLU"
  bottom: "conv5_2/dw"
  top: "conv5_2/dw"
}
layer {
  name: "conv5_2/sep"
  type: "Convolution"
  bottom: "conv5_2/dw"
  top: "conv5_2/sep"
  param {
    lr_mult: 1
    decay_mult: 1
  }
  convolution_param {
    num_output: 512
    bias_term: false
    pad: 0
    kernel_size: 1
    stride: 1
    weight_filler {
      type: "msra"
    }
  }
}
layer {
  name: "conv5_2/sep/bn"
  type: "BatchNorm"
  bottom: "conv5_2/sep"
  top: "conv5_2/sep"
  param {
    lr_mult: 0
    decay_mult: 0
  }
  param {
    lr_mult: 0
    decay_mult: 0
  }
  param {
    lr_mult: 0
    decay_mult: 0
  }
  batch_norm_param {
    use_global_stats: true
    eps: 1e-05
  }
}
layer {
  name: "conv5_2/sep/scale"
  type: "Scale"
  bottom: "conv5_2/sep"
  top: "conv5_2/sep"
  param {
    lr_mult: 1
    decay_mult: 0
  }
  param {
    lr_mult: 1
    decay_mult: 0
  }
  scale_param {
    filler {
      value: 1
    }
    bias_term: true
    bias_filler {
      value: 0
    }
  }
}
layer {
  name: "relu5_2/sep"
  type: "ReLU"
  bottom: "conv5_2/sep"
  top: "conv5_2/sep"
}
layer {
  name: "conv5_3/dw"
  type: "Convolution"
  bottom: "conv5_2/sep"
  top: "conv5_3/dw"
  param {
    lr_mult: 1
    decay_mult: 1
  }
  convolution_param {
    num_output: 512
    bias_term: false
    pad: 1
    kernel_size: 3
    group: 512
    stride: 1
    weight_filler {
      type: "msra"
    }
    engine: CAFFE
  }
}
layer {
  name: "conv5_3/dw/bn"
  type: "BatchNorm"
  bottom: "conv5_3/dw"
  top: "conv5_3/dw"
  param {
    lr_mult: 0
    decay_mult: 0
  }
  param {
    lr_mult: 0
    decay_mult: 0
  }
  param {
    lr_mult: 0
    decay_mult: 0
  }
  batch_norm_param {
    use_global_stats: true
    eps: 1e-05
  }
}
layer {
  name: "conv5_3/dw/scale"
  type: "Scale"
  bottom: "conv5_3/dw"
  top: "conv5_3/dw"
  param {
    lr_mult: 1
    decay_mult: 0
  }
  param {
    lr_mult: 1
    decay_mult: 0
  }
  scale_param {
    filler {
      value: 1
    }
    bias_term: true
    bias_filler {
      value: 0
    }
  }
}
layer {
  name: "relu5_3/dw"
  type: "ReLU"
  bottom: "conv5_3/dw"
  top: "conv5_3/dw"
}
layer {
  name: "conv5_3/sep"
  type: "Convolution"
  bottom: "conv5_3/dw"
  top: "conv5_3/sep"
  param {
    lr_mult: 1
    decay_mult: 1
  }
  convolution_param {
    num_output: 512
    bias_term: false
    pad: 0
    kernel_size: 1
    stride: 1
    weight_filler {
      type: "msra"
    }
  }
}
layer {
  name: "conv5_3/sep/bn"
  type: "BatchNorm"
  bottom: "conv5_3/sep"
  top: "conv5_3/sep"
  param {
    lr_mult: 0
    decay_mult: 0
  }
  param {
    lr_mult: 0
    decay_mult: 0
  }
  param {
    lr_mult: 0
    decay_mult: 0
  }
  batch_norm_param {
    use_global_stats: true
    eps: 1e-05
  }
}
layer {
  name: "conv5_3/sep/scale"
  type: "Scale"
  bottom: "conv5_3/sep"
  top: "conv5_3/sep"
  param {
    lr_mult: 1
    decay_mult: 0
  }
  param {
    lr_mult: 1
    decay_mult: 0
  }
  scale_param {
    filler {
      value: 1
    }
    bias_term: true
    bias_filler {
      value: 0
    }
  }
}
layer {
  name: "relu5_3/sep"
  type: "ReLU"
  bottom: "conv5_3/sep"
  top: "conv5_3/sep"
}
layer {
  name: "conv5_4/dw"
  type: "Convolution"
  bottom: "conv5_3/sep"
  top: "conv5_4/dw"
  param {
    lr_mult: 1
    decay_mult: 1
  }
  convolution_param {
    num_output: 512
    bias_term: false
    pad: 1
    kernel_size: 3
    group: 512
    stride: 1
    weight_filler {
      type: "msra"
    }
    engine: CAFFE
  }
}
layer {
  name: "conv5_4/dw/bn"
  type: "BatchNorm"
  bottom: "conv5_4/dw"
  top: "conv5_4/dw"
  param {
    lr_mult: 0
    decay_mult: 0
  }
  param {
    lr_mult: 0
    decay_mult: 0
  }
  param {
    lr_mult: 0
    decay_mult: 0
  }
  batch_norm_param {
    use_global_stats: true
    eps: 1e-05
  }
}
layer {
  name: "conv5_4/dw/scale"
  type: "Scale"
  bottom: "conv5_4/dw"
  top: "conv5_4/dw"
  param {
    lr_mult: 1
    decay_mult: 0
  }
  param {
    lr_mult: 1
    decay_mult: 0
  }
  scale_param {
    filler {
      value: 1
    }
    bias_term: true
    bias_filler {
      value: 0
    }
  }
}
layer {
  name: "relu5_4/dw"
  type: "ReLU"
  bottom: "conv5_4/dw"
  top: "conv5_4/dw"
}
layer {
  name: "conv5_4/sep"
  type: "Convolution"
  bottom: "conv5_4/dw"
  top: "conv5_4/sep"
  param {
    lr_mult: 1
    decay_mult: 1
  }
  convolution_param {
    num_output: 512
    bias_term: false
    pad: 0
    kernel_size: 1
    stride: 1
    weight_filler {
      type: "msra"
    }
  }
}
layer {
  name: "conv5_4/sep/bn"
  type: "BatchNorm"
  bottom: "conv5_4/sep"
  top: "conv5_4/sep"
  param {
    lr_mult: 0
    decay_mult: 0
  }
  param {
    lr_mult: 0
    decay_mult: 0
  }
  param {
    lr_mult: 0
    decay_mult: 0
  }
  batch_norm_param {
    use_global_stats: true
    eps: 1e-05
  }
}
layer {
  name: "conv5_4/sep/scale"
  type: "Scale"
  bottom: "conv5_4/sep"
  top: "conv5_4/sep"
  param {
    lr_mult: 1
    decay_mult: 0
  }
  param {
    lr_mult: 1
    decay_mult: 0
  }
  scale_param {
    filler {
      value: 1
    }
    bias_term: true
    bias_filler {
      value: 0
    }
  }
}
layer {
  name: "relu5_4/sep"
  type: "ReLU"
  bottom: "conv5_4/sep"
  top: "conv5_4/sep"
}
layer {
  name: "conv5_5/dw"
  type: "Convolution"
  bottom: "conv5_4/sep"
  top: "conv5_5/dw"
  param {
    lr_mult: 1
    decay_mult: 1
  }
  convolution_param {
    num_output: 512
    bias_term: false
    pad: 1
    kernel_size: 3
    group: 512
    stride: 1
    weight_filler {
      type: "msra"
    }
    engine: CAFFE
  }
}
layer {
  name: "conv5_5/dw/bn"
  type: "BatchNorm"
  bottom: "conv5_5/dw"
  top: "conv5_5/dw"
  param {
    lr_mult: 0
    decay_mult: 0
  }
  param {
    lr_mult: 0
    decay_mult: 0
  }
  param {
    lr_mult: 0
    decay_mult: 0
  }
  batch_norm_param {
    use_global_stats: true
    eps: 1e-05
  }
}
layer {
  name: "conv5_5/dw/scale"
  type: "Scale"
  bottom: "conv5_5/dw"
  top: "conv5_5/dw"
  param {
    lr_mult: 1
    decay_mult: 0
  }
  param {
    lr_mult: 1
    decay_mult: 0
  }
  scale_param {
    filler {
      value: 1
    }
    bias_term: true
    bias_filler {
      value: 0
    }
  }
}
layer {
  name: "relu5_5/dw"
  type: "ReLU"
  bottom: "conv5_5/dw"
  top: "conv5_5/dw"
}
layer {
  name: "conv5_5/sep"
  type: "Convolution"
  bottom: "conv5_5/dw"
  top: "conv5_5/sep"
  param {
    lr_mult: 1
    decay_mult: 1
  }
  convolution_param {
    num_output: 512
    bias_term: false
    pad: 0
    kernel_size: 1
    stride: 1
    weight_filler {
      type: "msra"
    }
  }
}
layer {
  name: "conv5_5/sep/bn"
  type: "BatchNorm"
  bottom: "conv5_5/sep"
  top: "conv5_5/sep"
  param {
    lr_mult: 0
    decay_mult: 0
  }
  param {
    lr_mult: 0
    decay_mult: 0
  }
  param {
    lr_mult: 0
    decay_mult: 0
  }
  batch_norm_param {
    use_global_stats: true
    eps: 1e-05
  }
}
layer {
  name: "conv5_5/sep/scale"
  type: "Scale"
  bottom: "conv5_5/sep"
  top: "conv5_5/sep"
  param {
    lr_mult: 1
    decay_mult: 0
  }
  param {
    lr_mult: 1
    decay_mult: 0
  }
  scale_param {
    filler {
      value: 1
    }
    bias_term: true
    bias_filler {
      value: 0
    }
  }
}
layer {
  name: "relu5_5/sep"
  type: "ReLU"
  bottom: "conv5_5/sep"
  top: "conv5_5/sep"
}
layer {
  name: "conv5_6/dw"
  type: "Convolution"
  bottom: "conv5_5/sep"
  top: "conv5_6/dw"
  param {
    lr_mult: 1
    decay_mult: 1
  }
  convolution_param {
    num_output: 512
    bias_term: false
    pad: 1
    kernel_size: 3
    group: 512
    stride: 2
    weight_filler {
      type: "msra"
    }
    engine: CAFFE
  }
}
layer {
  name: "conv5_6/dw/bn"
  type: "BatchNorm"
  bottom: "conv5_6/dw"
  top: "conv5_6/dw"
  param {
    lr_mult: 0
    decay_mult: 0
  }
  param {
    lr_mult: 0
    decay_mult: 0
  }
  param {
    lr_mult: 0
    decay_mult: 0
  }
  batch_norm_param {
    use_global_stats: true
    eps: 1e-05
  }
}
layer {
  name: "conv5_6/dw/scale"
  type: "Scale"
  bottom: "conv5_6/dw"
  top: "conv5_6/dw"
  param {
    lr_mult: 1
    decay_mult: 0
  }
  param {
    lr_mult: 1
    decay_mult: 0
  }
  scale_param {
    filler {
      value: 1
    }
    bias_term: true
    bias_filler {
      value: 0
    }
  }
}
layer {
  name: "relu5_6/dw"
  type: "ReLU"
  bottom: "conv5_6/dw"
  top: "conv5_6/dw"
}
layer {
  name: "conv5_6/sep"
  type: "Convolution"
  bottom: "conv5_6/dw"
  top: "conv5_6/sep"
  param {
    lr_mult: 1
    decay_mult: 1
  }
  convolution_param {
    num_output: 1024
    bias_term: false
    pad: 0
    kernel_size: 1
    stride: 1
    weight_filler {
      type: "msra"
    }
  }
}
layer {
  name: "conv5_6/sep/bn"
  type: "BatchNorm"
  bottom: "conv5_6/sep"
  top: "conv5_6/sep"
  param {
    lr_mult: 0
    decay_mult: 0
  }
  param {
    lr_mult: 0
    decay_mult: 0
  }
  param {
    lr_mult: 0
    decay_mult: 0
  }
  batch_norm_param {
    use_global_stats: true
    eps: 1e-05
  }
}
layer {
  name: "conv5_6/sep/scale"
  type: "Scale"
  bottom: "conv5_6/sep"
  top: "conv5_6/sep"
  param {
    lr_mult: 1
    decay_mult: 0
  }
  param {
    lr_mult: 1
    decay_mult: 0
  }
  scale_param {
    filler {
      value: 1
    }
    bias_term: true
    bias_filler {
      value: 0
    }
  }
}
layer {
  name: "relu5_6/sep"
  type: "ReLU"
  bottom: "conv5_6/sep"
  top: "conv5_6/sep"
}
layer {
  name: "conv6/dw"
  type: "Convolution"
  bottom: "conv5_6/sep"
  top: "conv6/dw"
  param {
    lr_mult: 1
    decay_mult: 1
  }
  convolution_param {
    num_output: 1024
    bias_term: false
    pad: 1
    kernel_size: 3
    group: 1024
    stride: 1
    weight_filler {
      type: "msra"
    }
    engine: CAFFE
  }
}
layer {
  name: "conv6/dw/bn"
  type: "BatchNorm"
  bottom: "conv6/dw"
  top: "conv6/dw"
  param {
    lr_mult: 0
    decay_mult: 0
  }
  param {
    lr_mult: 0
    decay_mult: 0
  }
  param {
    lr_mult: 0
    decay_mult: 0
  }
  batch_norm_param {
    use_global_stats: true
    eps: 1e-05
  }
}
layer {
  name: "conv6/dw/scale"
  type: "Scale"
  bottom: "conv6/dw"
  top: "conv6/dw"
  param {
    lr_mult: 1
    decay_mult: 0
  }
  param {
    lr_mult: 1
    decay_mult: 0
  }
  scale_param {
    filler {
      value: 1
    }
    bias_term: true
    bias_filler {
      value: 0
    }
  }
}
layer {
  name: "relu6/dw"
  type: "ReLU"
  bottom: "conv6/dw"
  top: "conv6/dw"
}
layer {
  name: "conv6/sep"
  type: "Convolution"
  bottom: "conv6/dw"
  top: "conv6/sep"
  param {
    lr_mult: 1
    decay_mult: 1
  }
  convolution_param {
    num_output: 1024
    bias_term: false
    pad: 0
    kernel_size: 1
    stride: 1
    weight_filler {
      type: "msra"
    }
  }
}
layer {
  name: "conv6/sep/bn"
  type: "BatchNorm"
  bottom: "conv6/sep"
  top: "conv6/sep"
  param {
    lr_mult: 0
    decay_mult: 0
  }
  param {
    lr_mult: 0
    decay_mult: 0
  }
  param {
    lr_mult: 0
    decay_mult: 0
  }
  batch_norm_param {
    use_global_stats: true
    eps: 1e-05
  }
}
layer {
  name: "conv6/sep/scale"
  type: "Scale"
  bottom: "conv6/sep"
  top: "conv6/sep"
  param {
    lr_mult: 1
    decay_mult: 0
  }
  param {
    lr_mult: 1
    decay_mult: 0
  }
  scale_param {
    filler {
      value: 1
    }
    bias_term: true
    bias_filler {
      value: 0
    }
  }
}
layer {
  name: "relu6/sep"
  type: "ReLU"
  bottom: "conv6/sep"
  top: "conv6/sep"
}
layer {
  name: "pool6"
  type: "Pooling"
  bottom: "conv6/sep"
  top: "pool6"
  pooling_param {
    pool: AVE
    global_pooling: true
  }
}
layer {
  name: "cifarfc7"
  type: "Convolution"
  bottom: "pool6"
  top: "cifarfc7"
  param {
    lr_mult: 1
    decay_mult: 1
  }
  param {
    lr_mult: 2
    decay_mult: 0
  }
  convolution_param {
    num_output: 10
    kernel_size: 1
    weight_filler {
      type: "msra"
    }
    bias_filler {
      type: "constant"
      value: 0
    }
  }
}
layer {
  name: "loss"
  type: "SoftmaxWithLoss"
  bottom: "cifarfc7"
  bottom: "label"
  top: "loss"
}
I0625 08:50:02.750284 55699 layer_factory.hpp:77] Creating layer data
I0625 08:50:02.750705 55699 db_lmdb.cpp:35] Opened lmdb /home/sun/MobileNet-Caffe-master/cifar10/lmdb/cifar10_train_lmdb
I0625 08:50:02.751013 55699 net.cpp:84] Creating Layer data
I0625 08:50:02.751118 55699 net.cpp:380] data -> data
I0625 08:50:02.751199 55699 net.cpp:380] data -> label
I0625 08:50:02.751303 55699 data_transformer.cpp:25] Loading mean file from: /home/sun/MobileNet-Caffe-master/cifar10/mean/mean.binaryproto
I0625 08:50:02.751945 55699 data_layer.cpp:45] output data size: 64,3,32,32
I0625 08:50:02.756585 55699 net.cpp:122] Setting up data
I0625 08:50:02.756691 55699 net.cpp:129] Top shape: 64 3 32 32 (196608)
I0625 08:50:02.756736 55699 net.cpp:129] Top shape: 64 (64)
I0625 08:50:02.756772 55699 net.cpp:137] Memory required for data: 786688
I0625 08:50:02.756821 55699 layer_factory.hpp:77] Creating layer conv1
I0625 08:50:02.756887 55699 net.cpp:84] Creating Layer conv1
I0625 08:50:02.756932 55699 net.cpp:406] conv1 <- data
I0625 08:50:02.756986 55699 net.cpp:380] conv1 -> conv1
I0625 08:50:02.757262 55699 net.cpp:122] Setting up conv1
I0625 08:50:02.757316 55699 net.cpp:129] Top shape: 64 32 16 16 (524288)
I0625 08:50:02.757352 55699 net.cpp:137] Memory required for data: 2883840
I0625 08:50:02.757406 55699 layer_factory.hpp:77] Creating layer conv1/bn
I0625 08:50:02.757449 55699 net.cpp:84] Creating Layer conv1/bn
I0625 08:50:02.757491 55699 net.cpp:406] conv1/bn <- conv1
I0625 08:50:02.757511 55699 net.cpp:367] conv1/bn -> conv1 (in-place)
I0625 08:50:02.757558 55699 net.cpp:122] Setting up conv1/bn
I0625 08:50:02.757603 55699 net.cpp:129] Top shape: 64 32 16 16 (524288)
I0625 08:50:02.757643 55699 net.cpp:137] Memory required for data: 4980992
I0625 08:50:02.757668 55699 layer_factory.hpp:77] Creating layer conv1/scale
I0625 08:50:02.757740 55699 net.cpp:84] Creating Layer conv1/scale
I0625 08:50:02.757814 55699 net.cpp:406] conv1/scale <- conv1
I0625 08:50:02.757846 55699 net.cpp:367] conv1/scale -> conv1 (in-place)
I0625 08:50:02.757941 55699 layer_factory.hpp:77] Creating layer conv1/scale
I0625 08:50:02.758095 55699 net.cpp:122] Setting up conv1/scale
I0625 08:50:02.758157 55699 net.cpp:129] Top shape: 64 32 16 16 (524288)
I0625 08:50:02.758169 55699 net.cpp:137] Memory required for data: 7078144
I0625 08:50:02.758198 55699 layer_factory.hpp:77] Creating layer relu1
I0625 08:50:02.758224 55699 net.cpp:84] Creating Layer relu1
I0625 08:50:02.758235 55699 net.cpp:406] relu1 <- conv1
I0625 08:50:02.758247 55699 net.cpp:367] relu1 -> conv1 (in-place)
I0625 08:50:02.758294 55699 net.cpp:122] Setting up relu1
I0625 08:50:02.758338 55699 net.cpp:129] Top shape: 64 32 16 16 (524288)
I0625 08:50:02.758373 55699 net.cpp:137] Memory required for data: 9175296
I0625 08:50:02.758388 55699 layer_factory.hpp:77] Creating layer conv2_1/dw
I0625 08:50:02.758435 55699 net.cpp:84] Creating Layer conv2_1/dw
I0625 08:50:02.758476 55699 net.cpp:406] conv2_1/dw <- conv1
I0625 08:50:02.758559 55699 net.cpp:380] conv2_1/dw -> conv2_1/dw
I0625 08:50:02.758711 55699 net.cpp:122] Setting up conv2_1/dw
I0625 08:50:02.758769 55699 net.cpp:129] Top shape: 64 32 16 16 (524288)
I0625 08:50:02.758849 55699 net.cpp:137] Memory required for data: 11272448
I0625 08:50:02.758896 55699 layer_factory.hpp:77] Creating layer conv2_1/dw/bn
I0625 08:50:02.758955 55699 net.cpp:84] Creating Layer conv2_1/dw/bn
I0625 08:50:02.758997 55699 net.cpp:406] conv2_1/dw/bn <- conv2_1/dw
I0625 08:50:02.759061 55699 net.cpp:367] conv2_1/dw/bn -> conv2_1/dw (in-place)
I0625 08:50:02.759135 55699 net.cpp:122] Setting up conv2_1/dw/bn
I0625 08:50:02.759181 55699 net.cpp:129] Top shape: 64 32 16 16 (524288)
I0625 08:50:02.759217 55699 net.cpp:137] Memory required for data: 13369600
I0625 08:50:02.759266 55699 layer_factory.hpp:77] Creating layer conv2_1/dw/scale
I0625 08:50:02.759330 55699 net.cpp:84] Creating Layer conv2_1/dw/scale
I0625 08:50:02.759377 55699 net.cpp:406] conv2_1/dw/scale <- conv2_1/dw
I0625 08:50:02.759419 55699 net.cpp:367] conv2_1/dw/scale -> conv2_1/dw (in-place)
I0625 08:50:02.759481 55699 layer_factory.hpp:77] Creating layer conv2_1/dw/scale
I0625 08:50:02.759558 55699 net.cpp:122] Setting up conv2_1/dw/scale
I0625 08:50:02.759608 55699 net.cpp:129] Top shape: 64 32 16 16 (524288)
I0625 08:50:02.759652 55699 net.cpp:137] Memory required for data: 15466752
I0625 08:50:02.759694 55699 layer_factory.hpp:77] Creating layer relu2_1/dw
I0625 08:50:02.759752 55699 net.cpp:84] Creating Layer relu2_1/dw
I0625 08:50:02.759798 55699 net.cpp:406] relu2_1/dw <- conv2_1/dw
I0625 08:50:02.759840 55699 net.cpp:367] relu2_1/dw -> conv2_1/dw (in-place)
I0625 08:50:02.759888 55699 net.cpp:122] Setting up relu2_1/dw
I0625 08:50:02.759935 55699 net.cpp:129] Top shape: 64 32 16 16 (524288)
I0625 08:50:02.759970 55699 net.cpp:137] Memory required for data: 17563904
I0625 08:50:02.760006 55699 layer_factory.hpp:77] Creating layer conv2_1/sep
I0625 08:50:02.760072 55699 net.cpp:84] Creating Layer conv2_1/sep
I0625 08:50:02.760110 55699 net.cpp:406] conv2_1/sep <- conv2_1/dw
I0625 08:50:02.760219 55699 net.cpp:380] conv2_1/sep -> conv2_1/sep
I0625 08:50:02.760424 55699 net.cpp:122] Setting up conv2_1/sep
I0625 08:50:02.760479 55699 net.cpp:129] Top shape: 64 64 16 16 (1048576)
I0625 08:50:02.760514 55699 net.cpp:137] Memory required for data: 21758208
I0625 08:50:02.760553 55699 layer_factory.hpp:77] Creating layer conv2_1/sep/bn
I0625 08:50:02.760594 55699 net.cpp:84] Creating Layer conv2_1/sep/bn
I0625 08:50:02.760632 55699 net.cpp:406] conv2_1/sep/bn <- conv2_1/sep
I0625 08:50:02.760658 55699 net.cpp:367] conv2_1/sep/bn -> conv2_1/sep (in-place)
I0625 08:50:02.760694 55699 net.cpp:122] Setting up conv2_1/sep/bn
I0625 08:50:02.760736 55699 net.cpp:129] Top shape: 64 64 16 16 (1048576)
I0625 08:50:02.760829 55699 net.cpp:137] Memory required for data: 25952512
I0625 08:50:02.760874 55699 layer_factory.hpp:77] Creating layer conv2_1/sep/scale
I0625 08:50:02.760915 55699 net.cpp:84] Creating Layer conv2_1/sep/scale
I0625 08:50:02.760958 55699 net.cpp:406] conv2_1/sep/scale <- conv2_1/sep
I0625 08:50:02.761019 55699 net.cpp:367] conv2_1/sep/scale -> conv2_1/sep (in-place)
I0625 08:50:02.761096 55699 layer_factory.hpp:77] Creating layer conv2_1/sep/scale
I0625 08:50:02.761214 55699 net.cpp:122] Setting up conv2_1/sep/scale
I0625 08:50:02.761265 55699 net.cpp:129] Top shape: 64 64 16 16 (1048576)
I0625 08:50:02.761302 55699 net.cpp:137] Memory required for data: 30146816
I0625 08:50:02.761350 55699 layer_factory.hpp:77] Creating layer relu2_1/sep
I0625 08:50:02.761409 55699 net.cpp:84] Creating Layer relu2_1/sep
I0625 08:50:02.761458 55699 net.cpp:406] relu2_1/sep <- conv2_1/sep
I0625 08:50:02.761499 55699 net.cpp:367] relu2_1/sep -> conv2_1/sep (in-place)
I0625 08:50:02.761545 55699 net.cpp:122] Setting up relu2_1/sep
I0625 08:50:02.761586 55699 net.cpp:129] Top shape: 64 64 16 16 (1048576)
I0625 08:50:02.761626 55699 net.cpp:137] Memory required for data: 34341120
I0625 08:50:02.761662 55699 layer_factory.hpp:77] Creating layer conv2_2/dw
I0625 08:50:02.761708 55699 net.cpp:84] Creating Layer conv2_2/dw
I0625 08:50:02.761801 55699 net.cpp:406] conv2_2/dw <- conv2_1/sep
I0625 08:50:02.761848 55699 net.cpp:380] conv2_2/dw -> conv2_2/dw
I0625 08:50:02.761976 55699 net.cpp:122] Setting up conv2_2/dw
I0625 08:50:02.762022 55699 net.cpp:129] Top shape: 64 64 8 8 (262144)
I0625 08:50:02.762065 55699 net.cpp:137] Memory required for data: 35389696
I0625 08:50:02.762089 55699 layer_factory.hpp:77] Creating layer conv2_2/dw/bn
I0625 08:50:02.762137 55699 net.cpp:84] Creating Layer conv2_2/dw/bn
I0625 08:50:02.762177 55699 net.cpp:406] conv2_2/dw/bn <- conv2_2/dw
I0625 08:50:02.762218 55699 net.cpp:367] conv2_2/dw/bn -> conv2_2/dw (in-place)
I0625 08:50:02.762291 55699 net.cpp:122] Setting up conv2_2/dw/bn
I0625 08:50:02.762336 55699 net.cpp:129] Top shape: 64 64 8 8 (262144)
I0625 08:50:02.762370 55699 net.cpp:137] Memory required for data: 36438272
I0625 08:50:02.762413 55699 layer_factory.hpp:77] Creating layer conv2_2/dw/scale
I0625 08:50:02.762457 55699 net.cpp:84] Creating Layer conv2_2/dw/scale
I0625 08:50:02.762496 55699 net.cpp:406] conv2_2/dw/scale <- conv2_2/dw
I0625 08:50:02.762547 55699 net.cpp:367] conv2_2/dw/scale -> conv2_2/dw (in-place)
I0625 08:50:02.762606 55699 layer_factory.hpp:77] Creating layer conv2_2/dw/scale
I0625 08:50:02.762682 55699 net.cpp:122] Setting up conv2_2/dw/scale
I0625 08:50:02.762730 55699 net.cpp:129] Top shape: 64 64 8 8 (262144)
I0625 08:50:02.762827 55699 net.cpp:137] Memory required for data: 37486848
I0625 08:50:02.762876 55699 layer_factory.hpp:77] Creating layer relu2_2/dw
I0625 08:50:02.762923 55699 net.cpp:84] Creating Layer relu2_2/dw
I0625 08:50:02.762970 55699 net.cpp:406] relu2_2/dw <- conv2_2/dw
I0625 08:50:02.763010 55699 net.cpp:367] relu2_2/dw -> conv2_2/dw (in-place)
I0625 08:50:02.763056 55699 net.cpp:122] Setting up relu2_2/dw
I0625 08:50:02.763095 55699 net.cpp:129] Top shape: 64 64 8 8 (262144)
I0625 08:50:02.763129 55699 net.cpp:137] Memory required for data: 38535424
I0625 08:50:02.763164 55699 layer_factory.hpp:77] Creating layer conv2_2/sep
I0625 08:50:02.763218 55699 net.cpp:84] Creating Layer conv2_2/sep
I0625 08:50:02.763259 55699 net.cpp:406] conv2_2/sep <- conv2_2/dw
I0625 08:50:02.763303 55699 net.cpp:380] conv2_2/sep -> conv2_2/sep
I0625 08:50:02.763753 55699 net.cpp:122] Setting up conv2_2/sep
I0625 08:50:02.763804 55699 net.cpp:129] Top shape: 64 128 8 8 (524288)
I0625 08:50:02.763839 55699 net.cpp:137] Memory required for data: 40632576
I0625 08:50:02.763888 55699 layer_factory.hpp:77] Creating layer conv2_2/sep/bn
I0625 08:50:02.763950 55699 net.cpp:84] Creating Layer conv2_2/sep/bn
I0625 08:50:02.764003 55699 net.cpp:406] conv2_2/sep/bn <- conv2_2/sep
I0625 08:50:02.764045 55699 net.cpp:367] conv2_2/sep/bn -> conv2_2/sep (in-place)
I0625 08:50:02.764114 55699 net.cpp:122] Setting up conv2_2/sep/bn
I0625 08:50:02.764165 55699 net.cpp:129] Top shape: 64 128 8 8 (524288)
I0625 08:50:02.764200 55699 net.cpp:137] Memory required for data: 42729728
I0625 08:50:02.764248 55699 layer_factory.hpp:77] Creating layer conv2_2/sep/scale
I0625 08:50:02.764302 55699 net.cpp:84] Creating Layer conv2_2/sep/scale
I0625 08:50:02.764348 55699 net.cpp:406] conv2_2/sep/scale <- conv2_2/sep
I0625 08:50:02.764407 55699 net.cpp:367] conv2_2/sep/scale -> conv2_2/sep (in-place)
I0625 08:50:02.764464 55699 layer_factory.hpp:77] Creating layer conv2_2/sep/scale
I0625 08:50:02.764552 55699 net.cpp:122] Setting up conv2_2/sep/scale
I0625 08:50:02.764613 55699 net.cpp:129] Top shape: 64 128 8 8 (524288)
I0625 08:50:02.764652 55699 net.cpp:137] Memory required for data: 44826880
I0625 08:50:02.764693 55699 layer_factory.hpp:77] Creating layer relu2_2/sep
I0625 08:50:02.764734 55699 net.cpp:84] Creating Layer relu2_2/sep
I0625 08:50:02.764772 55699 net.cpp:406] relu2_2/sep <- conv2_2/sep
I0625 08:50:02.764823 55699 net.cpp:367] relu2_2/sep -> conv2_2/sep (in-place)
I0625 08:50:02.764873 55699 net.cpp:122] Setting up relu2_2/sep
I0625 08:50:02.764945 55699 net.cpp:129] Top shape: 64 128 8 8 (524288)
I0625 08:50:02.764989 55699 net.cpp:137] Memory required for data: 46924032
I0625 08:50:02.765075 55699 layer_factory.hpp:77] Creating layer conv3_1/dw
I0625 08:50:02.765125 55699 net.cpp:84] Creating Layer conv3_1/dw
I0625 08:50:02.766078 55699 net.cpp:406] conv3_1/dw <- conv2_2/sep
I0625 08:50:02.766127 55699 net.cpp:380] conv3_1/dw -> conv3_1/dw
I0625 08:50:02.766260 55699 net.cpp:122] Setting up conv3_1/dw
I0625 08:50:02.766307 55699 net.cpp:129] Top shape: 64 128 8 8 (524288)
I0625 08:50:02.766341 55699 net.cpp:137] Memory required for data: 49021184
I0625 08:50:02.766381 55699 layer_factory.hpp:77] Creating layer conv3_1/dw/bn
I0625 08:50:02.766422 55699 net.cpp:84] Creating Layer conv3_1/dw/bn
I0625 08:50:02.766458 55699 net.cpp:406] conv3_1/dw/bn <- conv3_1/dw
I0625 08:50:02.766507 55699 net.cpp:367] conv3_1/dw/bn -> conv3_1/dw (in-place)
I0625 08:50:02.766573 55699 net.cpp:122] Setting up conv3_1/dw/bn
I0625 08:50:02.766618 55699 net.cpp:129] Top shape: 64 128 8 8 (524288)
I0625 08:50:02.766652 55699 net.cpp:137] Memory required for data: 51118336
I0625 08:50:02.766702 55699 layer_factory.hpp:77] Creating layer conv3_1/dw/scale
I0625 08:50:02.766746 55699 net.cpp:84] Creating Layer conv3_1/dw/scale
I0625 08:50:02.766830 55699 net.cpp:406] conv3_1/dw/scale <- conv3_1/dw
I0625 08:50:02.766898 55699 net.cpp:367] conv3_1/dw/scale -> conv3_1/dw (in-place)
I0625 08:50:02.766955 55699 layer_factory.hpp:77] Creating layer conv3_1/dw/scale
I0625 08:50:02.767024 55699 net.cpp:122] Setting up conv3_1/dw/scale
I0625 08:50:02.767069 55699 net.cpp:129] Top shape: 64 128 8 8 (524288)
I0625 08:50:02.767103 55699 net.cpp:137] Memory required for data: 53215488
I0625 08:50:02.767144 55699 layer_factory.hpp:77] Creating layer relu3_1/dw
I0625 08:50:02.767184 55699 net.cpp:84] Creating Layer relu3_1/dw
I0625 08:50:02.767220 55699 net.cpp:406] relu3_1/dw <- conv3_1/dw
I0625 08:50:02.767259 55699 net.cpp:367] relu3_1/dw -> conv3_1/dw (in-place)
I0625 08:50:02.767302 55699 net.cpp:122] Setting up relu3_1/dw
I0625 08:50:02.767340 55699 net.cpp:129] Top shape: 64 128 8 8 (524288)
I0625 08:50:02.767374 55699 net.cpp:137] Memory required for data: 55312640
I0625 08:50:02.767408 55699 layer_factory.hpp:77] Creating layer conv3_1/sep
I0625 08:50:02.767462 55699 net.cpp:84] Creating Layer conv3_1/sep
I0625 08:50:02.767503 55699 net.cpp:406] conv3_1/sep <- conv3_1/dw
I0625 08:50:02.767544 55699 net.cpp:380] conv3_1/sep -> conv3_1/sep
I0625 08:50:02.768411 55699 net.cpp:122] Setting up conv3_1/sep
I0625 08:50:02.768461 55699 net.cpp:129] Top shape: 64 128 8 8 (524288)
I0625 08:50:02.768497 55699 net.cpp:137] Memory required for data: 57409792
I0625 08:50:02.768535 55699 layer_factory.hpp:77] Creating layer conv3_1/sep/bn
I0625 08:50:02.768591 55699 net.cpp:84] Creating Layer conv3_1/sep/bn
I0625 08:50:02.768631 55699 net.cpp:406] conv3_1/sep/bn <- conv3_1/sep
I0625 08:50:02.768672 55699 net.cpp:367] conv3_1/sep/bn -> conv3_1/sep (in-place)
I0625 08:50:02.768744 55699 net.cpp:122] Setting up conv3_1/sep/bn
I0625 08:50:02.768822 55699 net.cpp:129] Top shape: 64 128 8 8 (524288)
I0625 08:50:02.768862 55699 net.cpp:137] Memory required for data: 59506944
I0625 08:50:02.768906 55699 layer_factory.hpp:77] Creating layer conv3_1/sep/scale
I0625 08:50:02.768959 55699 net.cpp:84] Creating Layer conv3_1/sep/scale
I0625 08:50:02.769001 55699 net.cpp:406] conv3_1/sep/scale <- conv3_1/sep
I0625 08:50:02.769052 55699 net.cpp:367] conv3_1/sep/scale -> conv3_1/sep (in-place)
I0625 08:50:02.769107 55699 layer_factory.hpp:77] Creating layer conv3_1/sep/scale
I0625 08:50:02.769182 55699 net.cpp:122] Setting up conv3_1/sep/scale
I0625 08:50:02.769228 55699 net.cpp:129] Top shape: 64 128 8 8 (524288)
I0625 08:50:02.769263 55699 net.cpp:137] Memory required for data: 61604096
I0625 08:50:02.769304 55699 layer_factory.hpp:77] Creating layer relu3_1/sep
I0625 08:50:02.769343 55699 net.cpp:84] Creating Layer relu3_1/sep
I0625 08:50:02.769379 55699 net.cpp:406] relu3_1/sep <- conv3_1/sep
I0625 08:50:02.769428 55699 net.cpp:367] relu3_1/sep -> conv3_1/sep (in-place)
I0625 08:50:02.769474 55699 net.cpp:122] Setting up relu3_1/sep
I0625 08:50:02.769544 55699 net.cpp:129] Top shape: 64 128 8 8 (524288)
I0625 08:50:02.769582 55699 net.cpp:137] Memory required for data: 63701248
I0625 08:50:02.769616 55699 layer_factory.hpp:77] Creating layer conv3_2/dw
I0625 08:50:02.769672 55699 net.cpp:84] Creating Layer conv3_2/dw
I0625 08:50:02.769696 55699 net.cpp:406] conv3_2/dw <- conv3_1/sep
I0625 08:50:02.769711 55699 net.cpp:380] conv3_2/dw -> conv3_2/dw
I0625 08:50:02.769829 55699 net.cpp:122] Setting up conv3_2/dw
I0625 08:50:02.769850 55699 net.cpp:129] Top shape: 64 128 4 4 (131072)
I0625 08:50:02.769858 55699 net.cpp:137] Memory required for data: 64225536
I0625 08:50:02.769870 55699 layer_factory.hpp:77] Creating layer conv3_2/dw/bn
I0625 08:50:02.769883 55699 net.cpp:84] Creating Layer conv3_2/dw/bn
I0625 08:50:02.769892 55699 net.cpp:406] conv3_2/dw/bn <- conv3_2/dw
I0625 08:50:02.769912 55699 net.cpp:367] conv3_2/dw/bn -> conv3_2/dw (in-place)
I0625 08:50:02.769942 55699 net.cpp:122] Setting up conv3_2/dw/bn
I0625 08:50:02.769956 55699 net.cpp:129] Top shape: 64 128 4 4 (131072)
I0625 08:50:02.769964 55699 net.cpp:137] Memory required for data: 64749824
I0625 08:50:02.769978 55699 layer_factory.hpp:77] Creating layer conv3_2/dw/scale
I0625 08:50:02.769991 55699 net.cpp:84] Creating Layer conv3_2/dw/scale
I0625 08:50:02.770000 55699 net.cpp:406] conv3_2/dw/scale <- conv3_2/dw
I0625 08:50:02.770010 55699 net.cpp:367] conv3_2/dw/scale -> conv3_2/dw (in-place)
I0625 08:50:02.770037 55699 layer_factory.hpp:77] Creating layer conv3_2/dw/scale
I0625 08:50:02.770064 55699 net.cpp:122] Setting up conv3_2/dw/scale
I0625 08:50:02.770077 55699 net.cpp:129] Top shape: 64 128 4 4 (131072)
I0625 08:50:02.770095 55699 net.cpp:137] Memory required for data: 65274112
I0625 08:50:02.770108 55699 layer_factory.hpp:77] Creating layer relu3_2/dw
I0625 08:50:02.770139 55699 net.cpp:84] Creating Layer relu3_2/dw
I0625 08:50:02.770153 55699 net.cpp:406] relu3_2/dw <- conv3_2/dw
I0625 08:50:02.770164 55699 net.cpp:367] relu3_2/dw -> conv3_2/dw (in-place)
I0625 08:50:02.770176 55699 net.cpp:122] Setting up relu3_2/dw
I0625 08:50:02.770187 55699 net.cpp:129] Top shape: 64 128 4 4 (131072)
I0625 08:50:02.770195 55699 net.cpp:137] Memory required for data: 65798400
I0625 08:50:02.770202 55699 layer_factory.hpp:77] Creating layer conv3_2/sep
I0625 08:50:02.770216 55699 net.cpp:84] Creating Layer conv3_2/sep
I0625 08:50:02.770226 55699 net.cpp:406] conv3_2/sep <- conv3_2/dw
I0625 08:50:02.770246 55699 net.cpp:380] conv3_2/sep -> conv3_2/sep
I0625 08:50:02.772085 55699 net.cpp:122] Setting up conv3_2/sep
I0625 08:50:02.772141 55699 net.cpp:129] Top shape: 64 256 4 4 (262144)
I0625 08:50:02.772153 55699 net.cpp:137] Memory required for data: 66846976
I0625 08:50:02.772172 55699 layer_factory.hpp:77] Creating layer conv3_2/sep/bn
I0625 08:50:02.772227 55699 net.cpp:84] Creating Layer conv3_2/sep/bn
I0625 08:50:02.772271 55699 net.cpp:406] conv3_2/sep/bn <- conv3_2/sep
I0625 08:50:02.772325 55699 net.cpp:367] conv3_2/sep/bn -> conv3_2/sep (in-place)
I0625 08:50:02.772416 55699 net.cpp:122] Setting up conv3_2/sep/bn
I0625 08:50:02.772440 55699 net.cpp:129] Top shape: 64 256 4 4 (262144)
I0625 08:50:02.772449 55699 net.cpp:137] Memory required for data: 67895552
I0625 08:50:02.772464 55699 layer_factory.hpp:77] Creating layer conv3_2/sep/scale
I0625 08:50:02.772539 55699 net.cpp:84] Creating Layer conv3_2/sep/scale
I0625 08:50:02.772583 55699 net.cpp:406] conv3_2/sep/scale <- conv3_2/sep
I0625 08:50:02.772603 55699 net.cpp:367] conv3_2/sep/scale -> conv3_2/sep (in-place)
I0625 08:50:02.772651 55699 layer_factory.hpp:77] Creating layer conv3_2/sep/scale
I0625 08:50:02.772756 55699 net.cpp:122] Setting up conv3_2/sep/scale
I0625 08:50:02.772805 55699 net.cpp:129] Top shape: 64 256 4 4 (262144)
I0625 08:50:02.772840 55699 net.cpp:137] Memory required for data: 68944128
I0625 08:50:02.772866 55699 layer_factory.hpp:77] Creating layer relu3_2/sep
I0625 08:50:02.772907 55699 net.cpp:84] Creating Layer relu3_2/sep
I0625 08:50:02.773947 55699 net.cpp:406] relu3_2/sep <- conv3_2/sep
I0625 08:50:02.774044 55699 net.cpp:367] relu3_2/sep -> conv3_2/sep (in-place)
I0625 08:50:02.774096 55699 net.cpp:122] Setting up relu3_2/sep
I0625 08:50:02.774121 55699 net.cpp:129] Top shape: 64 256 4 4 (262144)
I0625 08:50:02.774132 55699 net.cpp:137] Memory required for data: 69992704
I0625 08:50:02.774145 55699 layer_factory.hpp:77] Creating layer conv4_1/dw
I0625 08:50:02.774164 55699 net.cpp:84] Creating Layer conv4_1/dw
I0625 08:50:02.774199 55699 net.cpp:406] conv4_1/dw <- conv3_2/sep
I0625 08:50:02.774241 55699 net.cpp:380] conv4_1/dw -> conv4_1/dw
I0625 08:50:02.774468 55699 net.cpp:122] Setting up conv4_1/dw
I0625 08:50:02.774518 55699 net.cpp:129] Top shape: 64 256 4 4 (262144)
I0625 08:50:02.774529 55699 net.cpp:137] Memory required for data: 71041280
I0625 08:50:02.774617 55699 layer_factory.hpp:77] Creating layer conv4_1/dw/bn
I0625 08:50:02.774672 55699 net.cpp:84] Creating Layer conv4_1/dw/bn
I0625 08:50:02.774714 55699 net.cpp:406] conv4_1/dw/bn <- conv4_1/dw
I0625 08:50:02.774729 55699 net.cpp:367] conv4_1/dw/bn -> conv4_1/dw (in-place)
I0625 08:50:02.774778 55699 net.cpp:122] Setting up conv4_1/dw/bn
I0625 08:50:02.774797 55699 net.cpp:129] Top shape: 64 256 4 4 (262144)
I0625 08:50:02.774806 55699 net.cpp:137] Memory required for data: 72089856
I0625 08:50:02.774843 55699 layer_factory.hpp:77] Creating layer conv4_1/dw/scale
I0625 08:50:02.774889 55699 net.cpp:84] Creating Layer conv4_1/dw/scale
I0625 08:50:02.774901 55699 net.cpp:406] conv4_1/dw/scale <- conv4_1/dw
I0625 08:50:02.774924 55699 net.cpp:367] conv4_1/dw/scale -> conv4_1/dw (in-place)
I0625 08:50:02.774950 55699 layer_factory.hpp:77] Creating layer conv4_1/dw/scale
I0625 08:50:02.774984 55699 net.cpp:122] Setting up conv4_1/dw/scale
I0625 08:50:02.775001 55699 net.cpp:129] Top shape: 64 256 4 4 (262144)
I0625 08:50:02.775018 55699 net.cpp:137] Memory required for data: 73138432
I0625 08:50:02.775032 55699 layer_factory.hpp:77] Creating layer relu4_1/dw
I0625 08:50:02.775050 55699 net.cpp:84] Creating Layer relu4_1/dw
I0625 08:50:02.775060 55699 net.cpp:406] relu4_1/dw <- conv4_1/dw
I0625 08:50:02.775085 55699 net.cpp:367] relu4_1/dw -> conv4_1/dw (in-place)
I0625 08:50:02.775300 55699 net.cpp:122] Setting up relu4_1/dw
I0625 08:50:02.775352 55699 net.cpp:129] Top shape: 64 256 4 4 (262144)
I0625 08:50:02.775387 55699 net.cpp:137] Memory required for data: 74187008
I0625 08:50:02.775421 55699 layer_factory.hpp:77] Creating layer conv4_1/sep
I0625 08:50:02.775476 55699 net.cpp:84] Creating Layer conv4_1/sep
I0625 08:50:02.775518 55699 net.cpp:406] conv4_1/sep <- conv4_1/dw
I0625 08:50:02.775562 55699 net.cpp:380] conv4_1/sep -> conv4_1/sep
I0625 08:50:02.778762 55699 net.cpp:122] Setting up conv4_1/sep
I0625 08:50:02.778838 55699 net.cpp:129] Top shape: 64 256 4 4 (262144)
I0625 08:50:02.778852 55699 net.cpp:137] Memory required for data: 75235584
I0625 08:50:02.778897 55699 layer_factory.hpp:77] Creating layer conv4_1/sep/bn
I0625 08:50:02.778946 55699 net.cpp:84] Creating Layer conv4_1/sep/bn
I0625 08:50:02.778985 55699 net.cpp:406] conv4_1/sep/bn <- conv4_1/sep
I0625 08:50:02.779009 55699 net.cpp:367] conv4_1/sep/bn -> conv4_1/sep (in-place)
I0625 08:50:02.779049 55699 net.cpp:122] Setting up conv4_1/sep/bn
I0625 08:50:02.779101 55699 net.cpp:129] Top shape: 64 256 4 4 (262144)
I0625 08:50:02.779139 55699 net.cpp:137] Memory required for data: 76284160
I0625 08:50:02.779167 55699 layer_factory.hpp:77] Creating layer conv4_1/sep/scale
I0625 08:50:02.779191 55699 net.cpp:84] Creating Layer conv4_1/sep/scale
I0625 08:50:02.779203 55699 net.cpp:406] conv4_1/sep/scale <- conv4_1/sep
I0625 08:50:02.779222 55699 net.cpp:367] conv4_1/sep/scale -> conv4_1/sep (in-place)
I0625 08:50:02.779255 55699 layer_factory.hpp:77] Creating layer conv4_1/sep/scale
I0625 08:50:02.779319 55699 net.cpp:122] Setting up conv4_1/sep/scale
I0625 08:50:02.779364 55699 net.cpp:129] Top shape: 64 256 4 4 (262144)
I0625 08:50:02.779398 55699 net.cpp:137] Memory required for data: 77332736
I0625 08:50:02.779435 55699 layer_factory.hpp:77] Creating layer relu4_1/sep
I0625 08:50:02.779501 55699 net.cpp:84] Creating Layer relu4_1/sep
I0625 08:50:02.779552 55699 net.cpp:406] relu4_1/sep <- conv4_1/sep
I0625 08:50:02.779594 55699 net.cpp:367] relu4_1/sep -> conv4_1/sep (in-place)
I0625 08:50:02.779639 55699 net.cpp:122] Setting up relu4_1/sep
I0625 08:50:02.779678 55699 net.cpp:129] Top shape: 64 256 4 4 (262144)
I0625 08:50:02.779711 55699 net.cpp:137] Memory required for data: 78381312
I0625 08:50:02.779727 55699 layer_factory.hpp:77] Creating layer conv4_2/dw
I0625 08:50:02.779767 55699 net.cpp:84] Creating Layer conv4_2/dw
I0625 08:50:02.779805 55699 net.cpp:406] conv4_2/dw <- conv4_1/sep
I0625 08:50:02.779837 55699 net.cpp:380] conv4_2/dw -> conv4_2/dw
I0625 08:50:02.780045 55699 net.cpp:122] Setting up conv4_2/dw
I0625 08:50:02.780094 55699 net.cpp:129] Top shape: 64 256 2 2 (65536)
I0625 08:50:02.780129 55699 net.cpp:137] Memory required for data: 78643456
I0625 08:50:02.780153 55699 layer_factory.hpp:77] Creating layer conv4_2/dw/bn
I0625 08:50:02.780169 55699 net.cpp:84] Creating Layer conv4_2/dw/bn
I0625 08:50:02.780201 55699 net.cpp:406] conv4_2/dw/bn <- conv4_2/dw
I0625 08:50:02.780225 55699 net.cpp:367] conv4_2/dw/bn -> conv4_2/dw (in-place)
I0625 08:50:02.780258 55699 net.cpp:122] Setting up conv4_2/dw/bn
I0625 08:50:02.780299 55699 net.cpp:129] Top shape: 64 256 2 2 (65536)
I0625 08:50:02.780333 55699 net.cpp:137] Memory required for data: 78905600
I0625 08:50:02.780361 55699 layer_factory.hpp:77] Creating layer conv4_2/dw/scale
I0625 08:50:02.780403 55699 net.cpp:84] Creating Layer conv4_2/dw/scale
I0625 08:50:02.780441 55699 net.cpp:406] conv4_2/dw/scale <- conv4_2/dw
I0625 08:50:02.780465 55699 net.cpp:367] conv4_2/dw/scale -> conv4_2/dw (in-place)
I0625 08:50:02.780491 55699 layer_factory.hpp:77] Creating layer conv4_2/dw/scale
I0625 08:50:02.780625 55699 net.cpp:122] Setting up conv4_2/dw/scale
I0625 08:50:02.780675 55699 net.cpp:129] Top shape: 64 256 2 2 (65536)
I0625 08:50:02.780695 55699 net.cpp:137] Memory required for data: 79167744
I0625 08:50:02.780710 55699 layer_factory.hpp:77] Creating layer relu4_2/dw
I0625 08:50:02.780747 55699 net.cpp:84] Creating Layer relu4_2/dw
I0625 08:50:02.780784 55699 net.cpp:406] relu4_2/dw <- conv4_2/dw
I0625 08:50:02.780807 55699 net.cpp:367] relu4_2/dw -> conv4_2/dw (in-place)
I0625 08:50:02.780848 55699 net.cpp:122] Setting up relu4_2/dw
I0625 08:50:02.780887 55699 net.cpp:129] Top shape: 64 256 2 2 (65536)
I0625 08:50:02.780921 55699 net.cpp:137] Memory required for data: 79429888
I0625 08:50:02.780956 55699 layer_factory.hpp:77] Creating layer conv4_2/sep
I0625 08:50:02.780998 55699 net.cpp:84] Creating Layer conv4_2/sep
I0625 08:50:02.781038 55699 net.cpp:406] conv4_2/sep <- conv4_2/dw
I0625 08:50:02.781111 55699 net.cpp:380] conv4_2/sep -> conv4_2/sep
I0625 08:50:02.788750 55699 net.cpp:122] Setting up conv4_2/sep
I0625 08:50:02.788805 55699 net.cpp:129] Top shape: 64 512 2 2 (131072)
I0625 08:50:02.788825 55699 net.cpp:137] Memory required for data: 79954176
I0625 08:50:02.788838 55699 layer_factory.hpp:77] Creating layer conv4_2/sep/bn
I0625 08:50:02.788882 55699 net.cpp:84] Creating Layer conv4_2/sep/bn
I0625 08:50:02.788923 55699 net.cpp:406] conv4_2/sep/bn <- conv4_2/sep
I0625 08:50:02.788964 55699 net.cpp:367] conv4_2/sep/bn -> conv4_2/sep (in-place)
I0625 08:50:02.789029 55699 net.cpp:122] Setting up conv4_2/sep/bn
I0625 08:50:02.789077 55699 net.cpp:129] Top shape: 64 512 2 2 (131072)
I0625 08:50:02.789110 55699 net.cpp:137] Memory required for data: 80478464
I0625 08:50:02.789153 55699 layer_factory.hpp:77] Creating layer conv4_2/sep/scale
I0625 08:50:02.789196 55699 net.cpp:84] Creating Layer conv4_2/sep/scale
I0625 08:50:02.789234 55699 net.cpp:406] conv4_2/sep/scale <- conv4_2/sep
I0625 08:50:02.789273 55699 net.cpp:367] conv4_2/sep/scale -> conv4_2/sep (in-place)
I0625 08:50:02.805136 55699 layer_factory.hpp:77] Creating layer conv4_2/sep/scale
I0625 08:50:02.805254 55699 net.cpp:122] Setting up conv4_2/sep/scale
I0625 08:50:02.805315 55699 net.cpp:129] Top shape: 64 512 2 2 (131072)
I0625 08:50:02.805351 55699 net.cpp:137] Memory required for data: 81002752
I0625 08:50:02.805492 55699 layer_factory.hpp:77] Creating layer relu4_2/sep
I0625 08:50:02.805541 55699 net.cpp:84] Creating Layer relu4_2/sep
I0625 08:50:02.805589 55699 net.cpp:406] relu4_2/sep <- conv4_2/sep
I0625 08:50:02.805649 55699 net.cpp:367] relu4_2/sep -> conv4_2/sep (in-place)
I0625 08:50:02.805696 55699 net.cpp:122] Setting up relu4_2/sep
I0625 08:50:02.805766 55699 net.cpp:129] Top shape: 64 512 2 2 (131072)
I0625 08:50:02.805801 55699 net.cpp:137] Memory required for data: 81527040
I0625 08:50:02.805820 55699 layer_factory.hpp:77] Creating layer conv5_1/dw
I0625 08:50:02.805840 55699 net.cpp:84] Creating Layer conv5_1/dw
I0625 08:50:02.805874 55699 net.cpp:406] conv5_1/dw <- conv4_2/sep
I0625 08:50:02.805959 55699 net.cpp:380] conv5_1/dw -> conv5_1/dw
I0625 08:50:02.806242 55699 net.cpp:122] Setting up conv5_1/dw
I0625 08:50:02.806289 55699 net.cpp:129] Top shape: 64 512 2 2 (131072)
I0625 08:50:02.806329 55699 net.cpp:137] Memory required for data: 82051328
I0625 08:50:02.806390 55699 layer_factory.hpp:77] Creating layer conv5_1/dw/bn
I0625 08:50:02.806447 55699 net.cpp:84] Creating Layer conv5_1/dw/bn
I0625 08:50:02.806465 55699 net.cpp:406] conv5_1/dw/bn <- conv5_1/dw
I0625 08:50:02.806478 55699 net.cpp:367] conv5_1/dw/bn -> conv5_1/dw (in-place)
I0625 08:50:02.806531 55699 net.cpp:122] Setting up conv5_1/dw/bn
I0625 08:50:02.806563 55699 net.cpp:129] Top shape: 64 512 2 2 (131072)
I0625 08:50:02.806573 55699 net.cpp:137] Memory required for data: 82575616
I0625 08:50:02.806591 55699 layer_factory.hpp:77] Creating layer conv5_1/dw/scale
I0625 08:50:02.806612 55699 net.cpp:84] Creating Layer conv5_1/dw/scale
I0625 08:50:02.806623 55699 net.cpp:406] conv5_1/dw/scale <- conv5_1/dw
I0625 08:50:02.806635 55699 net.cpp:367] conv5_1/dw/scale -> conv5_1/dw (in-place)
I0625 08:50:02.806664 55699 layer_factory.hpp:77] Creating layer conv5_1/dw/scale
I0625 08:50:02.806722 55699 net.cpp:122] Setting up conv5_1/dw/scale
I0625 08:50:02.806746 55699 net.cpp:129] Top shape: 64 512 2 2 (131072)
I0625 08:50:02.806754 55699 net.cpp:137] Memory required for data: 83099904
I0625 08:50:02.806767 55699 layer_factory.hpp:77] Creating layer relu5_1/dw
I0625 08:50:02.806782 55699 net.cpp:84] Creating Layer relu5_1/dw
I0625 08:50:02.806790 55699 net.cpp:406] relu5_1/dw <- conv5_1/dw
I0625 08:50:02.806807 55699 net.cpp:367] relu5_1/dw -> conv5_1/dw (in-place)
I0625 08:50:02.806820 55699 net.cpp:122] Setting up relu5_1/dw
I0625 08:50:02.806831 55699 net.cpp:129] Top shape: 64 512 2 2 (131072)
I0625 08:50:02.806839 55699 net.cpp:137] Memory required for data: 83624192
I0625 08:50:02.806848 55699 layer_factory.hpp:77] Creating layer conv5_1/sep
I0625 08:50:02.806869 55699 net.cpp:84] Creating Layer conv5_1/sep
I0625 08:50:02.806946 55699 net.cpp:406] conv5_1/sep <- conv5_1/dw
I0625 08:50:02.806962 55699 net.cpp:380] conv5_1/sep -> conv5_1/sep
I0625 08:50:02.820046 55699 net.cpp:122] Setting up conv5_1/sep
I0625 08:50:02.820121 55699 net.cpp:129] Top shape: 64 512 2 2 (131072)
I0625 08:50:02.820156 55699 net.cpp:137] Memory required for data: 84148480
I0625 08:50:02.820199 55699 layer_factory.hpp:77] Creating layer conv5_1/sep/bn
I0625 08:50:02.820243 55699 net.cpp:84] Creating Layer conv5_1/sep/bn
I0625 08:50:02.820282 55699 net.cpp:406] conv5_1/sep/bn <- conv5_1/sep
I0625 08:50:02.820333 55699 net.cpp:367] conv5_1/sep/bn -> conv5_1/sep (in-place)
I0625 08:50:02.820459 55699 net.cpp:122] Setting up conv5_1/sep/bn
I0625 08:50:02.820508 55699 net.cpp:129] Top shape: 64 512 2 2 (131072)
I0625 08:50:02.820542 55699 net.cpp:137] Memory required for data: 84672768
I0625 08:50:02.820600 55699 layer_factory.hpp:77] Creating layer conv5_1/sep/scale
I0625 08:50:02.820675 55699 net.cpp:84] Creating Layer conv5_1/sep/scale
I0625 08:50:02.820720 55699 net.cpp:406] conv5_1/sep/scale <- conv5_1/sep
I0625 08:50:02.820761 55699 net.cpp:367] conv5_1/sep/scale -> conv5_1/sep (in-place)
I0625 08:50:02.820857 55699 layer_factory.hpp:77] Creating layer conv5_1/sep/scale
I0625 08:50:02.820958 55699 net.cpp:122] Setting up conv5_1/sep/scale
I0625 08:50:02.821069 55699 net.cpp:129] Top shape: 64 512 2 2 (131072)
I0625 08:50:02.821091 55699 net.cpp:137] Memory required for data: 85197056
I0625 08:50:02.821106 55699 layer_factory.hpp:77] Creating layer relu5_1/sep
I0625 08:50:02.821144 55699 net.cpp:84] Creating Layer relu5_1/sep
I0625 08:50:02.821180 55699 net.cpp:406] relu5_1/sep <- conv5_1/sep
I0625 08:50:02.821218 55699 net.cpp:367] relu5_1/sep -> conv5_1/sep (in-place)
I0625 08:50:02.821261 55699 net.cpp:122] Setting up relu5_1/sep
I0625 08:50:02.821300 55699 net.cpp:129] Top shape: 64 512 2 2 (131072)
I0625 08:50:02.821333 55699 net.cpp:137] Memory required for data: 85721344
I0625 08:50:02.821367 55699 layer_factory.hpp:77] Creating layer conv5_2/dw
I0625 08:50:02.821445 55699 net.cpp:84] Creating Layer conv5_2/dw
I0625 08:50:02.821491 55699 net.cpp:406] conv5_2/dw <- conv5_1/sep
I0625 08:50:02.821517 55699 net.cpp:380] conv5_2/dw -> conv5_2/dw
I0625 08:50:02.821874 55699 net.cpp:122] Setting up conv5_2/dw
I0625 08:50:02.821929 55699 net.cpp:129] Top shape: 64 512 2 2 (131072)
I0625 08:50:02.821949 55699 net.cpp:137] Memory required for data: 86245632
I0625 08:50:02.821964 55699 layer_factory.hpp:77] Creating layer conv5_2/dw/bn
I0625 08:50:02.822002 55699 net.cpp:84] Creating Layer conv5_2/dw/bn
I0625 08:50:02.822041 55699 net.cpp:406] conv5_2/dw/bn <- conv5_2/dw
I0625 08:50:02.822116 55699 net.cpp:367] conv5_2/dw/bn -> conv5_2/dw (in-place)
I0625 08:50:02.822214 55699 net.cpp:122] Setting up conv5_2/dw/bn
I0625 08:50:02.822263 55699 net.cpp:129] Top shape: 64 512 2 2 (131072)
I0625 08:50:02.822306 55699 net.cpp:137] Memory required for data: 86769920
I0625 08:50:02.822367 55699 layer_factory.hpp:77] Creating layer conv5_2/dw/scale
I0625 08:50:02.822450 55699 net.cpp:84] Creating Layer conv5_2/dw/scale
I0625 08:50:02.822495 55699 net.cpp:406] conv5_2/dw/scale <- conv5_2/dw
I0625 08:50:02.822554 55699 net.cpp:367] conv5_2/dw/scale -> conv5_2/dw (in-place)
I0625 08:50:02.822619 55699 layer_factory.hpp:77] Creating layer conv5_2/dw/scale
I0625 08:50:02.822788 55699 net.cpp:122] Setting up conv5_2/dw/scale
I0625 08:50:02.822839 55699 net.cpp:129] Top shape: 64 512 2 2 (131072)
I0625 08:50:02.822857 55699 net.cpp:137] Memory required for data: 87294208
I0625 08:50:02.822873 55699 layer_factory.hpp:77] Creating layer relu5_2/dw
I0625 08:50:02.822926 55699 net.cpp:84] Creating Layer relu5_2/dw
I0625 08:50:02.822968 55699 net.cpp:406] relu5_2/dw <- conv5_2/dw
I0625 08:50:02.823014 55699 net.cpp:367] relu5_2/dw -> conv5_2/dw (in-place)
I0625 08:50:02.823060 55699 net.cpp:122] Setting up relu5_2/dw
I0625 08:50:02.823098 55699 net.cpp:129] Top shape: 64 512 2 2 (131072)
I0625 08:50:02.823132 55699 net.cpp:137] Memory required for data: 87818496
I0625 08:50:02.823168 55699 layer_factory.hpp:77] Creating layer conv5_2/sep
I0625 08:50:02.823211 55699 net.cpp:84] Creating Layer conv5_2/sep
I0625 08:50:02.823249 55699 net.cpp:406] conv5_2/sep <- conv5_2/dw
I0625 08:50:02.823297 55699 net.cpp:380] conv5_2/sep -> conv5_2/sep
I0625 08:50:02.837991 55699 net.cpp:122] Setting up conv5_2/sep
I0625 08:50:02.838050 55699 net.cpp:129] Top shape: 64 512 2 2 (131072)
I0625 08:50:02.838086 55699 net.cpp:137] Memory required for data: 88342784
I0625 08:50:02.838140 55699 layer_factory.hpp:77] Creating layer conv5_2/sep/bn
I0625 08:50:02.838184 55699 net.cpp:84] Creating Layer conv5_2/sep/bn
I0625 08:50:02.838222 55699 net.cpp:406] conv5_2/sep/bn <- conv5_2/sep
I0625 08:50:02.838299 55699 net.cpp:367] conv5_2/sep/bn -> conv5_2/sep (in-place)
I0625 08:50:02.838397 55699 net.cpp:122] Setting up conv5_2/sep/bn
I0625 08:50:02.838445 55699 net.cpp:129] Top shape: 64 512 2 2 (131072)
I0625 08:50:02.838480 55699 net.cpp:137] Memory required for data: 88867072
I0625 08:50:02.838565 55699 layer_factory.hpp:77] Creating layer conv5_2/sep/scale
I0625 08:50:02.838629 55699 net.cpp:84] Creating Layer conv5_2/sep/scale
I0625 08:50:02.838671 55699 net.cpp:406] conv5_2/sep/scale <- conv5_2/sep
I0625 08:50:02.838712 55699 net.cpp:367] conv5_2/sep/scale -> conv5_2/sep (in-place)
I0625 08:50:02.838888 55699 layer_factory.hpp:77] Creating layer conv5_2/sep/scale
I0625 08:50:02.838969 55699 net.cpp:122] Setting up conv5_2/sep/scale
I0625 08:50:02.839000 55699 net.cpp:129] Top shape: 64 512 2 2 (131072)
I0625 08:50:02.839010 55699 net.cpp:137] Memory required for data: 89391360
I0625 08:50:02.839023 55699 layer_factory.hpp:77] Creating layer relu5_2/sep
I0625 08:50:02.839037 55699 net.cpp:84] Creating Layer relu5_2/sep
I0625 08:50:02.839047 55699 net.cpp:406] relu5_2/sep <- conv5_2/sep
I0625 08:50:02.839057 55699 net.cpp:367] relu5_2/sep -> conv5_2/sep (in-place)
I0625 08:50:02.839071 55699 net.cpp:122] Setting up relu5_2/sep
I0625 08:50:02.839082 55699 net.cpp:129] Top shape: 64 512 2 2 (131072)
I0625 08:50:02.839089 55699 net.cpp:137] Memory required for data: 89915648
I0625 08:50:02.839097 55699 layer_factory.hpp:77] Creating layer conv5_3/dw
I0625 08:50:02.839172 55699 net.cpp:84] Creating Layer conv5_3/dw
I0625 08:50:02.839193 55699 net.cpp:406] conv5_3/dw <- conv5_2/sep
I0625 08:50:02.839210 55699 net.cpp:380] conv5_3/dw -> conv5_3/dw
I0625 08:50:02.839484 55699 net.cpp:122] Setting up conv5_3/dw
I0625 08:50:02.839522 55699 net.cpp:129] Top shape: 64 512 2 2 (131072)
I0625 08:50:02.839531 55699 net.cpp:137] Memory required for data: 90439936
I0625 08:50:02.839546 55699 layer_factory.hpp:77] Creating layer conv5_3/dw/bn
I0625 08:50:02.839596 55699 net.cpp:84] Creating Layer conv5_3/dw/bn
I0625 08:50:02.839643 55699 net.cpp:406] conv5_3/dw/bn <- conv5_3/dw
I0625 08:50:02.839668 55699 net.cpp:367] conv5_3/dw/bn -> conv5_3/dw (in-place)
I0625 08:50:02.839753 55699 net.cpp:122] Setting up conv5_3/dw/bn
I0625 08:50:02.839802 55699 net.cpp:129] Top shape: 64 512 2 2 (131072)
I0625 08:50:02.839836 55699 net.cpp:137] Memory required for data: 90964224
I0625 08:50:02.839864 55699 layer_factory.hpp:77] Creating layer conv5_3/dw/scale
I0625 08:50:02.839936 55699 net.cpp:84] Creating Layer conv5_3/dw/scale
I0625 08:50:02.839982 55699 net.cpp:406] conv5_3/dw/scale <- conv5_3/dw
I0625 08:50:02.840021 55699 net.cpp:367] conv5_3/dw/scale -> conv5_3/dw (in-place)
I0625 08:50:02.840118 55699 layer_factory.hpp:77] Creating layer conv5_3/dw/scale
I0625 08:50:02.840270 55699 net.cpp:122] Setting up conv5_3/dw/scale
I0625 08:50:02.840318 55699 net.cpp:129] Top shape: 64 512 2 2 (131072)
I0625 08:50:02.840353 55699 net.cpp:137] Memory required for data: 91488512
I0625 08:50:02.840378 55699 layer_factory.hpp:77] Creating layer relu5_3/dw
I0625 08:50:02.840399 55699 net.cpp:84] Creating Layer relu5_3/dw
I0625 08:50:02.840435 55699 net.cpp:406] relu5_3/dw <- conv5_3/dw
I0625 08:50:02.840490 55699 net.cpp:367] relu5_3/dw -> conv5_3/dw (in-place)
I0625 08:50:02.840541 55699 net.cpp:122] Setting up relu5_3/dw
I0625 08:50:02.840582 55699 net.cpp:129] Top shape: 64 512 2 2 (131072)
I0625 08:50:02.840616 55699 net.cpp:137] Memory required for data: 92012800
I0625 08:50:02.840651 55699 layer_factory.hpp:77] Creating layer conv5_3/sep
I0625 08:50:02.840730 55699 net.cpp:84] Creating Layer conv5_3/sep
I0625 08:50:02.840775 55699 net.cpp:406] conv5_3/sep <- conv5_3/dw
I0625 08:50:02.840817 55699 net.cpp:380] conv5_3/sep -> conv5_3/sep
I0625 08:50:02.853883 55699 net.cpp:122] Setting up conv5_3/sep
I0625 08:50:02.853946 55699 net.cpp:129] Top shape: 64 512 2 2 (131072)
I0625 08:50:02.853982 55699 net.cpp:137] Memory required for data: 92537088
I0625 08:50:02.854034 55699 layer_factory.hpp:77] Creating layer conv5_3/sep/bn
I0625 08:50:02.854084 55699 net.cpp:84] Creating Layer conv5_3/sep/bn
I0625 08:50:02.854136 55699 net.cpp:406] conv5_3/sep/bn <- conv5_3/sep
I0625 08:50:02.854192 55699 net.cpp:367] conv5_3/sep/bn -> conv5_3/sep (in-place)
I0625 08:50:02.854260 55699 net.cpp:122] Setting up conv5_3/sep/bn
I0625 08:50:02.854305 55699 net.cpp:129] Top shape: 64 512 2 2 (131072)
I0625 08:50:02.854341 55699 net.cpp:137] Memory required for data: 93061376
I0625 08:50:02.854384 55699 layer_factory.hpp:77] Creating layer conv5_3/sep/scale
I0625 08:50:02.854434 55699 net.cpp:84] Creating Layer conv5_3/sep/scale
I0625 08:50:02.854507 55699 net.cpp:406] conv5_3/sep/scale <- conv5_3/sep
I0625 08:50:02.854552 55699 net.cpp:367] conv5_3/sep/scale -> conv5_3/sep (in-place)
I0625 08:50:02.854609 55699 layer_factory.hpp:77] Creating layer conv5_3/sep/scale
I0625 08:50:02.854676 55699 net.cpp:122] Setting up conv5_3/sep/scale
I0625 08:50:02.854827 55699 net.cpp:129] Top shape: 64 512 2 2 (131072)
I0625 08:50:02.854872 55699 net.cpp:137] Memory required for data: 93585664
I0625 08:50:02.854892 55699 layer_factory.hpp:77] Creating layer relu5_3/sep
I0625 08:50:02.854907 55699 net.cpp:84] Creating Layer relu5_3/sep
I0625 08:50:02.854925 55699 net.cpp:406] relu5_3/sep <- conv5_3/sep
I0625 08:50:02.854938 55699 net.cpp:367] relu5_3/sep -> conv5_3/sep (in-place)
I0625 08:50:02.854977 55699 net.cpp:122] Setting up relu5_3/sep
I0625 08:50:02.855036 55699 net.cpp:129] Top shape: 64 512 2 2 (131072)
I0625 08:50:02.855072 55699 net.cpp:137] Memory required for data: 94109952
I0625 08:50:02.855108 55699 layer_factory.hpp:77] Creating layer conv5_4/dw
I0625 08:50:02.855159 55699 net.cpp:84] Creating Layer conv5_4/dw
I0625 08:50:02.855199 55699 net.cpp:406] conv5_4/dw <- conv5_3/sep
I0625 08:50:02.855242 55699 net.cpp:380] conv5_4/dw -> conv5_4/dw
I0625 08:50:02.855545 55699 net.cpp:122] Setting up conv5_4/dw
I0625 08:50:02.855615 55699 net.cpp:129] Top shape: 64 512 2 2 (131072)
I0625 08:50:02.855655 55699 net.cpp:137] Memory required for data: 94634240
I0625 08:50:02.855720 55699 layer_factory.hpp:77] Creating layer conv5_4/dw/bn
I0625 08:50:02.855768 55699 net.cpp:84] Creating Layer conv5_4/dw/bn
I0625 08:50:02.855806 55699 net.cpp:406] conv5_4/dw/bn <- conv5_4/dw
I0625 08:50:02.855854 55699 net.cpp:367] conv5_4/dw/bn -> conv5_4/dw (in-place)
I0625 08:50:02.855916 55699 net.cpp:122] Setting up conv5_4/dw/bn
I0625 08:50:02.855979 55699 net.cpp:129] Top shape: 64 512 2 2 (131072)
I0625 08:50:02.856016 55699 net.cpp:137] Memory required for data: 95158528
I0625 08:50:02.856060 55699 layer_factory.hpp:77] Creating layer conv5_4/dw/scale
I0625 08:50:02.856109 55699 net.cpp:84] Creating Layer conv5_4/dw/scale
I0625 08:50:02.856149 55699 net.cpp:406] conv5_4/dw/scale <- conv5_4/dw
I0625 08:50:02.856195 55699 net.cpp:367] conv5_4/dw/scale -> conv5_4/dw (in-place)
I0625 08:50:02.856258 55699 layer_factory.hpp:77] Creating layer conv5_4/dw/scale
I0625 08:50:02.856374 55699 net.cpp:122] Setting up conv5_4/dw/scale
I0625 08:50:02.856422 55699 net.cpp:129] Top shape: 64 512 2 2 (131072)
I0625 08:50:02.856457 55699 net.cpp:137] Memory required for data: 95682816
I0625 08:50:02.856513 55699 layer_factory.hpp:77] Creating layer relu5_4/dw
I0625 08:50:02.856570 55699 net.cpp:84] Creating Layer relu5_4/dw
I0625 08:50:02.856606 55699 net.cpp:406] relu5_4/dw <- conv5_4/dw
I0625 08:50:02.856645 55699 net.cpp:367] relu5_4/dw -> conv5_4/dw (in-place)
I0625 08:50:02.856775 55699 net.cpp:122] Setting up relu5_4/dw
I0625 08:50:02.856825 55699 net.cpp:129] Top shape: 64 512 2 2 (131072)
I0625 08:50:02.856860 55699 net.cpp:137] Memory required for data: 96207104
I0625 08:50:02.856895 55699 layer_factory.hpp:77] Creating layer conv5_4/sep
I0625 08:50:02.856978 55699 net.cpp:84] Creating Layer conv5_4/sep
I0625 08:50:02.857024 55699 net.cpp:406] conv5_4/sep <- conv5_4/dw
I0625 08:50:02.857115 55699 net.cpp:380] conv5_4/sep -> conv5_4/sep
I0625 08:50:02.872671 55699 net.cpp:122] Setting up conv5_4/sep
I0625 08:50:02.872761 55699 net.cpp:129] Top shape: 64 512 2 2 (131072)
I0625 08:50:02.872776 55699 net.cpp:137] Memory required for data: 96731392
I0625 08:50:02.872800 55699 layer_factory.hpp:77] Creating layer conv5_4/sep/bn
I0625 08:50:02.872829 55699 net.cpp:84] Creating Layer conv5_4/sep/bn
I0625 08:50:02.872867 55699 net.cpp:406] conv5_4/sep/bn <- conv5_4/sep
I0625 08:50:02.872910 55699 net.cpp:367] conv5_4/sep/bn -> conv5_4/sep (in-place)
I0625 08:50:02.873005 55699 net.cpp:122] Setting up conv5_4/sep/bn
I0625 08:50:02.873055 55699 net.cpp:129] Top shape: 64 512 2 2 (131072)
I0625 08:50:02.873090 55699 net.cpp:137] Memory required for data: 97255680
I0625 08:50:02.873133 55699 layer_factory.hpp:77] Creating layer conv5_4/sep/scale
I0625 08:50:02.873260 55699 net.cpp:84] Creating Layer conv5_4/sep/scale
I0625 08:50:02.873314 55699 net.cpp:406] conv5_4/sep/scale <- conv5_4/sep
I0625 08:50:02.873391 55699 net.cpp:367] conv5_4/sep/scale -> conv5_4/sep (in-place)
I0625 08:50:02.873458 55699 layer_factory.hpp:77] Creating layer conv5_4/sep/scale
I0625 08:50:02.873663 55699 net.cpp:122] Setting up conv5_4/sep/scale
I0625 08:50:02.873728 55699 net.cpp:129] Top shape: 64 512 2 2 (131072)
I0625 08:50:02.873803 55699 net.cpp:137] Memory required for data: 97779968
I0625 08:50:02.873828 55699 layer_factory.hpp:77] Creating layer relu5_4/sep
I0625 08:50:02.873847 55699 net.cpp:84] Creating Layer relu5_4/sep
I0625 08:50:02.873910 55699 net.cpp:406] relu5_4/sep <- conv5_4/sep
I0625 08:50:02.873931 55699 net.cpp:367] relu5_4/sep -> conv5_4/sep (in-place)
I0625 08:50:02.873955 55699 net.cpp:122] Setting up relu5_4/sep
I0625 08:50:02.873973 55699 net.cpp:129] Top shape: 64 512 2 2 (131072)
I0625 08:50:02.873987 55699 net.cpp:137] Memory required for data: 98304256
I0625 08:50:02.873996 55699 layer_factory.hpp:77] Creating layer conv5_5/dw
I0625 08:50:02.874019 55699 net.cpp:84] Creating Layer conv5_5/dw
I0625 08:50:02.874055 55699 net.cpp:406] conv5_5/dw <- conv5_4/sep
I0625 08:50:02.874132 55699 net.cpp:380] conv5_5/dw -> conv5_5/dw
I0625 08:50:02.874467 55699 net.cpp:122] Setting up conv5_5/dw
I0625 08:50:02.874519 55699 net.cpp:129] Top shape: 64 512 2 2 (131072)
I0625 08:50:02.874538 55699 net.cpp:137] Memory required for data: 98828544
I0625 08:50:02.874552 55699 layer_factory.hpp:77] Creating layer conv5_5/dw/bn
I0625 08:50:02.874589 55699 net.cpp:84] Creating Layer conv5_5/dw/bn
I0625 08:50:02.874627 55699 net.cpp:406] conv5_5/dw/bn <- conv5_5/dw
I0625 08:50:02.874651 55699 net.cpp:367] conv5_5/dw/bn -> conv5_5/dw (in-place)
I0625 08:50:02.874687 55699 net.cpp:122] Setting up conv5_5/dw/bn
I0625 08:50:02.874728 55699 net.cpp:129] Top shape: 64 512 2 2 (131072)
I0625 08:50:02.874743 55699 net.cpp:137] Memory required for data: 99352832
I0625 08:50:02.874797 55699 layer_factory.hpp:77] Creating layer conv5_5/dw/scale
I0625 08:50:02.874827 55699 net.cpp:84] Creating Layer conv5_5/dw/scale
I0625 08:50:02.874842 55699 net.cpp:406] conv5_5/dw/scale <- conv5_5/dw
I0625 08:50:02.874907 55699 net.cpp:367] conv5_5/dw/scale -> conv5_5/dw (in-place)
I0625 08:50:02.874966 55699 layer_factory.hpp:77] Creating layer conv5_5/dw/scale
I0625 08:50:02.875036 55699 net.cpp:122] Setting up conv5_5/dw/scale
I0625 08:50:02.875080 55699 net.cpp:129] Top shape: 64 512 2 2 (131072)
I0625 08:50:02.875115 55699 net.cpp:137] Memory required for data: 99877120
I0625 08:50:02.875139 55699 layer_factory.hpp:77] Creating layer relu5_5/dw
I0625 08:50:02.875172 55699 net.cpp:84] Creating Layer relu5_5/dw
I0625 08:50:02.875221 55699 net.cpp:406] relu5_5/dw <- conv5_5/dw
I0625 08:50:02.875283 55699 net.cpp:367] relu5_5/dw -> conv5_5/dw (in-place)
I0625 08:50:02.875306 55699 net.cpp:122] Setting up relu5_5/dw
I0625 08:50:02.875344 55699 net.cpp:129] Top shape: 64 512 2 2 (131072)
I0625 08:50:02.875377 55699 net.cpp:137] Memory required for data: 100401408
I0625 08:50:02.875391 55699 layer_factory.hpp:77] Creating layer conv5_5/sep
I0625 08:50:02.875417 55699 net.cpp:84] Creating Layer conv5_5/sep
I0625 08:50:02.875452 55699 net.cpp:406] conv5_5/sep <- conv5_5/dw
I0625 08:50:02.875474 55699 net.cpp:380] conv5_5/sep -> conv5_5/sep
I0625 08:50:02.891268 55699 net.cpp:122] Setting up conv5_5/sep
I0625 08:50:02.891358 55699 net.cpp:129] Top shape: 64 512 2 2 (131072)
I0625 08:50:02.891371 55699 net.cpp:137] Memory required for data: 100925696
I0625 08:50:02.891393 55699 layer_factory.hpp:77] Creating layer conv5_5/sep/bn
I0625 08:50:02.891440 55699 net.cpp:84] Creating Layer conv5_5/sep/bn
I0625 08:50:02.891481 55699 net.cpp:406] conv5_5/sep/bn <- conv5_5/sep
I0625 08:50:02.891559 55699 net.cpp:367] conv5_5/sep/bn -> conv5_5/sep (in-place)
I0625 08:50:02.891669 55699 net.cpp:122] Setting up conv5_5/sep/bn
I0625 08:50:02.891719 55699 net.cpp:129] Top shape: 64 512 2 2 (131072)
I0625 08:50:02.891809 55699 net.cpp:137] Memory required for data: 101449984
I0625 08:50:02.891871 55699 layer_factory.hpp:77] Creating layer conv5_5/sep/scale
I0625 08:50:02.891937 55699 net.cpp:84] Creating Layer conv5_5/sep/scale
I0625 08:50:02.891985 55699 net.cpp:406] conv5_5/sep/scale <- conv5_5/sep
I0625 08:50:02.892030 55699 net.cpp:367] conv5_5/sep/scale -> conv5_5/sep (in-place)
I0625 08:50:02.892099 55699 layer_factory.hpp:77] Creating layer conv5_5/sep/scale
I0625 08:50:02.892175 55699 net.cpp:122] Setting up conv5_5/sep/scale
I0625 08:50:02.892223 55699 net.cpp:129] Top shape: 64 512 2 2 (131072)
I0625 08:50:02.892258 55699 net.cpp:137] Memory required for data: 101974272
I0625 08:50:02.892285 55699 layer_factory.hpp:77] Creating layer relu5_5/sep
I0625 08:50:02.892307 55699 net.cpp:84] Creating Layer relu5_5/sep
I0625 08:50:02.892324 55699 net.cpp:406] relu5_5/sep <- conv5_5/sep
I0625 08:50:02.892336 55699 net.cpp:367] relu5_5/sep -> conv5_5/sep (in-place)
I0625 08:50:02.892376 55699 net.cpp:122] Setting up relu5_5/sep
I0625 08:50:02.892418 55699 net.cpp:129] Top shape: 64 512 2 2 (131072)
I0625 08:50:02.892454 55699 net.cpp:137] Memory required for data: 102498560
I0625 08:50:02.892474 55699 layer_factory.hpp:77] Creating layer conv5_6/dw
I0625 08:50:02.892513 55699 net.cpp:84] Creating Layer conv5_6/dw
I0625 08:50:02.892554 55699 net.cpp:406] conv5_6/dw <- conv5_5/sep
I0625 08:50:02.892598 55699 net.cpp:380] conv5_6/dw -> conv5_6/dw
I0625 08:50:02.892904 55699 net.cpp:122] Setting up conv5_6/dw
I0625 08:50:02.892956 55699 net.cpp:129] Top shape: 64 512 1 1 (32768)
I0625 08:50:02.892989 55699 net.cpp:137] Memory required for data: 102629632
I0625 08:50:02.893013 55699 layer_factory.hpp:77] Creating layer conv5_6/dw/bn
I0625 08:50:02.893043 55699 net.cpp:84] Creating Layer conv5_6/dw/bn
I0625 08:50:02.893082 55699 net.cpp:406] conv5_6/dw/bn <- conv5_6/dw
I0625 08:50:02.893100 55699 net.cpp:367] conv5_6/dw/bn -> conv5_6/dw (in-place)
I0625 08:50:02.893213 55699 net.cpp:122] Setting up conv5_6/dw/bn
I0625 08:50:02.893263 55699 net.cpp:129] Top shape: 64 512 1 1 (32768)
I0625 08:50:02.893276 55699 net.cpp:137] Memory required for data: 102760704
I0625 08:50:02.893292 55699 layer_factory.hpp:77] Creating layer conv5_6/dw/scale
I0625 08:50:02.893344 55699 net.cpp:84] Creating Layer conv5_6/dw/scale
I0625 08:50:02.893389 55699 net.cpp:406] conv5_6/dw/scale <- conv5_6/dw
I0625 08:50:02.893431 55699 net.cpp:367] conv5_6/dw/scale -> conv5_6/dw (in-place)
I0625 08:50:02.893522 55699 layer_factory.hpp:77] Creating layer conv5_6/dw/scale
I0625 08:50:02.894090 55699 net.cpp:122] Setting up conv5_6/dw/scale
I0625 08:50:02.894150 55699 net.cpp:129] Top shape: 64 512 1 1 (32768)
I0625 08:50:02.894163 55699 net.cpp:137] Memory required for data: 102891776
I0625 08:50:02.894191 55699 layer_factory.hpp:77] Creating layer relu5_6/dw
I0625 08:50:02.894217 55699 net.cpp:84] Creating Layer relu5_6/dw
I0625 08:50:02.894258 55699 net.cpp:406] relu5_6/dw <- conv5_6/dw
I0625 08:50:02.894316 55699 net.cpp:367] relu5_6/dw -> conv5_6/dw (in-place)
I0625 08:50:02.894373 55699 net.cpp:122] Setting up relu5_6/dw
I0625 08:50:02.894415 55699 net.cpp:129] Top shape: 64 512 1 1 (32768)
I0625 08:50:02.894449 55699 net.cpp:137] Memory required for data: 103022848
I0625 08:50:02.894469 55699 layer_factory.hpp:77] Creating layer conv5_6/sep
I0625 08:50:02.894526 55699 net.cpp:84] Creating Layer conv5_6/sep
I0625 08:50:02.894572 55699 net.cpp:406] conv5_6/sep <- conv5_6/dw
I0625 08:50:02.894598 55699 net.cpp:380] conv5_6/sep -> conv5_6/sep
I0625 08:50:02.921488 55699 net.cpp:122] Setting up conv5_6/sep
I0625 08:50:02.921569 55699 net.cpp:129] Top shape: 64 1024 1 1 (65536)
I0625 08:50:02.921613 55699 net.cpp:137] Memory required for data: 103284992
I0625 08:50:02.921643 55699 layer_factory.hpp:77] Creating layer conv5_6/sep/bn
I0625 08:50:02.921689 55699 net.cpp:84] Creating Layer conv5_6/sep/bn
I0625 08:50:02.921728 55699 net.cpp:406] conv5_6/sep/bn <- conv5_6/sep
I0625 08:50:02.921771 55699 net.cpp:367] conv5_6/sep/bn -> conv5_6/sep (in-place)
I0625 08:50:02.921885 55699 net.cpp:122] Setting up conv5_6/sep/bn
I0625 08:50:02.921931 55699 net.cpp:129] Top shape: 64 1024 1 1 (65536)
I0625 08:50:02.921967 55699 net.cpp:137] Memory required for data: 103547136
I0625 08:50:02.922009 55699 layer_factory.hpp:77] Creating layer conv5_6/sep/scale
I0625 08:50:02.922044 55699 net.cpp:84] Creating Layer conv5_6/sep/scale
I0625 08:50:02.922081 55699 net.cpp:406] conv5_6/sep/scale <- conv5_6/sep
I0625 08:50:02.922152 55699 net.cpp:367] conv5_6/sep/scale -> conv5_6/sep (in-place)
I0625 08:50:02.922219 55699 layer_factory.hpp:77] Creating layer conv5_6/sep/scale
I0625 08:50:02.922341 55699 net.cpp:122] Setting up conv5_6/sep/scale
I0625 08:50:02.922405 55699 net.cpp:129] Top shape: 64 1024 1 1 (65536)
I0625 08:50:02.922443 55699 net.cpp:137] Memory required for data: 103809280
I0625 08:50:02.922484 55699 layer_factory.hpp:77] Creating layer relu5_6/sep
I0625 08:50:02.922528 55699 net.cpp:84] Creating Layer relu5_6/sep
I0625 08:50:02.922565 55699 net.cpp:406] relu5_6/sep <- conv5_6/sep
I0625 08:50:02.922605 55699 net.cpp:367] relu5_6/sep -> conv5_6/sep (in-place)
I0625 08:50:02.922648 55699 net.cpp:122] Setting up relu5_6/sep
I0625 08:50:02.922673 55699 net.cpp:129] Top shape: 64 1024 1 1 (65536)
I0625 08:50:02.922705 55699 net.cpp:137] Memory required for data: 104071424
I0625 08:50:02.922740 55699 layer_factory.hpp:77] Creating layer conv6/dw
I0625 08:50:02.922814 55699 net.cpp:84] Creating Layer conv6/dw
I0625 08:50:02.922857 55699 net.cpp:406] conv6/dw <- conv5_6/sep
I0625 08:50:02.922899 55699 net.cpp:380] conv6/dw -> conv6/dw
I0625 08:50:02.923418 55699 net.cpp:122] Setting up conv6/dw
I0625 08:50:02.923467 55699 net.cpp:129] Top shape: 64 1024 1 1 (65536)
I0625 08:50:02.923502 55699 net.cpp:137] Memory required for data: 104333568
I0625 08:50:02.923540 55699 layer_factory.hpp:77] Creating layer conv6/dw/bn
I0625 08:50:02.923593 55699 net.cpp:84] Creating Layer conv6/dw/bn
I0625 08:50:02.923633 55699 net.cpp:406] conv6/dw/bn <- conv6/dw
I0625 08:50:02.923683 55699 net.cpp:367] conv6/dw/bn -> conv6/dw (in-place)
I0625 08:50:02.923749 55699 net.cpp:122] Setting up conv6/dw/bn
I0625 08:50:02.923794 55699 net.cpp:129] Top shape: 64 1024 1 1 (65536)
I0625 08:50:02.923827 55699 net.cpp:137] Memory required for data: 104595712
I0625 08:50:02.923877 55699 layer_factory.hpp:77] Creating layer conv6/dw/scale
I0625 08:50:02.923920 55699 net.cpp:84] Creating Layer conv6/dw/scale
I0625 08:50:02.923959 55699 net.cpp:406] conv6/dw/scale <- conv6/dw
I0625 08:50:02.923997 55699 net.cpp:367] conv6/dw/scale -> conv6/dw (in-place)
I0625 08:50:02.924078 55699 layer_factory.hpp:77] Creating layer conv6/dw/scale
I0625 08:50:02.924150 55699 net.cpp:122] Setting up conv6/dw/scale
I0625 08:50:02.924196 55699 net.cpp:129] Top shape: 64 1024 1 1 (65536)
I0625 08:50:02.924230 55699 net.cpp:137] Memory required for data: 104857856
I0625 08:50:02.924270 55699 layer_factory.hpp:77] Creating layer relu6/dw
I0625 08:50:02.924316 55699 net.cpp:84] Creating Layer relu6/dw
I0625 08:50:02.924355 55699 net.cpp:406] relu6/dw <- conv6/dw
I0625 08:50:02.924393 55699 net.cpp:367] relu6/dw -> conv6/dw (in-place)
I0625 08:50:02.924437 55699 net.cpp:122] Setting up relu6/dw
I0625 08:50:02.924475 55699 net.cpp:129] Top shape: 64 1024 1 1 (65536)
I0625 08:50:02.924509 55699 net.cpp:137] Memory required for data: 105120000
I0625 08:50:02.924543 55699 layer_factory.hpp:77] Creating layer conv6/sep
I0625 08:50:02.924587 55699 net.cpp:84] Creating Layer conv6/sep
I0625 08:50:02.924623 55699 net.cpp:406] conv6/sep <- conv6/dw
I0625 08:50:02.924664 55699 net.cpp:380] conv6/sep -> conv6/sep
I0625 08:50:02.975160 55699 net.cpp:122] Setting up conv6/sep
I0625 08:50:02.975245 55699 net.cpp:129] Top shape: 64 1024 1 1 (65536)
I0625 08:50:02.975289 55699 net.cpp:137] Memory required for data: 105382144
I0625 08:50:02.975317 55699 layer_factory.hpp:77] Creating layer conv6/sep/bn
I0625 08:50:02.975365 55699 net.cpp:84] Creating Layer conv6/sep/bn
I0625 08:50:02.975406 55699 net.cpp:406] conv6/sep/bn <- conv6/sep
I0625 08:50:02.975510 55699 net.cpp:367] conv6/sep/bn -> conv6/sep (in-place)
I0625 08:50:02.975586 55699 net.cpp:122] Setting up conv6/sep/bn
I0625 08:50:02.975632 55699 net.cpp:129] Top shape: 64 1024 1 1 (65536)
I0625 08:50:02.975667 55699 net.cpp:137] Memory required for data: 105644288
I0625 08:50:02.975694 55699 layer_factory.hpp:77] Creating layer conv6/sep/scale
I0625 08:50:02.975742 55699 net.cpp:84] Creating Layer conv6/sep/scale
I0625 08:50:02.975782 55699 net.cpp:406] conv6/sep/scale <- conv6/sep
I0625 08:50:02.975826 55699 net.cpp:367] conv6/sep/scale -> conv6/sep (in-place)
I0625 08:50:02.975890 55699 layer_factory.hpp:77] Creating layer conv6/sep/scale
I0625 08:50:02.975980 55699 net.cpp:122] Setting up conv6/sep/scale
I0625 08:50:02.976042 55699 net.cpp:129] Top shape: 64 1024 1 1 (65536)
I0625 08:50:02.976079 55699 net.cpp:137] Memory required for data: 105906432
I0625 08:50:02.976120 55699 layer_factory.hpp:77] Creating layer relu6/sep
I0625 08:50:02.976163 55699 net.cpp:84] Creating Layer relu6/sep
I0625 08:50:02.976202 55699 net.cpp:406] relu6/sep <- conv6/sep
I0625 08:50:02.976240 55699 net.cpp:367] relu6/sep -> conv6/sep (in-place)
I0625 08:50:02.976284 55699 net.cpp:122] Setting up relu6/sep
I0625 08:50:02.976325 55699 net.cpp:129] Top shape: 64 1024 1 1 (65536)
I0625 08:50:02.976359 55699 net.cpp:137] Memory required for data: 106168576
I0625 08:50:02.976379 55699 layer_factory.hpp:77] Creating layer pool6
I0625 08:50:02.976402 55699 net.cpp:84] Creating Layer pool6
I0625 08:50:02.976419 55699 net.cpp:406] pool6 <- conv6/sep
I0625 08:50:02.976433 55699 net.cpp:380] pool6 -> pool6
I0625 08:50:02.976526 55699 net.cpp:122] Setting up pool6
I0625 08:50:02.976577 55699 net.cpp:129] Top shape: 64 1024 1 1 (65536)
I0625 08:50:02.976614 55699 net.cpp:137] Memory required for data: 106430720
I0625 08:50:02.976649 55699 layer_factory.hpp:77] Creating layer cifarfc7
I0625 08:50:02.976696 55699 net.cpp:84] Creating Layer cifarfc7
I0625 08:50:02.976734 55699 net.cpp:406] cifarfc7 <- pool6
I0625 08:50:02.976797 55699 net.cpp:380] cifarfc7 -> cifarfc7
I0625 08:50:02.977336 55699 net.cpp:122] Setting up cifarfc7
I0625 08:50:02.977386 55699 net.cpp:129] Top shape: 64 10 1 1 (640)
I0625 08:50:02.977424 55699 net.cpp:137] Memory required for data: 106433280
I0625 08:50:02.977465 55699 layer_factory.hpp:77] Creating layer loss
I0625 08:50:02.977517 55699 net.cpp:84] Creating Layer loss
I0625 08:50:02.977557 55699 net.cpp:406] loss <- cifarfc7
I0625 08:50:02.977596 55699 net.cpp:406] loss <- label
I0625 08:50:02.977638 55699 net.cpp:380] loss -> loss
I0625 08:50:02.977691 55699 layer_factory.hpp:77] Creating layer loss
…
I0625 08:50:02.984081 55699 net.cpp:294] The NetState phase (1) differed from the phase (0) specified by a rule in layer data
I0625 08:50:02.985352 55699 net.cpp:51] Initializing net from parameters: 
name: "MOBILENET"
state {
  phase: TEST
}
layer {
  name: "data"
  type: "Data"
  top: "data"
  top: "label"
  include {
    phase: TEST
  }
  transform_param {
    mirror: true
    mean_file: "/home/sun/MobileNet-Caffe-master/cifar10/mean/mean.binaryproto"
  }
  data_param {
    source: "/home/sun/MobileNet-Caffe-master/cifar10/lmdb/cifar10_test_lmdb"
    batch_size: 64
    backend: LMDB
  }
}
layer {
  name: "conv1"
  type: "Convolution"
  bottom: "data"
  top: "conv1"
  param {
    lr_mult: 1
    decay_mult: 1
  }
  convolution_param {
    num_output: 32
    bias_term: false
    pad: 1
    kernel_size: 3
    stride: 2
    weight_filler {
      type: "msra"
    }
  }
}
layer {
  name: "conv1/bn"
  type: "BatchNorm"
  bottom: "conv1"
  top: "conv1"
  param {
    lr_mult: 0
    decay_mult: 0
  }
  param {
    lr_mult: 0
    decay_mult: 0
  }
  param {
    lr_mult: 0
    decay_mult: 0
  }
  batch_norm_param {
    use_global_stats: true
    eps: 1e-05
  }
}
layer {
  name: "conv1/scale"
  type: "Scale"
  bottom: "conv1"
  top: "conv1"
  param {
    lr_mult: 1
    decay_mult: 0
  }
  param {
    lr_mult: 1
    decay_mult: 0
  }
  scale_param {
    filler {
      value: 1
    }
    bias_term: true
    bias_filler {
      value: 0
    }
  }
}
layer {
  name: "relu1"
  type: "ReLU"
  bottom: "conv1"
  top: "conv1"
}
layer {
  name: "conv2_1/dw"
  type: "Convolution"
  bottom: "conv1"
  top: "conv2_1/dw"
  param {
    lr_mult: 1
    decay_mult: 1
  }
  convolution_param {
    num_output: 32
    bias_term: false
    pad: 1
    kernel_size: 3
    group: 32
    stride: 1
    weight_filler {
      type: "msra"
    }
    engine: CAFFE
  }
}
layer {
  name: "conv2_1/dw/bn"
  type: "BatchNorm"
  bottom: "conv2_1/dw"
  top: "conv2_1/dw"
  param {
    lr_mult: 0
    decay_mult: 0
  }
  param {
    lr_mult: 0
    decay_mult: 0
  }
  param {
    lr_mult: 0
    decay_mult: 0
  }
  batch_norm_param {
    use_global_stats: true
    eps: 1e-05
  }
}
layer {
  name: "conv2_1/dw/scale"
  type: "Scale"
  bottom: "conv2_1/dw"
  top: "conv2_1/dw"
  param {
    lr_mult: 1
    decay_mult: 0
  }
  param {
    lr_mult: 1
    decay_mult: 0
  }
  scale_param {
    filler {
      value: 1
    }
    bias_term: true
    bias_filler {
      value: 0
    }
  }
}
layer {
  name: "relu2_1/dw"
  type: "ReLU"
  bottom: "conv2_1/dw"
  top: "conv2_1/dw"
}
layer {
  name: "conv2_1/sep"
  type: "Convolution"
  bottom: "conv2_1/dw"
  top: "conv2_1/sep"
  param {
    lr_mult: 1
    decay_mult: 1
  }
  convolution_param {
    num_output: 64
    bias_term: false
    pad: 0
    kernel_size: 1
    stride: 1
    weight_filler {
      type: "msra"
    }
  }
}
layer {
  name: "conv2_1/sep/bn"
  type: "BatchNorm"
  bottom: "conv2_1/sep"
  top: "conv2_1/sep"
  param {
    lr_mult: 0
    decay_mult: 0
  }
  param {
    lr_mult: 0
    decay_mult: 0
  }
  param {
    lr_mult: 0
    decay_mult: 0
  }
  batch_norm_param {
    use_global_stats: true
    eps: 1e-05
  }
}
layer {
  name: "conv2_1/sep/scale"
  type: "Scale"
  bottom: "conv2_1/sep"
  top: "conv2_1/sep"
  param {
    lr_mult: 1
    decay_mult: 0
  }
  param {
    lr_mult: 1
    decay_mult: 0
  }
  scale_param {
    filler {
      value: 1
    }
    bias_term: true
    bias_filler {
      value: 0
    }
  }
}
layer {
  name: "relu2_1/sep"
  type: "ReLU"
  bottom: "conv2_1/sep"
  top: "conv2_1/sep"
}
layer {
  name: "conv2_2/dw"
  type: "Convolution"
  bottom: "conv2_1/sep"
  top: "conv2_2/dw"
  param {
    lr_mult: 1
    decay_mult: 1
  }
  convolution_param {
    num_output: 64
    bias_term: false
    pad: 1
    kernel_size: 3
    group: 64
    stride: 2
    weight_filler {
      type: "msra"
    }
    engine: CAFFE
  }
}
layer {
  name: "conv2_2/dw/bn"
  type: "BatchNorm"
  bottom: "conv2_2/dw"
  top: "conv2_2/dw"
  param {
    lr_mult: 0
    decay_mult: 0
  }
  param {
    lr_mult: 0
    decay_mult: 0
  }
  param {
    lr_mult: 0
    decay_mult: 0
  }
  batch_norm_param {
    use_global_stats: true
    eps: 1e-05
  }
}
layer {
  name: "conv2_2/dw/scale"
  type: "Scale"
  bottom: "conv2_2/dw"
  top: "conv2_2/dw"
  param {
    lr_mult: 1
    decay_mult: 0
  }
  param {
    lr_mult: 1
    decay_mult: 0
  }
  scale_param {
    filler {
      value: 1
    }
    bias_term: true
    bias_filler {
      value: 0
    }
  }
}
layer {
  name: "relu2_2/dw"
  type: "ReLU"
  bottom: "conv2_2/dw"
  top: "conv2_2/dw"
}
layer {
  name: "conv2_2/sep"
  type: "Convolution"
  bottom: "conv2_2/dw"
  top: "conv2_2/sep"
  param {
    lr_mult: 1
    decay_mult: 1
  }
  convolution_param {
    num_output: 128
    bias_term: false
    pad: 0
    kernel_size: 1
    stride: 1
    weight_filler {
      type: "msra"
    }
  }
}
layer {
  name: "conv2_2/sep/bn"
  type: "BatchNorm"
  bottom: "conv2_2/sep"
  top: "conv2_2/sep"
  param {
    lr_mult: 0
    decay_mult: 0
  }
  param {
    lr_mult: 0
    decay_mult: 0
  }
  param {
    lr_mult: 0
    decay_mult: 0
  }
  batch_norm_param {
    use_global_stats: true
    eps: 1e-05
  }
}
layer {
  name: "conv2_2/sep/scale"
  type: "Scale"
  bottom: "conv2_2/sep"
  top: "conv2_2/sep"
  param {
    lr_mult: 1
    decay_mult: 0
  }
  param {
    lr_mult: 1
    decay_mult: 0
  }
  scale_param {
    filler {
      value: 1
    }
    bias_term: true
    bias_filler {
      value: 0
    }
  }
}
layer {
  name: "relu2_2/sep"
  type: "ReLU"
  bottom: "conv2_2/sep"
  top: "conv2_2/sep"
}
layer {
  name: "conv3_1/dw"
  type: "Convolution"
  bottom: "conv2_2/sep"
  top: "conv3_1/dw"
  param {
    lr_mult: 1
    decay_mult: 1
  }
  convolution_param {
    num_output: 128
    bias_term: false
    pad: 1
    kernel_size: 3
    group: 128
    stride: 1
    weight_filler {
      type: "msra"
    }
    engine: CAFFE
  }
}
layer {
  name: "conv3_1/dw/bn"
  type: "BatchNorm"
  bottom: "conv3_1/dw"
  top: "conv3_1/dw"
  param {
    lr_mult: 0
    decay_mult: 0
  }
  param {
    lr_mult: 0
    decay_mult: 0
  }
  param {
    lr_mult: 0
    decay_mult: 0
  }
  batch_norm_param {
    use_global_stats: true
    eps: 1e-05
  }
}
layer {
  name: "conv3_1/dw/scale"
  type: "Scale"
  bottom: "conv3_1/dw"
  top: "conv3_1/dw"
  param {
    lr_mult: 1
    decay_mult: 0
  }
  param {
    lr_mult: 1
    decay_mult: 0
  }
  scale_param {
    filler {
      value: 1
    }
    bias_term: true
    bias_filler {
      value: 0
    }
  }
}
layer {
  name: "relu3_1/dw"
  type: "ReLU"
  bottom: "conv3_1/dw"
  top: "conv3_1/dw"
}
layer {
  name: "conv3_1/sep"
  type: "Convolution"
  bottom: "conv3_1/dw"
  top: "conv3_1/sep"
  param {
    lr_mult: 1
    decay_mult: 1
  }
  convolution_param {
    num_output: 128
    bias_term: false
    pad: 0
    kernel_size: 1
    stride: 1
    weight_filler {
      type: "msra"
    }
  }
}
layer {
  name: "conv3_1/sep/bn"
  type: "BatchNorm"
  bottom: "conv3_1/sep"
  top: "conv3_1/sep"
  param {
    lr_mult: 0
    decay_mult: 0
  }
  param {
    lr_mult: 0
    decay_mult: 0
  }
  param {
    lr_mult: 0
    decay_mult: 0
  }
  batch_norm_param {
    use_global_stats: true
    eps: 1e-05
  }
}
layer {
  name: "conv3_1/sep/scale"
  type: "Scale"
  bottom: "conv3_1/sep"
  top: "conv3_1/sep"
  param {
    lr_mult: 1
    decay_mult: 0
  }
  param {
    lr_mult: 1
    decay_mult: 0
  }
  scale_param {
    filler {
      value: 1
    }
    bias_term: true
    bias_filler {
      value: 0
    }
  }
}
layer {
  name: "relu3_1/sep"
  type: "ReLU"
  bottom: "conv3_1/sep"
  top: "conv3_1/sep"
}
layer {
  name: "conv3_2/dw"
  type: "Convolution"
  bottom: "conv3_1/sep"
  top: "conv3_2/dw"
  param {
    lr_mult: 1
    decay_mult: 1
  }
  convolution_param {
    num_output: 128
    bias_term: false
    pad: 1
    kernel_size: 3
    group: 128
    stride: 2
    weight_filler {
      type: "msra"
    }
    engine: CAFFE
  }
}
layer {
  name: "conv3_2/dw/bn"
  type: "BatchNorm"
  bottom: "conv3_2/dw"
  top: "conv3_2/dw"
  param {
    lr_mult: 0
    decay_mult: 0
  }
  param {
    lr_mult: 0
    decay_mult: 0
  }
  param {
    lr_mult: 0
    decay_mult: 0
  }
  batch_norm_param {
    use_global_stats: true
    eps: 1e-05
  }
}
layer {
  name: "conv3_2/dw/scale"
  type: "Scale"
  bottom: "conv3_2/dw"
  top: "conv3_2/dw"
  param {
    lr_mult: 1
    decay_mult: 0
  }
  param {
    lr_mult: 1
    decay_mult: 0
  }
  scale_param {
    filler {
      value: 1
    }
    bias_term: true
    bias_filler {
      value: 0
    }
  }
}
layer {
  name: "relu3_2/dw"
  type: "ReLU"
  bottom: "conv3_2/dw"
  top: "conv3_2/dw"
}
layer {
  name: "conv3_2/sep"
  type: "Convolution"
  bottom: "conv3_2/dw"
  top: "conv3_2/sep"
  param {
    lr_mult: 1
    decay_mult: 1
  }
  convolution_param {
    num_output: 256
    bias_term: false
    pad: 0
    kernel_size: 1
    stride: 1
    weight_filler {
      type: "msra"
    }
  }
}
layer {
  name: "conv3_2/sep/bn"
  type: "BatchNorm"
  bottom: "conv3_2/sep"
  top: "conv3_2/sep"
  param {
    lr_mult: 0
    decay_mult: 0
  }
  param {
    lr_mult: 0
    decay_mult: 0
  }
  param {
    lr_mult: 0
    decay_mult: 0
  }
  batch_norm_param {
    use_global_stats: true
    eps: 1e-05
  }
}
layer {
  name: "conv3_2/sep/scale"
  type: "Scale"
  bottom: "conv3_2/sep"
  top: "conv3_2/sep"
  param {
    lr_mult: 1
    decay_mult: 0
  }
  param {
    lr_mult: 1
    decay_mult: 0
  }
  scale_param {
    filler {
      value: 1
    }
    bias_term: true
    bias_filler {
      value: 0
    }
  }
}
layer {
  name: "relu3_2/sep"
  type: "ReLU"
  bottom: "conv3_2/sep"
  top: "conv3_2/sep"
}
layer {
  name: "conv4_1/dw"
  type: "Convolution"
  bottom: "conv3_2/sep"
  top: "conv4_1/dw"
  param {
    lr_mult: 1
    decay_mult: 1
  }
  convolution_param {
    num_output: 256
    bias_term: false
    pad: 1
    kernel_size: 3
    group: 256
    stride: 1
    weight_filler {
      type: "msra"
    }
    engine: CAFFE
  }
}
layer {
  name: "conv4_1/dw/bn"
  type: "BatchNorm"
  bottom: "conv4_1/dw"
  top: "conv4_1/dw"
  param {
    lr_mult: 0
    decay_mult: 0
  }
  param {
    lr_mult: 0
    decay_mult: 0
  }
  param {
    lr_mult: 0
    decay_mult: 0
  }
  batch_norm_param {
    use_global_stats: true
    eps: 1e-05
  }
}
layer {
  name: "conv4_1/dw/scale"
  type: "Scale"
  bottom: "conv4_1/dw"
  top: "conv4_1/dw"
  param {
    lr_mult: 1
    decay_mult: 0
  }
  param {
    lr_mult: 1
    decay_mult: 0
  }
  scale_param {
    filler {
      value: 1
    }
    bias_term: true
    bias_filler {
      value: 0
    }
  }
}
layer {
  name: "relu4_1/dw"
  type: "ReLU"
  bottom: "conv4_1/dw"
  top: "conv4_1/dw"
}
layer {
  name: "conv4_1/sep"
  type: "Convolution"
  bottom: "conv4_1/dw"
  top: "conv4_1/sep"
  param {
    lr_mult: 1
    decay_mult: 1
  }
  convolution_param {
    num_output: 256
    bias_term: false
    pad: 0
    kernel_size: 1
    stride: 1
    weight_filler {
      type: "msra"
    }
  }
}
layer {
  name: "conv4_1/sep/bn"
  type: "BatchNorm"
  bottom: "conv4_1/sep"
  top: "conv4_1/sep"
  param {
    lr_mult: 0
    decay_mult: 0
  }
  param {
    lr_mult: 0
    decay_mult: 0
  }
  param {
    lr_mult: 0
    decay_mult: 0
  }
  batch_norm_param {
    use_global_stats: true
    eps: 1e-05
  }
}
layer {
  name: "conv4_1/sep/scale"
  type: "Scale"
  bottom: "conv4_1/sep"
  top: "conv4_1/sep"
  param {
    lr_mult: 1
    decay_mult: 0
  }
  param {
    lr_mult: 1
    decay_mult: 0
  }
  scale_param {
    filler {
      value: 1
    }
    bias_term: true
    bias_filler {
      value: 0
    }
  }
}
layer {
  name: "relu4_1/sep"
  type: "ReLU"
  bottom: "conv4_1/sep"
  top: "conv4_1/sep"
}
layer {
  name: "conv4_2/dw"
  type: "Convolution"
  bottom: "conv4_1/sep"
  top: "conv4_2/dw"
  param {
    lr_mult: 1
    decay_mult: 1
  }
  convolution_param {
    num_output: 256
    bias_term: false
    pad: 1
    kernel_size: 3
    group: 256
    stride: 2
    weight_filler {
      type: "msra"
    }
    engine: CAFFE
  }
}
layer {
  name: "conv4_2/dw/bn"
  type: "BatchNorm"
  bottom: "conv4_2/dw"
  top: "conv4_2/dw"
  param {
    lr_mult: 0
    decay_mult: 0
  }
  param {
    lr_mult: 0
    decay_mult: 0
  }
  param {
    lr_mult: 0
    decay_mult: 0
  }
  batch_norm_param {
    use_global_stats: true
    eps: 1e-05
  }
}
layer {
  name: "conv4_2/dw/scale"
  type: "Scale"
  bottom: "conv4_2/dw"
  top: "conv4_2/dw"
  param {
    lr_mult: 1
    decay_mult: 0
  }
  param {
    lr_mult: 1
    decay_mult: 0
  }
  scale_param {
    filler {
      value: 1
    }
    bias_term: true
    bias_filler {
      value: 0
    }
  }
}
layer {
  name: "relu4_2/dw"
  type: "ReLU"
  bottom: "conv4_2/dw"
  top: "conv4_2/dw"
}
layer {
  name: "conv4_2/sep"
  type: "Convolution"
  bottom: "conv4_2/dw"
  top: "conv4_2/sep"
  param {
    lr_mult: 1
    decay_mult: 1
  }
  convolution_param {
    num_output: 512
    bias_term: false
    pad: 0
    kernel_size: 1
    stride: 1
    weight_filler {
      type: "msra"
    }
  }
}
layer {
  name: "conv4_2/sep/bn"
  type: "BatchNorm"
  bottom: "conv4_2/sep"
  top: "conv4_2/sep"
  param {
    lr_mult: 0
    decay_mult: 0
  }
  param {
    lr_mult: 0
    decay_mult: 0
  }
  param {
    lr_mult: 0
    decay_mult: 0
  }
  batch_norm_param {
    use_global_stats: true
    eps: 1e-05
  }
}
layer {
  name: "conv4_2/sep/scale"
  type: "Scale"
  bottom: "conv4_2/sep"
  top: "conv4_2/sep"
  param {
    lr_mult: 1
    decay_mult: 0
  }
  param {
    lr_mult: 1
    decay_mult: 0
  }
  scale_param {
    filler {
      value: 1
    }
    bias_term: true
    bias_filler {
      value: 0
    }
  }
}
layer {
  name: "relu4_2/sep"
  type: "ReLU"
  bottom: "conv4_2/sep"
  top: "conv4_2/sep"
}
layer {
  name: "conv5_1/dw"
  type: "Convolution"
  bottom: "conv4_2/sep"
  top: "conv5_1/dw"
  param {
    lr_mult: 1
    decay_mult: 1
  }
  convolution_param {
    num_output: 512
    bias_term: false
    pad: 1
    kernel_size: 3
    group: 512
    stride: 1
    weight_filler {
      type: "msra"
    }
    engine: CAFFE
  }
}
layer {
  name: "conv5_1/dw/bn"
  type: "BatchNorm"
  bottom: "conv5_1/dw"
  top: "conv5_1/dw"
  param {
    lr_mult: 0
    decay_mult: 0
  }
  param {
    lr_mult: 0
    decay_mult: 0
  }
  param {
    lr_mult: 0
    decay_mult: 0
  }
  batch_norm_param {
    use_global_stats: true
    eps: 1e-05
  }
}
layer {
  name: "conv5_1/dw/scale"
  type: "Scale"
  bottom: "conv5_1/dw"
  top: "conv5_1/dw"
  param {
    lr_mult: 1
    decay_mult: 0
  }
  param {
    lr_mult: 1
    decay_mult: 0
  }
  scale_param {
    filler {
      value: 1
    }
    bias_term: true
    bias_filler {
      value: 0
    }
  }
}
layer {
  name: "relu5_1/dw"
  type: "ReLU"
  bottom: "conv5_1/dw"
  top: "conv5_1/dw"
}
layer {
  name: "conv5_1/sep"
  type: "Convolution"
  bottom: "conv5_1/dw"
  top: "conv5_1/sep"
  param {
    lr_mult: 1
    decay_mult: 1
  }
  convolution_param {
    num_output: 512
    bias_term: false
    pad: 0
    kernel_size: 1
    stride: 1
    weight_filler {
      type: "msra"
    }
  }
}
layer {
  name: "conv5_1/sep/bn"
  type: "BatchNorm"
  bottom: "conv5_1/sep"
  top: "conv5_1/sep"
  param {
    lr_mult: 0
    decay_mult: 0
  }
  param {
    lr_mult: 0
    decay_mult: 0
  }
  param {
    lr_mult: 0
    decay_mult: 0
  }
  batch_norm_param {
    use_global_stats: true
    eps: 1e-05
  }
}
layer {
  name: "conv5_1/sep/scale"
  type: "Scale"
  bottom: "conv5_1/sep"
  top: "conv5_1/sep"
  param {
    lr_mult: 1
    decay_mult: 0
  }
  param {
    lr_mult: 1
    decay_mult: 0
  }
  scale_param {
    filler {
      value: 1
    }
    bias_term: true
    bias_filler {
      value: 0
    }
  }
}
layer {
  name: "relu5_1/sep"
  type: "ReLU"
  bottom: "conv5_1/sep"
  top: "conv5_1/sep"
}
layer {
  name: "conv5_2/dw"
  type: "Convolution"
  bottom: "conv5_1/sep"
  top: "conv5_2/dw"
  param {
    lr_mult: 1
    decay_mult: 1
  }
  convolution_param {
    num_output: 512
    bias_term: false
    pad: 1
    kernel_size: 3
    group: 512
    stride: 1
    weight_filler {
      type: "msra"
    }
    engine: CAFFE
  }
}
layer {
  name: "conv5_2/dw/bn"
  type: "BatchNorm"
  bottom: "conv5_2/dw"
  top: "conv5_2/dw"
  param {
    lr_mult: 0
    decay_mult: 0
  }
  param {
    lr_mult: 0
    decay_mult: 0
  }
  param {
    lr_mult: 0
    decay_mult: 0
  }
  batch_norm_param {
    use_global_stats: true
    eps: 1e-05
  }
}
layer {
  name: "conv5_2/dw/scale"
  type: "Scale"
  bottom: "conv5_2/dw"
  top: "conv5_2/dw"
  param {
    lr_mult: 1
    decay_mult: 0
  }
  param {
    lr_mult: 1
    decay_mult: 0
  }
  scale_param {
    filler {
      value: 1
    }
    bias_term: true
    bias_filler {
      value: 0
    }
  }
}
layer {
  name: "relu5_2/dw"
  type: "ReLU"
  bottom: "conv5_2/dw"
  top: "conv5_2/dw"
}
layer {
  name: "conv5_2/sep"
  type: "Convolution"
  bottom: "conv5_2/dw"
  top: "conv5_2/sep"
  param {
    lr_mult: 1
    decay_mult: 1
  }
  convolution_param {
    num_output: 512
    bias_term: false
    pad: 0
    kernel_size: 1
    stride: 1
    weight_filler {
      type: "msra"
    }
  }
}
layer {
  name: "conv5_2/sep/bn"
  type: "BatchNorm"
  bottom: "conv5_2/sep"
  top: "conv5_2/sep"
  param {
    lr_mult: 0
    decay_mult: 0
  }
  param {
    lr_mult: 0
    decay_mult: 0
  }
  param {
    lr_mult: 0
    decay_mult: 0
  }
  batch_norm_param {
    use_global_stats: true
    eps: 1e-05
  }
}
layer {
  name: "conv5_2/sep/scale"
  type: "Scale"
  bottom: "conv5_2/sep"
  top: "conv5_2/sep"
  param {
    lr_mult: 1
    decay_mult: 0
  }
  param {
    lr_mult: 1
    decay_mult: 0
  }
  scale_param {
    filler {
      value: 1
    }
    bias_term: true
    bias_filler {
      value: 0
    }
  }
}
layer {
  name: "relu5_2/sep"
  type: "ReLU"
  bottom: "conv5_2/sep"
  top: "conv5_2/sep"
}
layer {
  name: "conv5_3/dw"
  type: "Convolution"
  bottom: "conv5_2/sep"
  top: "conv5_3/dw"
  param {
    lr_mult: 1
    decay_mult: 1
  }
  convolution_param {
    num_output: 512
    bias_term: false
    pad: 1
    kernel_size: 3
    group: 512
    stride: 1
    weight_filler {
      type: "msra"
    }
    engine: CAFFE
  }
}
layer {
  name: "conv5_3/dw/bn"
  type: "BatchNorm"
  bottom: "conv5_3/dw"
  top: "conv5_3/dw"
  param {
    lr_mult: 0
    decay_mult: 0
  }
  param {
    lr_mult: 0
    decay_mult: 0
  }
  param {
    lr_mult: 0
    decay_mult: 0
  }
  batch_norm_param {
    use_global_stats: true
    eps: 1e-05
  }
}
layer {
  name: "conv5_3/dw/scale"
  type: "Scale"
  bottom: "conv5_3/dw"
  top: "conv5_3/dw"
  param {
    lr_mult: 1
    decay_mult: 0
  }
  param {
    lr_mult: 1
    decay_mult: 0
  }
  scale_param {
    filler {
      value: 1
    }
    bias_term: true
    bias_filler {
      value: 0
    }
  }
}
layer {
  name: "relu5_3/dw"
  type: "ReLU"
  bottom: "conv5_3/dw"
  top: "conv5_3/dw"
}
layer {
  name: "conv5_3/sep"
  type: "Convolution"
  bottom: "conv5_3/dw"
  top: "conv5_3/sep"
  param {
    lr_mult: 1
    decay_mult: 1
  }
  convolution_param {
    num_output: 512
    bias_term: false
    pad: 0
    kernel_size: 1
    stride: 1
    weight_filler {
      type: "msra"
    }
  }
}
layer {
  name: "conv5_3/sep/bn"
  type: "BatchNorm"
  bottom: "conv5_3/sep"
  top: "conv5_3/sep"
  param {
    lr_mult: 0
    decay_mult: 0
  }
  param {
    lr_mult: 0
    decay_mult: 0
  }
  param {
    lr_mult: 0
    decay_mult: 0
  }
  batch_norm_param {
    use_global_stats: true
    eps: 1e-05
  }
}
layer {
  name: "conv5_3/sep/scale"
  type: "Scale"
  bottom: "conv5_3/sep"
  top: "conv5_3/sep"
  param {
    lr_mult: 1
    decay_mult: 0
  }
  param {
    lr_mult: 1
    decay_mult: 0
  }
  scale_param {
    filler {
      value: 1
    }
    bias_term: true
    bias_filler {
      value: 0
    }
  }
}
layer {
  name: "relu5_3/sep"
  type: "ReLU"
  bottom: "conv5_3/sep"
  top: "conv5_3/sep"
}
layer {
  name: "conv5_4/dw"
  type: "Convolution"
  bottom: "conv5_3/sep"
  top: "conv5_4/dw"
  param {
    lr_mult: 1
    decay_mult: 1
  }
  convolution_param {
    num_output: 512
    bias_term: false
    pad: 1
    kernel_size: 3
    group: 512
    stride: 1
    weight_filler {
      type: "msra"
    }
    engine: CAFFE
  }
}
layer {
  name: "conv5_4/dw/bn"
  type: "BatchNorm"
  bottom: "conv5_4/dw"
  top: "conv5_4/dw"
  param {
    lr_mult: 0
    decay_mult: 0
  }
  param {
    lr_mult: 0
    decay_mult: 0
  }
  param {
    lr_mult: 0
    decay_mult: 0
  }
  batch_norm_param {
    use_global_stats: true
    eps: 1e-05
  }
}
layer {
  name: "conv5_4/dw/scale"
  type: "Scale"
  bottom: "conv5_4/dw"
  top: "conv5_4/dw"
  param {
    lr_mult: 1
    decay_mult: 0
  }
  param {
    lr_mult: 1
    decay_mult: 0
  }
  scale_param {
    filler {
      value: 1
    }
    bias_term: true
    bias_filler {
      value: 0
    }
  }
}
layer {
  name: "relu5_4/dw"
  type: "ReLU"
  bottom: "conv5_4/dw"
  top: "conv5_4/dw"
}
layer {
  name: "conv5_4/sep"
  type: "Convolution"
  bottom: "conv5_4/dw"
  top: "conv5_4/sep"
  param {
    lr_mult: 1
    decay_mult: 1
  }
  convolution_param {
    num_output: 512
    bias_term: false
    pad: 0
    kernel_size: 1
    stride: 1
    weight_filler {
      type: "msra"
    }
  }
}
layer {
  name: "conv5_4/sep/bn"
  type: "BatchNorm"
  bottom: "conv5_4/sep"
  top: "conv5_4/sep"
  param {
    lr_mult: 0
    decay_mult: 0
  }
  param {
    lr_mult: 0
    decay_mult: 0
  }
  param {
    lr_mult: 0
    decay_mult: 0
  }
  batch_norm_param {
    use_global_stats: true
    eps: 1e-05
  }
}
layer {
  name: "conv5_4/sep/scale"
  type: "Scale"
  bottom: "conv5_4/sep"
  top: "conv5_4/sep"
  param {
    lr_mult: 1
    decay_mult: 0
  }
  param {
    lr_mult: 1
    decay_mult: 0
  }
  scale_param {
    filler {
      value: 1
    }
    bias_term: true
    bias_filler {
      value: 0
    }
  }
}
layer {
  name: "relu5_4/sep"
  type: "ReLU"
  bottom: "conv5_4/sep"
  top: "conv5_4/sep"
}
layer {
  name: "conv5_5/dw"
  type: "Convolution"
  bottom: "conv5_4/sep"
  top: "conv5_5/dw"
  param {
    lr_mult: 1
    decay_mult: 1
  }
  convolution_param {
    num_output: 512
    bias_term: false
    pad: 1
    kernel_size: 3
    group: 512
    stride: 1
    weight_filler {
      type: "msra"
    }
    engine: CAFFE
  }
}
layer {
  name: "conv5_5/dw/bn"
  type: "BatchNorm"
  bottom: "conv5_5/dw"
  top: "conv5_5/dw"
  param {
    lr_mult: 0
    decay_mult: 0
  }
  param {
    lr_mult: 0
    decay_mult: 0
  }
  param {
    lr_mult: 0
    decay_mult: 0
  }
  batch_norm_param {
    use_global_stats: true
    eps: 1e-05
  }
}
layer {
  name: "conv5_5/dw/scale"
  type: "Scale"
  bottom: "conv5_5/dw"
  top: "conv5_5/dw"
  param {
    lr_mult: 1
    decay_mult: 0
  }
  param {
    lr_mult: 1
    decay_mult: 0
  }
  scale_param {
    filler {
      value: 1
    }
    bias_term: true
    bias_filler {
      value: 0
    }
  }
}
layer {
  name: "relu5_5/dw"
  type: "ReLU"
  bottom: "conv5_5/dw"
  top: "conv5_5/dw"
}
layer {
  name: "conv5_5/sep"
  type: "Convolution"
  bottom: "conv5_5/dw"
  top: "conv5_5/sep"
  param {
    lr_mult: 1
    decay_mult: 1
  }
  convolution_param {
    num_output: 512
    bias_term: false
    pad: 0
    kernel_size: 1
    stride: 1
    weight_filler {
      type: "msra"
    }
  }
}
layer {
  name: "conv5_5/sep/bn"
  type: "BatchNorm"
  bottom: "conv5_5/sep"
  top: "conv5_5/sep"
  param {
    lr_mult: 0
    decay_mult: 0
  }
  param {
    lr_mult: 0
    decay_mult: 0
  }
  param {
    lr_mult: 0
    decay_mult: 0
  }
  batch_norm_param {
    use_global_stats: true
    eps: 1e-05
  }
}
layer {
  name: "conv5_5/sep/scale"
  type: "Scale"
  bottom: "conv5_5/sep"
  top: "conv5_5/sep"
  param {
    lr_mult: 1
    decay_mult: 0
  }
  param {
    lr_mult: 1
    decay_mult: 0
  }
  scale_param {
    filler {
      value: 1
    }
    bias_term: true
    bias_filler {
      value: 0
    }
  }
}
layer {
  name: "relu5_5/sep"
  type: "ReLU"
  bottom: "conv5_5/sep"
  top: "conv5_5/sep"
}
layer {
  name: "conv5_6/dw"
  type: "Convolution"
  bottom: "conv5_5/sep"
  top: "conv5_6/dw"
  param {
    lr_mult: 1
    decay_mult: 1
  }
  convolution_param {
    num_output: 512
    bias_term: false
    pad: 1
    kernel_size: 3
    group: 512
    stride: 2
    weight_filler {
      type: "msra"
    }
    engine: CAFFE
  }
}
layer {
  name: "conv5_6/dw/bn"
  type: "BatchNorm"
  bottom: "conv5_6/dw"
  top: "conv5_6/dw"
  param {
    lr_mult: 0
    decay_mult: 0
  }
  param {
    lr_mult: 0
    decay_mult: 0
  }
  param {
    lr_mult: 0
    decay_mult: 0
  }
  batch_norm_param {
    use_global_stats: true
    eps: 1e-05
  }
}
layer {
  name: "conv5_6/dw/scale"
  type: "Scale"
  bottom: "conv5_6/dw"
  top: "conv5_6/dw"
  param {
    lr_mult: 1
    decay_mult: 0
  }
  param {
    lr_mult: 1
    decay_mult: 0
  }
  scale_param {
    filler {
      value: 1
    }
    bias_term: true
    bias_filler {
      value: 0
    }
  }
}
layer {
  name: "relu5_6/dw"
  type: "ReLU"
  bottom: "conv5_6/dw"
  top: "conv5_6/dw"
}
layer {
  name: "conv5_6/sep"
  type: "Convolution"
  bottom: "conv5_6/dw"
  top: "conv5_6/sep"
  param {
    lr_mult: 1
    decay_mult: 1
  }
  convolution_param {
    num_output: 1024
    bias_term: false
    pad: 0
    kernel_size: 1
    stride: 1
    weight_filler {
      type: "msra"
    }
  }
}
layer {
  name: "conv5_6/sep/bn"
  type: "BatchNorm"
  bottom: "conv5_6/sep"
  top: "conv5_6/sep"
  param {
    lr_mult: 0
    decay_mult: 0
  }
  param {
    lr_mult: 0
    decay_mult: 0
  }
  param {
    lr_mult: 0
    decay_mult: 0
  }
  batch_norm_param {
    use_global_stats: true
    eps: 1e-05
  }
}
layer {
  name: "conv5_6/sep/scale"
  type: "Scale"
  bottom: "conv5_6/sep"
  top: "conv5_6/sep"
  param {
    lr_mult: 1
    decay_mult: 0
  }
  param {
    lr_mult: 1
    decay_mult: 0
  }
  scale_param {
    filler {
      value: 1
    }
    bias_term: true
    bias_filler {
      value: 0
    }
  }
}
layer {
  name: "relu5_6/sep"
  type: "ReLU"
  bottom: "conv5_6/sep"
  top: "conv5_6/sep"
}
layer {
  name: "conv6/dw"
  type: "Convolution"
  bottom: "conv5_6/sep"
  top: "conv6/dw"
  param {
    lr_mult: 1
    decay_mult: 1
  }
  convolution_param {
    num_output: 1024
    bias_term: false
    pad: 1
    kernel_size: 3
    group: 1024
    stride: 1
    weight_filler {
      type: "msra"
    }
    engine: CAFFE
  }
}
layer {
  name: "conv6/dw/bn"
  type: "BatchNorm"
  bottom: "conv6/dw"
  top: "conv6/dw"
  param {
    lr_mult: 0
    decay_mult: 0
  }
  param {
    lr_mult: 0
    decay_mult: 0
  }
  param {
    lr_mult: 0
    decay_mult: 0
  }
  batch_norm_param {
    use_global_stats: true
    eps: 1e-05
  }
}
layer {
  name: "conv6/dw/scale"
  type: "Scale"
  bottom: "conv6/dw"
  top: "conv6/dw"
  param {
    lr_mult: 1
    decay_mult: 0
  }
  param {
    lr_mult: 1
    decay_mult: 0
  }
  scale_param {
    filler {
      value: 1
    }
    bias_term: true
    bias_filler {
      value: 0
    }
  }
}
layer {
  name: "relu6/dw"
  type: "ReLU"
  bottom: "conv6/dw"
  top: "conv6/dw"
}
layer {
  name: "conv6/sep"
  type: "Convolution"
  bottom: "conv6/dw"
  top: "conv6/sep"
  param {
    lr_mult: 1
    decay_mult: 1
  }
  convolution_param {
    num_output: 1024
    bias_term: false
    pad: 0
    kernel_size: 1
    stride: 1
    weight_filler {
      type: "msra"
    }
  }
}
layer {
  name: "conv6/sep/bn"
  type: "BatchNorm"
  bottom: "conv6/sep"
  top: "conv6/sep"
  param {
    lr_mult: 0
    decay_mult: 0
  }
  param {
    lr_mult: 0
    decay_mult: 0
  }
  param {
    lr_mult: 0
    decay_mult: 0
  }
  batch_norm_param {
    use_global_stats: true
    eps: 1e-05
  }
}
layer {
  name: "conv6/sep/scale"
  type: "Scale"
  bottom: "conv6/sep"
  top: "conv6/sep"
  param {
    lr_mult: 1
    decay_mult: 0
  }
  param {
    lr_mult: 1
    decay_mult: 0
  }
  scale_param {
    filler {
      value: 1
    }
    bias_term: true
    bias_filler {
      value: 0
    }
  }
}
layer {
  name: "relu6/sep"
  type: "ReLU"
  bottom: "conv6/sep"
  top: "conv6/sep"
}
layer {
  name: "pool6"
  type: "Pooling"
  bottom: "conv6/sep"
  top: "pool6"
  pooling_param {
    pool: AVE
    global_pooling: true
  }
}
layer {
  name: "cifarfc7"
  type: "Convolution"
  bottom: "pool6"
  top: "cifarfc7"
  param {
    lr_mult: 1
    decay_mult: 1
  }
  param {
    lr_mult: 2
    decay_mult: 0
  }
  convolution_param {
    num_output: 10
    kernel_size: 1
    weight_filler {
      type: "msra"
    }
    bias_filler {
      type: "constant"
      value: 0
    }
  }
}
layer {
  name: "loss"
  type: "SoftmaxWithLoss"
  bottom: "cifarfc7"
  bottom: "label"
  top: "loss"
}
layer {
  name: "top1/acc"
  type: "Accuracy"
  bottom: "cifarfc7"
  bottom: "label"
  top: "top1/acc"
  include {
    phase: TEST
  }
}
layer {
  name: "top5/acc"
  type: "Accuracy"
  bottom: "cifarfc7"
  bottom: "label"
  top: "top5/acc"
  include {
    phase: TEST
  }
  accuracy_param {
    top_k: 3
  }
}
I0625 08:50:03.008731 55699 layer_factory.hpp:77] Creating layer data
I0625 08:50:03.009079 55699 db_lmdb.cpp:35] Opened lmdb /home/sun/MobileNet-Caffe-master/cifar10/lmdb/cifar10_test_lmdb
I0625 08:50:03.009198 55699 net.cpp:84] Creating Layer data
I0625 08:50:03.009249 55699 net.cpp:380] data -> data
I0625 08:50:03.009304 55699 net.cpp:380] data -> label
I0625 08:50:03.009354 55699 data_transformer.cpp:25] Loading mean file from: /home/sun/MobileNet-Caffe-master/cifar10/mean/mean.binaryproto
I0625 08:50:03.009507 55699 data_layer.cpp:45] output data size: 64,3,32,32
I0625 08:50:03.012850 55699 net.cpp:122] Setting up data
I0625 08:50:03.012931 55699 net.cpp:129] Top shape: 64 3 32 32 (196608)
I0625 08:50:03.013020 55699 net.cpp:129] Top shape: 64 (64)
I0625 08:50:03.013056 55699 net.cpp:137] Memory required for data: 786688
I0625 08:50:03.013093 55699 layer_factory.hpp:77] Creating layer label_data_1_split
I0625 08:50:03.013139 55699 net.cpp:84] Creating Layer label_data_1_split
I0625 08:50:03.013175 55699 net.cpp:406] label_data_1_split <- label
I0625 08:50:03.013223 55699 net.cpp:380] label_data_1_split -> label_data_1_split_0
I0625 08:50:03.013270 55699 net.cpp:380] label_data_1_split -> label_data_1_split_1
I0625 08:50:03.013314 55699 net.cpp:380] label_data_1_split -> label_data_1_split_2
I0625 08:50:03.013423 55699 net.cpp:122] Setting up label_data_1_split
I0625 08:50:03.013468 55699 net.cpp:129] Top shape: 64 (64)
I0625 08:50:03.013514 55699 net.cpp:129] Top shape: 64 (64)
I0625 08:50:03.013550 55699 net.cpp:129] Top shape: 64 (64)
I0625 08:50:03.013590 55699 net.cpp:137] Memory required for data: 787456
I0625 08:50:03.013631 55699 layer_factory.hpp:77] Creating layer conv1
I0625 08:50:03.013679 55699 net.cpp:84] Creating Layer conv1
I0625 08:50:03.013716 55699 net.cpp:406] conv1 <- data
I0625 08:50:03.013758 55699 net.cpp:380] conv1 -> conv1
I0625 08:50:03.013871 55699 net.cpp:122] Setting up conv1
I0625 08:50:03.013926 55699 net.cpp:129] Top shape: 64 32 16 16 (524288)
I0625 08:50:03.013945 55699 net.cpp:137] Memory required for data: 2884608
I0625 08:50:03.013962 55699 layer_factory.hpp:77] Creating layer conv1/bn
I0625 08:50:03.014014 55699 net.cpp:84] Creating Layer conv1/bn
I0625 08:50:03.014053 55699 net.cpp:406] conv1/bn <- conv1
I0625 08:50:03.014092 55699 net.cpp:367] conv1/bn -> conv1 (in-place)
I0625 08:50:03.014199 55699 net.cpp:122] Setting up conv1/bn
I0625 08:50:03.014286 55699 net.cpp:129] Top shape: 64 32 16 16 (524288)
I0625 08:50:03.014320 55699 net.cpp:137] Memory required for data: 4981760
I0625 08:50:03.014369 55699 layer_factory.hpp:77] Creating layer conv1/scale
I0625 08:50:03.014433 55699 net.cpp:84] Creating Layer conv1/scale
I0625 08:50:03.014474 55699 net.cpp:406] conv1/scale <- conv1
I0625 08:50:03.014521 55699 net.cpp:367] conv1/scale -> conv1 (in-place)
I0625 08:50:03.014580 55699 layer_factory.hpp:77] Creating layer conv1/scale
I0625 08:50:03.014652 55699 net.cpp:122] Setting up conv1/scale
I0625 08:50:03.014703 55699 net.cpp:129] Top shape: 64 32 16 16 (524288)
I0625 08:50:03.014739 55699 net.cpp:137] Memory required for data: 7078912
I0625 08:50:03.014811 55699 layer_factory.hpp:77] Creating layer relu1
I0625 08:50:03.014892 55699 net.cpp:84] Creating Layer relu1
I0625 08:50:03.015054 55699 net.cpp:406] relu1 <- conv1
I0625 08:50:03.015074 55699 net.cpp:367] relu1 -> conv1 (in-place)
I0625 08:50:03.015117 55699 net.cpp:122] Setting up relu1
I0625 08:50:03.015239 55699 net.cpp:129] Top shape: 64 32 16 16 (524288)
I0625 08:50:03.015277 55699 net.cpp:137] Memory required for data: 9176064
I0625 08:50:03.015318 55699 layer_factory.hpp:77] Creating layer conv2_1/dw
I0625 08:50:03.015347 55699 net.cpp:84] Creating Layer conv2_1/dw
I0625 08:50:03.015389 55699 net.cpp:406] conv2_1/dw <- conv1
I0625 08:50:03.015414 55699 net.cpp:380] conv2_1/dw -> conv2_1/dw
I0625 08:50:03.015478 55699 net.cpp:122] Setting up conv2_1/dw
I0625 08:50:03.015522 55699 net.cpp:129] Top shape: 64 32 16 16 (524288)
I0625 08:50:03.015556 55699 net.cpp:137] Memory required for data: 11273216
I0625 08:50:03.015575 55699 layer_factory.hpp:77] Creating layer conv2_1/dw/bn
I0625 08:50:03.015625 55699 net.cpp:84] Creating Layer conv2_1/dw/bn
I0625 08:50:03.015664 55699 net.cpp:406] conv2_1/dw/bn <- conv2_1/dw
I0625 08:50:03.015712 55699 net.cpp:367] conv2_1/dw/bn -> conv2_1/dw (in-place)
I0625 08:50:03.015774 55699 net.cpp:122] Setting up conv2_1/dw/bn
I0625 08:50:03.015825 55699 net.cpp:129] Top shape: 64 32 16 16 (524288)
I0625 08:50:03.015882 55699 net.cpp:137] Memory required for data: 13370368
I0625 08:50:03.015929 55699 layer_factory.hpp:77] Creating layer conv2_1/dw/scale
I0625 08:50:03.015980 55699 net.cpp:84] Creating Layer conv2_1/dw/scale
I0625 08:50:03.016018 55699 net.cpp:406] conv2_1/dw/scale <- conv2_1/dw
I0625 08:50:03.016074 55699 net.cpp:367] conv2_1/dw/scale -> conv2_1/dw (in-place)
I0625 08:50:03.016131 55699 layer_factory.hpp:77] Creating layer conv2_1/dw/scale
I0625 08:50:03.016201 55699 net.cpp:122] Setting up conv2_1/dw/scale
I0625 08:50:03.016247 55699 net.cpp:129] Top shape: 64 32 16 16 (524288)
I0625 08:50:03.016288 55699 net.cpp:137] Memory required for data: 15467520
I0625 08:50:03.016309 55699 layer_factory.hpp:77] Creating layer relu2_1/dw
I0625 08:50:03.016345 55699 net.cpp:84] Creating Layer relu2_1/dw
I0625 08:50:03.016382 55699 net.cpp:406] relu2_1/dw <- conv2_1/dw
I0625 08:50:03.016415 55699 net.cpp:367] relu2_1/dw -> conv2_1/dw (in-place)
I0625 08:50:03.016458 55699 net.cpp:122] Setting up relu2_1/dw
I0625 08:50:03.016497 55699 net.cpp:129] Top shape: 64 32 16 16 (524288)
I0625 08:50:03.016531 55699 net.cpp:137] Memory required for data: 17564672
I0625 08:50:03.016572 55699 layer_factory.hpp:77] Creating layer conv2_1/sep
I0625 08:50:03.016599 55699 net.cpp:84] Creating Layer conv2_1/sep
I0625 08:50:03.016618 55699 net.cpp:406] conv2_1/sep <- conv2_1/dw
I0625 08:50:03.016631 55699 net.cpp:380] conv2_1/sep -> conv2_1/sep
I0625 08:50:03.016798 55699 net.cpp:122] Setting up conv2_1/sep
I0625 08:50:03.016858 55699 net.cpp:129] Top shape: 64 64 16 16 (1048576)
I0625 08:50:03.016870 55699 net.cpp:137] Memory required for data: 21758976
I0625 08:50:03.016890 55699 layer_factory.hpp:77] Creating layer conv2_1/sep/bn
I0625 08:50:03.016904 55699 net.cpp:84] Creating Layer conv2_1/sep/bn
I0625 08:50:03.016937 55699 net.cpp:406] conv2_1/sep/bn <- conv2_1/sep
I0625 08:50:03.016963 55699 net.cpp:367] conv2_1/sep/bn -> conv2_1/sep (in-place)
I0625 08:50:03.017014 55699 net.cpp:122] Setting up conv2_1/sep/bn
I0625 08:50:03.017066 55699 net.cpp:129] Top shape: 64 64 16 16 (1048576)
I0625 08:50:03.017109 55699 net.cpp:137] Memory required for data: 25953280
I0625 08:50:03.017148 55699 layer_factory.hpp:77] Creating layer conv2_1/sep/scale
I0625 08:50:03.017191 55699 net.cpp:84] Creating Layer conv2_1/sep/scale
I0625 08:50:03.017230 55699 net.cpp:406] conv2_1/sep/scale <- conv2_1/sep
I0625 08:50:03.017253 55699 net.cpp:367] conv2_1/sep/scale -> conv2_1/sep (in-place)
I0625 08:50:03.017308 55699 layer_factory.hpp:77] Creating layer conv2_1/sep/scale
I0625 08:50:03.017379 55699 net.cpp:122] Setting up conv2_1/sep/scale
I0625 08:50:03.017426 55699 net.cpp:129] Top shape: 64 64 16 16 (1048576)
I0625 08:50:03.017467 55699 net.cpp:137] Memory required for data: 30147584
I0625 08:50:03.017491 55699 layer_factory.hpp:77] Creating layer relu2_1/sep
I0625 08:50:03.017529 55699 net.cpp:84] Creating Layer relu2_1/sep
I0625 08:50:03.017572 55699 net.cpp:406] relu2_1/sep <- conv2_1/sep
I0625 08:50:03.017647 55699 net.cpp:367] relu2_1/sep -> conv2_1/sep (in-place)
I0625 08:50:03.017694 55699 net.cpp:122] Setting up relu2_1/sep
I0625 08:50:03.017735 55699 net.cpp:129] Top shape: 64 64 16 16 (1048576)
I0625 08:50:03.038477 55699 net.cpp:137] Memory required for data: 34341888
I0625 08:50:03.038511 55699 layer_factory.hpp:77] Creating layer conv2_2/dw
I0625 08:50:03.038573 55699 net.cpp:84] Creating Layer conv2_2/dw
I0625 08:50:03.038631 55699 net.cpp:406] conv2_2/dw <- conv2_1/sep
I0625 08:50:03.038671 55699 net.cpp:380] conv2_2/dw -> conv2_2/dw
I0625 08:50:03.038791 55699 net.cpp:122] Setting up conv2_2/dw
I0625 08:50:03.038884 55699 net.cpp:129] Top shape: 64 64 8 8 (262144)
I0625 08:50:03.038923 55699 net.cpp:137] Memory required for data: 35390464
I0625 08:50:03.038947 55699 layer_factory.hpp:77] Creating layer conv2_2/dw/bn
I0625 08:50:03.038977 55699 net.cpp:84] Creating Layer conv2_2/dw/bn
I0625 08:50:03.039016 55699 net.cpp:406] conv2_2/dw/bn <- conv2_2/dw
I0625 08:50:03.039041 55699 net.cpp:367] conv2_2/dw/bn -> conv2_2/dw (in-place)
I0625 08:50:03.039103 55699 net.cpp:122] Setting up conv2_2/dw/bn
I0625 08:50:03.039149 55699 net.cpp:129] Top shape: 64 64 8 8 (262144)
I0625 08:50:03.039183 55699 net.cpp:137] Memory required for data: 36439040
I0625 08:50:03.039206 55699 layer_factory.hpp:77] Creating layer conv2_2/dw/scale
I0625 08:50:03.039250 55699 net.cpp:84] Creating Layer conv2_2/dw/scale
I0625 08:50:03.039300 55699 net.cpp:406] conv2_2/dw/scale <- conv2_2/dw
I0625 08:50:03.039353 55699 net.cpp:367] conv2_2/dw/scale -> conv2_2/dw (in-place)
I0625 08:50:03.039412 55699 layer_factory.hpp:77] Creating layer conv2_2/dw/scale
I0625 08:50:03.039520 55699 net.cpp:122] Setting up conv2_2/dw/scale
I0625 08:50:03.039571 55699 net.cpp:129] Top shape: 64 64 8 8 (262144)
I0625 08:50:03.039604 55699 net.cpp:137] Memory required for data: 37487616
I0625 08:50:03.039630 55699 layer_factory.hpp:77] Creating layer relu2_2/dw
I0625 08:50:03.039649 55699 net.cpp:84] Creating Layer relu2_2/dw
I0625 08:50:03.039681 55699 net.cpp:406] relu2_2/dw <- conv2_2/dw
I0625 08:50:03.039716 55699 net.cpp:367] relu2_2/dw -> conv2_2/dw (in-place)
I0625 08:50:03.039777 55699 net.cpp:122] Setting up relu2_2/dw
I0625 08:50:03.039816 55699 net.cpp:129] Top shape: 64 64 8 8 (262144)
I0625 08:50:03.039850 55699 net.cpp:137] Memory required for data: 38536192
I0625 08:50:03.039866 55699 layer_factory.hpp:77] Creating layer conv2_2/sep
I0625 08:50:03.039906 55699 net.cpp:84] Creating Layer conv2_2/sep
I0625 08:50:03.039942 55699 net.cpp:406] conv2_2/sep <- conv2_2/dw
I0625 08:50:03.039978 55699 net.cpp:380] conv2_2/sep -> conv2_2/sep
I0625 08:50:03.040469 55699 net.cpp:122] Setting up conv2_2/sep
I0625 08:50:03.040520 55699 net.cpp:129] Top shape: 64 128 8 8 (524288)
I0625 08:50:03.040558 55699 net.cpp:137] Memory required for data: 40633344
I0625 08:50:03.040597 55699 layer_factory.hpp:77] Creating layer conv2_2/sep/bn
I0625 08:50:03.040649 55699 net.cpp:84] Creating Layer conv2_2/sep/bn
I0625 08:50:03.040689 55699 net.cpp:406] conv2_2/sep/bn <- conv2_2/sep
I0625 08:50:03.040715 55699 net.cpp:367] conv2_2/sep/bn -> conv2_2/sep (in-place)
I0625 08:50:03.040756 55699 net.cpp:122] Setting up conv2_2/sep/bn
I0625 08:50:03.040803 55699 net.cpp:129] Top shape: 64 128 8 8 (524288)
I0625 08:50:03.040838 55699 net.cpp:137] Memory required for data: 42730496
I0625 08:50:03.040865 55699 layer_factory.hpp:77] Creating layer conv2_2/sep/scale
I0625 08:50:03.040889 55699 net.cpp:84] Creating Layer conv2_2/sep/scale
I0625 08:50:03.040901 55699 net.cpp:406] conv2_2/sep/scale <- conv2_2/sep
I0625 08:50:03.040930 55699 net.cpp:367] conv2_2/sep/scale -> conv2_2/sep (in-place)
I0625 08:50:03.040982 55699 layer_factory.hpp:77] Creating layer conv2_2/sep/scale
I0625 08:50:03.041056 55699 net.cpp:122] Setting up conv2_2/sep/scale
I0625 08:50:03.041112 55699 net.cpp:129] Top shape: 64 128 8 8 (524288)
I0625 08:50:03.041151 55699 net.cpp:137] Memory required for data: 44827648
I0625 08:50:03.041177 55699 layer_factory.hpp:77] Creating layer relu2_2/sep
I0625 08:50:03.041249 55699 net.cpp:84] Creating Layer relu2_2/sep
I0625 08:50:03.041292 55699 net.cpp:406] relu2_2/sep <- conv2_2/sep
I0625 08:50:03.041350 55699 net.cpp:367] relu2_2/sep -> conv2_2/sep (in-place)
I0625 08:50:03.041414 55699 net.cpp:122] Setting up relu2_2/sep
I0625 08:50:03.041456 55699 net.cpp:129] Top shape: 64 128 8 8 (524288)
I0625 08:50:03.041491 55699 net.cpp:137] Memory required for data: 46924800
I0625 08:50:03.041507 55699 layer_factory.hpp:77] Creating layer conv3_1/dw
I0625 08:50:03.041558 55699 net.cpp:84] Creating Layer conv3_1/dw
I0625 08:50:03.041600 55699 net.cpp:406] conv3_1/dw <- conv2_2/sep
I0625 08:50:03.041642 55699 net.cpp:380] conv3_1/dw -> conv3_1/dw
I0625 08:50:03.041836 55699 net.cpp:122] Setting up conv3_1/dw
I0625 08:50:03.041867 55699 net.cpp:129] Top shape: 64 128 8 8 (524288)
I0625 08:50:03.041878 55699 net.cpp:137] Memory required for data: 49021952
I0625 08:50:03.041893 55699 layer_factory.hpp:77] Creating layer conv3_1/dw/bn
I0625 08:50:03.041934 55699 net.cpp:84] Creating Layer conv3_1/dw/bn
I0625 08:50:03.041970 55699 net.cpp:406] conv3_1/dw/bn <- conv3_1/dw
I0625 08:50:03.041995 55699 net.cpp:367] conv3_1/dw/bn -> conv3_1/dw (in-place)
I0625 08:50:03.042064 55699 net.cpp:122] Setting up conv3_1/dw/bn
I0625 08:50:03.042124 55699 net.cpp:129] Top shape: 64 128 8 8 (524288)
I0625 08:50:03.042150 55699 net.cpp:137] Memory required for data: 51119104
I0625 08:50:03.042186 55699 layer_factory.hpp:77] Creating layer conv3_1/dw/scale
I0625 08:50:03.042227 55699 net.cpp:84] Creating Layer conv3_1/dw/scale
I0625 08:50:03.042248 55699 net.cpp:406] conv3_1/dw/scale <- conv3_1/dw
I0625 08:50:03.042261 55699 net.cpp:367] conv3_1/dw/scale -> conv3_1/dw (in-place)
I0625 08:50:03.042320 55699 layer_factory.hpp:77] Creating layer conv3_1/dw/scale
I0625 08:50:03.042398 55699 net.cpp:122] Setting up conv3_1/dw/scale
I0625 08:50:03.042445 55699 net.cpp:129] Top shape: 64 128 8 8 (524288)
I0625 08:50:03.042479 55699 net.cpp:137] Memory required for data: 53216256
I0625 08:50:03.042500 55699 layer_factory.hpp:77] Creating layer relu3_1/dw
I0625 08:50:03.042537 55699 net.cpp:84] Creating Layer relu3_1/dw
I0625 08:50:03.042573 55699 net.cpp:406] relu3_1/dw <- conv3_1/dw
I0625 08:50:03.042596 55699 net.cpp:367] relu3_1/dw -> conv3_1/dw (in-place)
I0625 08:50:03.042611 55699 net.cpp:122] Setting up relu3_1/dw
I0625 08:50:03.042645 55699 net.cpp:129] Top shape: 64 128 8 8 (524288)
I0625 08:50:03.042680 55699 net.cpp:137] Memory required for data: 55313408
I0625 08:50:03.042695 55699 layer_factory.hpp:77] Creating layer conv3_1/sep
I0625 08:50:03.042734 55699 net.cpp:84] Creating Layer conv3_1/sep
I0625 08:50:03.042788 55699 net.cpp:406] conv3_1/sep <- conv3_1/dw
I0625 08:50:03.042842 55699 net.cpp:380] conv3_1/sep -> conv3_1/sep
I0625 08:50:03.043756 55699 net.cpp:122] Setting up conv3_1/sep
I0625 08:50:03.043807 55699 net.cpp:129] Top shape: 64 128 8 8 (524288)
I0625 08:50:03.043946 55699 net.cpp:137] Memory required for data: 57410560
I0625 08:50:03.044016 55699 layer_factory.hpp:77] Creating layer conv3_1/sep/bn
I0625 08:50:03.044102 55699 net.cpp:84] Creating Layer conv3_1/sep/bn
I0625 08:50:03.044126 55699 net.cpp:406] conv3_1/sep/bn <- conv3_1/sep
I0625 08:50:03.044147 55699 net.cpp:367] conv3_1/sep/bn -> conv3_1/sep (in-place)
I0625 08:50:03.044286 55699 net.cpp:122] Setting up conv3_1/sep/bn
I0625 08:50:03.044317 55699 net.cpp:129] Top shape: 64 128 8 8 (524288)
I0625 08:50:03.044325 55699 net.cpp:137] Memory required for data: 59507712
I0625 08:50:03.044349 55699 layer_factory.hpp:77] Creating layer conv3_1/sep/scale
I0625 08:50:03.044414 55699 net.cpp:84] Creating Layer conv3_1/sep/scale
I0625 08:50:03.044456 55699 net.cpp:406] conv3_1/sep/scale <- conv3_1/sep
I0625 08:50:03.044492 55699 net.cpp:367] conv3_1/sep/scale -> conv3_1/sep (in-place)
I0625 08:50:03.044548 55699 layer_factory.hpp:77] Creating layer conv3_1/sep/scale
I0625 08:50:03.044600 55699 net.cpp:122] Setting up conv3_1/sep/scale
I0625 08:50:03.044679 55699 net.cpp:129] Top shape: 64 128 8 8 (524288)
I0625 08:50:03.044744 55699 net.cpp:137] Memory required for data: 61604864
I0625 08:50:03.044849 55699 layer_factory.hpp:77] Creating layer relu3_1/sep
I0625 08:50:03.044870 55699 net.cpp:84] Creating Layer relu3_1/sep
I0625 08:50:03.044935 55699 net.cpp:406] relu3_1/sep <- conv3_1/sep
I0625 08:50:03.044955 55699 net.cpp:367] relu3_1/sep -> conv3_1/sep (in-place)
I0625 08:50:03.044996 55699 net.cpp:122] Setting up relu3_1/sep
I0625 08:50:03.045013 55699 net.cpp:129] Top shape: 64 128 8 8 (524288)
I0625 08:50:03.045045 55699 net.cpp:137] Memory required for data: 63702016
I0625 08:50:03.045061 55699 layer_factory.hpp:77] Creating layer conv3_2/dw
I0625 08:50:03.045203 55699 net.cpp:84] Creating Layer conv3_2/dw
I0625 08:50:03.045251 55699 net.cpp:406] conv3_2/dw <- conv3_1/sep
I0625 08:50:03.045295 55699 net.cpp:380] conv3_2/dw -> conv3_2/dw
I0625 08:50:03.045477 55699 net.cpp:122] Setting up conv3_2/dw
I0625 08:50:03.045537 55699 net.cpp:129] Top shape: 64 128 4 4 (131072)
I0625 08:50:03.045577 55699 net.cpp:137] Memory required for data: 64226304
I0625 08:50:03.045615 55699 layer_factory.hpp:77] Creating layer conv3_2/dw/bn
I0625 08:50:03.045657 55699 net.cpp:84] Creating Layer conv3_2/dw/bn
I0625 08:50:03.045694 55699 net.cpp:406] conv3_2/dw/bn <- conv3_2/dw
I0625 08:50:03.045734 55699 net.cpp:367] conv3_2/dw/bn -> conv3_2/dw (in-place)
I0625 08:50:03.045821 55699 net.cpp:122] Setting up conv3_2/dw/bn
I0625 08:50:03.045871 55699 net.cpp:129] Top shape: 64 128 4 4 (131072)
I0625 08:50:03.045904 55699 net.cpp:137] Memory required for data: 64750592
I0625 08:50:03.045948 55699 layer_factory.hpp:77] Creating layer conv3_2/dw/scale
I0625 08:50:03.046028 55699 net.cpp:84] Creating Layer conv3_2/dw/scale
I0625 08:50:03.046073 55699 net.cpp:406] conv3_2/dw/scale <- conv3_2/dw
I0625 08:50:03.046093 55699 net.cpp:367] conv3_2/dw/scale -> conv3_2/dw (in-place)
I0625 08:50:03.046180 55699 layer_factory.hpp:77] Creating layer conv3_2/dw/scale
I0625 08:50:03.046275 55699 net.cpp:122] Setting up conv3_2/dw/scale
I0625 08:50:03.046324 55699 net.cpp:129] Top shape: 64 128 4 4 (131072)
I0625 08:50:03.046337 55699 net.cpp:137] Memory required for data: 65274880
I0625 08:50:03.046355 55699 layer_factory.hpp:77] Creating layer relu3_2/dw
I0625 08:50:03.046370 55699 net.cpp:84] Creating Layer relu3_2/dw
I0625 08:50:03.046412 55699 net.cpp:406] relu3_2/dw <- conv3_2/dw
I0625 08:50:03.046504 55699 net.cpp:367] relu3_2/dw -> conv3_2/dw (in-place)
I0625 08:50:03.046558 55699 net.cpp:122] Setting up relu3_2/dw
I0625 08:50:03.046600 55699 net.cpp:129] Top shape: 64 128 4 4 (131072)
I0625 08:50:03.046635 55699 net.cpp:137] Memory required for data: 65799168
I0625 08:50:03.046676 55699 layer_factory.hpp:77] Creating layer conv3_2/sep
I0625 08:50:03.046720 55699 net.cpp:84] Creating Layer conv3_2/sep
I0625 08:50:03.046758 55699 net.cpp:406] conv3_2/sep <- conv3_2/dw
I0625 08:50:03.046777 55699 net.cpp:380] conv3_2/sep -> conv3_2/sep
I0625 08:50:03.048617 55699 net.cpp:122] Setting up conv3_2/sep
I0625 08:50:03.048669 55699 net.cpp:129] Top shape: 64 256 4 4 (262144)
I0625 08:50:03.048704 55699 net.cpp:137] Memory required for data: 66847744
I0625 08:50:03.048743 55699 layer_factory.hpp:77] Creating layer conv3_2/sep/bn
I0625 08:50:03.048785 55699 net.cpp:84] Creating Layer conv3_2/sep/bn
I0625 08:50:03.048822 55699 net.cpp:406] conv3_2/sep/bn <- conv3_2/sep
I0625 08:50:03.048872 55699 net.cpp:367] conv3_2/sep/bn -> conv3_2/sep (in-place)
I0625 08:50:03.048964 55699 net.cpp:122] Setting up conv3_2/sep/bn
I0625 08:50:03.049011 55699 net.cpp:129] Top shape: 64 256 4 4 (262144)
I0625 08:50:03.049055 55699 net.cpp:137] Memory required for data: 67896320
I0625 08:50:03.049100 55699 layer_factory.hpp:77] Creating layer conv3_2/sep/scale
I0625 08:50:03.049144 55699 net.cpp:84] Creating Layer conv3_2/sep/scale
I0625 08:50:03.049180 55699 net.cpp:406] conv3_2/sep/scale <- conv3_2/sep
I0625 08:50:03.049232 55699 net.cpp:367] conv3_2/sep/scale -> conv3_2/sep (in-place)
I0625 08:50:03.049289 55699 layer_factory.hpp:77] Creating layer conv3_2/sep/scale
I0625 08:50:03.049365 55699 net.cpp:122] Setting up conv3_2/sep/scale
I0625 08:50:03.049440 55699 net.cpp:129] Top shape: 64 256 4 4 (262144)
I0625 08:50:03.049477 55699 net.cpp:137] Memory required for data: 68944896
I0625 08:50:03.049518 55699 layer_factory.hpp:77] Creating layer relu3_2/sep
I0625 08:50:03.049559 55699 net.cpp:84] Creating Layer relu3_2/sep
I0625 08:50:03.049595 55699 net.cpp:406] relu3_2/sep <- conv3_2/sep
I0625 08:50:03.049634 55699 net.cpp:367] relu3_2/sep -> conv3_2/sep (in-place)
I0625 08:50:03.049677 55699 net.cpp:122] Setting up relu3_2/sep
I0625 08:50:03.049716 55699 net.cpp:129] Top shape: 64 256 4 4 (262144)
I0625 08:50:03.049751 55699 net.cpp:137] Memory required for data: 69993472
I0625 08:50:03.049785 55699 layer_factory.hpp:77] Creating layer conv4_1/dw
I0625 08:50:03.049839 55699 net.cpp:84] Creating Layer conv4_1/dw
I0625 08:50:03.049880 55699 net.cpp:406] conv4_1/dw <- conv3_2/sep
I0625 08:50:03.049922 55699 net.cpp:380] conv4_1/dw -> conv4_1/dw
I0625 08:50:03.050115 55699 net.cpp:122] Setting up conv4_1/dw
I0625 08:50:03.050163 55699 net.cpp:129] Top shape: 64 256 4 4 (262144)
I0625 08:50:03.050199 55699 net.cpp:137] Memory required for data: 71042048
I0625 08:50:03.050236 55699 layer_factory.hpp:77] Creating layer conv4_1/dw/bn
I0625 08:50:03.050277 55699 net.cpp:84] Creating Layer conv4_1/dw/bn
I0625 08:50:03.050314 55699 net.cpp:406] conv4_1/dw/bn <- conv4_1/dw
I0625 08:50:03.050354 55699 net.cpp:367] conv4_1/dw/bn -> conv4_1/dw (in-place)
I0625 08:50:03.050416 55699 net.cpp:122] Setting up conv4_1/dw/bn
I0625 08:50:03.050462 55699 net.cpp:129] Top shape: 64 256 4 4 (262144)
I0625 08:50:03.050495 55699 net.cpp:137] Memory required for data: 72090624
I0625 08:50:03.050536 55699 layer_factory.hpp:77] Creating layer conv4_1/dw/scale
I0625 08:50:03.050578 55699 net.cpp:84] Creating Layer conv4_1/dw/scale
I0625 08:50:03.050616 55699 net.cpp:406] conv4_1/dw/scale <- conv4_1/dw
I0625 08:50:03.050657 55699 net.cpp:367] conv4_1/dw/scale -> conv4_1/dw (in-place)
I0625 08:50:03.050719 55699 layer_factory.hpp:77] Creating layer conv4_1/dw/scale
I0625 08:50:03.050789 55699 net.cpp:122] Setting up conv4_1/dw/scale
I0625 08:50:03.050855 55699 net.cpp:129] Top shape: 64 256 4 4 (262144)
I0625 08:50:03.050891 55699 net.cpp:137] Memory required for data: 73139200
I0625 08:50:03.050932 55699 layer_factory.hpp:77] Creating layer relu4_1/dw
I0625 08:50:03.050972 55699 net.cpp:84] Creating Layer relu4_1/dw
I0625 08:50:03.051019 55699 net.cpp:406] relu4_1/dw <- conv4_1/dw
I0625 08:50:03.051107 55699 net.cpp:367] relu4_1/dw -> conv4_1/dw (in-place)
I0625 08:50:03.051157 55699 net.cpp:122] Setting up relu4_1/dw
I0625 08:50:03.051199 55699 net.cpp:129] Top shape: 64 256 4 4 (262144)
I0625 08:50:03.051234 55699 net.cpp:137] Memory required for data: 74187776
I0625 08:50:03.051268 55699 layer_factory.hpp:77] Creating layer conv4_1/sep
I0625 08:50:03.051324 55699 net.cpp:84] Creating Layer conv4_1/sep
I0625 08:50:03.051367 55699 net.cpp:406] conv4_1/sep <- conv4_1/dw
I0625 08:50:03.051409 55699 net.cpp:380] conv4_1/sep -> conv4_1/sep
I0625 08:50:03.054987 55699 net.cpp:122] Setting up conv4_1/sep
I0625 08:50:03.055037 55699 net.cpp:129] Top shape: 64 256 4 4 (262144)
I0625 08:50:03.055073 55699 net.cpp:137] Memory required for data: 75236352
I0625 08:50:03.055110 55699 layer_factory.hpp:77] Creating layer conv4_1/sep/bn
I0625 08:50:03.055164 55699 net.cpp:84] Creating Layer conv4_1/sep/bn
I0625 08:50:03.069766 55699 net.cpp:406] conv4_1/sep/bn <- conv4_1/sep
I0625 08:50:03.069895 55699 net.cpp:367] conv4_1/sep/bn -> conv4_1/sep (in-place)
I0625 08:50:03.070001 55699 net.cpp:122] Setting up conv4_1/sep/bn
I0625 08:50:03.070053 55699 net.cpp:129] Top shape: 64 256 4 4 (262144)
I0625 08:50:03.070088 55699 net.cpp:137] Memory required for data: 76284928
I0625 08:50:03.070119 55699 layer_factory.hpp:77] Creating layer conv4_1/sep/scale
I0625 08:50:03.070197 55699 net.cpp:84] Creating Layer conv4_1/sep/scale
I0625 08:50:03.070242 55699 net.cpp:406] conv4_1/sep/scale <- conv4_1/sep
I0625 08:50:03.070303 55699 net.cpp:367] conv4_1/sep/scale -> conv4_1/sep (in-place)
I0625 08:50:03.070428 55699 layer_factory.hpp:77] Creating layer conv4_1/sep/scale
I0625 08:50:03.070538 55699 net.cpp:122] Setting up conv4_1/sep/scale
I0625 08:50:03.070586 55699 net.cpp:129] Top shape: 64 256 4 4 (262144)
I0625 08:50:03.070605 55699 net.cpp:137] Memory required for data: 77333504
I0625 08:50:03.070668 55699 layer_factory.hpp:77] Creating layer relu4_1/sep
I0625 08:50:03.070750 55699 net.cpp:84] Creating Layer relu4_1/sep
I0625 08:50:03.070835 55699 net.cpp:406] relu4_1/sep <- conv4_1/sep
I0625 08:50:03.070879 55699 net.cpp:367] relu4_1/sep -> conv4_1/sep (in-place)
I0625 08:50:03.070924 55699 net.cpp:122] Setting up relu4_1/sep
I0625 08:50:03.070964 55699 net.cpp:129] Top shape: 64 256 4 4 (262144)
I0625 08:50:03.070997 55699 net.cpp:137] Memory required for data: 78382080
I0625 08:50:03.071013 55699 layer_factory.hpp:77] Creating layer conv4_2/dw
I0625 08:50:03.071055 55699 net.cpp:84] Creating Layer conv4_2/dw
I0625 08:50:03.071094 55699 net.cpp:406] conv4_2/dw <- conv4_1/sep
I0625 08:50:03.071120 55699 net.cpp:380] conv4_2/dw -> conv4_2/dw
I0625 08:50:03.071316 55699 net.cpp:122] Setting up conv4_2/dw
I0625 08:50:03.071379 55699 net.cpp:129] Top shape: 64 256 2 2 (65536)
I0625 08:50:03.071418 55699 net.cpp:137] Memory required for data: 78644224
I0625 08:50:03.071441 55699 layer_factory.hpp:77] Creating layer conv4_2/dw/bn
I0625 08:50:03.071528 55699 net.cpp:84] Creating Layer conv4_2/dw/bn
I0625 08:50:03.071602 55699 net.cpp:406] conv4_2/dw/bn <- conv4_2/dw
I0625 08:50:03.071624 55699 net.cpp:367] conv4_2/dw/bn -> conv4_2/dw (in-place)
I0625 08:50:03.071717 55699 net.cpp:122] Setting up conv4_2/dw/bn
I0625 08:50:03.071768 55699 net.cpp:129] Top shape: 64 256 2 2 (65536)
I0625 08:50:03.071804 55699 net.cpp:137] Memory required for data: 78906368
I0625 08:50:03.071832 55699 layer_factory.hpp:77] Creating layer conv4_2/dw/scale
I0625 08:50:03.071892 55699 net.cpp:84] Creating Layer conv4_2/dw/scale
I0625 08:50:03.071938 55699 net.cpp:406] conv4_2/dw/scale <- conv4_2/dw
I0625 08:50:03.071964 55699 net.cpp:367] conv4_2/dw/scale -> conv4_2/dw (in-place)
I0625 08:50:03.071997 55699 layer_factory.hpp:77] Creating layer conv4_2/dw/scale
I0625 08:50:03.072088 55699 net.cpp:122] Setting up conv4_2/dw/scale
I0625 08:50:03.072137 55699 net.cpp:129] Top shape: 64 256 2 2 (65536)
I0625 08:50:03.072172 55699 net.cpp:137] Memory required for data: 79168512
I0625 08:50:03.072198 55699 layer_factory.hpp:77] Creating layer relu4_2/dw
I0625 08:50:03.072216 55699 net.cpp:84] Creating Layer relu4_2/dw
I0625 08:50:03.072249 55699 net.cpp:406] relu4_2/dw <- conv4_2/dw
I0625 08:50:03.072288 55699 net.cpp:367] relu4_2/dw -> conv4_2/dw (in-place)
I0625 08:50:03.072332 55699 net.cpp:122] Setting up relu4_2/dw
I0625 08:50:03.072374 55699 net.cpp:129] Top shape: 64 256 2 2 (65536)
I0625 08:50:03.072408 55699 net.cpp:137] Memory required for data: 79430656
I0625 08:50:03.072427 55699 layer_factory.hpp:77] Creating layer conv4_2/sep
I0625 08:50:03.072458 55699 net.cpp:84] Creating Layer conv4_2/sep
I0625 08:50:03.072506 55699 net.cpp:406] conv4_2/sep <- conv4_2/dw
I0625 08:50:03.072551 55699 net.cpp:380] conv4_2/sep -> conv4_2/sep
I0625 08:50:03.079902 55699 net.cpp:122] Setting up conv4_2/sep
I0625 08:50:03.080003 55699 net.cpp:129] Top shape: 64 512 2 2 (131072)
I0625 08:50:03.080046 55699 net.cpp:137] Memory required for data: 79954944
I0625 08:50:03.080088 55699 layer_factory.hpp:77] Creating layer conv4_2/sep/bn
I0625 08:50:03.080133 55699 net.cpp:84] Creating Layer conv4_2/sep/bn
I0625 08:50:03.080171 55699 net.cpp:406] conv4_2/sep/bn <- conv4_2/sep
I0625 08:50:03.080222 55699 net.cpp:367] conv4_2/sep/bn -> conv4_2/sep (in-place)
I0625 08:50:03.080308 55699 net.cpp:122] Setting up conv4_2/sep/bn
I0625 08:50:03.080355 55699 net.cpp:129] Top shape: 64 512 2 2 (131072)
I0625 08:50:03.080390 55699 net.cpp:137] Memory required for data: 80479232
I0625 08:50:03.080411 55699 layer_factory.hpp:77] Creating layer conv4_2/sep/scale
I0625 08:50:03.080440 55699 net.cpp:84] Creating Layer conv4_2/sep/scale
I0625 08:50:03.080477 55699 net.cpp:406] conv4_2/sep/scale <- conv4_2/sep
I0625 08:50:03.080569 55699 net.cpp:367] conv4_2/sep/scale -> conv4_2/sep (in-place)
I0625 08:50:03.080613 55699 layer_factory.hpp:77] Creating layer conv4_2/sep/scale
I0625 08:50:03.080735 55699 net.cpp:122] Setting up conv4_2/sep/scale
I0625 08:50:03.080770 55699 net.cpp:129] Top shape: 64 512 2 2 (131072)
I0625 08:50:03.080804 55699 net.cpp:137] Memory required for data: 81003520
I0625 08:50:03.080847 55699 layer_factory.hpp:77] Creating layer relu4_2/sep
I0625 08:50:03.080889 55699 net.cpp:84] Creating Layer relu4_2/sep
I0625 08:50:03.080927 55699 net.cpp:406] relu4_2/sep <- conv4_2/sep
I0625 08:50:03.080966 55699 net.cpp:367] relu4_2/sep -> conv4_2/sep (in-place)
I0625 08:50:03.081010 55699 net.cpp:122] Setting up relu4_2/sep
I0625 08:50:03.081050 55699 net.cpp:129] Top shape: 64 512 2 2 (131072)
I0625 08:50:03.081063 55699 net.cpp:137] Memory required for data: 81527808
I0625 08:50:03.081079 55699 layer_factory.hpp:77] Creating layer conv5_1/dw
I0625 08:50:03.081136 55699 net.cpp:84] Creating Layer conv5_1/dw
I0625 08:50:03.081182 55699 net.cpp:406] conv5_1/dw <- conv4_2/sep
I0625 08:50:03.081226 55699 net.cpp:380] conv5_1/dw -> conv5_1/dw
I0625 08:50:03.081576 55699 net.cpp:122] Setting up conv5_1/dw
I0625 08:50:03.081629 55699 net.cpp:129] Top shape: 64 512 2 2 (131072)
I0625 08:50:03.081665 55699 net.cpp:137] Memory required for data: 82052096
I0625 08:50:03.081703 55699 layer_factory.hpp:77] Creating layer conv5_1/dw/bn
I0625 08:50:03.081744 55699 net.cpp:84] Creating Layer conv5_1/dw/bn
I0625 08:50:03.081781 55699 net.cpp:406] conv5_1/dw/bn <- conv5_1/dw
I0625 08:50:03.081831 55699 net.cpp:367] conv5_1/dw/bn -> conv5_1/dw (in-place)
I0625 08:50:03.081923 55699 net.cpp:122] Setting up conv5_1/dw/bn
I0625 08:50:03.081971 55699 net.cpp:129] Top shape: 64 512 2 2 (131072)
I0625 08:50:03.082006 55699 net.cpp:137] Memory required for data: 82576384
I0625 08:50:03.082048 55699 layer_factory.hpp:77] Creating layer conv5_1/dw/scale
I0625 08:50:03.082103 55699 net.cpp:84] Creating Layer conv5_1/dw/scale
I0625 08:50:03.082142 55699 net.cpp:406] conv5_1/dw/scale <- conv5_1/dw
I0625 08:50:03.082216 55699 net.cpp:367] conv5_1/dw/scale -> conv5_1/dw (in-place)
I0625 08:50:03.082298 55699 layer_factory.hpp:77] Creating layer conv5_1/dw/scale
I0625 08:50:03.082406 55699 net.cpp:122] Setting up conv5_1/dw/scale
I0625 08:50:03.082454 55699 net.cpp:129] Top shape: 64 512 2 2 (131072)
I0625 08:50:03.082489 55699 net.cpp:137] Memory required for data: 83100672
I0625 08:50:03.082530 55699 layer_factory.hpp:77] Creating layer relu5_1/dw
I0625 08:50:03.082569 55699 net.cpp:84] Creating Layer relu5_1/dw
I0625 08:50:03.082607 55699 net.cpp:406] relu5_1/dw <- conv5_1/dw
I0625 08:50:03.082644 55699 net.cpp:367] relu5_1/dw -> conv5_1/dw (in-place)
I0625 08:50:03.082686 55699 net.cpp:122] Setting up relu5_1/dw
I0625 08:50:03.082726 55699 net.cpp:129] Top shape: 64 512 2 2 (131072)
I0625 08:50:03.082759 55699 net.cpp:137] Memory required for data: 83624960
I0625 08:50:03.082772 55699 layer_factory.hpp:77] Creating layer conv5_1/sep
I0625 08:50:03.082806 55699 net.cpp:84] Creating Layer conv5_1/sep
I0625 08:50:03.082876 55699 net.cpp:406] conv5_1/sep <- conv5_1/dw
I0625 08:50:03.082933 55699 net.cpp:380] conv5_1/sep -> conv5_1/sep
I0625 08:50:03.097581 55699 net.cpp:122] Setting up conv5_1/sep
I0625 08:50:03.097679 55699 net.cpp:129] Top shape: 64 512 2 2 (131072)
I0625 08:50:03.097724 55699 net.cpp:137] Memory required for data: 84149248
I0625 08:50:03.097753 55699 layer_factory.hpp:77] Creating layer conv5_1/sep/bn
I0625 08:50:03.097800 55699 net.cpp:84] Creating Layer conv5_1/sep/bn
I0625 08:50:03.097839 55699 net.cpp:406] conv5_1/sep/bn <- conv5_1/sep
I0625 08:50:03.097883 55699 net.cpp:367] conv5_1/sep/bn -> conv5_1/sep (in-place)
I0625 08:50:03.097970 55699 net.cpp:122] Setting up conv5_1/sep/bn
I0625 08:50:03.098031 55699 net.cpp:129] Top shape: 64 512 2 2 (131072)
I0625 08:50:03.098069 55699 net.cpp:137] Memory required for data: 84673536
I0625 08:50:03.098114 55699 layer_factory.hpp:77] Creating layer conv5_1/sep/scale
I0625 08:50:03.098214 55699 net.cpp:84] Creating Layer conv5_1/sep/scale
I0625 08:50:03.098254 55699 net.cpp:406] conv5_1/sep/scale <- conv5_1/sep
I0625 08:50:03.098309 55699 net.cpp:367] conv5_1/sep/scale -> conv5_1/sep (in-place)
I0625 08:50:03.098373 55699 layer_factory.hpp:77] Creating layer conv5_1/sep/scale
I0625 08:50:03.098449 55699 net.cpp:122] Setting up conv5_1/sep/scale
I0625 08:50:03.098505 55699 net.cpp:129] Top shape: 64 512 2 2 (131072)
I0625 08:50:03.098541 55699 net.cpp:137] Memory required for data: 85197824
I0625 08:50:03.098582 55699 layer_factory.hpp:77] Creating layer relu5_1/sep
I0625 08:50:03.098624 55699 net.cpp:84] Creating Layer relu5_1/sep
I0625 08:50:03.098660 55699 net.cpp:406] relu5_1/sep <- conv5_1/sep
I0625 08:50:03.098698 55699 net.cpp:367] relu5_1/sep -> conv5_1/sep (in-place)
I0625 08:50:03.098742 55699 net.cpp:122] Setting up relu5_1/sep
I0625 08:50:03.098803 55699 net.cpp:129] Top shape: 64 512 2 2 (131072)
I0625 08:50:03.098850 55699 net.cpp:137] Memory required for data: 85722112
I0625 08:50:03.098886 55699 layer_factory.hpp:77] Creating layer conv5_2/dw
I0625 08:50:03.098932 55699 net.cpp:84] Creating Layer conv5_2/dw
I0625 08:50:03.098969 55699 net.cpp:406] conv5_2/dw <- conv5_1/sep
I0625 08:50:03.099052 55699 net.cpp:380] conv5_2/dw -> conv5_2/dw
I0625 08:50:03.099346 55699 net.cpp:122] Setting up conv5_2/dw
I0625 08:50:03.099395 55699 net.cpp:129] Top shape: 64 512 2 2 (131072)
I0625 08:50:03.099428 55699 net.cpp:137] Memory required for data: 86246400
I0625 08:50:03.099467 55699 layer_factory.hpp:77] Creating layer conv5_2/dw/bn
I0625 08:50:03.099508 55699 net.cpp:84] Creating Layer conv5_2/dw/bn
I0625 08:50:03.099545 55699 net.cpp:406] conv5_2/dw/bn <- conv5_2/dw
I0625 08:50:03.099583 55699 net.cpp:367] conv5_2/dw/bn -> conv5_2/dw (in-place)
I0625 08:50:03.099647 55699 net.cpp:122] Setting up conv5_2/dw/bn
I0625 08:50:03.099691 55699 net.cpp:129] Top shape: 64 512 2 2 (131072)
I0625 08:50:03.099725 55699 net.cpp:137] Memory required for data: 86770688
I0625 08:50:03.099767 55699 layer_factory.hpp:77] Creating layer conv5_2/dw/scale
I0625 08:50:03.099850 55699 net.cpp:84] Creating Layer conv5_2/dw/scale
I0625 08:50:03.099895 55699 net.cpp:406] conv5_2/dw/scale <- conv5_2/dw
I0625 08:50:03.099936 55699 net.cpp:367] conv5_2/dw/scale -> conv5_2/dw (in-place)
I0625 08:50:03.100000 55699 layer_factory.hpp:77] Creating layer conv5_2/dw/scale
I0625 08:50:03.100111 55699 net.cpp:122] Setting up conv5_2/dw/scale
I0625 08:50:03.100159 55699 net.cpp:129] Top shape: 64 512 2 2 (131072)
I0625 08:50:03.100193 55699 net.cpp:137] Memory required for data: 87294976
I0625 08:50:03.100234 55699 layer_factory.hpp:77] Creating layer relu5_2/dw
I0625 08:50:03.100275 55699 net.cpp:84] Creating Layer relu5_2/dw
I0625 08:50:03.100311 55699 net.cpp:406] relu5_2/dw <- conv5_2/dw
I0625 08:50:03.100349 55699 net.cpp:367] relu5_2/dw -> conv5_2/dw (in-place)
I0625 08:50:03.100391 55699 net.cpp:122] Setting up relu5_2/dw
I0625 08:50:03.100431 55699 net.cpp:129] Top shape: 64 512 2 2 (131072)
I0625 08:50:03.100464 55699 net.cpp:137] Memory required for data: 87819264
I0625 08:50:03.100498 55699 layer_factory.hpp:77] Creating layer conv5_2/sep
I0625 08:50:03.100553 55699 net.cpp:84] Creating Layer conv5_2/sep
I0625 08:50:03.100594 55699 net.cpp:406] conv5_2/sep <- conv5_2/dw
I0625 08:50:03.100646 55699 net.cpp:380] conv5_2/sep -> conv5_2/sep
I0625 08:50:03.114398 55699 net.cpp:122] Setting up conv5_2/sep
I0625 08:50:03.114480 55699 net.cpp:129] Top shape: 64 512 2 2 (131072)
I0625 08:50:03.114519 55699 net.cpp:137] Memory required for data: 88343552
I0625 08:50:03.114562 55699 layer_factory.hpp:77] Creating layer conv5_2/sep/bn
I0625 08:50:03.114609 55699 net.cpp:84] Creating Layer conv5_2/sep/bn
I0625 08:50:03.114648 55699 net.cpp:406] conv5_2/sep/bn <- conv5_2/sep
I0625 08:50:03.114689 55699 net.cpp:367] conv5_2/sep/bn -> conv5_2/sep (in-place)
I0625 08:50:03.114755 55699 net.cpp:122] Setting up conv5_2/sep/bn
I0625 08:50:03.114817 55699 net.cpp:129] Top shape: 64 512 2 2 (131072)
I0625 08:50:03.114894 55699 net.cpp:137] Memory required for data: 88867840
I0625 08:50:03.114941 55699 layer_factory.hpp:77] Creating layer conv5_2/sep/scale
I0625 08:50:03.114994 55699 net.cpp:84] Creating Layer conv5_2/sep/scale
I0625 08:50:03.115033 55699 net.cpp:406] conv5_2/sep/scale <- conv5_2/sep
I0625 08:50:03.115073 55699 net.cpp:367] conv5_2/sep/scale -> conv5_2/sep (in-place)
I0625 08:50:03.115130 55699 layer_factory.hpp:77] Creating layer conv5_2/sep/scale
I0625 08:50:03.115198 55699 net.cpp:122] Setting up conv5_2/sep/scale
I0625 08:50:03.115244 55699 net.cpp:129] Top shape: 64 512 2 2 (131072)
I0625 08:50:03.115278 55699 net.cpp:137] Memory required for data: 89392128
I0625 08:50:03.115319 55699 layer_factory.hpp:77] Creating layer relu5_2/sep
I0625 08:50:03.115360 55699 net.cpp:84] Creating Layer relu5_2/sep
I0625 08:50:03.115397 55699 net.cpp:406] relu5_2/sep <- conv5_2/sep
I0625 08:50:03.115449 55699 net.cpp:367] relu5_2/sep -> conv5_2/sep (in-place)
I0625 08:50:03.115495 55699 net.cpp:122] Setting up relu5_2/sep
I0625 08:50:03.115511 55699 net.cpp:129] Top shape: 64 512 2 2 (131072)
I0625 08:50:03.115520 55699 net.cpp:137] Memory required for data: 89916416
I0625 08:50:03.115537 55699 layer_factory.hpp:77] Creating layer conv5_3/dw
I0625 08:50:03.115556 55699 net.cpp:84] Creating Layer conv5_3/dw
I0625 08:50:03.115591 55699 net.cpp:406] conv5_3/dw <- conv5_2/sep
I0625 08:50:03.115623 55699 net.cpp:380] conv5_3/dw -> conv5_3/dw
I0625 08:50:03.115888 55699 net.cpp:122] Setting up conv5_3/dw
I0625 08:50:03.115947 55699 net.cpp:129] Top shape: 64 512 2 2 (131072)
I0625 08:50:03.115985 55699 net.cpp:137] Memory required for data: 90440704
I0625 08:50:03.116025 55699 layer_factory.hpp:77] Creating layer conv5_3/dw/bn
I0625 08:50:03.116075 55699 net.cpp:84] Creating Layer conv5_3/dw/bn
I0625 08:50:03.116113 55699 net.cpp:406] conv5_3/dw/bn <- conv5_3/dw
I0625 08:50:03.116153 55699 net.cpp:367] conv5_3/dw/bn -> conv5_3/dw (in-place)
I0625 08:50:03.116219 55699 net.cpp:122] Setting up conv5_3/dw/bn
I0625 08:50:03.116266 55699 net.cpp:129] Top shape: 64 512 2 2 (131072)
I0625 08:50:03.116310 55699 net.cpp:137] Memory required for data: 90964992
I0625 08:50:03.116356 55699 layer_factory.hpp:77] Creating layer conv5_3/dw/scale
I0625 08:50:03.116405 55699 net.cpp:84] Creating Layer conv5_3/dw/scale
I0625 08:50:03.116466 55699 net.cpp:406] conv5_3/dw/scale <- conv5_3/dw
I0625 08:50:03.116514 55699 net.cpp:367] conv5_3/dw/scale -> conv5_3/dw (in-place)
I0625 08:50:03.116570 55699 layer_factory.hpp:77] Creating layer conv5_3/dw/scale
I0625 08:50:03.116638 55699 net.cpp:122] Setting up conv5_3/dw/scale
I0625 08:50:03.116689 55699 net.cpp:129] Top shape: 64 512 2 2 (131072)
I0625 08:50:03.116726 55699 net.cpp:137] Memory required for data: 91489280
I0625 08:50:03.116767 55699 layer_factory.hpp:77] Creating layer relu5_3/dw
I0625 08:50:03.116807 55699 net.cpp:84] Creating Layer relu5_3/dw
I0625 08:50:03.116844 55699 net.cpp:406] relu5_3/dw <- conv5_3/dw
I0625 08:50:03.116883 55699 net.cpp:367] relu5_3/dw -> conv5_3/dw (in-place)
I0625 08:50:03.116926 55699 net.cpp:122] Setting up relu5_3/dw
I0625 08:50:03.116966 55699 net.cpp:129] Top shape: 64 512 2 2 (131072)
I0625 08:50:03.116998 55699 net.cpp:137] Memory required for data: 92013568
I0625 08:50:03.117033 55699 layer_factory.hpp:77] Creating layer conv5_3/sep
I0625 08:50:03.117112 55699 net.cpp:84] Creating Layer conv5_3/sep
I0625 08:50:03.117158 55699 net.cpp:406] conv5_3/sep <- conv5_3/dw
I0625 08:50:03.117202 55699 net.cpp:380] conv5_3/sep -> conv5_3/sep
I0625 08:50:03.130605 55699 net.cpp:122] Setting up conv5_3/sep
I0625 08:50:03.130679 55699 net.cpp:129] Top shape: 64 512 2 2 (131072)
I0625 08:50:03.130715 55699 net.cpp:137] Memory required for data: 92537856
I0625 08:50:03.130741 55699 layer_factory.hpp:77] Creating layer conv5_3/sep/bn
I0625 08:50:03.130823 55699 net.cpp:84] Creating Layer conv5_3/sep/bn
I0625 08:50:03.130872 55699 net.cpp:406] conv5_3/sep/bn <- conv5_3/sep
I0625 08:50:03.130914 55699 net.cpp:367] conv5_3/sep/bn -> conv5_3/sep (in-place)
I0625 08:50:03.131067 55699 net.cpp:122] Setting up conv5_3/sep/bn
I0625 08:50:03.131130 55699 net.cpp:129] Top shape: 64 512 2 2 (131072)
I0625 08:50:03.131167 55699 net.cpp:137] Memory required for data: 93062144
I0625 08:50:03.131212 55699 layer_factory.hpp:77] Creating layer conv5_3/sep/scale
I0625 08:50:03.131258 55699 net.cpp:84] Creating Layer conv5_3/sep/scale
I0625 08:50:03.131296 55699 net.cpp:406] conv5_3/sep/scale <- conv5_3/sep
I0625 08:50:03.131348 55699 net.cpp:367] conv5_3/sep/scale -> conv5_3/sep (in-place)
I0625 08:50:03.131409 55699 layer_factory.hpp:77] Creating layer conv5_3/sep/scale
I0625 08:50:03.131487 55699 net.cpp:122] Setting up conv5_3/sep/scale
I0625 08:50:03.131536 55699 net.cpp:129] Top shape: 64 512 2 2 (131072)
I0625 08:50:03.131570 55699 net.cpp:137] Memory required for data: 93586432
I0625 08:50:03.131611 55699 layer_factory.hpp:77] Creating layer relu5_3/sep
I0625 08:50:03.131662 55699 net.cpp:84] Creating Layer relu5_3/sep
I0625 08:50:03.131703 55699 net.cpp:406] relu5_3/sep <- conv5_3/sep
I0625 08:50:03.131744 55699 net.cpp:367] relu5_3/sep -> conv5_3/sep (in-place)
I0625 08:50:03.131788 55699 net.cpp:122] Setting up relu5_3/sep
I0625 08:50:03.131829 55699 net.cpp:129] Top shape: 64 512 2 2 (131072)
I0625 08:50:03.131862 55699 net.cpp:137] Memory required for data: 94110720
I0625 08:50:03.131897 55699 layer_factory.hpp:77] Creating layer conv5_4/dw
I0625 08:50:03.131942 55699 net.cpp:84] Creating Layer conv5_4/dw
I0625 08:50:03.131981 55699 net.cpp:406] conv5_4/dw <- conv5_3/sep
I0625 08:50:03.132024 55699 net.cpp:380] conv5_4/dw -> conv5_4/dw
I0625 08:50:03.132356 55699 net.cpp:122] Setting up conv5_4/dw
I0625 08:50:03.132407 55699 net.cpp:129] Top shape: 64 512 2 2 (131072)
I0625 08:50:03.132442 55699 net.cpp:137] Memory required for data: 94635008
I0625 08:50:03.132483 55699 layer_factory.hpp:77] Creating layer conv5_4/dw/bn
I0625 08:50:03.132524 55699 net.cpp:84] Creating Layer conv5_4/dw/bn
I0625 08:50:03.132561 55699 net.cpp:406] conv5_4/dw/bn <- conv5_4/dw
I0625 08:50:03.132601 55699 net.cpp:367] conv5_4/dw/bn -> conv5_4/dw (in-place)
I0625 08:50:03.132665 55699 net.cpp:122] Setting up conv5_4/dw/bn
I0625 08:50:03.132716 55699 net.cpp:129] Top shape: 64 512 2 2 (131072)
I0625 08:50:03.132751 55699 net.cpp:137] Memory required for data: 95159296
I0625 08:50:03.132796 55699 layer_factory.hpp:77] Creating layer conv5_4/dw/scale
I0625 08:50:03.132838 55699 net.cpp:84] Creating Layer conv5_4/dw/scale
I0625 08:50:03.132876 55699 net.cpp:406] conv5_4/dw/scale <- conv5_4/dw
I0625 08:50:03.132927 55699 net.cpp:367] conv5_4/dw/scale -> conv5_4/dw (in-place)
I0625 08:50:03.132997 55699 layer_factory.hpp:77] Creating layer conv5_4/dw/scale
I0625 08:50:03.133088 55699 net.cpp:122] Setting up conv5_4/dw/scale
I0625 08:50:03.133136 55699 net.cpp:129] Top shape: 64 512 2 2 (131072)
I0625 08:50:03.133170 55699 net.cpp:137] Memory required for data: 95683584
I0625 08:50:03.133213 55699 layer_factory.hpp:77] Creating layer relu5_4/dw
I0625 08:50:03.133252 55699 net.cpp:84] Creating Layer relu5_4/dw
I0625 08:50:03.133291 55699 net.cpp:406] relu5_4/dw <- conv5_4/dw
I0625 08:50:03.133340 55699 net.cpp:367] relu5_4/dw -> conv5_4/dw (in-place)
I0625 08:50:03.133388 55699 net.cpp:122] Setting up relu5_4/dw
I0625 08:50:03.133428 55699 net.cpp:129] Top shape: 64 512 2 2 (131072)
I0625 08:50:03.133462 55699 net.cpp:137] Memory required for data: 96207872
I0625 08:50:03.133497 55699 layer_factory.hpp:77] Creating layer conv5_4/sep
I0625 08:50:03.133540 55699 net.cpp:84] Creating Layer conv5_4/sep
I0625 08:50:03.133579 55699 net.cpp:406] conv5_4/sep <- conv5_4/dw
I0625 08:50:03.133612 55699 net.cpp:380] conv5_4/sep -> conv5_4/sep
I0625 08:50:03.147511 55699 net.cpp:122] Setting up conv5_4/sep
I0625 08:50:03.147598 55699 net.cpp:129] Top shape: 64 512 2 2 (131072)
I0625 08:50:03.147613 55699 net.cpp:137] Memory required for data: 96732160
I0625 08:50:03.147640 55699 layer_factory.hpp:77] Creating layer conv5_4/sep/bn
I0625 08:50:03.147722 55699 net.cpp:84] Creating Layer conv5_4/sep/bn
I0625 08:50:03.147783 55699 net.cpp:406] conv5_4/sep/bn <- conv5_4/sep
I0625 08:50:03.147902 55699 net.cpp:367] conv5_4/sep/bn -> conv5_4/sep (in-place)
I0625 08:50:03.147990 55699 net.cpp:122] Setting up conv5_4/sep/bn
I0625 08:50:03.148037 55699 net.cpp:129] Top shape: 64 512 2 2 (131072)
I0625 08:50:03.148078 55699 net.cpp:137] Memory required for data: 97256448
I0625 08:50:03.148121 55699 layer_factory.hpp:77] Creating layer conv5_4/sep/scale
I0625 08:50:03.148167 55699 net.cpp:84] Creating Layer conv5_4/sep/scale
I0625 08:50:03.148205 55699 net.cpp:406] conv5_4/sep/scale <- conv5_4/sep
I0625 08:50:03.148244 55699 net.cpp:367] conv5_4/sep/scale -> conv5_4/sep (in-place)
I0625 08:50:03.148306 55699 layer_factory.hpp:77] Creating layer conv5_4/sep/scale
I0625 08:50:03.148375 55699 net.cpp:122] Setting up conv5_4/sep/scale
I0625 08:50:03.148419 55699 net.cpp:129] Top shape: 64 512 2 2 (131072)
I0625 08:50:03.148454 55699 net.cpp:137] Memory required for data: 97780736
I0625 08:50:03.148494 55699 layer_factory.hpp:77] Creating layer relu5_4/sep
I0625 08:50:03.148535 55699 net.cpp:84] Creating Layer relu5_4/sep
I0625 08:50:03.148571 55699 net.cpp:406] relu5_4/sep <- conv5_4/sep
I0625 08:50:03.148615 55699 net.cpp:367] relu5_4/sep -> conv5_4/sep (in-place)
I0625 08:50:03.148663 55699 net.cpp:122] Setting up relu5_4/sep
I0625 08:50:03.148703 55699 net.cpp:129] Top shape: 64 512 2 2 (131072)
I0625 08:50:03.148737 55699 net.cpp:137] Memory required for data: 98305024
I0625 08:50:03.148772 55699 layer_factory.hpp:77] Creating layer conv5_5/dw
I0625 08:50:03.148815 55699 net.cpp:84] Creating Layer conv5_5/dw
I0625 08:50:03.148852 55699 net.cpp:406] conv5_5/dw <- conv5_4/sep
I0625 08:50:03.148895 55699 net.cpp:380] conv5_5/dw -> conv5_5/dw
I0625 08:50:03.149170 55699 net.cpp:122] Setting up conv5_5/dw
I0625 08:50:03.149217 55699 net.cpp:129] Top shape: 64 512 2 2 (131072)
I0625 08:50:03.149251 55699 net.cpp:137] Memory required for data: 98829312
I0625 08:50:03.149291 55699 layer_factory.hpp:77] Creating layer conv5_5/dw/bn
I0625 08:50:03.149338 55699 net.cpp:84] Creating Layer conv5_5/dw/bn
I0625 08:50:03.149376 55699 net.cpp:406] conv5_5/dw/bn <- conv5_5/dw
I0625 08:50:03.149416 55699 net.cpp:367] conv5_5/dw/bn -> conv5_5/dw (in-place)
I0625 08:50:03.149503 55699 net.cpp:122] Setting up conv5_5/dw/bn
I0625 08:50:03.149552 55699 net.cpp:129] Top shape: 64 512 2 2 (131072)
I0625 08:50:03.149587 55699 net.cpp:137] Memory required for data: 99353600
I0625 08:50:03.149672 55699 layer_factory.hpp:77] Creating layer conv5_5/dw/scale
I0625 08:50:03.149721 55699 net.cpp:84] Creating Layer conv5_5/dw/scale
I0625 08:50:03.149760 55699 net.cpp:406] conv5_5/dw/scale <- conv5_5/dw
I0625 08:50:03.149801 55699 net.cpp:367] conv5_5/dw/scale -> conv5_5/dw (in-place)
I0625 08:50:03.149863 55699 layer_factory.hpp:77] Creating layer conv5_5/dw/scale
I0625 08:50:03.149932 55699 net.cpp:122] Setting up conv5_5/dw/scale
I0625 08:50:03.149978 55699 net.cpp:129] Top shape: 64 512 2 2 (131072)
I0625 08:50:03.150012 55699 net.cpp:137] Memory required for data: 99877888
I0625 08:50:03.150053 55699 layer_factory.hpp:77] Creating layer relu5_5/dw
I0625 08:50:03.150092 55699 net.cpp:84] Creating Layer relu5_5/dw
I0625 08:50:03.150130 55699 net.cpp:406] relu5_5/dw <- conv5_5/dw
I0625 08:50:03.150168 55699 net.cpp:367] relu5_5/dw -> conv5_5/dw (in-place)
I0625 08:50:03.150212 55699 net.cpp:122] Setting up relu5_5/dw
I0625 08:50:03.150251 55699 net.cpp:129] Top shape: 64 512 2 2 (131072)
I0625 08:50:03.150285 55699 net.cpp:137] Memory required for data: 100402176
I0625 08:50:03.150319 55699 layer_factory.hpp:77] Creating layer conv5_5/sep
I0625 08:50:03.150396 55699 net.cpp:84] Creating Layer conv5_5/sep
I0625 08:50:03.150444 55699 net.cpp:406] conv5_5/sep <- conv5_5/dw
I0625 08:50:03.150486 55699 net.cpp:380] conv5_5/sep -> conv5_5/sep
I0625 08:50:03.163789 55699 net.cpp:122] Setting up conv5_5/sep
I0625 08:50:03.163846 55699 net.cpp:129] Top shape: 64 512 2 2 (131072)
I0625 08:50:03.163882 55699 net.cpp:137] Memory required for data: 100926464
I0625 08:50:03.163906 55699 layer_factory.hpp:77] Creating layer conv5_5/sep/bn
I0625 08:50:03.164041 55699 net.cpp:84] Creating Layer conv5_5/sep/bn
I0625 08:50:03.164088 55699 net.cpp:406] conv5_5/sep/bn <- conv5_5/sep
I0625 08:50:03.164129 55699 net.cpp:367] conv5_5/sep/bn -> conv5_5/sep (in-place)
I0625 08:50:03.164194 55699 net.cpp:122] Setting up conv5_5/sep/bn
I0625 08:50:03.164225 55699 net.cpp:129] Top shape: 64 512 2 2 (131072)
I0625 08:50:03.164233 55699 net.cpp:137] Memory required for data: 101450752
I0625 08:50:03.164248 55699 layer_factory.hpp:77] Creating layer conv5_5/sep/scale
I0625 08:50:03.164283 55699 net.cpp:84] Creating Layer conv5_5/sep/scale
I0625 08:50:03.164300 55699 net.cpp:406] conv5_5/sep/scale <- conv5_5/sep
I0625 08:50:03.164319 55699 net.cpp:367] conv5_5/sep/scale -> conv5_5/sep (in-place)
I0625 08:50:03.164345 55699 layer_factory.hpp:77] Creating layer conv5_5/sep/scale
I0625 08:50:03.164376 55699 net.cpp:122] Setting up conv5_5/sep/scale
I0625 08:50:03.164391 55699 net.cpp:129] Top shape: 64 512 2 2 (131072)
I0625 08:50:03.164399 55699 net.cpp:137] Memory required for data: 101975040
I0625 08:50:03.164412 55699 layer_factory.hpp:77] Creating layer relu5_5/sep
I0625 08:50:03.164423 55699 net.cpp:84] Creating Layer relu5_5/sep
I0625 08:50:03.164433 55699 net.cpp:406] relu5_5/sep <- conv5_5/sep
I0625 08:50:03.164443 55699 net.cpp:367] relu5_5/sep -> conv5_5/sep (in-place)
I0625 08:50:03.164454 55699 net.cpp:122] Setting up relu5_5/sep
I0625 08:50:03.164465 55699 net.cpp:129] Top shape: 64 512 2 2 (131072)
I0625 08:50:03.164474 55699 net.cpp:137] Memory required for data: 102499328
I0625 08:50:03.164486 55699 layer_factory.hpp:77] Creating layer conv5_6/dw
I0625 08:50:03.164506 55699 net.cpp:84] Creating Layer conv5_6/dw
I0625 08:50:03.164544 55699 net.cpp:406] conv5_6/dw <- conv5_5/sep
I0625 08:50:03.164585 55699 net.cpp:380] conv5_6/dw -> conv5_6/dw
I0625 08:50:03.164875 55699 net.cpp:122] Setting up conv5_6/dw
I0625 08:50:03.164925 55699 net.cpp:129] Top shape: 64 512 1 1 (32768)
I0625 08:50:03.164961 55699 net.cpp:137] Memory required for data: 102630400
I0625 08:50:03.165001 55699 layer_factory.hpp:77] Creating layer conv5_6/dw/bn
I0625 08:50:03.165050 55699 net.cpp:84] Creating Layer conv5_6/dw/bn
I0625 08:50:03.165089 55699 net.cpp:406] conv5_6/dw/bn <- conv5_6/dw
I0625 08:50:03.165129 55699 net.cpp:367] conv5_6/dw/bn -> conv5_6/dw (in-place)
I0625 08:50:03.165189 55699 net.cpp:122] Setting up conv5_6/dw/bn
I0625 08:50:03.165233 55699 net.cpp:129] Top shape: 64 512 1 1 (32768)
I0625 08:50:03.165283 55699 net.cpp:137] Memory required for data: 102761472
I0625 08:50:03.165310 55699 layer_factory.hpp:77] Creating layer conv5_6/dw/scale
I0625 08:50:03.165356 55699 net.cpp:84] Creating Layer conv5_6/dw/scale
I0625 08:50:03.165396 55699 net.cpp:406] conv5_6/dw/scale <- conv5_6/dw
I0625 08:50:03.165437 55699 net.cpp:367] conv5_6/dw/scale -> conv5_6/dw (in-place)
I0625 08:50:03.165498 55699 layer_factory.hpp:77] Creating layer conv5_6/dw/scale
I0625 08:50:03.165540 55699 net.cpp:122] Setting up conv5_6/dw/scale
I0625 08:50:03.165555 55699 net.cpp:129] Top shape: 64 512 1 1 (32768)
I0625 08:50:03.165563 55699 net.cpp:137] Memory required for data: 102892544
I0625 08:50:03.165585 55699 layer_factory.hpp:77] Creating layer relu5_6/dw
I0625 08:50:03.165638 55699 net.cpp:84] Creating Layer relu5_6/dw
I0625 08:50:03.165674 55699 net.cpp:406] relu5_6/dw <- conv5_6/dw
I0625 08:50:03.165688 55699 net.cpp:367] relu5_6/dw -> conv5_6/dw (in-place)
I0625 08:50:03.165704 55699 net.cpp:122] Setting up relu5_6/dw
I0625 08:50:03.165715 55699 net.cpp:129] Top shape: 64 512 1 1 (32768)
I0625 08:50:03.165750 55699 net.cpp:137] Memory required for data: 103023616
I0625 08:50:03.165786 55699 layer_factory.hpp:77] Creating layer conv5_6/sep
I0625 08:50:03.165863 55699 net.cpp:84] Creating Layer conv5_6/sep
I0625 08:50:03.165908 55699 net.cpp:406] conv5_6/sep <- conv5_6/dw
I0625 08:50:03.165951 55699 net.cpp:380] conv5_6/sep -> conv5_6/sep
I0625 08:50:03.193253 55699 net.cpp:122] Setting up conv5_6/sep
I0625 08:50:03.193334 55699 net.cpp:129] Top shape: 64 1024 1 1 (65536)
I0625 08:50:03.193410 55699 net.cpp:137] Memory required for data: 103285760
I0625 08:50:03.193457 55699 layer_factory.hpp:77] Creating layer conv5_6/sep/bn
I0625 08:50:03.193519 55699 net.cpp:84] Creating Layer conv5_6/sep/bn
I0625 08:50:03.193572 55699 net.cpp:406] conv5_6/sep/bn <- conv5_6/sep
I0625 08:50:03.193616 55699 net.cpp:367] conv5_6/sep/bn -> conv5_6/sep (in-place)
I0625 08:50:03.193691 55699 net.cpp:122] Setting up conv5_6/sep/bn
I0625 08:50:03.193737 55699 net.cpp:129] Top shape: 64 1024 1 1 (65536)
I0625 08:50:03.193791 55699 net.cpp:137] Memory required for data: 103547904
I0625 08:50:03.193837 55699 layer_factory.hpp:77] Creating layer conv5_6/sep/scale
I0625 08:50:03.193882 55699 net.cpp:84] Creating Layer conv5_6/sep/scale
I0625 08:50:03.193920 55699 net.cpp:406] conv5_6/sep/scale <- conv5_6/sep
I0625 08:50:03.193945 55699 net.cpp:367] conv5_6/sep/scale -> conv5_6/sep (in-place)
I0625 08:50:03.194033 55699 layer_factory.hpp:77] Creating layer conv5_6/sep/scale
I0625 08:50:03.194113 55699 net.cpp:122] Setting up conv5_6/sep/scale
I0625 08:50:03.194161 55699 net.cpp:129] Top shape: 64 1024 1 1 (65536)
I0625 08:50:03.194185 55699 net.cpp:137] Memory required for data: 103810048
I0625 08:50:03.194200 55699 layer_factory.hpp:77] Creating layer relu5_6/sep
I0625 08:50:03.194252 55699 net.cpp:84] Creating Layer relu5_6/sep
I0625 08:50:03.194273 55699 net.cpp:406] relu5_6/sep <- conv5_6/sep
I0625 08:50:03.194286 55699 net.cpp:367] relu5_6/sep -> conv5_6/sep (in-place)
I0625 08:50:03.194301 55699 net.cpp:122] Setting up relu5_6/sep
I0625 08:50:03.194314 55699 net.cpp:129] Top shape: 64 1024 1 1 (65536)
I0625 08:50:03.194321 55699 net.cpp:137] Memory required for data: 104072192
I0625 08:50:03.194329 55699 layer_factory.hpp:77] Creating layer conv6/dw
I0625 08:50:03.194346 55699 net.cpp:84] Creating Layer conv6/dw
I0625 08:50:03.194355 55699 net.cpp:406] conv6/dw <- conv5_6/sep
I0625 08:50:03.194367 55699 net.cpp:380] conv6/dw -> conv6/dw
I0625 08:50:03.194937 55699 net.cpp:122] Setting up conv6/dw
I0625 08:50:03.194981 55699 net.cpp:129] Top shape: 64 1024 1 1 (65536)
I0625 08:50:03.194993 55699 net.cpp:137] Memory required for data: 104334336
I0625 08:50:03.195052 55699 layer_factory.hpp:77] Creating layer conv6/dw/bn
I0625 08:50:03.195070 55699 net.cpp:84] Creating Layer conv6/dw/bn
I0625 08:50:03.195080 55699 net.cpp:406] conv6/dw/bn <- conv6/dw
I0625 08:50:03.195103 55699 net.cpp:367] conv6/dw/bn -> conv6/dw (in-place)
I0625 08:50:03.195152 55699 net.cpp:122] Setting up conv6/dw/bn
I0625 08:50:03.195168 55699 net.cpp:129] Top shape: 64 1024 1 1 (65536)
I0625 08:50:03.195176 55699 net.cpp:137] Memory required for data: 104596480
I0625 08:50:03.195190 55699 layer_factory.hpp:77] Creating layer conv6/dw/scale
I0625 08:50:03.195211 55699 net.cpp:84] Creating Layer conv6/dw/scale
I0625 08:50:03.195232 55699 net.cpp:406] conv6/dw/scale <- conv6/dw
I0625 08:50:03.195260 55699 net.cpp:367] conv6/dw/scale -> conv6/dw (in-place)
I0625 08:50:03.195330 55699 layer_factory.hpp:77] Creating layer conv6/dw/scale
I0625 08:50:03.195432 55699 net.cpp:122] Setting up conv6/dw/scale
I0625 08:50:03.195480 55699 net.cpp:129] Top shape: 64 1024 1 1 (65536)
I0625 08:50:03.195525 55699 net.cpp:137] Memory required for data: 104858624
I0625 08:50:03.195566 55699 layer_factory.hpp:77] Creating layer relu6/dw
I0625 08:50:03.195607 55699 net.cpp:84] Creating Layer relu6/dw
I0625 08:50:03.195643 55699 net.cpp:406] relu6/dw <- conv6/dw
I0625 08:50:03.195667 55699 net.cpp:367] relu6/dw -> conv6/dw (in-place)
I0625 08:50:03.195684 55699 net.cpp:122] Setting up relu6/dw
I0625 08:50:03.195720 55699 net.cpp:129] Top shape: 64 1024 1 1 (65536)
I0625 08:50:03.195753 55699 net.cpp:137] Memory required for data: 105120768
I0625 08:50:03.195772 55699 layer_factory.hpp:77] Creating layer conv6/sep
I0625 08:50:03.195801 55699 net.cpp:84] Creating Layer conv6/sep
I0625 08:50:03.195838 55699 net.cpp:406] conv6/sep <- conv6/dw
I0625 08:50:03.195880 55699 net.cpp:380] conv6/sep -> conv6/sep
I0625 08:50:03.269353 55699 net.cpp:122] Setting up conv6/sep
I0625 08:50:03.269484 55699 net.cpp:129] Top shape: 64 1024 1 1 (65536)
I0625 08:50:03.269500 55699 net.cpp:137] Memory required for data: 105382912
I0625 08:50:03.269516 55699 layer_factory.hpp:77] Creating layer conv6/sep/bn
I0625 08:50:03.269556 55699 net.cpp:84] Creating Layer conv6/sep/bn
I0625 08:50:03.269598 55699 net.cpp:406] conv6/sep/bn <- conv6/sep
I0625 08:50:03.269644 55699 net.cpp:367] conv6/sep/bn -> conv6/sep (in-place)
I0625 08:50:03.269697 55699 net.cpp:122] Setting up conv6/sep/bn
I0625 08:50:03.269750 55699 net.cpp:129] Top shape: 64 1024 1 1 (65536)
I0625 08:50:03.269764 55699 net.cpp:137] Memory required for data: 105645056
I0625 08:50:03.269805 55699 layer_factory.hpp:77] Creating layer conv6/sep/scale
I0625 08:50:03.269851 55699 net.cpp:84] Creating Layer conv6/sep/scale
I0625 08:50:03.269889 55699 net.cpp:406] conv6/sep/scale <- conv6/sep
I0625 08:50:03.269942 55699 net.cpp:367] conv6/sep/scale -> conv6/sep (in-place)
I0625 08:50:03.270022 55699 layer_factory.hpp:77] Creating layer conv6/sep/scale
I0625 08:50:03.270099 55699 net.cpp:122] Setting up conv6/sep/scale
I0625 08:50:03.270155 55699 net.cpp:129] Top shape: 64 1024 1 1 (65536)
I0625 08:50:03.270174 55699 net.cpp:137] Memory required for data: 105907200
I0625 08:50:03.270195 55699 layer_factory.hpp:77] Creating layer relu6/sep
I0625 08:50:03.270236 55699 net.cpp:84] Creating Layer relu6/sep
I0625 08:50:03.270273 55699 net.cpp:406] relu6/sep <- conv6/sep
I0625 08:50:03.270313 55699 net.cpp:367] relu6/sep -> conv6/sep (in-place)
I0625 08:50:03.270357 55699 net.cpp:122] Setting up relu6/sep
I0625 08:50:03.270398 55699 net.cpp:129] Top shape: 64 1024 1 1 (65536)
I0625 08:50:03.270432 55699 net.cpp:137] Memory required for data: 106169344
I0625 08:50:03.270467 55699 layer_factory.hpp:77] Creating layer pool6
I0625 08:50:03.270493 55699 net.cpp:84] Creating Layer pool6
I0625 08:50:03.270526 55699 net.cpp:406] pool6 <- conv6/sep
I0625 08:50:03.270546 55699 net.cpp:380] pool6 -> pool6
I0625 08:50:03.270578 55699 net.cpp:122] Setting up pool6
I0625 08:50:03.270612 55699 net.cpp:129] Top shape: 64 1024 1 1 (65536)
I0625 08:50:03.270651 55699 net.cpp:137] Memory required for data: 106431488
I0625 08:50:03.270689 55699 layer_factory.hpp:77] Creating layer cifarfc7
I0625 08:50:03.270761 55699 net.cpp:84] Creating Layer cifarfc7
I0625 08:50:03.270819 55699 net.cpp:406] cifarfc7 <- pool6
I0625 08:50:03.270844 55699 net.cpp:380] cifarfc7 -> cifarfc7
I0625 08:50:03.271407 55699 net.cpp:122] Setting up cifarfc7
I0625 08:50:03.271471 55699 net.cpp:129] Top shape: 64 10 1 1 (640)
I0625 08:50:03.271492 55699 net.cpp:137] Memory required for data: 106434048
I0625 08:50:03.271507 55699 layer_factory.hpp:77] Creating layer cifarfc7_cifarfc7_0_split
I0625 08:50:03.271548 55699 net.cpp:84] Creating Layer cifarfc7_cifarfc7_0_split
I0625 08:50:03.271585 55699 net.cpp:406] cifarfc7_cifarfc7_0_split <- cifarfc7
I0625 08:50:03.271621 55699 net.cpp:380] cifarfc7_cifarfc7_0_split -> cifarfc7_cifarfc7_0_split_0
I0625 08:50:03.271682 55699 net.cpp:380] cifarfc7_cifarfc7_0_split -> cifarfc7_cifarfc7_0_split_1
I0625 08:50:03.271736 55699 net.cpp:380] cifarfc7_cifarfc7_0_split -> cifarfc7_cifarfc7_0_split_2
I0625 08:50:03.271786 55699 net.cpp:122] Setting up cifarfc7_cifarfc7_0_split
I0625 08:50:03.271809 55699 net.cpp:129] Top shape: 64 10 1 1 (640)
I0625 08:50:03.271826 55699 net.cpp:129] Top shape: 64 10 1 1 (640)
I0625 08:50:03.271837 55699 net.cpp:129] Top shape: 64 10 1 1 (640)
I0625 08:50:03.271847 55699 net.cpp:137] Memory required for data: 106441728
I0625 08:50:03.271862 55699 layer_factory.hpp:77] Creating layer loss
I0625 08:50:03.271921 55699 net.cpp:84] Creating Layer loss
I0625 08:50:03.271966 55699 net.cpp:406] loss <- cifarfc7_cifarfc7_0_split_0
I0625 08:50:03.272009 55699 net.cpp:406] loss <- label_data_1_split_0
I0625 08:50:03.272049 55699 net.cpp:380] loss -> loss
…
